D_A.pth (torch_old, 401728 bytes, 21 tensors)

net.0.weight f4 [16, 3, 3, 3]
-0.030781347 -0.1437257 0.18801324 1.1605741e-05 -0.12409949 -0.106189765 0.07011201 0.15068224
0.03141564 0.09011666 -0.09272598 -0.069638304 0.09245291 -0.0376769 -0.08572759 -0.13821924
-0.07808178 0.09772496 0.1463039 0.189153 -0.12945886 -0.0054863114 0.13252155 -0.04418356
-0.13356332 -0.14422102 0.094789185 0.110806145 0.11799787 0.020776752 0.099085644 0.044611543
-0.16526143 -0.12500978 0.11662615 0.053765453 -0.14664245 -0.03904925 0.14473474 0.0615907
0.04963768 0.16292338 -0.07966314 -0.039767243 0.12215583 0.082720995 0.036192212 0.15012261
0.14710435 -0.10198528 0.07069694 0.17820708 -0.09851009 0.0014687123 0.03418622 -0.106981955
-0.03877894 0.08930489 -0.046881907 -0.06354215 -0.13743696 -0.13453987 -0.0407449 0.048856873
-0.25755483 -0.27956104 0.028723894 -0.21922754 -0.1593113 0.025919605 -0.13433841 -0.07231583
0.08175484 -0.17764387 -0.11672478 0.14984189 0.12571691 -0.03917739 -0.07438251 -0.07394586
0.11350548 -0.11185904 0.013371568 0.12912308 0.11167432 -0.13400064 -0.03708194 0.101808935
0.09402427 -0.018573243 -0.06059489 -0.088454105 0.004099858 0.07375929 0.020781672 -0.1566599
0.17556207 -0.08599772 -0.14357367 0.09923027 0.13055708 0.19333625 0.038524184 -0.08201652
-0.13628392 0.033539727 0.04719901 0.05424823 0.11619084 0.054397248 0.11994858 -0.025291706
0.10004984 -0.044797778 -0.103911944 0.15407948 0.103197895 -0.03436394 -0.17328914 0.154954
0.023579752 -0.046421014 0.17554323 0.048174743 -0.05370841 -0.068795115 0.122682154 -0.12884691
0.04447394 -0.09562491 0.19363327 0.10541385 -0.13324304 0.13890173 0.1493632 0.111734204
0.085638784 -0.16639748 0.027846707 0.07269756 0.106961854 0.10505531 0.11663023 -0.07180679
0.10539828 -0.05371471 0.07938414 -0.17648728 -0.03495282 -0.07866731 0.15014696 -0.028133007
-0.12029195 -0.03281526 0.09725292 0.18128729 -0.12759155 0.09676222 -0.016068202 0.11497742
-0.1433698 0.16959336 -0.091277815 0.062874034 0.13631214 0.089935474 0.11724772 -0.18439104
-0.10390425 0.101167366 0.12183814 -0.16031724 0.120482616 0.015229224 0.15847187 0.16996643
-0.044901762 0.012349993 0.12105583 -0.07782513 0.09038607 -0.09693751 0.16575475 0.12793091
-0.016361857 -0.04084547 0.08933166 0.17910923 -0.029198118 0.18201412 0.05480356 0.109934665
0.03451096 0.0001703891 0.15473115 -0.17598565 0.16972536 -0.1058117 0.12231037 0.034082882
-0.01706135 -0.1056384 0.0040931 -0.10599677 -0.099538706 0.044206258 -0.14353189 -0.03547406
0.072803184 -0.034630124 -0.0109273195 0.10592218 -0.019884305 0.05644525 -0.15074582 0.12073618
-0.17426735 -0.022946702 -0.017996777 -0.08070836 0.13314033 0.07822381 -0.09823907 0.067716025
0.13958538 0.13626178 0.08189859 -0.07105008 0.13313115 0.17399375 0.004486398 -0.14096598
0.12662593 0.05346412 0.1344813 0.13753949 -0.056069918 -0.06606016 0.120881386 0.1912127
-0.16411544 -0.05960978 -0.01818684 -0.15276465 -0.18428388 -0.19258048 -0.0004308763 -0.08929527
0.030688776 0.13130966 0.13075888 -0.00043242396 0.076036945 -0.026062714 -0.068918146 -0.033652257
00000000: 2a29 fcbc d42c 13be 8b86 403e 47b6 4237
00000010: e027 febd 057a d9bd e396 8f3d 724c 1a3e
00000020: b0ad 003d 158f b83d 1ee7 bdbd 879e 8ebd
00000030: f457 bd3d 1853 1abd f291 afbd 5889 0dbe
00000040: 57e9 9fbd 0624 c83d b1d0 153e 53b1 413e
00000050: dd90 04be 84c6 b3bb bbb3 073e d2f9 34bd
00000060: d3c4 08be adae 13be d520 c23d 55ee e23d
00000070: dea8 f13d 0234 aa3c 6aed ca3d 98ba 363d
00000080: 4b3a 29be 9002 00be b1d9 ee3d 2a39 5c3d
00000090: 7029 16be 1bf2 1fbd 5835 143e 8846 7c3d
000000a0: e150 4b3d 63d5 263e 6e26 a3bd fae2 22bd
000000b0: d62c fa3d a069 a93d 493e 143d beb9 193e
000000c0: 86a2 163e a9dd d0bd 8fc9 903d eb7b 363e
000000d0: a8bf c9bd cf81 c03a da06 0c3d 5b19 dbbd
000000e0: aad6 1ebd 7be5 b63d 3e07 40bd 6322 82bd
000000f0: 46bc 0cbe d2c4 09be 20e4 26bd 251e 483d
00000100: 3ade 83be a022 8fbe 5f4e eb3c 2f7d 60be
00000110: 8022 23be 5a55 d43c 0290 09be 521a 94bd
00000120: 156f a73d 46e8 35be 670d efbd 2770 193e
00000130: efbb 003e 7978 20bd db55 98bd ed70 97bd
00000140: 9075 e83d 5a16 e5bd 6c14 5b3c d738 043e
00000150: 82b5 e43d 7737 09be 3be3 17bd 3481 d03d
00000160: cc8f c03d ea26 98bc 5932 78bd 6d27 b5bd
00000170: 1a58 863b 1c0f 973d 533e aa3c 746b 20be
00000180: 8bc6 333e 931f b0bd fa04 13be 3d39 cb3d
00000190: c1b0 053e f0f9 453e 89cb 1d3d 47f8 a7bd
000001a0: 038e 0bbe f460 093d c053 413d 6433 5e3d
000001b0: 77f5 ed3d a6cf 5e3d 9aa7 f53d 8d30 cfbc
000001c0: eee6 cc3d e07d 37bd c9cf d4bd 03c7 1d3e
000001d0: 6b59 d33d 34c1 0cbd b572 31be 43ac 1e3e
000001e0: 532a c13c f623 3ebd 9bc1 333e e152 453d
000001f0: 5afd 5bbd 74e4 8cbd c840 fb3d 72f0 03be
00000200: 4e2a 363d fed6 c3bd cd47 463e 37e3 d73d
00000210: dd70 08be 413c 0e3e abf2 183e e7d4 e43d
00000220: 6363 af3d 1a64 2abe c71e e43c 75e2 943d
00000230: d10e db3d 3d27 d73d d4db ee3d 700f 93bd
00000240: 0edb d73d f503 5cbd 2794 a23d 15b9 34be
00000250: b02a 0fbd 541c a1bd 20c0 193e 3177 e6bc
00000260: a05b f6bd 4b69 06bd 8a2c c73d 60a3 393e
00000270: 5ca7 02be 452b c63d 76a1 83bc 4879 eb3d
00000280: 88cf 12be e2a9 2d3e ddef babd 1ac4 803d
00000290: 6995 0b3e 1730 b83d 931f f03d 01d1 3cbe
000002a0: c0cb d4bd d630 cf3d 4686 f93d 342a 24be
000002b0: 97bf f63d ff83 793c 7346 223e ae0b 2e3e
000002c0: e9ea 37bd a057 4a3c 1eec f73d c862 9fbd
000002d0: 551c b93d 2c87 c6bd 9dbb 293e 5200 033e
000002e0: 4d09 86bc 944d 27bd 84f3 b63d 6968 373e
000002f0: e430 efbc e961 3a3e b379 603d 6d25 e13d
00000300: 5d5b 0d3d 7aaa 3239 d871 1e3e 9535 34be
00000310: 7ccc 2d3e ceb3 d8bd dc7d fa3d 7e9a 0b3d
00000320: 3fc4 8bbc f258 d8bd 691f 863b d614 d9bd
00000330: f3da cbbd 9f11 353d 06fa 12be 3f4d 11bd
00000340: d619 953d 51d8 0dbd 8008 33bc baed d83d
00000350: 69e4 a2bc 2233 673d 1d5d 1abe 8844 f73d
00000360: 2473 32be b9fa bbbc fa6d 93bc 6d4a a5bd
00000370: f055 083e ce33 a03d 9131 c9bd b3ae 8a3d
00000380: 78ef 0e3e 3588 0b3e 73ba a73d b482 91bd
00000390: 8853 083e 6b2b 323e a202 933b 6359 10be
000003a0: 3aaa 013e 31fd 5a3d 77b5 093e 27d7 0c3e
000003b0: 92a9 65bd 8d4a 87bd a990 f73d 43cd 433e
000003c0: e10d 28be 6229 74bd 91fc 94bc 566e 1cbe
000003d0: eab4 3cbe d133 45be 3de7 e1b9 70e0 b6bd
000003e0: 0767 fb3c 0a76 063e a8e5 053e f6b6 e2b9
000003f0: 42b9 9b3d 7981 d5bc f524 8dbd f3d6 09bd

net.0.bias f4 [16]
0.20957519 -0.050259415 0.023001244 0.20563032 -0.06016822 0.09488243 0.054539956 -0.12425126
0.14892031 -0.12792742 0.21222511 -0.096533686 -0.13874267 -0.12214812 -0.21399195 -0.20311224
00000000: e19a 563e d1dc 4dbd 1b6d bc3c c190 523e
00000010: f472 76bd b851 c23d 4a65 5f3d 7277 febd
00000020: 917e 183e 68ff 02be 8a51 593e 74b3 c5bd
00000030: 8f12 0ebe cb28 fabd b520 5bbe a8fc 4fbe

net.2.weight f4 [32, 16, 3, 3]
-0.020181643 -0.050444953 0.02229392 -0.057558354 0.042584646 -0.07646029 0.0160894 0.047370613
0.036191374 0.004110576 -0.04964939 0.025024971 0.0046167565 -0.028872326 -0.053954095 -0.02139184
-0.035804883 -0.03551734 -0.10685743 -0.08315507 -0.040275384 -0.092448115 -0.0034652175 -0.032642182
-0.008048995 -0.09611625 0.0708624 -0.09037021 -0.06192959 0.031945348 -0.009894854 -0.010554992
-0.05718163 -0.01725694 -0.0069267745 -0.00095604814 -0.07087318 -0.034537226 0.068402514 -0.059825752
0.0016310861 0.026903203 -0.024525354 -0.021011017 0.05274616 0.029749496 -0.043021753 0.058521323
-0.044739302 0.10038495 -0.05070725 0.056516323 0.030432254 0.014615254 -0.041969966 0.048949063
-0.06325347 -0.10468629 0.00010411355 -0.053540617 -0.027724195 -0.022451922 0.055823974 0.0384514
0.11504366 0.06913288 0.0056922785 0.059702028 0.008280466 0.0969676 0.03755029 -0.08370059
-0.0030737012 -0.00033728985 0.05361493 -0.068308294 -0.0384837 -0.052782506 0.06243124 0.022096805
0.049856838 0.036900237 -0.042017106 0.046117727 0.009334426 -0.012046823 0.014873885 -0.0014512136
-0.03937811 -0.037556507 0.05217829 -0.049448077 -0.03498162 -0.07812088 -0.047581896 0.023084542
0.06837805 0.033291273 0.063715465 0.032344054 -0.04331796 0.0057811355 0.010802071 0.04176101
-0.05686486 -0.07698834 -0.06853464 -0.055878773 0.01143999 -0.03929626 0.09783663 0.013115865
-0.051933493 0.01456621 -0.00535324 -0.123060875 0.05695649 -0.056530595 0.010326516 0.007364597
0.0014493712 0.070327856 0.053934854 -0.050560858 0.019109257 -0.008572954 0.029627454 -0.029975973
0.022596376 0.04464352 0.07991535 0.01677579 -0.05584645 0.08671582 0.02963713 0.06807178
0.051582024 0.06869972 -0.018881846 0.07155698 0.041631192 -0.05653942 -0.041451965 0.0031333845
-0.053906403 -0.019827899 0.021446863 0.037051257 -0.10827831 -0.036713656 0.025911802 0.034025628
-0.010034739 -0.027378734 -0.032126 0.013573833 0.038729288 -0.07155368 0.019778023 -0.020739393
-0.06485852 0.003559871 -0.045749445 -0.108254224 -0.007865228 -0.015051702 -0.13160287 -0.035772193
-0.04269687 -0.01067733 0.020724041 -0.04450205 0.01924648 -0.003573119 -0.08225571 0.018432617
-0.009372811 -0.02909696 -0.09441903 0.01378501 0.010479034 0.025618903 -0.00031248707 -0.05375977
0.07022605 -0.045834307 0.06327357 0.029762901 -0.020249825 -0.042791158 -0.043878064 0.025833623
0.02106087 0.029590087 -0.020489627 0.044444043 0.0065312516 -0.004756073 0.098057345 -0.08870514
-0.066806 -0.083240256 0.00038767484 -0.013973326 0.068978705 -0.0038262387 -0.07086333 0.07929631
-0.013035342 0.0011628629 0.013103829 0.04732286 0.08172893 0.054425217 -0.037250828 -0.018222747
0.0440947 -0.0028549472 -0.0008205855 -0.086243026 -0.0047266902 0.010214449 0.047006004 0.07462394
0.03077311 -0.09791741 0.04809997 -0.023219483 0.06973383 -0.014178848 -0.003986445 0.043785762
-0.06781063 0.013090005 -0.012725113 -0.007388733 0.024164407 -0.075651094 -0.076214805 -0.0006167479
0.052698366 -0.023738995 0.00637804 0.07910587 -0.06781632 0.05932514 0.060884718 0.012568742
-0.059376888 -0.020004734 -0.00057860196 0.0010076963 0.12465645 0.061156288 -0.053285662 0.08826724
00000000: f953 a5bc 5e9f 4ebd bda1 b63c 4fc2 6bbd
00000010: 3d6d 2e3d 3697 9cbd ebcd 833c b007 423d
00000020: 683d 143d 03b2 863b 295d 4bbd 2b01 cd3c
00000030: 2948 973b a885 ecbc f8fe 5cbd f13d afbc
00000040: 24a8 12bd a17a 11bd 11d8 dabd 354d aabd
00000050: cdf7 24bd 7055 bdbd b418 63bb cfb3 05bd
00000060: efdf 03bc 99d8 c4bd 4e20 913d 0414 b9bd
00000070: e2a9 7dbd 20d9 023d 071e 22bc d8ee 2cbc
00000080: 4937 6abd 6d5e 8dbc fff9 e2bb 4e9f 7aba
00000090: f525 91bd e876 0dbd 9e16 8c3d d90b 75bd
000000a0: 2bca d53a 1b64 dc3c 65e9 c8bc 4c1f acbc
000000b0: 5c0c 583d 37b5 f33c 9437 30bd 0eb4 6f3d
000000c0: 8f40 37bd a096 cd3d 68b2 4fbd a97d 673d
000000d0: 104d f93c d174 6f3c b3e8 2bbd d07e 483d
000000e0: 098b 81bd c465 d6bd 8957 da38 684d 5bbd
000000f0: da1d e3bc 18ed b7bc aea7 643d 377f 1d3d
00000100: 039c eb3d 8a95 8d3d 4b86 ba3b 1d8a 743d
00000110: cbaa 073c f396 c63d 55ce 193d 376b abbd
00000120: 2670 49bb 47d6 b0b9 549b 5b3d 38e5 8bbd
00000130: 16a1 1dbd 7832 58bd e6b7 7f3d 5c04 b53c
00000140: af36 4c3d b424 173d 211a 2cbd f1e5 3c3d
00000150: 6cef 183c 0a60 45bc 98b1 733c a636 beba
00000160: f14a 21bd dad4 19bd e7b8 553d 118a 4abd
00000170: e348 0fbd d7fd 9fbd 3ce5 42bd cb1b bd3c
00000180: cb09 8c3d 6e5c 083d 417d 823d 337b 043d
00000190: 2c6e 31bd ae6f bd3b 2bfb 303c 980d 2b3d
000001a0: 21eb 68bd 10ac 9dbd e45b 8cbd 24e1 64bd
000001b0: cc6e 3b3c 1df5 20bd 925e c83d ede3 563c
000001c0: 37b8 54bd 1da7 6e3c 3b6a afbb 5707 fcbd
000001d0: 354b 693d a08c 67bd 8c30 293c b852 f13b
000001e0: d4f8 bd3a 0d08 903d cbea 5c3d e718 4fbd
000001f0: 048b 9c3c 9375 0cbc 46b5 f23c 2c90 f5bc
00000200: 091c b93c 20dc 363d a9aa a33d 626d 893c
00000210: 3fbf 64bd 1098 b13d 91c9 f23c 3869 8b3d
00000220: ac47 533d 70b2 8c3d 1aae 9abc 778c 923d
00000230: 7885 2a3d e195 67bd 89c9 29bd 7859 4d3b
00000240: f6cc 5cbd 1e6e a2bc 55b1 af3c 0fc3 173d
00000250: 05c1 ddbd 0f61 16bd fd44 d43c 755e 0b3d
00000260: bf68 24bc 5e49 e0bc 8d96 03bd c864 5e3c
00000270: 9aa2 1e3d bc8a 92bd 8505 a23c a9e5 a9bc
00000280: 8bd4 84bd ba4c 693b c563 3bbd 64b4 ddbd
00000290: 28dd 00bc 6a9b 76bc e7c2 06be dd85 12bd
000002a0: eae2 2ebd f8ef 2ebc 77c5 a93c c847 36bd
000002b0: cbaa 9d3c fd2a 6abb af75 a8bd 0000 973c
000002c0: 6b90 19bc bf5c eebc c45e c1bd 86da 613c
000002d0: 41b0 2b3c bcde d13c 4ed5 a3b9 3433 5cbd
000002e0: add2 8f3d c1bc 3bbd 9395 813d 54d1 f33c
000002f0: f6e2 a5bc c845 2fbd 7cb9 33bd 09a1 d33c
00000300: d887 ac3c e966 f23c ddd9 a7bc f50a 363d
00000310: 1c04 d63b d5d8 9bbb 4ad2 c83d 0aab b5bd
00000320: 96d1 88bd de79 aabd d640 cb39 61f0 64bc
00000330: b544 8d3d a2c1 7abb cb20 91bd 1b66 a23d
00000340: 3092 55bc 346b 983a 71b1 563c 9ed5 413d
00000350: 7f61 a73d faec 5e3d 5394 18bd df47 95bc
00000360: a59c 343d 111a 3bbb 901c 57ba 2fa0 b0bd
00000370: 5ae2 9abb 815a 273c 5e89 403d 70d4 983d
00000380: e417 fc3c ec88 c8bd 7904 453d c936 bebc
00000390: 9cd0 8e3d 664e 68bc b9a0 82bb b358 333d
000003a0: 4de0 8abd 7677 563c fe7c 50bc 2f1d f2bb
000003b0: 6ff4 c53c f6ee 9abd 8216 9cbd 40ad 21ba
000003c0: 3eda 573d 4878 c2bc e1fe d03b 4202 a23d
000003d0: 48e3 8abd ebfe 723d 4162 793d 20ed 4d3c
000003e0: 2e35 73bd f8e0 a3bc 52ad 17ba ad14 843a
000003f0: e14b ff3d 047f 7a3d 1142 5abd 74c5 b43d

net.2.bias f4 [32]
0.02284813 -0.0788675 -0.009552657 0.009429833 0.065160155 0.01695614 -0.022870092 -0.07559482
-0.013484264 -0.055614963 -0.06023677 -0.07025586 -0.0727354 -0.01670744 -0.04693811 -0.0024387392
-0.060227904 -0.04100793 -0.07567445 0.07090036 -0.075191125 -0.070627116 -0.02708696 0.05457878
-0.044430006 0.016554153 0.072726935 -0.050246406 0.06798517 0.014423863 0.027826317 0.032338146
00000000: 002c bb3c 4985 a1bd bf82 1cbc 967f 1a3c
00000010: b072 853d 9ae7 8a3c 0f5a bbbc 75d1 9abd
00000020: 1aed 5cbc 84cc 63bd d5ba 76bd 4ee2 8fbd
00000030: 4cf6 94bd 0bde 88bc 2d42 40bd 41d3 1fbb
00000040: 89b1 76bd eef7 27bd 35fb 9abd 3534 913d
00000050: cefd 99bd f3a4 90bd 79e5 ddbc 008e 5f3d
00000060: 3dfc 35bd 939c 873c dcf1 943d 2dcf 4dbd
00000070: cf3b 8b3d 1152 6c3c 04f4 e33c 0175 043d

net.3.weight f4 [32]
0.416674 0.56186384 0.5719234 0.28738716 0.7777089 0.54339606 0.9916334 0.69981927
0.30314928 0.40031758 0.8393318 0.23548478 0.76986396 0.25936413 0.35830745 0.53240097
0.36913374 0.8727702 0.18538041 0.5730599 0.40388715 0.40083987 0.6656035 0.7861672
0.8174247 0.15105551 0.11086337 0.43506336 0.5170504 0.42788786 0.53217214 0.32795662
00000000: 4b56 d53e 4fd6 0f3f 9269 123f 6924 933e
00000010: ee17 473f 011c 0b3f b0db 7d3f 5b27 333f
00000020: 6236 9b3e 6df6 cc3e 73de 563f ec22 713e
00000030: ce15 453f 60cb 843e 1374 b73e 6e4b 083f
00000040: 19ff bc3e de6d 5f3f 5dd4 3d3e 0eb4 123f
00000050: 4cca ce3e e23a cd3e fe64 2a3f 4142 493f
00000060: bf42 513f 4cae 1a3e 560c e33d a0c0 de3e
00000070: 6a5d 043f 1e14 db3e 6f3c 083f eee9 a73e

net.3.bias f4 [32]
0.006715548 -0.008908259 -0.030675715 0.001445413 0.0020604748 -0.0016809395 -0.0055903345 -0.015854264
0.010438307 -0.004020167 0.0037094124 0.02247826 -0.007218296 -0.0052313167 0.0028893084 -0.014515847
-0.0037333276 -0.03379855 0.0269032 0.022514755 -0.010905506 0.0032160527 0.014760284 -0.025205042
-0.017240971 0.017381448 0.027596565 -0.0055481507 -0.009337212 0.01951455 -0.025765559 0.030148134
00000000: 1a0e dc3b f2f3 11bc a34b fbbc 0374 bd3a
00000010: 0809 073b f852 dcba 202f b7bb cde0 81bc
00000020: 6f05 2b3c 9bbb 83bb 9d19 733b 5424 b83c
00000030: 7587 ecbb 776b abbb 8d5a 3d3b e0d3 6dbc
00000040: d8aa 74bb 5970 0abd 1a64 dc3c dd70 b83c
00000050: 02ad 32bc 69c4 523b 1ed5 713c ce7a cebc
00000060: f03c 8dbc 8a63 8e3c 3112 e23c 43cd b5bb
00000070: 1bfb 18bc fadc 9f3c 4b12 d3bc 38f9 f63c

net.3.running_mean f4 [32]
-0.13238528 -0.17791913 -0.22461644 -0.083141714 0.26319787 -0.044127133 0.14722845 -0.36554813
-0.11847929 -0.1725369 0.4315556 -0.054762088 -0.27433798 -0.09489034 -0.055260837 -0.1286387
-0.18547885 0.20057394 -0.11644216 0.22517817 -0.20973119 -0.2060642 0.16243795 0.08667699
-0.04496325 0.20576693 0.072828434 -0.23646799 0.0131339375 0.2256321 0.0205919 0.10726882
00000000: 0290 07be 6f30 36be da01 66be 3446 aabd
00000010: dfc1 863e a7be 34bd 0ec3 163e 2029 bbbe
00000020: 45a5 f2bd 83ad 30be dbf4 dc3e 364e 60bd
00000030: 0776 8cbe de55 c2bd 3059 62bd ddb9 03be
00000040: 2bee 3dbe 4163 4d3e 3a79 eebd 1b95 663e
00000050: c6c3 56be 7e02 53be 2256 263e b583 b13d
00000060: 632b 38bd 91b4 523e 1327 953d aa24 72be
00000070: ba2f 573c 1a0c 673e 58b0 a83c c1af db3d

net.3.running_var f4 [32]
0.0040246397 0.0016463791 0.0075359866 0.00029083216 0.003154812 0.0013105513 0.0015439681 0.003892721
0.001823999 0.0034379133 0.015115084 0.001436105 0.0029539466 0.0013984079 0.0011145408 0.0010554438
0.0009025738 0.006657271 0.0014227128 0.0013895698 0.0026282545 0.00075820985 0.001792046 0.0037519669
0.0017862258 0.001685311 0.0006173107 0.0030791122 0.001678428 0.0024998684 0.0013164703 0.0006587791
00000000: 20e1 833b 51cb d73a 70f0 f63b d57a 9839
00000010: f6c0 4e3b cec6 ab3a f95e ca3a 051d 7f3b
00000020: 4013 ef3a 9d4e 613b 42a5 773c b03b bc3a
00000030: 0097 413b c84a b73a c915 923a d156 8a3a
00000040: b49a 6c3a 3d25 da3b 527a ba3a 3a22 b63a
00000050: cb3e 2c3b 9ac2 463a 16e3 ea3a 8fe3 753b
00000060: cb1f ea3a a7e5 dc3a 05d3 213a eeca 493b
00000070: b3fe db3a d5d4 233b 6a8d ac3a ebb1 2c3a

net.5.weight f4 [64, 32, 3, 3]
0.013698114 -0.019659635 0.055607136 0.0037981402 -0.037771713 -0.021975134 -0.04470035 -0.04499588
0.023528041 -0.03316401 -0.040272206 0.014144787 0.032526597 -0.038104594 -0.0022398462 0.036842376
-0.036713805 -0.052715566 0.039350737 -0.013759987 -0.002592266 -0.022588298 0.00060673384 -0.018930705
-0.024701914 -0.054878406 0.053893562 0.056031063 0.014364352 0.04207506 0.034451764 -0.024850015
0.0006129684 -0.0049189054 -0.03672075 -0.05359857 0.018354481 0.044308867 0.004351181 0.002009427
0.0074617243 0.0025904838 0.030624531 0.056458235 -0.023725625 -0.007684255 -0.024241254 0.022756085
-0.054048605 -0.048935696 0.03248791 -0.03674004 0.009857437 -0.0135376435 -0.025909416 -0.03490005
0.023530707 0.015728822 0.0070695924 0.012401334 8.271323e-05 0.0078887325 -0.036905278 -0.023381144
-0.048494183 -0.0030902005 -0.024931341 0.01114411 0.030749293 -0.043124903 0.009126354 0.0354319
-0.03769983 0.021171533 -0.01082891 -0.028605543 0.017767223 -0.012522199 -0.0147547675 -0.03522625
-0.0015379542 0.03504392 0.012101248 -0.026172075 0.0451312 0.046562143 0.033333264 0.014567382
-0.0024978297 0.04050957 -0.021941716 -0.027122928 0.018295897 0.016799126 0.052022807 0.023760712
0.009189208 -0.053377036 -0.007916195 -0.04617514 -0.0005290965 -0.015171559 -0.013423189 -0.015091604
0.011692377 0.01183711 0.0026410613 -0.037835974 0.019610506 0.022125257 0.028626833 0.013395736
0.014226079 -0.04425648 0.03149487 -0.039286047 0.031631023 0.00796526 -0.007975458 -0.011134441
-0.036420338 0.028035227 0.004915822 0.050592832 -0.010448173 0.030555567 0.013584439 -0.032418516
0.056137364 0.023872955 -0.07563954 -0.04795097 0.042672034 -0.062013093 -0.038368806 0.052222002
0.012809242 0.0042107496 -0.007339573 -0.01895371 -0.044121716 -0.0015644478 -0.062994964 0.016728563
-0.0041092765 0.0026822926 -0.031761635 -0.008228209 -0.009909152 -0.04803866 -0.036969654 -0.072919704
-0.019287981 0.03624647 -0.026796803 0.052096274 0.013712777 0.0063396725 0.008308187 0.007309496
0.035421986 0.014714154 0.021166015 -0.019611197 -0.0023745026 0.03863904 -0.06867339 -0.03877428
-0.002003961 0.02318563 -0.01619056 -0.0076854923 0.027443409 -0.029832285 0.025257666 0.032882106
0.050234485 -0.048881434 -0.03706467 -0.008995046 0.04803224 -0.035450235 -0.064297706 -0.016205233
0.024416862 -0.022827484 -0.033746187 0.042624105 -0.08388229 -0.047233414 -0.051292542 0.0011245237
-0.0318648 -0.03608985 0.031724393 -0.022089636 -0.033879865 -0.059814844 -0.004390513 0.004573496
0.0019095053 -0.035257716 -0.02764892 0.07040973 -0.01017621 -0.008896334 -0.010062852 0.0128286565
-0.013879122 0.055568777 -0.009112616 0.050119355 -0.044025455 -0.012013434 0.02037612 0.04798073
-0.04022459 0.035591397 -0.06139804 -0.04824194 0.009180741 -0.03331979 -0.019115932 -0.00050193205
-0.049837638 -0.020899795 0.03151607 0.015189547 0.024783693 -0.028422305 0.038387604 0.04610247
0.0408143 0.02698704 -0.033922154 -0.03057149 0.031523455 -0.0056401603 0.01820742 0.064785875
-0.005773803 0.062318597 0.020370204 -0.0035100675 -0.05058606 0.018900732 0.02366754 -0.05475427
0.04182414 -0.061128438 -0.0015057208 0.047023047 -0.00354344 0.017070133 -0.022496631 -0.03865258
00000000: 0e6e 603c 3e0d a1bc 4fc4 633d 38ea 783b
00000010: 83b6 1abd 3205 b4bc b717 37bd 9a4d 38bd
00000020: e1bd c03c fcd6 07bd 78f4 24bd 89bf 673c
00000030: 9c3a 053d 9013 1cbd 62ca 12bb 08e8 163d
00000040: 3761 16bd 47ec 57bd 3d2e 213d 9271 61bc
00000050: 02e3 29bb 180b b9bc 380d 1f3a 9114 9bbc
00000060: ab5b cabc 2ec8 60bd 7fbf 5c3d d480 653d
00000070: 7658 6b3c e656 2c3d 4b1d 0d3d 4292 cbbc
00000080: 9daf 203a c52e a1bb 7f68 16bd 2d8a 5bbd
00000090: 235c 963c 377d 353d 5a94 8e3b 97b0 033b
000000a0: 7b81 f43b 1bc5 293b 4ce0 fa3c c040 673d
000000b0: 3e5c c2bc 34cc fbbb 9895 c6bc f86a ba3c
000000c0: 1262 5dbd cc70 48bd 0b12 053d b97c 16bd
000000d0: 1681 213c fecc 5dbc fc3f d4bc 5bf3 0ebd
000000e0: 78c3 c03c bbd9 803c 0aa8 e73b f72e 4b3c
000000f0: 5476 ad38 be3f 013c fd29 17bd d089 bfbc
00000100: d6a1 46bd f684 4abb d03c ccbc c995 363c
00000110: f1e5 fb3c bda3 30bd b486 153c 0a21 113d
00000120: 236b 1abd ec6f ad3c be6b 31bc 2c56 eabc
00000130: 918c 913c e929 4dbc fbbd 71bc 6649 10bd
00000140: 2e95 c9ba 378a 0f3d 5044 463c d266 d6bc
00000150: 7edb 383d f2b7 3e3d 7688 083d 07ac 6e3c
00000160: a1b2 23bb 5ded 253d 1dbf b3bc e730 debc
00000170: 47e1 953c 529e 893c de15 553d d3a5 c23c
00000180: 558e 163c e1a1 5abd eeb2 01bc 2522 3dbd
00000190: 11b3 0aba 2192 78bc efec 5bbc c642 77bc
000001a0: 6291 3f3c 70f0 413c a815 2d3b e5f9 1abd
000001b0: 36a6 a03c 0740 b53c d282 ea3c ca79 5b3c
000001c0: 8014 693c 4846 35bd c400 013d 68ea 20bd
000001d0: 888f 013d b980 023c 7fab 02bc 3b6d 36bc
000001e0: 7e2d 15bd 22aa e53c e714 a13b 6e3a 4f3d
000001f0: d02e 2bbc ab4f fa3c 4491 5e3c 47c9 04bd
00000200: 4bf0 653d 3791 c33c e7e8 9abd 3c68 44bd
00000210: dfc8 2e3d 7101 7ebd 9c28 1dbd bde6 553d
00000220: dbdd 513c 54fa 893b cd80 f0bb d044 9bbc
00000230: f9b8 34bd 280e cdba 8103 81bd 570a 893c
00000240: 1ca7 86bb 67c9 2f3b 7d18 02bd 9ccf 06bc
00000250: ff59 22bc 30c4 44bd 7e6d 17bd ed56 95bd
00000260: d401 9ebc 2e77 143d f884 dbbc e762 553d
00000270: 8eab 603c 07bd cf3b 101f 083c 7f84 ef3b
00000280: a516 113d a313 713c 5a64 ad3c a9a7 a0bc
00000290: 8b9d 1bbb f843 1e3d a2a4 8cbd c8d1 1ebd
000002a0: e354 03bb caef bd3c 11a2 84bc 95d6 fbbb
000002b0: 00d1 e03c d662 f4bc 2ae9 ce3c 63af 063d
000002c0: adc2 4d3d e637 48bd 20d1 17bd f55f 13bc
000002d0: 74bd 443d 4434 11bd 84ae 83bd d6c0 84bc
000002e0: df05 c83c b400 bbbc 7139 0abd 9d96 2e3d
000002f0: 7aca abbd d377 41bd 2118 52bd c164 933a
00000300: aa84 02bd f3d2 13bd 70f1 013d 53f5 b4bc
00000310: 9dc5 0abd 6900 75bd 4bde 8fbb 44dd 953b
00000320: 5e48 fa3a 656a 10bd fd7f e2bc fa32 903d
00000330: 1eba 26bc eec1 11bc a9de 24bc 492f 523c
00000340: 4265 63bc 169c 633d 154d 15bc f449 4d3d
00000350: 0954 34bd ffd3 44bc d2eb a63c 7187 443d
00000360: 8ac2 24bd 49c8 113d 837c 7bbd 5799 45bd
00000370: d26a 163c 557a 08bd 0499 9cbc 1794 03ba
00000380: 8d22 4cbd 0c36 abbc ff16 013d 94dd 783c
00000390: 2c07 cb3c e5d5 e8bc 523c 1d3d f2d5 3c3d
000003a0: e52c 273d ed13 dd3c f5f1 0abd 1071 fabc
000003b0: bd1e 013d 18d1 b8bb ba27 953c 75ae 843d
000003c0: 2c32 bdbb c941 7f3d 6adf a63c 2909 66bb
000003d0: 5433 4fbd b5d5 9a3c 6ee2 c13c 0346 60bd
000003e0: ca4f 2b3d d061 7abd 9b5b c5ba 3d9b 403d
000003f0: 0f39 68bb aad6 8b3c db4a b8bc 2b52 1ebd

net.5.bias f4 [64]
-0.028432066 0.050299317 0.04174304 -0.011662959 -0.0061297934 -0.015616656 -0.012529854 -0.04544573
0.04347841 -0.022693425 0.043319993 0.030489394 -0.03445594 0.025817057 0.03520953 0.05725437
-0.057510067 -0.041852746 -0.040718924 -0.02356263 -0.046512753 -0.013564949 0.018952563 -0.052948095
-0.018598286 0.0064324173 -0.055068024 0.032668084 0.029102176 -0.029108992 -0.022345021 0.036600105
-0.00032029496 0.046884842 0.033436842 0.0035109215 -0.034409158 0.016758408 -0.037603956 0.061364308
-0.042628486 0.03383024 -0.015502035 0.054346845 -0.04420496 -0.0021662053 -0.024219897 -0.007630525
-0.029058082 -0.044326626 0.008066706 0.042873774 -0.04992056 -0.04833296 -0.004758349 0.061996438
0.0010651211 0.006012381 -0.055513874 0.06038218 0.034980707 -0.03722449 0.05496324 -0.037621442
00000000: 5dea e8bc a806 4e3d c0fa 2a3d ff15 3fbc
00000010: 6fdc c8bb 01dd 7fbc 044a 4dbc 4d25 3abd
00000020: 6b16 323d 90e7 b9bc 4e70 313d e5c4 f93c
00000030: ac21 0dbd 4b7e d33c de37 103d 8f83 6a3d
00000040: ad8f 6bbd c96d 2bbd e3c8 26bd 6b06 c1bc
00000050: 2884 3ebd 853f 5ebc 6842 9b3c 1ae0 58bd
00000060: 6f5b 98bc 07c7 d23b 028f 61bd f8ce 053d
00000070: b067 ee3c fb75 eebc e80c b7bc fee9 153d
00000080: 43ed a7b9 520a 403d 12f5 083d 7d17 663b
00000090: 9ef0 0cbd ee48 893c 9b06 1abd 2459 7b3d
000000a0: 359b 2ebd 9491 0a3d 3ffc 7dbc cc9a 5e3d
000000b0: 4310 35bd e5f6 0dbb ce68 c6bc 7c09 fabb
000000c0: 370b eebc d68f 35bd 382a 043c 699c 2f3d
000000d0: 8079 4cbd c8f8 45bd edeb 9bbb faef 7d3d
000000e0: 899b 8b3a 8203 c53b 8462 63bd 4e53 773d
000000f0: ee47 0f3d b578 18bd 2221 613d f118 1abd

net.6.weight f4 [64]
1.0031445 0.8692632 0.6778433 0.7869826 0.5439841 0.83011127 0.3380759 0.15782419
0.17848144 0.9391862 0.35029194 0.28827003 0.7192613 0.15977101 0.89181787 0.14441802
0.84988564 0.27123564 0.79984224 0.8084272 0.26795596 0.9163622 0.3012823 0.42252705
0.09357734 0.7278992 0.24553616 0.10273329 0.16964631 0.13775596 0.18755403 0.2020168
0.9735949 0.76274836 0.4060081 0.28192407 0.5156274 0.057896987 0.43651208 0.123747215
0.5530795 0.27075857 0.92464286 0.40309888 0.30215293 0.5523156 0.8200394 0.09893671
0.37243816 0.58325154 0.49053276 0.15353297 0.5046567 0.40750325 0.98914254 0.7717188
0.72791374 0.2879378 0.22960761 0.7852394 0.9361956 0.1464342 0.13807355 0.36491457
00000000: 0a67 803f 0888 5e3f 2387 2d3f b177 493f
00000010: 8b42 0b3f 2c82 543f 4918 ad3e aa9c 213e
00000020: d7c3 363e 826e 703f 7759 b33e 2198 933e
00000030: 8221 383f 039b 233e 2d4e 643f 51e2 133e
00000040: 1b92 593f 66df 8a3e 76c2 4c3f 16f5 4e3f
00000050: 8631 893e b796 6a3f ac41 9a3e 7755 d83e
00000060: 7aa5 bf3d 9a57 3a3f d56d 7b3e d565 d23d
00000070: c3b7 2d3e e60f 0d3e 2a0e 403e 7edd 4e3e
00000080: 843d 793f 7a43 433f 4be0 cf3e 5a58 903e
00000090: 2800 043f 6425 6d3d 837e df3e 2e6f fd3d
000000a0: 9e96 0d3f dea0 8a3e 65b5 6c3f fa62 ce3e
000000b0: cab3 9a3e 8e64 0d3f 1aee 513f 549f ca3d
000000c0: 37b0 be3e f94f 153f 1c27 fb3e bf37 1d3e
000000d0: 2e31 013f 44a4 d03e 7238 7d3f 5d8f 453f
000000e0: 8e58 3a3f 956c 933e 421e 6b3e 7305 493f
000000f0: 84aa 6f3f d9f2 153e 2763 0d3e 15d6 ba3e

net.6.bias f4 [64]
-0.015083521 -0.05996519 -0.0010865303 -0.01678795 -0.026261091 -0.042969257 0.012966942 -0.004978028
0.013210012 -0.07219842 -0.010300783 -0.019051595 -0.029030284 -0.01301626 -0.026493935 0.0028236147
-0.0013114441 0.022457099 -0.0825896 -0.052360754 -0.027710669 -0.052489035 -0.009998491 -0.022881262
-0.010391721 -0.049441677 -0.016773406 -0.0029773244 0.011706219 0.0077407747 0.024637327 -0.014390996
-0.022859031 -0.04169602 0.0019657314 -0.0064230217 -0.0065694232 0.041264012 -0.017572267 -0.0041146353
-0.019925732 -0.0048783477 -0.06876551 -0.06898386 -0.0095162615 -0.040575486 -0.013773133 0.025675615
-0.029675033 -0.09332458 -0.051525224 0.0050977366 -0.068940625 -0.0048173405 -0.031060424 -0.056308497
0.0025073893 0.026039543 0.0020314457 -0.08236925 -0.012904632 0.020263273 0.03744825 -0.022315651
00000000: df20 77bc 0f9e 75bd e869 8eba e286 89bc
00000010: 8021 d7bc 8800 30bd 4c73 543c ba1e a3bb
00000020: ce6e 583c c4dc 93bd 9ec4 28bc 1712 9cbc
00000030: ebd0 edbc 2742 55bc cf09 d9bc 650c 393b
00000040: c3e4 abba f3f7 b73c bc24 a9bd 3b78 56bd
00000050: 7c01 e3bc befe 56bd b6d0 23bc 7c71 bbbc
00000060: 0942 2abc 5b83 4abd 6268 89bc 371f 43bb
00000070: 71cb 3f3c 53a6 fd3b 38d4 c93c 36c8 6bbc
00000080: dd42 bbbc 72c9 2abd 80d3 003b 3678 d2bb
00000090: 5144 d7bb 7404 293d b7f3 8fbc 10d4 86bb
000000a0: 4a3b a3bc 8cda 9fbb efd4 8cbd 6947 8dbd
000000b0: 18ea 1bbc 7b32 26bd b5a8 61bc ab55 d23c
000000c0: 0e19 f3bc f520 bfbd 1d0c 53bd ea0a a73b
000000d0: be30 8dbd c8da 9dbb 6e72 febc bda3 66bd
000000e0: 0353 243b e150 d53c 0122 053b 36b1 a8bd
000000f0: f36d 53bc 2aff a53c 5663 193d 50cf b6bc

net.6.running_mean f4 [64]
-0.11040003 0.26012108 -0.18137397 0.09413916 0.05151888 0.18516979 -0.26104212 0.24241139
0.22500649 0.08771302 0.0554797 0.047496673 -0.09550824 0.099730134 0.06666429 0.38933292
-0.4671674 -0.43712783 0.048888437 0.07619123 0.1594918 0.29227147 0.19709155 -0.3837195
0.18171568 0.38788205 0.005396573 0.20399624 0.19128877 -0.09333485 -0.39232683 0.086527005
0.12151373 0.09043417 -0.1625651 0.1279042 0.07032041 0.06355079 -0.071946174 0.18876569
-0.47471634 0.09490339 0.1992731 -0.05483605 -0.34752524 0.20736618 -0.17662822 -0.11821333
0.26106453 0.008152749 0.032378376 0.07446991 0.057763208 0.33372772 -0.046594344 0.27101463
-0.4741151 -0.390008 -0.05835459 0.029554056 -0.34446114 0.15042521 0.120987386 0.043095786
00000000: 6919 e2bd 972e 853e 19ba 39be 08cc c03d
00000010: 7605 533d 269d 3d3e 50a7 85be b13a 783e
00000020: 1a68 663e e2a2 b33d af3e 633d df8b 423d
00000030: d399 c3bd 503f cc3d 4a87 883d a556 c73e
00000040: 9130 efbe 38cf dfbe 3e3f 483d 260a 9c3d
00000050: d251 233e 9ba4 953e 5ed2 493e e276 c4be
00000060: ad13 3a3e 7a98 c63e bcd5 b03b 64e4 503e
00000070: 34e1 433e 5826 bfbd 10df c8be 1235 b13d
00000080: 31dc f83d 8d35 b93d 7777 26be 52f9 023e
00000090: 2604 903d eb26 823d 8458 93bd cb4b 413e
000000a0: 050e f3be b55c c23d 3f0e 4c3e c49b 60bd
000000b0: d4ee b1be cd57 543e 07de 34be d519 f2bd
000000c0: 40aa 853e 1c93 053c 309f 043d ae83 983d
000000d0: 1d99 6c3d 5cde aa3e b6d9 3ebd 6ec2 8a3e
000000e0: 37bf f2be 21af c7be 3905 6fbd 591b f23c
000000f0: 365d b0be 1109 1a3e 3cc8 f73d 3585 303d

net.6.running_var f4 [64]
0.036066808 0.02716401 0.15454422 0.07249823 0.10429278 0.090493485 0.12470584 0.040760994
0.018818228 0.066155665 0.09964911 0.04025239 0.07673451 0.017799232 0.07846147 0.0227403
0.23639639 0.097218044 0.03553426 0.029193923 0.02021533 0.059529733 0.027362764 0.044829737
0.022603663 0.056700747 0.03236639 0.025839048 0.023986414 0.04536239 0.0646893 0.015523979
0.14917876 0.050090656 0.10372009 0.03612492 0.040915735 0.031115565 0.023442801 0.018868584
0.08406247 0.019360695 0.034931935 0.030286724 0.024965407 0.06691985 0.16246678 0.029670794
0.030589528 0.026241912 0.040095367 0.026296208 0.026636614 0.04642396 0.036085945 0.018967321
0.15535064 0.16370136 0.03314776 0.03790092 0.15939745 0.02515321 0.013887573 0.043861855
00000000: caba 133d 0f87 de3c d740 1e3e f479 943d
00000010: 7497 d53d a654 b93d c765 ff3d 00f5 263d
00000020: af28 9a3c 9f7c 873d d514 cc3d b1df 243d
00000030: fc26 9d3d b2cf 913c 68b0 a03d de49 ba3c
00000040: e511 723e 411a c73d 5f8c 113d 1828 ef3c
00000050: 9f9a a53c 73d5 733d e027 e03c 639f 373d
00000060: 512b b93c 0b3f 683d 9f92 043d 69ac d33c
00000070: 287f c43c eacd 393d d37b 843d 4a58 7e3c
00000080: 51c2 183e dc2b 4d3d 336b d43d b9f7 133d
00000090: 4297 273d 12e6 fe3c 1e0b c03c 4a92 9a3c
000000a0: f228 ac3d 529a 9e3c ca14 0f3d dd1b f83c
000000b0: 4184 cc3c 460d 893d b15d 263e 2a10 f33c
000000c0: e496 fa3c 47f9 d63c 0a3b 243d 256b d73c
000000d0: 0735 da3c 0d27 3e3d dbce 133d 5b61 9b3c
000000e0: 3d14 1f3e 54a1 273e f2c5 073d ff3d 1b3d
000000f0: 1639 233e 1b0e ce3c b488 633c 7da8 333d

net.8.weight f4 [128, 64, 3, 3]
0.01854266 -0.01609353 -0.018956354 -0.009674539 0.005323889 -0.03733693 0.026241945 -0.011462073
-0.009350316 0.049215402 0.021287711 0.007992683 0.045396812 0.037464164 -0.0026687826 0.010921186
-0.0071734916 -0.010704585 -0.029235113 0.018404597 0.036312398 0.024203211 -0.014926364 -0.032975372
0.042592622 0.0028690198 -0.021385677 0.006046421 -0.014677803 -0.045828164 0.021601204 -0.021068905
0.0123445755 -0.0051584276 -0.02575262 -0.0019679852 0.0011819922 0.029665362 -0.0065804236 0.019154813
-0.03825533 0.019755432 -0.031238021 -0.0035621522 0.0029887543 0.015187813 0.032246843 -0.018929519
-0.02739294 -0.011199229 -0.031579524 -0.0058758995 0.027180104 -0.016393213 -0.030479074 0.033548594
-0.006536262 0.0071335696 -0.004086684 -0.017888648 -0.022154937 -0.016473442 -0.023469683 -0.023234334
-0.04330445 0.03982639 0.0027709936 -0.05144766 -0.029683063 -0.055628914 0.0084641855 -0.008967257
-0.037691798 0.011863762 -0.055962153 0.02870779 -0.021755056 -0.0035880688 0.02448692 -0.02668128
-0.0062739393 0.0069045285 -0.008018547 -0.030961342 -0.022370752 0.0054441146 0.022141526 0.019603126
-0.009747507 -0.026131153 -0.035864837 -0.015821146 0.00010710695 -0.0059183496 -0.024307664 -0.027039014
0.026832279 -0.007571917 0.009006721 -0.00021496354 -0.011390991 -0.05286551 0.034952678 -0.018307514
-0.027969964 -0.005276809 -0.0041031633 0.014302191 0.0028814056 -0.039285883 -0.03834752 -0.004781987
0.01940316 -0.045804624 0.036850188 0.004169531 0.01845042 0.005930343 0.005554814 0.0015235709
0.0025688515 -0.020837076 0.015258664 -0.0043213535 -0.041049674 -0.049082175 -0.022346433 0.009752671
-0.036387946 0.006909191 -0.013819304 -0.036313813 -0.018651742 0.0041334475 -0.020642793 0.051507235
-0.020715155 0.008625337 -0.0144113265 -0.01367209 -0.019185884 -0.0041017043 0.020067675 0.00038390383
-0.024748115 0.0029993395 0.0046373974 0.021522287 0.010359512 -0.02756194 -0.033915278 -0.026312193
-0.020311156 0.023150435 0.038724955 0.039826 0.010204933 0.041802384 0.03778899 0.042644862
-0.008280108 0.005993201 0.02218609 0.04241309 -0.0065993904 0.0057602976 0.012328666 -0.006266393
0.0039178734 -0.0020144202 -0.00091656926 0.043325532 0.02081081 -0.005821269 -0.013560104 0.009028117
-0.024268756 -0.023327122 -0.0049230186 -0.014234969 0.03205064 -0.00697548 0.01641695 0.006661789
-0.020032404 0.011247417 -0.028387994 0.015788672 -0.02786616 0.01987578 -0.015959093 -0.0103705935
0.026162721 0.015079063 0.039359216 0.027844973 -0.021597635 -0.022151487 0.01980967 -0.0049786554
0.0016389377 -0.0063265907 -0.041069366 -0.053926595 0.021834712 -0.0175428 -0.039920744 -0.005747122
0.039141025 0.04543161 -0.0051222695 0.02814796 -0.02434291 0.017338168 0.02976938 0.043598115
0.032451894 -0.007248673 0.042100407 -0.042947754 -0.0741868 0.0067626117 0.027572295 0.030890118
-0.013996692 -0.015134668 0.018551031 -0.007475051 0.040096536 0.0100293355 -0.029102607 -0.013040464
-0.0014214821 0.044149928 0.0088428445 -0.015816107 -0.022489246 -0.001476364 -0.052590374 -0.027836777
0.015555354 -0.036463138 0.02120284 -0.035371035 0.025268594 0.024271207 -0.032689348 -0.008060865
0.03744236 0.045398224 -0.021971708 0.04532776 -0.048940208 -0.059464756 0.032108527 -0.052780155
00000000: c7e6 973c 94d6 83bc 5b4a 9bbc f581 1ebc
00000010: 0574 ae3b 9cee 18bd 59f9 d63c 6bcb 3bbc
00000020: 1132 19bc 1796 493d 9163 ae3c bef3 023c
00000030: 02f2 393d 0674 193d bee6 2ebb c6ee 323c
00000040: 9c0f ebbb 4962 2fbc 7a7e efbc 3dc5 963c
00000050: 4fbc 143d d045 c63c b58d 74bc 2f11 07bd
00000060: 9a75 2e3d 2a06 3c3b 0431 afbc 0e21 c63b
00000070: 2b7b 70bc 50b6 3bbd 02f5 b03c b298 acbc
00000080: e740 4a3c 0708 a9bb 29f7 d2bc 50f9 00bb
00000090: 14ed 9a3a c604 f33c 98a0 d7bb 8eea 9c3c
000000a0: 9fb1 1cbd 25d6 a13c e1e6 ffbc ff72 69bb
000000b0: fade 433b 4ed6 783c 4415 043d 1412 9bbc
000000c0: 2967 e0bc f97c 37bc 8859 01bd 9e8a c0bb
000000d0: cfa8 de3c 0f4b 86bc 40af f9bc 406a 093d
000000e0: 242e d6bb b8c0 e93b 97e9 85bb 378b 92bc
000000f0: 457e b5bc 50f3 86bc 7e43 c0bc ee55 bebc
00000100: 0260 31bd ff20 233d 8f99 353b c8ba 52bd
00000110: e529 f3bc 25db 63bd 5ead 0a3c 67eb 12bc
00000120: b762 1abd 3960 423c 9238 65bd 992c eb3c
00000130: a937 b2bc ce25 6bbb cb98 c83c b392 dabc
00000140: 9e95 cdbb 623f e23b 3960 03bc a4a2 fdbc
00000150: de42 b7bc 8b64 b23b 2562 b53c bc96 a03c
00000160: 02b4 1fbc 0011 d6bc 02e7 12bd 599b 81bc
00000170: 9b9e e038 b7ee c1bb de20 c7bc ec80 ddbc
00000180: 5ecf db3c d81d f8bb ed90 133c d667 61b9
00000190: 47a1 3abc 8189 58bd 8a2a 0f3d a4f9 95bc
000001a0: 4421 e5bc 15e9 acbb d473 86bb bd53 6a3c
000001b0: f7d5 3c3b 3cea 20bd 4a12 1dbd 37b2 9cbb
000001c0: 60f3 9e3c a19d 3bbd 39f0 163d 90a0 883b
000001d0: 5625 973c 5353 c23b 2805 b63b 8eb2 c73a
000001e0: 2d5a 283b 84b2 aabc 7aff 793c 249a 8dbb
000001f0: b423 28bd 640a 49bd de0f b7bc abc9 1f3c
00000200: 870b 15bd 7f66 e23b 5d6a 62bc cbbd 14bd
00000210: 8acb 98bc df71 873b 131b a9bc 40f9 523d
00000220: d4b2 a9bc 4951 0d3c 7c1d 6cbc e700 60bc
00000230: b72b 9dbc 9767 86bb f764 a43c b346 c939
00000240: 8fbc cabc 9190 443b 4ff5 973b 824f b03c
00000250: f1ba 293c 94c9 e1bc bfea 0abd ab8c d7bc
00000260: 9563 a6bc fba5 bd3c 0f9e 1e3d 9620 233d
00000270: 9732 273c fa38 2b3d a1c8 1a3d 61ac 2e3d
00000280: 4aa9 07bc 9d62 c43b 9abf b53c 59b9 2d3d
00000290: b33f d8bb e1c0 bc3b 2cfe 493c 5056 cdbb
000002a0: 8161 803b 5d04 04bb ec45 70ba 1d76 313d
000002b0: 6f7b aa3c 58c0 bebb 332b 5ebc abea 133c
000002c0: 45cf c6bc 8518 bfbc 4651 a1bb ca39 69bc
000002d0: 8847 033d 9192 e4bb d77c 863c 234b da3b
000002e0: ff1a a4bc 1647 383c f08d e8bc 3f57 813c
000002f0: 9347 e4bc 88d2 a23c a5bc 82bc 6ce9 29bc
00000300: 3453 d63c 2d0e 773c 2137 213d 241b e43c
00000310: 86ed b0bc 0977 b5bc e447 a23c fd23 a3bb
00000320: a0d1 d63a 4a4f cfbb 5a38 28bd 22e2 5cbd
00000330: b6de b23c ebb5 8fbc ef83 23bd 5b52 bcbb
00000340: 5752 203d 7f16 3a3d b6d8 a7bb 8d96 e63c
00000350: c86a c7bc c608 8e3c eade f33c f093 323d
00000360: 47ec 043d 4786 edbb 7a71 2c3d fce9 2fbd
00000370: 40ef 97bd e698 dd3b 4bdf e13c 460d fd3c
00000380: 6252 65bc 66f7 77bc 55f8 973c 46f1 f4bb
00000390: 443c 243d 1552 243c 9768 eebc aca7 55bc
000003a0: 0651 baba 8ed6 343d 94e1 103c c890 81bc
000003b0: 5e3b b8bc 8e82 c1ba 0169 57bd f409 e4bc
000003c0: e2db 7e3c 5f5a 15bd 94b1 ad3c 38e1 10bd
000003d0: 1500 cf3c 69d4 c63c 44e5 05bd b811 04bc
000003e0: 295d 193d 7df3 393d 03fe b3bc 9aa9 393d
000003f0: 8775 48bd 5191 73bd 3b84 033d 0130 58bd

net.8.bias f4 [128]
-0.03521044 -0.027886761 -0.02836209 0.009456496 -0.023728982 -0.00057977194 -0.0064987442 0.0023065703
0.0019094914 -0.039592292 0.010175705 0.023418505 -0.027854536 -0.019938674 0.027977448 -0.0076444885
0.00904748 0.003993433 0.004210671 -0.022259548 0.024632307 0.0336376 -0.011676185 0.0038458775
-0.010050523 0.021062102 0.024658175 -0.018762393 -0.0003362093 0.01941801 -0.031059774 -0.019859403
0.0059094722 -0.017177891 0.026900789 0.025092041 -0.028271422 0.0198581 0.014177608 0.017563827
0.022248402 0.011194504 0.0034081219 -0.03025271 -0.03729002 0.0342838 -0.02067091 0.017262114
-0.023511525 0.026375856 -0.020436294 -0.030749075 -0.01061475 -0.03304231 0.026874967 0.0043981043
-0.033762224 0.026582193 0.004687647 -0.035130166 -0.012507639 0.028119795 -0.025369506 0.036726143
-0.011809216 0.003959179 -0.03386187 0.031172773 -0.023922648 -0.028959148 -0.031863626 0.02850353
-0.00018832713 -0.006907617 -0.015031145 0.011773586 0.024745338 -0.013021942 0.023275735 -0.029314362
0.024423327 0.0048546586 -0.02333352 -0.031021923 0.01442542 -0.042330705 0.038378455 0.034501016
-0.002616306 -0.037222464 -0.0141850365 0.03321409 -0.02077393 0.01706238 0.023638258 0.0065867626
0.02505805 0.027160147 0.03481268 0.014114617 0.029808057 -0.041742343 0.039367706 -0.00860372
-0.00419304 -0.0015500829 0.018840834 -0.023877798 -0.017628878 0.0015482693 -0.006731387 -0.012068158
-0.0053582643 0.03833861 -0.00015709508 0.0075889183 -0.032229338 -0.01277191 0.016170656 0.020976722
-0.013181464 0.022967398 -0.006401102 0.007008803 -0.009607014 0.016981758 0.028354311 -0.009315158
00000000: d338 10bd c772 e4bc 9d57 e8bc 6bef 1a3c
00000010: 4863 c2bc d6fb 17ba 6bf3 d4bb d429 173b
00000020: e647 fa3a 872b 22bd 00b8 263c 2ad8 bf3c
00000030: 322f e4bc 6e56 a3bc f630 e53c 9e7e fabb
00000040: e23b 143c 58db 823b abf9 893b a859 b6bc
00000050: b1c9 c93c 94c7 093d 784d 3fbc 1e0b 7c3b
00000060: f3aa 24bc 6e8a ac3c f1ff c93c 97b3 99bc
00000070: 4045 b0b9 8512 9f3c 1171 febc 30b0 a2bc
00000080: 3fa4 c13b a6b8 8cbc 0b5f dc3c d38d cd3c
00000090: 7899 e7bc 74ad a23c 3349 683c 04e2 8f3c
000000a0: 4842 b63c 2769 373c cc5a 5f3b 88d4 f7bc
000000b0: 6cbd 18bd 2b6d 0c3d 0a56 a9bc 4769 8d3c
000000c0: 3e9b c0bc 2e12 d83c 046a a7bc 7ce5 fbbc
000000d0: 7de9 2dbc 6057 07bd e428 dc3c f91d 903b
000000e0: 424a 0abd e6c2 d93c d59a 993b a6e4 0fbd
000000f0: d7ec 4cbc 7c5b e63c b6d3 cfbc 276e 163d
00000100: 717b 41bc 00bc 813b bfb2 0abd 0b5e ff3c
00000110: 6ef9 c3bc bc3b edbc 6f83 02bd 3c80 e93c
00000120: ae79 45b9 4b59 e2bb 3145 76bc 00e6 403c
00000130: bcb6 ca3c fc59 55bc c1ac be3c ac24 f0bc
00000140: 6e13 c83c d413 9f3b f025 bfbc b021 febc
00000150: 9958 6c3c f662 2dbd ba32 1d3d f050 0d3d
00000160: 5576 2bbb 9576 18bd 5b68 68bc 7f0b 083d
00000170: 172e aabc 68c6 8b3c 05a5 c13c c5d5 d73b
00000180: 8a46 cd3c f57e de3c be97 0e3d ff40 673c
00000190: 0730 f43c 05fa 2abd 0840 213d 9ef6 0cbc
000001a0: c565 89bb 272c cbba 1858 9a3c 5f9b c3bc
000001b0: 706a 90bc 4cef ca3a f892 dcbb 86b9 45bc
000001c0: 6194 afbb f208 1d3d e4b9 24b9 76ac f83b
000001d0: e902 04bd 4641 51bc 5378 843c 60d7 ab3c
000001e0: 11f7 57bc 2026 bc3c 56c0 d1bb 1aaa e53b
000001f0: bd66 1dbc 541d 8b3c 4d47 e83c 9b9e 18bc

net.9.weight f4 [128]
0.63238007 0.7736757 0.8091753 0.4535057 0.13166866 0.09333621 0.19676912 0.31012443
0.26142693 0.7880675 0.4066747 0.5380628 0.53953534 0.67465824 0.41791177 0.3031277
0.8839172 0.38225484 0.86554796 0.18733019 0.11107974 0.82007223 0.18940812 0.4591872
0.37124196 0.71255046 0.20112787 0.6497035 0.8733366 0.9502895 0.90612155 0.35116917
0.51129186 0.09506305 0.20908666 0.83580273 0.8018734 0.3520006 0.23045471 0.40097332
0.7785371 0.17161877 0.70762825 0.34154084 0.34474412 0.15265812 0.41015777 0.92780155
0.95496875 0.67476285 0.16518264 0.11154881 0.7833262 0.8268405 0.19456099 0.8018259
0.39347577 0.8369776 0.666899 0.35326436 0.049250484 0.27814087 0.08614605 0.44306874
0.88901997 0.18543088 0.81533754 0.5298645 0.7028401 0.0709378 0.87442786 0.57433045
0.93624765 0.153997 0.06565344 0.47244185 0.62394816 0.7274074 0.27689368 0.40683433
0.25252196 0.30562526 0.60945135 0.14651214 0.74354446 0.49408317 0.785366 0.54774815
0.15256673 0.9353785 0.90856886 0.8809913 0.23041652 0.47003335 0.07046745 0.03302342
0.88239163 0.45177585 0.42292714 0.23048024 0.63031286 0.9601327 0.4455887 0.4546428
0.92705905 0.1256585 0.114028305 0.9613216 0.14685072 0.04908844 0.13759097 0.04768909
0.42805687 0.12996474 0.73969364 0.29005963 0.3174996 0.58323437 0.22079483 0.27339718
0.1058495 0.26960975 0.5567351 0.40053305 0.6672512 0.84646153 0.6123416 0.35041618
00000000: a9e3 213f 9c0f 463f 1d26 4f3f e631 e83e
00000010: 26d4 063e 0e27 bf3d d87d 493e a1c8 9e3e
00000020: c0d9 853e cbbe 493f ab37 d03e 7cbe 093f
00000030: fd1e 0a3f 67b6 2c3f 88f8 d53e 8e33 9b3e
00000040: 6648 623f e8b6 c33e 8d94 5d3f 7cd3 3f3e
00000050: c67d e33d 41f0 513f 34f4 413e 961a eb3e
00000060: 6d13 be3e b569 363f 77f4 4d3e f852 263f
00000070: fd92 5f3f 2c46 733f 95f7 673f 72cc b33e
00000080: 06e4 023f 6bb0 c23d d01a 563e 2bf7 553f
00000090: 9347 4d3f 6c39 b43e 52fc 6b3e 604c cd3e
000000a0: 354e 473f d5bc 2f3e 2027 353f 71de ae3e
000000b0: 4d82 b03e 6952 1c3e 3300 d23e 6784 6d3f
000000c0: d578 743f 42bd 2c3f a325 293e b473 e43d
000000d0: 1188 483f d2ab 533f ff3a 473e 7644 4d3f
000000e0: a875 c93e 2a44 563f e5b9 2a3f 11df b43e
000000f0: e0ba 493d 7b68 8e3e 576d b03d e8d9 e23e
00000100: d096 633f 98e1 3d3e f6b9 503f 33a5 073f
00000110: 54ed 333f d647 913d 81da 5f3f 5207 133f
00000120: edad 6f3f 64b1 1d3e 5075 863d e6e3 f13e
00000130: 11bb 1f3f 5f37 3a3f 02c5 8d3e 974c d03e
00000140: 8f4a 813e ea7a 9c3e 0105 1c3f 4707 163e
00000150: ee58 3e3f 78f8 fc3e bf0d 493f 3939 0c3f
00000160: 743a 1c3e f774 6f3f f897 683f a588 613f
00000170: 4ff2 6b3e 36a8 f03e 3d51 903d 9143 073d
00000180: 6be4 613f 2a4f e73e e889 d83e 0303 6c3e
00000190: 2f5c 213f 42cb 753f 3424 e43e f1c6 e83e
000001a0: be53 6d3f 9fac 003e ac87 e93d 2c19 763f
000001b0: 0960 163e f610 493d a6e4 0c3e a355 433d
000001c0: 452a db3e 7a15 053e 905c 3d3f b282 943e
000001d0: 4f8f a23e d94e 153f 0a18 623e b7fa 8b3e
000001e0: 9fc7 d83d 4a0a 8a3e 3186 0e3f ab12 cd3e
000001f0: fad0 2a3f b4b1 583f 6bc2 1c3f c069 b33e

net.9.bias f4 [128]
-0.0041219443 -0.05856158 0.0019048343 0.003622511 0.0006802667 0.0071327505 0.0016187312 0.003091112
0.0005843465 0.004606457 0.002582135 -0.0043740543 -0.020401074 -0.01992414 0.0149223795 -0.0021402184
-0.00686791 0.004262915 -0.003108404 0.0070669237 0.0076860753 0.0011751896 -0.022265645 -0.00034158476
0.0009775743 -0.0031118111 0.016236441 -0.005023604 -0.00030459184 0.001472895 -0.013197623 -0.0066701826
-0.0033304412 0.011044547 -0.007817487 -0.012168429 -0.0011334332 0.0055021816 0.0028020605 0.008339739
0.0039278306 0.007032168 -0.0021170226 -0.0130528705 0.012658893 0.005142673 -0.0011048536 -0.020053254
-0.0070721298 0.011932351 -0.011474524 -0.003208998 -0.014240342 -0.006014889 -0.007477494 -0.0041262903
0.0075581498 -0.0068736016 0.0069338745 -0.008408917 -0.007893037 -0.009639056 -0.007172228 0.006797516
0.0023332222 -0.009318699 0.0021974347 -0.010282218 -0.0005339906 -0.008417189 -0.0034785003 0.0012501936
-0.021179691 0.010421987 0.0071136714 -0.0049532335 0.006863173 -0.014358728 0.0014390207 -0.0026622713
-0.03951894 0.0033398913 0.0019865294 -0.013935383 -0.011244085 -0.0025260048 -0.0021291527 0.014633718
-0.0056194304 0.0030075652 0.0066891066 0.0025460313 -0.006829228 -0.02092207 0.0018657262 -0.004560657
0.0038231167 -0.0023952152 -0.017820502 -0.01308452 0.0022956245 0.0017098326 -0.011712984 0.0011226394
0.01183522 -0.011727459 0.0010601582 0.005560979 0.0064600646 -0.0051530176 0.0028249177 -0.0063663353
0.0031044427 0.0009806142 -0.0036781596 -0.0061717895 0.0059259124 0.010313744 0.0006485034 -0.013998367
0.0070620705 -0.0012085123 -0.0060424125 0.0072758566 0.007551314 0.00022176132 -0.00021859058 0.0066644717
00000000: 6011 87bb 44de 6fbd a2ab f93a a667 6d3b
00000010: ed53 323a d9b9 e93b 9b2b d43a 4194 4a3b
00000020: d42e 193a c3f1 963b 0939 293b 3a54 8fbb
00000030: 2720 a7bc f337 a3bc ff7c 743c e842 0cbb
00000040: 340c e1bb ecaf 8b3b 5eb6 4bbb a791 e73b
00000050: 79db fb3b d208 9a3a 7166 b6bc bb16 b3b9
00000060: f321 803a 87ef 4bbb 4902 853c 0b9d a4bb
00000070: a0b1 9fb9 280e c13a d83a 58bc 8c91 dabb
00000080: 8843 5abb 30f4 343c eb14 00bc 175e 47bc
00000090: b58f 94ba a54b b43b c6a2 373b 67a3 083c
000000a0: 08b5 803b 1a6e e63b bfbd 0abb b5db 55bc
000000b0: 3f67 4f3c de83 a83b bcd0 90ba b946 a4bc
000000c0: 53bd e7bb e87f 433c a4ff 3bbc 0d4e 52bb
000000d0: 5350 69bc 8c18 c5bb c405 f5bb d535 87bb
000000e0: 5baa f73b f33b e1bb 8e35 e33b 8ec5 09bc
000000f0: cc51 01bc 22ed 1dbc 0205 ebbb b2bd de3b
00000100: f9e8 183b 75ad 18bc d602 103b c076 28bc
00000110: 81fb 0bba 40e8 09bc 8df7 63bb 89dd a33a
00000120: 0881 adbc fbc0 2a3c cd19 e93b bc4e a2bb
00000130: 78e4 e03b df40 6bbc 869d bc3a 8079 2ebb
00000140: 9dde 21bd 14e2 5a3b 6f30 023b 3c51 64bc
00000150: 1c39 38bc 548b 25bb 4189 0bbb 43c2 6f3c
00000160: 3323 b8bb 921a 453b 4b30 db3b 51db 263b
00000170: b7c7 dfbb c364 abbc 628b f43a 9071 95bb
00000180: 418d 7a3b 0bf9 1cbb 4dfc 91bc 7460 56bc
00000190: 3072 163b 761c e03a d1e7 3fbc 8725 933a
000001a0: 83e8 413c 8724 40bc 02f5 8a3a df38 b63b
000001b0: f3ae d33b a5da a8bb 4122 393b b19c d0bb
000001c0: e873 4b3b f487 803a 470d 71bb b93c cabb
000001d0: 282e c23b fafa 283c 5400 2a3a 6859 65bc
000001e0: f168 e73b f266 9eba 6eff c5bb 4f6a ee3b
000001f0: 0371 f73b 9a88 6839 7635 65b9 a461 da3b

net.9.running_mean f4 [128]
-0.07773908 -0.16325615 -0.0598314 0.1688455 0.041181255 0.06340999 -0.007765196 -0.36023557
0.34956813 -0.49230424 -0.26646507 0.005445547 -0.31193238 -0.20323698 0.2987414 0.2259477
0.057463497 0.20189652 0.36835563 0.33425975 -0.20876785 0.019974988 -0.06829922 -0.06820964
0.1270526 -0.015517186 -0.012679671 -0.1882919 0.24282317 -0.023914026 0.004615101 -0.11717773
0.07845742 -0.14508708 -0.13427816 -0.15345825 -0.031053169 0.025966996 -0.06575339 0.20290175
-0.11741432 -0.037870575 -0.084713586 0.16885184 0.10745797 -0.11085323 0.05700336 -0.17622192
-0.0142885605 0.069756486 -0.32100138 -0.31962702 -0.2923335 -0.31313404 -0.2614067 -0.017798621
-0.28825516 -0.15631786 0.08708827 0.046010002 -0.249923 0.12227236 -0.20671739 0.32731956
0.02966756 0.15530163 -0.34008583 -0.13993306 0.06863621 -0.090409964 -0.20859294 0.2308006
-0.078667834 0.012394057 -0.09082783 -0.17838115 -0.048435498 -0.094056144 0.32072142 -0.37788698
0.23436974 0.1869496 -0.23737484 -0.4044475 -0.15231569 -0.21029764 0.20984986 0.08801719
-0.11865081 0.13196923 -0.259758 -0.043874033 0.036887843 -0.17344093 0.020844597 0.12656508
0.33134487 -0.16895537 -0.28404513 -0.1305814 0.29502663 -0.09710737 -0.2505025 -0.26037523
0.12915818 -0.3970221 -0.031990558 0.06714904 0.043347564 -0.1018156 -0.1411805 -0.15712522
-0.18244003 -0.33922467 -0.03864234 0.19080262 -0.26269355 -0.06807838 -0.17748275 -0.29276392
0.07997938 0.13494936 -0.043711584 0.14628494 -0.16079849 -0.03522387 -0.17665818 0.0032094202
00000000: ab35 9fbd 9f2c 27be c511 75bd d6e5 2c3e
00000010: adad 283d 19dd 813d 2f73 febb cc70 b8be
00000020: 98fa b23e 4d0f fcbe 1c6e 88be 8f70 b23b
00000030: 9ab5 9fbe 5b1d 50be a2f4 983e d55e 673e
00000040: d85e 6b3d f6bd 4e3e 1c99 bc3e 1824 ab3e
00000050: 3dc7 55be 96a2 a33c 76e0 8bbd 7fb1 8bbd
00000060: 141a 023e cc3b 7ebc 65be 4fbc 98cf 40be
00000070: a3a6 783e 59e7 c3bc 463a 973b e1fa efbd
00000080: 49ae a03d b591 14be 3780 09be 2924 1dbe
00000090: 3763 febc bdb8 d43c b7a9 86bd 7ac5 4f3e
000000a0: eb76 f0bd 2d1e 1bbd 517e adbd 7fe7 2c3e
000000b0: ed12 dc3d 0507 e3bd 5b7c 693d 8573 34be
000000c0: 911a 6abc 7ddc 8e3d 4b5a a4be 27a6 a3be
000000d0: bdac 95be 1b53 a0be 19d7 85be 6ace 91bc
000000e0: 2e96 93be ca11 20be 565b b23d fc74 3c3d
000000f0: d1eb 7fbe ee69 fa3d b9ad 53be 6e96 a73e
00000100: 6209 f33c 6407 1f3e bb1f aebe 9d4a 0fbe
00000110: 2491 8c3d dc28 b9bd 6399 55be fe56 6c3e
00000120: 9a1c a1bd 7110 4b3c f103 babd 8ca9 36be
00000130: 4d64 46bd 82a0 c0bd 9935 a43e 677a c1be
00000140: 9ffe 6f3e b76f 3f3e 6412 73be be13 cfbe
00000150: a5f8 1bbe 4458 57be e2e2 563e 5b42 b43d
00000160: 32ff f2bd f122 073e 00ff 84be 42b5 33bd
00000170: b517 173d 809a 31be 4ac2 aa3c 479a 013e
00000180: 09a6 a93e a302 2dbe 5d6e 91be 21b7 05be
00000190: bb0d 973e 3be0 c6bd dd41 80be e74f 85be
000001a0: 0b42 043e 7b46 cbbe 8808 03bd 7085 893d
000001b0: 378d 313d b384 d0bd 9f91 10be 6fe5 20be
000001c0: 8fd1 3abe dbae adbe 6e47 1ebd c361 433e
000001d0: c57f 86be ad6c 8bbd 0abe 35be 27e5 95be
000001e0: 3bcc a33d 2a30 0a3e eb0a 33bd b8cb 153e
000001f0: 5ca8 24be e846 10bd e2e5 34be 2355 523b
