D_A.pth (torch_old, 401728 bytes, 21 tensors)

net.0.weight f4 [16, 3, 3, 3]
0	0xbc615058	-0.013752066
1	0xbd01a128	-0.03164783
2	0xbe05f90d	-0.13083287
3	0xbe368adf	-0.17826413
4	0x3bddb22b	0.006765624
5	0xbd2fce8a	-0.04292158
6	0xbe08b7d9	-0.13351382
7	0x3e1761a1	0.14783336
8	0x3e3a7212	0.18207577
9	0xbe06c8bb	-0.1316251
10	0x3dd2ed18	0.10299128
11	0x3c6b9016	0.0143776145
12	0xbd20f30c	-0.039294288
13	0x3e0597f9	0.13046254
14	0xbe04d3ad	-0.12971373
15	0xbe13468b	-0.14382379
16	0x3b1238f8	0.0022311788
17	0x3dc8c40d	0.09803019
18	0x3d97c7ba	0.07411142
19	0xbe3721b0	-0.17883945
20	0xbd98e30f	-0.07465183
21	0xbe47a945	-0.19498165
22	0x3e391ff3	0.18078594
23	0x3e066b59	0.13126887
24	0xbca99d06	-0.020704757
25	0xbd23d205	-0.039995212
26	0xbd01a268	-0.031649023
27	0xbdc80c7d	-0.09768007
28	0xbe2e646b	-0.17030494
29	0x3df72000	0.120666504
30	0x3da5d384	0.08096984
31	0xbe4752bc	-0.19465154
32	0x3da8c91d	0.08241484
33	0xbe08c1bd	-0.13355155
34	0x3d8f3af3	0.069936655
35	0x3d91e3a9	0.07123501
36	0x3c4e7ff0	0.012603745
37	0xbe1271e9	-0.14301266
38	0x3da6c5cf	0.08143198
39	0xbd792b99	-0.060832594
40	0x3d78a442	0.060703523
41	0xbb7f0766	-0.0038914322
42	0xbd26e9d4	-0.04075034
43	0x3e1bfe84	0.15233809
44	0xbcc22fab	-0.02370437
45	0x3ca0a797	0.019611163
46	0x3db1e89b	0.08686944
47	0xbe093f67	-0.13403092
48	0x3e0c7e99	0.13720168
49	0x3e1860e1	0.14880706
50	0xbdf31142	-0.11868526
51	0x3e0b1239	0.1358117
52	0x3c86afce	0.016441252
53	0x3d66eb97	0.05637702
54	0xbe1998d5	-0.14999707
55	0x3d4ae100	0.049530983
56	0xbe13c6de	-0.1443133
57	0x3de0461c	0.10950872
58	0x3e02ae66	0.1276184
59	0x3d20733d	0.0391724
60	0xbdc83250	-0.09775221
61	0xbccd4e1b	-0.025061658
62	0xbe0dde8e	-0.13854429
63	0x3e011a8b	0.12607782
64	0xbcfd7297	-0.03093843
65	0xbd0cff6a	-0.03442327
66	0xbddfbb21	-0.10924364
67	0xbdc0d9f3	-0.094165705
68	0x3d89fc5f	0.06737589
69	0xbd71be92	-0.059019633
70	0x3e249056	0.16070685
71	0xbbb942fd	-0.0056537376
72	0x3dcaf921	0.09910799
73	0x3e0f6a31	0.14005353
74	0x3d8e05a7	0.06934672
75	0xbd33362e	-0.04375284
76	0xbc88d2ca	-0.016702075
77	0x3cc13a53	0.023587381
78	0xbcff0bf7	-0.031133635
79	0x3d470cf1	0.048596326
80	0xbd4d5fb6	-0.050140105
81	0x3e26a242	0.16272834
82	0x3dfd052f	0.12354504
83	0xbd69d074	-0.057083562
84	0x3e0a69fb	0.13516991
85	0x3df96031	0.1217655
86	0xbdf6c342	-0.12048961
87	0xbd3342eb	-0.04376499
88	0xbd93fb8a	-0.07225712
89	0x3d6abc7c	0.05730866
90	0xbdb603c8	-0.0888744
91	0xbca6eb35	-0.020375827
92	0xbd9487ea	-0.07252486
93	0x3e05fde5	0.13085134
94	0xbd6fe5dc	-0.05856882
95	0x3e108346	0.14112577
96	0x3ddcbf2d	0.107786514
97	0x3c8d1937	0.017223937
98	0x3d41ac53	0.04728348
99	0xbe1b805f	-0.15185688
100	0x3de9c393	0.11414256
101	0xbe441c1d	-0.1915135
102	0x3e1dd907	0.1541482
103	0xbdd19016	-0.1023256
104	0x3cce088f	0.025150565
105	0x3e0e4cf2	0.1389654
106	0xbda77342	-0.081762806
107	0x3ca71946	0.020397794
108	0x3e223647	0.15841018
109	0x3c0ab0b3	0.00846498
110	0xbda5d4a3	-0.08097198
111	0xbb71f518	-0.003691977
112	0x3e089ad9	0.1334032
113	0xbdbad206	-0.0912209
114	0x3dcb219e	0.09918521
115	0x3d8973ba	0.06711526
116	0xbd9cf853	-0.076645516
117	0x3e024334	0.12720948
118	0xbe25f1da	-0.1620554
119	0xbc4d824d	-0.012543273
120	0x3e054d61	0.13017799
121	0x3e3d8dc5	0.18511112
122	0xbd4b9dbc	-0.049710974
123	0x3d1d46dc	0.038397655
124	0x3cf23c31	0.029569717
125	0xbe3997c7	-0.18124305
126	0xbca35708	-0.01993896
127	0x3d8b9f74	0.06817523
128	0x3d9b6b23	0.07588794
129	0x3e25d36f	0.16193937
130	0x3d99f9a9	0.07518322
131	0x3df4a042	0.11944629
132	0x3c2ac8d6	0.01042386
133	0xbd29b2a2	-0.041430123
134	0xbe377ec2	-0.17919448
135	0x3d93d54d	0.07218418
136	0xbe2741bb	-0.16333668
137	0xbca48126	-0.020081114
138	0xbe01c394	-0.12672263
139	0xbdbbcdbb	-0.09170099
140	0x3def2936	0.11677782
141	0xbc71d429	-0.014760056
142	0xbe01daac	-0.12681073
143	0xbcef2625	-0.029192993
144	0xbdac0125	-0.08398656
145	0x3d08a737	0.033362594
146	0x3e2314fa	0.1592597
147	0x3dc5d624	0.09659985
148	0x3d4ba2c2	0.049715765
149	0xbd8d5452	-0.069008484
150	0x3e38c75b	0.18044798
151	0xbe18601d	-0.14880414
152	0x3d5b7f95	0.05358847
153	0x3cee1985	0.029064903
154	0xbdc1c04a	-0.09460504
155	0x3e05fcd4	0.13084728
156	0x3e49b940	0.19699574
157	0x3dd23e4e	0.1026579
158	0xbd323f89	-0.043517623
159	0x3dc0bf15	0.09411446
160	0xbd557431	-0.052112762
161	0x3dc93d32	0.09826125
162	0x3c4983bd	0.012299475
163	0x3e7a0888	0.24417317
164	0xbdd9af95	-0.10629193
165	0xbdba4022	-0.090942636
166	0xbd15c171	-0.036561433
167	0xbdb2b028	-0.087250054
168	0x3e2f2da7	0.17107259
169	0x3e328151	0.17432143
170	0xbd718192	-0.05896146
171	0x3dfa9c27	0.12236815
172	0x3de6e130	0.1127342
173	0xbdc76b31	-0.09737242
174	0xbdd90524	-0.105966836
175	0x3e12bed2	0.14330605
176	0xbdfdf27e	-0.12399767
177	0xbe25a631	-0.16176678
178	0xbdbf3b43	-0.09337475
179	0x3e3f04a9	0.18654121
180	0xbdab3295	-0.08359257
181	0x3e52e983	0.2059689
182	0x3d897e36	0.06713526
183	0xbe11815a	-0.142095
184	0x3e2e04b2	0.16993979
185	0x3bd65348	0.0065406896
186	0xbe034d97	-0.12822567
187	0xbbd79fea	-0.0065803425
188	0xbc8d2d3c	-0.017233483
189	0x3d8868b1	0.06660593
190	0xbe0a734b	-0.13520543
191	0xbdeb85cc	-0.11500129
192	0xbd86794e	-0.06566106
193	0x3e152771	0.14565827
194	0x3dbb6343	0.09149792
195	0x3df594e9	0.11991293
196	0xbe2c4848	-0.16824448
197	0xbdc7a9e4	-0.09749201
198	0xbe6b136a	-0.22956625
199	0xbca3530c	-0.01993706
200	0xbcedfa1f	-0.029049931
201	0x3d1f0bf8	0.038829774
202	0x3e12f553	0.14351396
203	0x3c71a592	0.014748948
204	0xbd0f1e46	-0.03494098
205	0x378b2792	1.6588518e-05
206	0x3dda90f4	0.10672179
207	0xbde3f81e	-0.11131309
208	0x3d81af4f	0.063322656
209	0x3e09c529	0.13454117
210	0xbbca3370	-0.0061706826
211	0xbe1a9530	-0.15095973
212	0xbe33c302	-0.17554858
213	0x3d4c5e7e	0.049894802
214	0x3dd49ae9	0.10381109
215	0x3dabeecc	0.08395156
216	0x3c4089c9	0.011751601
217	0xbb41ae30	-0.0029553287
218	0xbc802116	-0.015640777
219	0x3d1e528e	0.03865295
220	0x3e237629	0.15963043
221	0xbd136be3	-0.03599156
222	0xbe2af692	-0.16695622
223	0x3cb12a78	0.021626696
224	0x3d911960	0.07084918
225	0xbe37e4bb	-0.17958347
226	0xbd8f2bb8	-0.069907606
227	0x3d23aeea	0.039961733
228	0x3dd668be	0.10469197
229	0x3df69fbb	0.12042185
230	0xbe4a5f7d	-0.19762988
231	0xbe2feb5c	-0.17179626
232	0xbe103f30	-0.14086604
233	0x3d77dd34	0.06051369
234	0x3dc316d9	0.09525842
235	0xbdc8b1f7	-0.09799569
236	0x3c2b85a8	0.010468878
237	0x3dd027b4	0.10163823
238	0x3e397914	0.18112594
239	0x3e188ada	0.14896718
240	0x3e17aa52	0.14811066
241	0x3e08833e	0.13331315
242	0xbda153a0	-0.07877278
243	0x3d9846bd	0.07435367
244	0xbd893d93	-0.067011975
245	0x3e4bfe00	0.19921112
246	0x3da198a6	0.078904435
247	0xbdf97988	-0.12181383
248	0xbdeb5db1	-0.114924796
249	0xbd059477	-0.03261229
250	0xbe2ce368	-0.16883624
251	0x3e3badb7	0.18327986
252	0x3c9d5f2b	0.019210419
253	0xbda85b50	-0.082205415
254	0xbc224534	-0.009904195
255	0x3cae1d25	0.021254132

net.0.bias f4 [16]
0	0x3e211858	0.15731943
1	0x3db11b98	0.08647841
2	0x3e75e27d	0.2401218
3	0xbe6f6f16	-0.2338222
4	0x3d620b3c	0.055186495
5	0xbe2ee8cc	-0.17080992
6	0xbd848829	-0.06471283
7	0x3c1cb561	0.0095647285
8	0xbddd78c2	-0.10814048
9	0x3dc1bf39	0.09460301
10	0xbe0aaf4e	-0.13543436
11	0x3e1e0b7a	0.15434065
12	0xbe25dfb0	-0.16198611
13	0xbc82f796	-0.015987199
14	0xbdf16552	-0.117869034
15	0x3e53b7b1	0.20675541

net.2.weight f4 [32, 16, 3, 3]
0	0x3c079d81	0.008277298
1	0xbdec0a62	-0.11525418
2	0x3d5e023d	0.054201353
3	0xb9fc86eb	-0.00048165707
4	0xbcdc153c	-0.026865594
5	0x3d3252ce	0.043536
6	0xbdd2ea8f	-0.10298645
7	0xba440db8	-0.0007478851
8	0xbd8e43c5	-0.0694652
9	0x3d188672	0.037237592
10	0x3d35674b	0.04428796
11	0x3d870c2f	0.06594121
12	0x3cae9410	0.021310836
13	0x3c9bd69b	0.01902323
14	0x3dba1f88	0.09088045
15	0xbd54eb63	-0.051982295
16	0xbd271a2a	-0.040796436
17	0xbc37cc36	-0.011218121
18	0xbd54ecae	-0.051983528
19	0x3d9788c5	0.073991336
20	0x3d077b15	0.033076365
21	0xbc38c192	-0.0112766195
22	0xbd293049	-0.041305814
23	0x3d44cdd4	0.048047855
24	0x3d262185	0.04055931
25	0xbd913490	-0.070901036
26	0xbd30d6b7	-0.043173518
27	0xbd8991a5	-0.067172326
28	0xbd1548ba	-0.03644631
29	0xbdc83fd3	-0.097777985
30	0xbd5e6af0	-0.054301202
31	0x3cc2f3dd	0.023797924
32	0x3d8802ad	0.06641135
33	0x3cea475f	0.028598486
34	0xbd40f173	-0.047105264
35	0x3d8e6174	0.069521815
36	0x3d87863e	0.066174015
37	0x3cf94b1b	0.03043132
38	0xbca88f32	-0.020576093
39	0xbd825fd7	-0.06365936
40	0x3b72aa17	0.003702765
41	0x3cf169e8	0.029469445
42	0x3da06f0a	0.07833679
43	0xbd38c361	-0.045108203
44	0xbd52b4e6	-0.05144205
45	0xbd37b1e8	-0.0448474
46	0xbd385075	-0.044998605
47	0xbdded04b	-0.108795725
48	0xbdff7fb7	-0.124755315
49	0xbde87fbb	-0.11352488
50	0xbd515fd3	-0.051116776
51	0xbd00fc7c	-0.031490788
52	0xbca4356e	-0.020045009
53	0x3d866d91	0.06563867
54	0xbde03753	-0.10948052
55	0xbdbcc2cc	-0.09216842
56	0x3d161929	0.03664509
57	0x3d5e4dca	0.054273404
58	0xbe09fd53	-0.13475542
59	0x3b04a53b	0.0020240087
60	0x3d465ca1	0.04842818
61	0xbda9fd4e	-0.08300267
62	0x3d104f45	0.035231847
63	0xbde7e022	-0.11322047
64	0xbdc91706	-0.098188445
65	0x3c7b16e2	0.01532528
66	0x3c140265	0.009033774
67	0x3d6ffa6e	0.058588438
68	0xbe0ae7af	-0.13564943
69	0xbcc74cc6	-0.0243286
70	0xbb9eb09d	-0.0048428313
71	0xbd4ff77a	-0.05077312
72	0x3cfb815d	0.030701334
73	0xbdd3145b	-0.10306617
74	0xbdb2ca1a	-0.08729954
75	0xbd38a1af	-0.04507607
76	0xbd7606e5	-0.06006517
77	0x3c9d7810	0.01922229
78	0x3da3bb94	0.07994762
79	0x3d515988	0.051110774
80	0xbc24a8f0	-0.010050043
81	0x3b9350d1	0.004495718
82	0xba59e4c9	-0.0008311985
83	0x3d14b510	0.036305487
84	0xbc9e803f	-0.019348262
85	0x3c5f6cb7	0.0136367595
86	0xbcae4015	-0.021270791
87	0x3bdd73ea	0.006758203
88	0xbd52a133	-0.051423263
89	0x3dd2892d	0.102800705
90	0xbc1154a5	-0.0088702785
91	0xbd2eddc5	-0.042691965
92	0xbd005870	-0.03133434
93	0xbd803608	-0.06260306
94	0xbd011b87	-0.031520393
95	0x3c9e5269	0.019326406
96	0x3c301130	0.010746285
97	0xbd4d09eb	-0.050058287
98	0x3ce49dd3	0.027907288
99	0xbba6d2ce	-0.005091048
100	0x3d169226	0.03676047
101	0xbd3bd587	-0.045857932
102	0xbdaad14d	-0.08340702
103	0xbd55a651	-0.052160565
104	0xbd2b90e7	-0.041886237
105	0xbcde5713	-0.02714113
106	0xbd6a26a7	-0.057165768
107	0x3c8fbb32	0.017545316
108	0xbd183419	-0.03715906
109	0xbd63b81b	-0.0555955
110	0xbd8d7913	-0.06907859
111	0xbc19f801	-0.009397508
112	0xbd6a1a0b	-0.057153743
113	0xbdc46467	-0.09589463
114	0x3d6c7e13	0.05773742
115	0xbdc1a80e	-0.09455882
116	0x3d937f2c	0.072019905
117	0x3d563b04	0.052302375
118	0xbcb78695	-0.02240304
119	0x3d8b14da	0.067910865
120	0x3d355992	0.044274874
121	0xbe1b3947	-0.15158568
122	0xbd8cddda	-0.06878252
123	0xbd65a0e4	-0.05606164
124	0xbca3e65b	-0.020007303
125	0x3d8376fb	0.06419178
126	0x3d841025	0.06448392
127	0x3c076d05	0.008265738
128	0xbd58fdb6	-0.052976333
129	0xba8eb2c2	-0.0010887014
130	0xbc80d46e	-0.015726294
131	0xbc15205a	-0.0091019515
132	0x3c9d254b	0.019182822
133	0xbd715cd2	-0.05892641
134	0xbc767dac	-0.015044611
135	0xbcb1306a	-0.021629531
136	0x3ccf087f	0.025272606
137	0x3cadb1c7	0.021202935
138	0x3d25c5c8	0.040471822
139	0x3d7c96bc	0.06166719
140	0x3da0c269	0.07849581
141	0x3d71c3ee	0.059024744
142	0xbdbcf657	-0.09226673
143	0x3da55837	0.08073466
144	0x3d1bf048	0.038070947
145	0xbd3d1005	-0.046157856
146	0x3af2e50f	0.00185314
147	0xbd4f195e	-0.0505613
148	0x3de98275	0.11401836
149	0x3d94c776	0.07264607
150	0x3c60f350	0.013729885
151	0x3dc29562	0.09501149
152	0x3d8e6596	0.0695297
153	0x3d88d9a5	0.066821374
154	0xbd6803c1	-0.056644205
155	0xbce8e4ca	-0.028429408
156	0x3c347ba7	0.011015809
157	0xbac6a2ec	-0.0015154756
158	0x3d900269	0.0703171
159	0x3cd6d446	0.026224267
160	0xbd7d252b	-0.061803024
161	0xbdbaa0e6	-0.0911272
162	0x3cdd11f9	0.02698611
163	0x3acbdb64	0.0015553054
164	0x3c3c83c9	0.011506029
165	0xbd6c7309	-0.057726894
166	0xbd3d5769	-0.04622594
167	0xbc0a867d	-0.008454916
168	0xbcd2af73	-0.025718426
169	0xbb9b0684	-0.0047310013
170	0xbd0b6def	-0.034040388
171	0x3e289d69	0.16466297
172	0x3d624dae	0.055249862
173	0xbcc4273d	-0.023944492
174	0x3dda3ada	0.10655756
175	0x3db118f9	0.08647341
176	0x3e026193	0.12732534
177	0xbb065ec0	-0.0020503253
178	0x3d938b5f	0.07204317
179	0xbc8a219b	-0.016861727
180	0x3dbe303c	0.09286544
181	0xbd72d781	-0.05928755
182	0xbdeb4a9d	-0.11488841
183	0xbd8d1df1	-0.068904765
184	0xbd0d5bec	-0.03451149
185	0x3d989201	0.07449723
186	0xbdaa9898	-0.08329886
187	0x3d3849f7	0.044992413
188	0x3db4f6b2	0.08836116
189	0x3d8a558f	0.067546
190	0x3cbf7c74	0.023374774
191	0xbcaf18e6	-0.021374177
192	0xbe07498f	-0.13211654
193	0xbd918be8	-0.07106763
194	0x3bf98605	0.0076148533
195	0x3d3548f8	0.04425904
196	0xbd649fb6	-0.055816375
197	0xbc2333b5	-0.009961058
198	0x3d365c4b	0.04452161
199	0x3d1f9b19	0.038966272
200	0xbd28090f	-0.041024264
201	0x3d8e8945	0.06959776
202	0xbd61d579	-0.055135224
203	0xbd816900	-0.06318855
204	0x3d2751c2	0.040849455
205	0xbdaff391	-0.085913785
206	0x3bf25511	0.0073953946
207	0xbe011ce7	-0.12608682
208	0xbd94406f	-0.07238852
209	0xbda190f7	-0.07888978
210	0xbd1d4902	-0.038399704
211	0x3c86d92e	0.016460981
212	0x3d8f7e76	0.070065424
213	0xbd73cfb9	-0.05952427
214	0x3d56c876	0.05243727
215	0xbd6a419f	-0.057191487
216	0x3e1eb832	0.15499952
217	0xbdab2761	-0.0835712
218	0x3cf73cdb	0.030180385
219	0x3d5588d8	0.052132457
220	0xbde19871	-0.11015404
221	0x3d5dbbb5	0.05413409
222	0x3d1db02e	0.038498096
223	0xbcb25213	-0.021767652
224	0xbd5c5e7b	-0.05380104
225	0xbd22f67e	-0.039785855
226	0x3c749da7	0.014930165
227	0xbcb37fdb	-0.021911552
228	0x3cb7d5b0	0.022440761
229	0x3dd61938	0.10454029
230	0xbcdcc0f5	-0.026947478
231	0x3d2aced8	0.041701168
232	0xbd0e6db7	-0.0347726
233	0x3dbc8ec2	0.092069164
234	0x3dd8ddb5	0.10589162
235	0xbd980f86	-0.07424836
236	0xbdb53b72	-0.08849229
237	0xbc2ee794	-0.01067533
238	0xbc45dc36	-0.012076428
239	0xbca68dec	-0.020331345
240	0x3d30db81	0.043178085
241	0x3dd377c8	0.10325581
242	0x3df3919f	0.118930094
243	0xbd283a55	-0.041071255
244	0x3dd72af7	0.10506242
245	0xbcddb09e	-0.027061757
246	0xbd56d658	-0.052450508
247	0x3daea892	0.08528246
248	0xbb9e40e9	-0.0048295152
249	0x3d145589	0.036214385
250	0xbcd93434	-0.02651415
251	0x3dacddbe	0.084407315
252	0x3ca68822	0.020328585
253	0xbd85d984	-0.065356284
254	0x3d430146	0.047608636
255	0x3c829e4e	0.015944626

net.2.bias f4 [32]
0	0xba4d73ed	-0.00078374037
1	0x3d97737a	0.07395072
2	0xbd80bcc7	-0.062860064
3	0x3cb88246	0.022523057
4	0xbd6d17a8	-0.05788389
5	0x3d890fe2	0.066924825
6	0x3d6b9ee5	0.05752458
7	0xbd79d483	-0.060993683
8	0x3ca07b74	0.019590117
9	0xbd508e33	-0.05091686
10	0x3c8afcdf	0.016966281
11	0xbd147fff	-0.03625488
12	0x3b7d87d6	0.00386857
13	0x3db28c68	0.087181866
14	0x3d395917	0.04525098
15	0xbced3289	-0.028954761
16	0xbda6e446	-0.081490085
17	0xbd5a71a8	-0.053331047
18	0x3b86d303	0.00411451
19	0x3d08613b	0.03329585
20	0xbc29ab57	-0.010355792
21	0x3b1a6492	0.002355848
22	0x3cc7d1af	0.024391977
23	0x3ccecf5d	0.025245363
24	0xbd932c6b	-0.071862064
25	0xbe0c63f2	-0.13710001
26	0x3dae7401	0.0851822
27	0x3cceb867	0.025234414
28	0x3c31b8d0	0.010847285
29	0xbd3c1e7b	-0.045927506
30	0xbd5ae867	-0.053444292
31	0xbda309c4	-0.07960847

net.3.weight f4 [32]
0	0x3ec4092d	0.3828825
1	0x3f184d5d	0.59493047
2	0x3f087df2	0.5331718
3	0x3f20d26e	0.6282109
4	0x3f052c55	0.5202077
5	0x3f65fd18	0.89839315
6	0x3ec3f3da	0.3827198
7	0x3f51f6b6	0.82017076
8	0x3f490a38	0.7853122
9	0x3e46ea98	0.19425428
10	0x3f509adf	0.81486315
11	0x3eba592f	0.36396167
12	0x3ef5962c	0.47966135
13	0x3ef5e71f	0.48027894
14	0x3df9e723	0.12202289
15	0x3ee3d42e	0.44497818
16	0x3f79ce74	0.9758065
17	0x3f6c60a1	0.92334944
18	0x3f2a36e2	0.66489995
19	0x3deb26f9	0.11482043
20	0x3e1f223d	0.15540405
21	0x3f037ae4	0.5135939
22	0x3f3d5d76	0.73970735
23	0x3f00322a	0.50076544
24	0x3eb0f16a	0.34559184
25	0x3f18b605	0.5965274
26	0x3e0a3e1c	0.13500255
27	0x3ee55cf6	0.44797486
28	0x3f2050e0	0.62623405
29	0x3f39667d	0.7242201
30	0x3f62f2b1	0.8865157
31	0x3f6f2b35	0.93425304

net.3.bias f4 [32]
0	0x3cd20218	0.025635764
1	0x3ac93fe4	0.0015354124
2	0x3c3fbd8c	0.011702906
3	0x3d010432	0.03149814
4	0x3d88eb50	0.06685507
5	0xbdb548cf	-0.08851778
6	0x3da523e0	0.08063483
7	0x3dd37ddc	0.1032674
8	0xba31cafc	-0.0006782261
9	0x3d93b6ec	0.07212624
10	0x3cc61c1f	0.024183331
11	0xbbaa12b8	-0.0051902197
12	0xbdbd4729	-0.09242088
13	0x3c357ea5	0.011077558
14	0x3d8d757c	0.06907174
15	0x3c60b4dd	0.013714996
16	0xbe079c20	-0.1324315
17	0xbcc8357f	-0.024439571
18	0x3da437e4	0.08018473
19	0x3de1d34f	0.11026632
20	0x3e106dc2	0.1410437
21	0xbce2d25f	-0.027688203
22	0xbd332cff	-0.043744083
23	0xbbd343c6	-0.006447288
24	0x3caa32be	0.020776149
25	0xbd9d6cba	-0.076867536
26	0x3de8fe35	0.11376611
27	0xbe021d0d	-0.12706394
28	0x3d82d7df	0.063888304
29	0xbbc21504	-0.0059229154
30	0xbd9b4011	-0.07580579
31	0x3d5d2b56	0.053996406

net.3.running_mean f4 [32]
0	0xbd85124c	-0.064976305
1	0x3d857fb1	0.06518496
2	0x3cb00a09	0.02148916
3	0x3e4db08d	0.2008688
4	0xbeba713a	-0.3641451
5	0x3d4a873b	0.049445372
6	0xbc8365d3	-0.016039765
7	0xbddad5ce	-0.10685311
8	0xbd9d0fac	-0.07669005
9	0xbc598b33	-0.013277817
10	0xbd2035e9	-0.039113913
11	0x3d437f0f	0.047728594
12	0x3d5c3e48	0.053770334
13	0x3d5b22cb	0.053499978
14	0x3e0956f5	0.13412078
15	0x3d1e7a69	0.03869096
16	0xbe80aa97	-0.2513015
17	0xbd45f26c	-0.048326895
18	0xbdffaabf	-0.12483739
19	0x3de53b3a	0.11192937
20	0xbdb3897b	-0.08766457
21	0x3e1cc549	0.15309633
22	0xbcb6d179	-0.022316681
23	0x3d998866	0.07496719
24	0xbcf9dab4	-0.030499794
25	0xbef91005	-0.48645034
26	0x3b8bf1fc	0.00427079
27	0x3df6f7bf	0.120589726
28	0x3e045dbb	0.1292638
29	0xbe89558a	-0.26823074
30	0xbec463b4	-0.38357317
31	0x3e297498	0.16548383

net.3.running_var f4 [32]
0	0x3b62dc61	0.003461622
1	0x3abe8900	0.0014536679
2	0x3b12590f	0.0022330915
3	0x3b10da1e	0.0022102664
4	0x3c2cee30	0.010554835
5	0x3b56b065	0.0032758948
6	0x3acaa1cd	0.0015459597
7	0x3afcfc5b	0.0019301282
8	0x3b1674bf	0.002295777
9	0x3a6909aa	0.00088896847
10	0x3b03c2fb	0.002010523
11	0x3ae23619	0.0017258554
12	0x3b9df3e5	0.0048203343
13	0x3a58f0b8	0.0008275616
14	0x3b11ed1b	0.002226657
15	0x3b70a9d6	0.0036722324
16	0x3bbe2c3f	0.0058036144
17	0x3b325ce8	0.002721602
18	0x3b0365c7	0.0020049678
19	0x3b24cc1a	0.0025146068
20	0x3af4f1a3	0.0018687736
21	0x3ab77afb	0.0013998443
22	0x3b8af7d7	0.0042409706
23	0x3b67df21	0.0035380798
24	0x3aadcb39	0.0013259418
25	0x3c32f381	0.010922314
26	0x3a7ba29c	0.0009599121
27	0x3b0b7c8b	0.002128395
28	0x3b3fc640	0.0029262453
29	0x3b574706	0.003284873
30	0x3c550432	0.0130014885
31	0x3ba92d81	0.005162895

net.5.weight f4 [64, 32, 3, 3]
0	0xbd10a5b2	-0.03531427
1	0xbcd1f99b	-0.025631716
2	0x3c9f008c	0.01940944
3	0xbd7a00ae	-0.061035804
4	0xbd450096	-0.048096262
5	0xbcfd938b	-0.030954143
6	0x3c0322fa	0.0080039445
7	0xbd60c50d	-0.054875422
8	0x3cbd3947	0.023098601
9	0x3d4b4df7	0.0496349
10	0x3c9ee153	0.019394552
11	0x3c103f35	0.008804132
12	0xbc551fcf	-0.013008072
13	0x3c36c279	0.011154764
14	0x3b329fb6	0.002725584
15	0xbd87d59c	-0.0663254
16	0xbd8489af	-0.064715736
17	0x3a0d90d1	0.00054003025
18	0xbd12a186	-0.035798572
19	0xba6625eb	-0.0008779454
20	0x3ca02450	0.019548565
21	0xbcb14798	-0.021640584
22	0xbd3e0fda	-0.046401836
23	0x3da78384	0.081793815
24	0x3b177ab0	0.00231139
25	0xbc90726c	-0.017632686
26	0x3c5ae538	0.013360314
27	0xbcbf62c4	-0.023362525
28	0xbce0083f	-0.027347682
29	0x3cdcbd60	0.02694577
30	0xbd209b57	-0.039210644
31	0x3ca7bb4d	0.020475054
32	0x3d0077ac	0.031364128
33	0xbd629df5	-0.05532642
34	0xb9ac3003	-0.00032842168
35	0xbb38edf2	-0.0028217998
36	0x3b9fc1e1	0.004875407
37	0x3a25e745	0.00063287123
38	0x3d6226b2	0.055212684
39	0xbb1ab31c	-0.0023605293
40	0x3c3827ad	0.011239928
41	0xbc894956	-0.016758602
42	0xbd930e9c	-0.07180521
43	0xbd0b451d	-0.03400146
44	0xbc6c902a	-0.014438668
45	0x3c1326e2	0.008981438
46	0xbce1b77f	-0.027553318
47	0x3d15be33	0.03655834
48	0x3cb9d94f	0.022686629
49	0x3c81dc50	0.015852123
50	0xbc556d8f	-0.013026609
51	0xbcc81fe8	-0.024429277
52	0xbbde4492	-0.0067830766
53	0x3dab868f	0.083752744
54	0x3c5060f9	0.012718433
55	0x3c9076fc	0.017634861
56	0x3b88002c	0.004150411
57	0x3d8fe79a	0.07026596
58	0x3daa8e88	0.08327967
59	0xbd2c2402	-0.042026527
60	0x3d057e99	0.032591436
61	0xbcab8cbc	-0.02094113
62	0xbc7c0ebc	-0.015384372
63	0x3d179378	0.03700587
64	0xbca803d3	-0.020509636
65	0x3d670a7a	0.056406476
66	0xbcb8bcad	-0.022550905
67	0x3d0df40c	0.03465657
68	0x3d1804dc	0.03711401
69	0x3d0f97eb	0.03505699
70	0x3c85285d	0.016254598
71	0x3c1fc0f8	0.009750597
72	0xbcd92cf7	-0.026510699
73	0xbcb125cf	-0.021624474
74	0x3d6dfc01	0.058101658
75	0x3ca75232	0.020424936
76	0xbd4c1197	-0.049821462
77	0xbcd88821	-0.026432099
78	0x3d222f4c	0.039595887
79	0xbe07f384	-0.13276488
80	0x3cb2a85d	0.021808797
81	0xbc7a7f62	-0.0152891595
82	0x3ba896d6	0.005144934
83	0x3d2e1fb1	0.042510692
84	0xbd09c8cd	-0.033638764
85	0xbc951e65	-0.01820297
86	0x3ba29622	0.004961745
87	0x3d17a3fb	0.03702162
88	0xbdab5f4a	-0.08367784
89	0x3d2cdf24	0.04220499
90	0xbb987546	-0.004652652
91	0x39de2aab	0.0004237493
92	0x3d50894c	0.050912187
93	0xbd53ef83	-0.051742088
94	0xbd0cf826	-0.03441634
95	0x3a8cda22	0.0010746161
96	0x3ce2cfde	0.02768701
97	0xbd01db8b	-0.031703513
98	0x3b05325e	0.002032421
99	0xbc11d872	-0.008901702
100	0xbd6bb441	-0.05754495
101	0xbd8cf973	-0.06883516
102	0xbcb25912	-0.021770988
103	0xbc94c989	-0.018162506
104	0xbd76b10f	-0.06022745
105	0xbbde7b23	-0.0067895814
106	0x3bb5dd20	0.005550042
107	0x3c0e81ec	0.008697968
108	0x3c1f3561	0.009717316
109	0xbda89eff	-0.08233451
110	0x3c752a1c	0.014963653
111	0xbbdee7a2	-0.006802515
112	0xbc37df6c	-0.0112227015
113	0x3b916160	0.004436657
114	0xbd40d955	-0.047082264
115	0xbd916df5	-0.07101051
116	0xbcaa4aaa	-0.020787556
117	0x3d3b36a5	0.04570641
118	0x3cba4409	0.02273752
119	0x3c06e3e8	0.008233048
120	0xbd4bc384	-0.049747005
121	0xbd43eca5	-0.047833104
122	0xbbf69d02	-0.007526041
123	0xbc8fbddc	-0.017546587
124	0xbc5a3d57	-0.013320289
125	0x3d174c18	0.036937803
126	0xbd5dff06	-0.054198287
127	0xbcbcd754	-0.023051895
128	0xbdb79ad8	-0.08965081
129	0xbda9bb3a	-0.08287664
130	0xbd4f252d	-0.050572563
131	0xbc91ef33	-0.017814254
132	0x3c1f743c	0.009732302
133	0xbd09a37c	-0.033603176
134	0xba8754c5	-0.0010324946
135	0x3ca2fcd7	0.019895954
136	0x3c6e73b6	0.014553955
137	0xbc69dc51	-0.014273719
138	0x3bdccb6d	0.0067381174
139	0xbd046c33	-0.03232975
140	0x3c7227b5	0.014779975
141	0xbd7a4108	-0.061097175
142	0xbd8ff654	-0.07029405
143	0x3c35fe69	0.011108019
144	0x3ba1fe62	0.004943655
145	0x3d295344	0.041339174
146	0x3cfcbabe	0.030850764
147	0x3d8d7c6a	0.06908496
148	0xbd738e71	-0.059462015
149	0xbd965ac2	-0.073415294
150	0x3d75601c	0.05990611
151	0xbe01aa5e	-0.12662646
152	0xbd7c0cee	-0.06153577
153	0xbd30fd2c	-0.043210194
154	0xbd858e2d	-0.065212585
155	0xbcd8ee9b	-0.026480963
156	0xbcca9f81	-0.02473426
157	0xbd26e4e7	-0.040745642
158	0x3c598b79	0.013277882
159	0xbd272a3d	-0.040811766
160	0xbd827734	-0.063703924
161	0xbc1c48eb	-0.009538869
162	0xbcdb9996	-0.026806634
163	0x3cde06f0	0.027102917
164	0xbc218827	-0.009859121
165	0x3d156f52	0.036483116
166	0xbcc1e48e	-0.023668554
167	0x3c9dec2d	0.019277656
168	0xbcf51b0d	-0.029920125
169	0x3c0ca7f8	0.008584969
170	0xbd5aab2f	-0.05338591
171	0x3cc91423	0.024545735
172	0xbcb6ec0b	-0.022329351
173	0x3dac9e4e	0.08428632
174	0xbdba09f8	-0.09083933
175	0xbdfd885f	-0.12379526
176	0x3be2f9b7	0.006926741
177	0xbdfeaa7d	-0.12434862
178	0xbe1e3328	-0.15449202
179	0xbd80d1ac	-0.06289992
180	0xbd6682a4	-0.056276932
181	0xbd57f3c6	-0.052722715
182	0xbcc72420	-0.024309218
183	0xbc9c1943	-0.019055014
184	0xbd7db250	-0.06193763
185	0xbcf69494	-0.030100144
186	0x3c922b31	0.01784286
187	0xbd73eaca	-0.059550084
188	0xbd74f3b2	-0.05980272
189	0x3cf34ab9	0.029698716
190	0x3d51029e	0.051027887
191	0x3c7ff689	0.015622743
192	0xbcab4115	-0.020905057
193	0x3be44c29	0.006967087
194	0xbd5a9255	-0.05336221
195	0xbd3f47ba	-0.046699263
196	0xbc21386b	-0.009840111
197	0xbd5002c6	-0.050783895
198	0xbb21383a	-0.0024600164
199	0xbd07604a	-0.033050813
200	0xbd617732	-0.055045314
201	0xbb9448b0	-0.0045252666
202	0xbd660aec	-0.05616276
203	0xbdacd02c	-0.08438143
204	0xbcd8ced8	-0.026465818
205	0xbd26d255	-0.040727932
206	0xbcc17fe6	-0.023620557
207	0xbc886181	-0.016648056
208	0xbd8fdc39	-0.07024426
209	0xbd907043	-0.07052662
210	0x3b4163a9	0.0029508865
211	0xbcad8139	-0.021179782
212	0x3c97a803	0.018512731
213	0xbd500505	-0.050786037
214	0x3c5dc91f	0.013536721
215	0xbb978a17	-0.004624616
216	0x3b1a219c	0.0023518568
217	0x3ce58899	0.028019236
218	0x3ab96c9f	0.0014146751
219	0xbcab2237	-0.020890338
220	0x3c3eb9ca	0.011640975
221	0x3cec27aa	0.028827507
222	0x3d736423	0.05942167
223	0xbe148f89	-0.1450788
224	0xbdbd756c	-0.09250912
225	0x3d7a1a93	0.0610605
226	0x3d4612fe	0.048357956
227	0xbc5c1494	-0.013432641
228	0xbcc42800	-0.023944855
229	0xbda5dab0	-0.08098352
230	0x3cbe1435	0.023202995
231	0xbd7e78ae	-0.062126808
232	0xbe20b44c	-0.15693778
233	0xbb8b846b	-0.004257729
234	0xbd151cdf	-0.036404487
235	0xbcd6108b	-0.026130935
236	0xbc75ae12	-0.014995115
237	0xbd2735f9	-0.040822957
238	0xbcb8716f	-0.022515027
239	0x3d8d5141	0.069002636
240	0xbd512b5a	-0.051066734
241	0xbc8f5173	-0.017494893
242	0xbcdc7b23	-0.026914185
243	0x3c5d26c7	0.013498015
244	0xbd392aad	-0.045206714
245	0xbb90c547	-0.0044180485
246	0x3cd52867	0.026020242
247	0xbc8788f2	-0.016544793
248	0xbc7c71fc	-0.015408035
249	0x3d0bfb52	0.034175225
250	0xbd2a4f1f	-0.041579362
251	0xbcb60f93	-0.022224223
252	0x3d9b0ee9	0.07571203
253	0x3d849ce1	0.06475235
254	0x3bd0350f	0.0063539813
255	0x3d70ad70	0.058759153

net.5.bias f4 [64]
0	0x3cb7f95c	0.022457771
1	0x3d2f0de2	0.04273785
2	0x3d4c8b78	0.049937695
3	0xbd269d03	-0.04067708
4	0xbd433bab	-0.047664326
5	0x3c96ed5b	0.018423727
6	0x3d22bc52	0.039730377
7	0xbd1c16cd	-0.038107682
8	0xbcf2204f	-0.029556422
9	0x3c1cf74e	0.009580446
10	0x3cf1d05d	0.0295183
11	0xbcc2a264	-0.023759075
12	0x3cad7e36	0.021178346
13	0x3cb62c37	0.02223788
14	0x3cd6bccf	0.026213078
15	0xbc1ff830	-0.009763762
16	0x3cdfcf4f	0.027320532
17	0xbd59ad24	-0.053143635
18	0xbb08780c	-0.0020823507
19	0x3d2f4ad9	0.04279599
20	0x3b9dcc29	0.0048155976
21	0xbcdd9ebd	-0.027053231
22	0xba07b7e0	-0.0005177241
23	0xbd2a2cfd	-0.04154681
24	0x3b0376b9	0.0020059778
25	0x3cd95291	0.026528629
26	0xbc84940a	-0.016183872
27	0x3c668ff3	0.014072406
28	0x3d065020	0.032791257
29	0xbcf4371e	-0.029811438
30	0xbc999448	-0.018747464
31	0xbd02e080	-0.03195238
32	0xbd1cb079	-0.038254235
33	0xbc630209	-0.013855466
34	0xbc03525e	-0.008015243
35	0x3d343de4	0.044004336
36	0x3c33f5ec	0.010983925
37	0x3cc1dd76	0.023665171
38	0xbd0c90ea	-0.03431789
39	0x3c55272e	0.013009829
40	0xbc90aaf4	-0.017659642
41	0xb9f0d876	-0.00045937643
42	0xbd48925f	-0.048967715
43	0x3b59f353	0.0033256605
44	0xbcaa6726	-0.020801138
45	0xbd3977d6	-0.0452803
46	0xbccb23da	-0.024797369
47	0xbc5a03e8	-0.013306595
48	0xbd2f69b6	-0.042825423
49	0xbcd0b7d6	-0.025478285
50	0xbcb25184	-0.021767385
51	0xbba3c07f	-0.0049973126
52	0xbd3ee134	-0.04660149
53	0x3d8e43c4	0.06946519
54	0x3d856315	0.06513039
55	0xbb755684	-0.00374356
56	0xbd65030a	-0.0559111
57	0xbbcb0c3e	-0.0061965277
58	0x3cdf5b19	0.027265118
59	0xbc067f5f	-0.008209079
60	0x3d548a6c	0.051889822
61	0x3d13fd14	0.036130026
62	0x3d17b80d	0.03704076
63	0x3d16164a	0.03664235

net.6.weight f4 [64]
0	0x3f0b0b9d	0.54314595
1	0x3e19807a	0.14990416
2	0x3e9d93b0	0.3077674
3	0x3f169884	0.5882647
4	0x3f092a00	0.5357971
5	0x3e93c14c	0.2885841
6	0x3e352d25	0.17693003
7	0x3f4b859e	0.7950076
8	0x3efad572	0.4899097
9	0x3f1eb258	0.6199088
10	0x3ed03a8f	0.40669677
11	0x3dc943db	0.098273955
12	0x3f42de5b	0.7612054
13	0x3e041a89	0.12900747
14	0x3e841e9c	0.25804603
15	0x3e9906e9	0.29888085
16	0x3e8b2b26	0.27181357
17	0x3e71306d	0.23553629
18	0x3e21c151	0.157964
19	0x3eb25e3a	0.34837514
20	0x3ec81a39	0.39082506
21	0x3f222778	0.63341475
22	0x3e661370	0.22468352
23	0x3e861718	0.26189494
24	0x3dfb7efc	0.1228008
25	0x3edb0265	0.42775264
26	0x3ecb244f	0.3967614
27	0x3ee67148	0.45008302
28	0x3f028b5d	0.509939
29	0x3f12db0b	0.57365483
30	0x3e3edbda	0.18638554
31	0x3f719042	0.94360745
32	0x3f731a78	0.94962263
33	0x3f4595c7	0.7718167
34	0x3f0d8bef	0.55291647
35	0x3eb5b624	0.35490525
36	0x3ea8cc78	0.32968497
37	0x3eb274ad	0.34854642
38	0x3ddd6431	0.108101256
39	0x3f03879b	0.5137879
40	0x3e7d3209	0.24726118
41	0x3f127839	0.57214695
42	0x3d2f836e	0.04284995
43	0x3e0cb6cb	0.13741605
44	0x3e5c11e9	0.21491207
45	0x3f171181	0.59011084
46	0x3f5fe8bd	0.87464505
47	0x3f0ab291	0.5417872
48	0x3e08fa08	0.1337663
49	0x3e3e146b	0.18562476
50	0x3f416ccf	0.75556654
51	0x3e434705	0.1907006
52	0x3f121dea	0.57076895
53	0x3f327720	0.6971302
54	0x3e47d80f	0.19516014
55	0x3e5c1576	0.21492562
56	0x3f502b12	0.8131572
57	0x3f6a7075	0.91577846
58	0x3eb09ebd	0.34496108
59	0x3e82dcfb	0.2555922
60	0x3ddc0c5c	0.10744545
61	0x3e3bc822	0.18338063
62	0x3d142dc7	0.03617647
63	0x3e3bf485	0.18354996

net.6.bias f4 [64]
0	0xbdda5a3d	-0.10661743
1	0xbde4a7cb	-0.111648165
2	0x3c947bae	0.018125381
3	0xbe1b94cc	-0.1519348
4	0xbe10e5a4	-0.14150101
5	0xbe344f23	-0.17608313
6	0xbe1e4c9a	-0.15458909
7	0xbe1dfaae	-0.15427658
8	0xbdf72ef9	-0.12069506
9	0xbe836341	-0.25661662
10	0xbe8a3695	-0.26994768
11	0xbda20683	-0.07911398
12	0xbe51f3a5	-0.205031
13	0x3a69996c	0.0008911106
14	0xbe609d90	-0.21935105
15	0xbdb2d928	-0.087328255
16	0xbe66f506	-0.22554407
17	0xbe35ad95	-0.17741998
18	0x3d0c2323	0.034213196
19	0xbe2f28b5	-0.17105372
20	0xbde532b9	-0.11191315
21	0xbea32bc3	-0.31869325
22	0xbd2eea3f	-0.042703863
23	0xbe22cc7d	-0.15898319
24	0xbd5d497a	-0.05402515
25	0xbd911035	-0.07083169
26	0xbe924902	-0.28571326
27	0xbb9998ad	-0.00468739
28	0xbe7e53bc	-0.2483663
29	0xbd77e9b7	-0.060525622
30	0x3ba6b6f2	0.0050877267
31	0xbe4933f5	-0.19648726
32	0xbdad060b	-0.08448418
33	0xbe856fdb	-0.260619
34	0xbd8ab804	-0.067733794
35	0x3c8897a2	0.016673867
36	0xbe2aa966	-0.16666183
37	0xbe85422d	-0.2602705
38	0xbddbbf1f	-0.10729813
39	0xbe6ef3d1	-0.23335196
40	0xbe1112d3	-0.14167337
41	0xbe88a41d	-0.26687708
42	0x3d45fe13	0.048338007
43	0xbd8b9423	-0.06815364
44	0xbda94ed0	-0.082669854
45	0xbe825328	-0.25454068
46	0xbea88100	-0.3291092
47	0xbd769325	-0.06019892
48	0xbb5a8e3b	-0.0033348936
49	0x3ca51c4d	0.020155096
50	0xbdaf8483	-0.085701965
51	0xbdd5a60d	-0.10432062
52	0xbe1a655f	-0.15077733
53	0xbea7418e	-0.32667202
54	0xbe51981d	-0.20468183
55	0xbe4e9842	-0.20175269
56	0xbe820ed8	-0.2540195
57	0xbdcfa83a	-0.101395085
58	0xbdf077ab	-0.11741575
59	0xbe200817	-0.15628086
60	0xbd96a7a5	-0.073561944
61	0xbd91aab3	-0.071126364
62	0x3d882956	0.06648509
63	0xbe27d4c4	-0.16389757

net.6.running_mean f4 [64]
0	0xbedd537f	-0.43227765
1	0x3f47502c	0.7785671
2	0xbf189833	-0.5960724
3	0xbf0772bd	-0.5290945
4	0x3e07d827	0.1326605
5	0x3f2421c2	0.6411401
6	0x3f0e8c36	0.55682695
7	0xbf82b1a5	-1.0210463
8	0xbc78dd44	-0.015189473
9	0x3f4e0c4b	0.8048751
10	0x3ef0b3ee	0.47012275
11	0x3ea3561d	0.31901637
12	0xbedb075b	-0.4277905
13	0x3f052573	0.5201027
14	0x3f5e316a	0.8679415
15	0xbf3ff67e	-0.7498549
16	0x3f2912a3	0.6604406
17	0x3f11e4ea	0.5698992
18	0xbf1d4d7b	-0.6144635
19	0x3ef876b5	0.48528066
20	0xbf5744cd	-0.84089357
21	0x3e1f088c	0.15530604
22	0x3f2dd47d	0.67902356
23	0x3ed73516	0.4203269
24	0xbebcf52e	-0.36905807
25	0x3e33b0cc	0.17547911
26	0x3f183829	0.59460694
27	0xbf8813f7	-1.0631093
28	0x3e3b3712	0.18282726
29	0xbf7d043f	-0.98834604
30	0xbf089ccb	-0.5336425
31	0xbf44c6ad	-0.76865655
32	0xbf5884fc	-0.8457792
33	0x3d38e097	0.04513606
34	0xbf49988a	-0.7874838
35	0xbf3c19b5	-0.73476726
36	0x3e0c7a64	0.13718563
37	0x3ee359f1	0.44404557
38	0x3eb2e975	0.3494374
39	0x3f4fae32	0.81125176
40	0xbf254186	-0.64553106
41	0x3f14fb7e	0.58196247
42	0x3e426eeb	0.18987624
43	0x3e476f5c	0.19476074
44	0xbf23c7f3	-0.63976973
45	0xbd1b0a10	-0.037851393
46	0xbe3cdd4d	-0.18443795
47	0xbf9042b8	-1.1270361
48	0xbf80411d	-1.0019871
49	0xbf27fc2d	-0.65619165
50	0xbf082380	-0.5317917
51	0x3f20ee7b	0.6286389
52	0xbf85563a	-1.0416939
53	0x3f23c3da	0.6397072
54	0x3f077602	0.5291444
55	0x3ed0327a	0.4066351
56	0xbf132136	-0.5747255
57	0xbf38d6ab	-0.7220256
58	0xbf7526ea	-0.95762503
59	0xbf691feb	-0.9106433
60	0x3e7e1840	0.24813938
61	0x3f71f999	0.9452148
62	0x3e38bf62	0.18041757
63	0x3f24b3a2	0.643366

net.6.running_var f4 [64]
0	0x3f1507ab	0.58214825
1	0x3e2294e2	0.15877107
2	0x3f43a7e3	0.7642805
3	0x3f8d1bc4	1.1024098
4	0x3f557f3c	0.8339727
5	0x3e130980	0.14359093
6	0x3e1ca2a8	0.15296423
7	0x3f08cf55	0.53441364
8	0x3e790507	0.24318324
9	0x3ea3debe	0.32005876
10	0x3dd7e3d6	0.10541503
11	0x3e43e141	0.19128896
12	0x3e923255	0.28554025
13	0x3e64cf89	0.22344793
14	0x3e7e552b	0.24837177
15	0x3f07fb2e	0.53117645
16	0x3e240d68	0.16020739
17	0x3e2a966a	0.16658941
18	0x3f0ce769	0.55040604
19	0x3ddefaef	0.108877055
20	0x3f5c850c	0.86140513
21	0x3d9b70d9	0.07589883
22	0x3f48c262	0.78421605
23	0x3db4b015	0.088226475
24	0x3e46397d	0.19357868
25	0x3f8125c9	1.0089656
26	0x3e4f6e72	0.20256975
27	0x3fc1bd47	1.5135888
28	0x3dd461c9	0.103702135
29	0x3f634f81	0.8879319
30	0x3f06ab24	0.5260489
31	0x3f035ec2	0.51316464
32	0x3f8ad2ae	1.0845544
33	0x3dc8dfa3	0.0980828
34	0x3f81e594	1.0148187
35	0x3f11f406	0.57012975
36	0x3dbf0c16	0.09328477
37	0x3de05acf	0.1095482
38	0x3db22d67	0.08700066
39	0x3e191644	0.149499
40	0x3f80152f	1.0006465
41	0x3e464233	0.1936119
42	0x3e21f6f4	0.15816861
43	0x3de993b0	0.11405122
44	0x3e52f02b	0.2059943
45	0x3ddafff7	0.10693353
46	0x3f300368	0.687552
47	0x3f868342	1.0508807
48	0x3e9a4a56	0.3013484
49	0x3f350ffe	0.7072753
50	0x3fe6500d	1.799318
51	0x3e2072c2	0.15668777
52	0x3f09904c	0.53735805
53	0x3df0b9a1	0.11754156
54	0x3de3a22e	0.11114918
55	0x3e06fd49	0.13182558
56	0x3f5927fb	0.8482663
57	0x3f9f8720	1.2463112
58	0x3f5cf8d4	0.8631718
59	0x3f5558ac	0.8333843
60	0x3dd358ba	0.103196576
61	0x3e2e266a	0.17006841
62	0x3e1ada65	0.15122373
63	0x3e07ff8b	0.13281076

net.8.weight f4 [128, 64, 3, 3]
0	0x3caf1994	0.021374501
1	0xbba7515a	-0.0051061334
2	0x3d0096c2	0.031393774
3	0x3d2e5e0a	0.04257015
4	0x3c7677ae	0.015043182
5	0xbc5e107d	-0.013553736
6	0xbd0faf3d	-0.03507923
7	0xbcb31d18	-0.021864459
8	0xbca8ea62	-0.020619575
9	0x3c9df038	0.019279584
10	0x3d74fb4c	0.059809968
11	0x3cd589f9	0.026066767
12	0xbcb534e1	-0.022119941
13	0x3d8cb55f	0.06870531
14	0x3da29941	0.07939387
15	0xbcce64f6	-0.025194626
16	0xba4fc48a	-0.000792571
17	0x3d18d672	0.037313886
18	0x3ae550dd	0.0017495413
19	0xbd14d7b9	-0.03633854
20	0xbd1c0eb2	-0.038099952
21	0xbc94a776	-0.018146258
22	0xbd83c565	-0.064341344
23	0xbd814803	-0.06312563
24	0xbd41e5b9	-0.04733822
25	0xbd178669	-0.036993418
26	0xbd918d59	-0.07107038
27	0xbd3480b8	-0.04406807
28	0xbd00a272	-0.03140492
29	0xbd16c130	-0.03680533
30	0xbc0f9bde	-0.008765189
31	0xbbaea6d4	-0.005329946
32	0xbcf33088	-0.029686227
33	0x3c5fb821	0.01365474
34	0xbc9e3b4a	-0.01931538
35	0xbc24d138	-0.010059647
36	0xbc90f749	-0.01769604
37	0xbccb7003	-0.024833685
38	0xbbee326b	-0.007269194
39	0x3b879cc8	0.004138563
40	0xbb6fa6a7	-0.0036567838
41	0xbc8015b1	-0.015635343
42	0xbd4dcb6e	-0.050242834
43	0x3c2d3630	0.010572001
44	0x3b39eed2	0.0028371108
45	0x3b677fe1	0.0035324025
46	0xbd1a66ab	-0.037695568
47	0xbd88301d	-0.06649802
48	0x3c45737c	0.012051459
49	0xbc9b49eb	-0.018956145
50	0xbdcb96b5	-0.099408545
51	0x3c89b8e7	0.016811801
52	0x3d124cba	0.035717703
53	0xbd8647c0	-0.06556654
54	0x3bec3136	0.007208015
55	0xbb8616b0	-0.00409206
56	0xbd95adaf	-0.07308518
57	0x3cd00b9a	0.025396157
58	0x3ba44a94	0.005013773
59	0xbd67ef46	-0.056624673
60	0x3c839017	0.016059918
61	0x3ca43f49	0.020049708
62	0xbdbc8f92	-0.09207071
63	0xbaa6a7a3	-0.0012714755
64	0x3d4e499a	0.05036316
65	0x3d9967c1	0.074904926
66	0x3b32c86b	0.0027280103
67	0x3cb201c4	0.021729358
68	0x3d9ac036	0.075561926
69	0xbd88ffba	-0.06689401
70	0xbc061139	-0.008182817
71	0x3db95a06	0.09050374
72	0xbd00fc56	-0.031490646
73	0xbc8cff20	-0.017211497
74	0x3c12ae07	0.008952624
75	0xbc5b8314	-0.013397951
76	0x3cab7c15	0.02093319
77	0x3cd1fc97	0.02563314
78	0xbc123225	-0.008923088
79	0xbbccd574	-0.0062510315
80	0x3d1043c7	0.035220888
81	0xbcda4fa7	-0.02664931
82	0x3cc97ca5	0.024595568
83	0x3c6ffc60	0.014647573
84	0xbd24e003	-0.040252697
85	0x3cb6bb88	0.022306219
86	0x3c3ed242	0.011646809
87	0xbcfe132f	-0.031015007
88	0xbcdd8fde	-0.02704614
89	0xbba772c2	-0.0051101157
90	0xbcc9552a	-0.024576742
91	0xbce17d17	-0.027525468
92	0xbdb898b2	-0.09013499
93	0xbd0f4e77	-0.03498694
94	0x3bad159b	0.0052821166
95	0xbd991778	-0.074751794
96	0xbb9b6bd4	-0.0047430787
97	0xba54f322	-0.0008123388
98	0xbdb0c742	-0.086317554
99	0x3be0bfce	0.0068588024
100	0x3ce9fb5e	0.028562244
101	0x3d1dee4b	0.038557332
102	0xbd113921	-0.035454873
103	0xbc919ea6	-0.017775845
104	0xbd0d4bd4	-0.034496143
105	0x3d0b2f21	0.033980493
106	0x3d0fe43a	0.035129763
107	0x3d35d9bb	0.044397097
108	0xbd0ff851	-0.035148922
109	0xbce79764	-0.02827043
110	0x3c035251	0.008015231
111	0xbba9d6e9	-0.00518309
112	0xbbb623d4	-0.0055584703
113	0xbc139f88	-0.009010203
114	0xbc7eaeb7	-0.015544585
115	0xbc1e75a5	-0.009671603
116	0x3ced7dc4	0.028990634
117	0xbd9adcc8	-0.07561642
118	0x3c8cd905	0.017193327
119	0x3c8f2cd5	0.017477432
120	0x3c0a85c2	0.008454742
121	0x3cd23c81	0.025663616
122	0x3afd81bd	0.0019341033
123	0xbb0f37a8	-0.0021853242
124	0x3c65decb	0.014030169
125	0x3d462762	0.048377402
126	0xbcbdc789	-0.023166435
127	0xbc8bfaa3	-0.017087286
128	0xbd7920f8	-0.060822457
129	0x3bad1a4c	0.005282676
130	0xbd1b2f74	-0.03788705
131	0xbdf73d09	-0.120721884
132	0x3ae0089f	0.0017092413
133	0xbd4d195a	-0.050073005
134	0xbde0eaa9	-0.10982258
135	0xbca5c142	-0.020233754
136	0x3cad370a	0.021144409
137	0x3d4e89c9	0.05042437
138	0xbd179dcf	-0.037015732
139	0xbc531f65	-0.012885903
140	0x3d0d99be	0.034570448
141	0xbcc1e0fb	-0.02366685
142	0x3a6eb145	0.0009105395
143	0x3d016342	0.0315888
144	0x3ce3d7ff	0.027812956
145	0x3bbdb0d6	0.0057889028
146	0x3c82dbad	0.01597389
147	0xbd54c721	-0.051947717
148	0x3c82542d	0.015909279
149	0xbd2bf533	-0.041981887
150	0xbcae23a0	-0.021257222
151	0xbcbedc13	-0.023298299
152	0xbc951a6f	-0.018201081
153	0x3c8fea73	0.017567849
154	0xbb808ed6	-0.0039232774
155	0x3d955173	0.07290926
156	0xba2cd29a	-0.00065926614
157	0x3d72492d	0.059151817
158	0x3d3b29f9	0.045694325
159	0xbbe547e7	-0.006997097
160	0xbb151b77	-0.0022751966
161	0x3da4a2c9	0.08038861
162	0xbcb6ea32	-0.02232847
163	0x3bd93d84	0.0066296477
164	0x3db0f132	0.08639754
165	0xbc24a535	-0.010049154
166	0xbce1eca0	-0.027578652
167	0x3d7e26a6	0.062048577
168	0xbc506536	-0.012719443
169	0xbd50f224	-0.051012173
170	0x3d378f37	0.044814315
171	0xbc8025c9	-0.015643017
172	0x3d0bb4c0	0.034107924
173	0x3c89201e	0.016738947
174	0x3d178fcf	0.03700238
175	0x3a032ea9	0.00050042063
176	0x3cc16d50	0.023611695
177	0xbcbf41f9	-0.023346888
178	0xbb243126	-0.0025053709
179	0x3c11b2c0	0.008892715
180	0xbd4ae756	-0.049537025
181	0x3b0201a2	0.00198374
182	0x3cf93609	0.030421274
183	0x3be30ea7	0.006929237
184	0x3b500fb0	0.0031747632
185	0x3d281b0c	0.04104142
186	0xbd428c8e	-0.047497325
187	0xbcc6a16a	-0.02424689
188	0x3c054af4	0.008135546
189	0x3bcca5ad	0.006245336
190	0xbc90ab20	-0.017659724
191	0x3c8f7838	0.01751338
192	0xbd069238	-0.03285429
193	0x3bf09aa3	0.007342653
194	0x3c19cb93	0.009386915
195	0xbb296371	-0.0025846625
196	0xbb71d136	-0.003689838
197	0xbca77623	-0.020442074
198	0xbd9c229a	-0.07623787
199	0x3c2b5d1c	0.010459211
200	0x3c77f687	0.01513446
201	0x3c6508ed	0.013979179
202	0xbc88fbb4	-0.016721584
203	0x3d080a45	0.03321292
204	0xbda84c77	-0.082177095
205	0x3c88d241	0.01670182
206	0x3c3eecd6	0.011653146
207	0x3cec6e62	0.028861228
208	0x3c796ebc	0.015224155
209	0xbc87a561	-0.016558351
210	0xbd2c2a84	-0.042032734
211	0x3bc9fa00	0.0061638355
212	0xbd161f1f	-0.036650773
213	0xbd39abc2	-0.045329817
214	0xbd97820b	-0.073978506
215	0xbd6256a2	-0.0552584
216	0xbd079a76	-0.03310629
217	0xbd18c4a0	-0.03729689
218	0xbbbf0fe9	-0.005830754
219	0x3bfc2ec2	0.0076960037
220	0x3baf25c3	0.0053450777
221	0xbcad77f0	-0.021175355
222	0xbd81480e	-0.063125715
223	0xbd85cf4f	-0.065336816
224	0x3c27b0f4	0.01023506
225	0x3bdb9064	0.0067005623
226	0x3bdbb4f5	0.0067049214
227	0x3cc60b41	0.024175288
228	0x3cf159de	0.029461797
229	0x3d23cdb4	0.039991096
230	0xbc72fe95	-0.014831205
231	0xbcbb2db6	-0.022848945
232	0xbced2e83	-0.028952843
233	0xbc4dc0a0	-0.012558132
234	0xbb6e3e24	-0.0036352957
235	0xbd1b28bf	-0.037880655
236	0xbd36c507	-0.044621494
237	0x3c90162c	0.017588697
238	0xbcf5ab66	-0.029988956
239	0xbd1ed390	-0.03877598
240	0x3d12d0bd	0.0358436
241	0x3c01b7c3	0.007917347
242	0xbcebe422	-0.028795306
243	0xbd56c59b	-0.052434545
244	0xbc4f15d4	-0.012639482
245	0xbd40fba4	-0.047114983
246	0x3d3eb443	0.04655863
247	0xbd1d8749	-0.038459096
248	0xbb142717	-0.0022606307
249	0xbd0adb0c	-0.033900306
250	0xbc253156	-0.010082563
251	0x3cc5e7a3	0.024158305
252	0x3af2f0ab	0.0018534859
253	0xbb398efd	-0.0028313987
254	0xbd906c95	-0.070519604
255	0xbca04649	-0.019564765

net.8.bias f4 [128]
0	0x3c4a0ca0	0.012332112
1	0x3d1c9d9d	0.03823625
2	0x3c8b1e4a	0.016982216
3	0xbcc865ff	-0.024462698
4	0x3ce6dc98	0.02818136
5	0x3d04fc8f	0.03246742
6	0x3d2026c6	0.039099477
7	0x3d00ec9e	0.031475656
8	0x3d09464d	0.03351431
9	0x3d235c29	0.039882813
10	0x3be31ede	0.00693117
11	0xbd146054	-0.03622468
12	0xbc995fe9	-0.018722491
13	0xbb4e03eb	-0.003143544
14	0x3cfacc81	0.030615093
15	0xbd1e5beb	-0.03866188
16	0xbbd55148	-0.0065099336
17	0xbc754a01	-0.014971257
18	0xbd1a9d5e	-0.037747733
19	0xbcca1b9a	-0.024671365
20	0xbd1e59f7	-0.038660016
21	0xbc67b1e9	-0.014141538
22	0x3c90c19b	0.017670443
23	0x3d1a86b5	0.037726123
24	0x3d0bfeab	0.034178417
25	0xbd01ee84	-0.031721607
26	0x3c6c0eef	0.014407857
27	0x3c0b7583	0.008511904
28	0xbc8cc086	-0.017181646
29	0x3cfaa9c8	0.030598536
30	0xbc9b7b55	-0.018979708
31	0x3c957c4b	0.018247744
32	0x3ca179ab	0.019711336
33	0x3c370cc3	0.011172476
34	0xbc17ca83	-0.009264591
35	0x3babcc6f	0.0052428762
36	0x3c7eb38c	0.015545737
37	0xbc54a965	-0.01297984
38	0xbcb08dec	-0.021552049
39	0xbc33ea98	-0.0109812245
40	0x3c4457b1	0.011983798
41	0x3bfdf5b9	0.0077502397
42	0x3cce3280	0.025170565
43	0xbcaf4a2a	-0.021397669
44	0xba615d99	-0.0008597016
45	0x3c525409	0.012837418
46	0xbcdf5838	-0.027263746
47	0x3d037aab	0.032099407
48	0xbc9b6227	-0.018967701
49	0x3cd6affd	0.026206965
50	0xbb56f590	-0.0032800175
51	0x3ba83892	0.005133697
52	0x3c94513e	0.018105146
53	0xbc31e3a0	-0.010857493
54	0x3ce6e08b	0.028183242
55	0x3cf4d194	0.02988509
56	0xbc3b8643	-0.011445585
57	0xbcb99838	-0.022655591
58	0xbd0233db	-0.031787734
59	0xbcf241e2	-0.029572431
60	0x3b8e8a81	0.004350007
61	0x3d005f71	0.03134102
62	0x3cac4907	0.021030916
63	0xbcea2a51	-0.028584631
64	0x3d3456fe	0.044028275
65	0xbd18db40	-0.037318468
66	0xbcf38e81	-0.029731037
67	0x3c5c6bd6	0.0134534445
68	0x3cbc7f2a	0.023009855
69	0x3c4bd360	0.012440532
70	0xbcf8ca90	-0.030370027
71	0xbb49189e	-0.003068484
72	0x3ba39178	0.0049917065
73	0x3d187af8	0.037226647
74	0xbce032d5	-0.027367989
75	0x3ce13a2c	0.027493559
76	0x3c40af35	0.011760523
77	0xbccf325d	-0.02529257
78	0xbcfe9b24	-0.031079836
79	0xbc46c8bb	-0.012132819
80	0xbcd85b5c	-0.026410751
81	0xbd08d797	-0.033408727
82	0x3ab00d33	0.0013431668
83	0x3d241360	0.04005754
84	0x3b447105	0.0029974591
85	0x3d14d54b	0.036336225
86	0xbcaf7772	-0.02141926
87	0x3d0f6b18	0.035014242
88	0xbbbc8e97	-0.0057543027
89	0x3d0e5c0e	0.03475576
90	0x3c721489	0.014775404
91	0xbc8025f2	-0.015643094
92	0xbca4ccf0	-0.020117253
93	0xbcc75863	-0.024334138
94	0xbca17a46	-0.019711625
95	0xbcceea91	-0.025258334
96	0x3b9e4517	0.0048300135
97	0x3c77f41f	0.015133887
98	0xbc27395b	-0.010206546
99	0x3c87218b	0.016495487
100	0x3cef82cc	0.029237173
101	0x3c0d0ede	0.008609502
102	0x3cf0ff39	0.029418575
103	0xbd056962	-0.032571204
104	0x3c8ac41d	0.016939217
105	0x3b527dec	0.0032118512
106	0x3d0c31df	0.03422725
107	0xbca1b66d	-0.019740308
108	0xbc40df83	-0.011772039
109	0xbc50fcb9	-0.012755566
110	0xbc3d5e53	-0.011558133
111	0x3d13e14f	0.036103543
112	0xbb827165	-0.003980803
113	0xbd28d2a5	-0.04121651
114	0xbd1d9147	-0.038468625
115	0xbcf196a0	-0.029490769
116	0x3b400632	0.0029300568
117	0x3ccc38f3	0.0249295
118	0xbcdd0a2d	-0.026982391
119	0xbd2aaecc	-0.041670606
120	0xbd26c0a2	-0.040711053
121	0xbbb608e1	-0.0055552577
122	0xbd2589b5	-0.04041453
123	0xbc8c61d1	-0.017136486
124	0xbc786dde	-0.015162913
125	0x3cc00675	0.023440579
126	0xbd124b40	-0.035716295
127	0xbd07dec5	-0.033171434

net.9.weight f4 [128]
0	0x3da7d259	0.081944175
1	0x3f36b97b	0.7137677
2	0x3f2c3d03	0.67280596
3	0x3f54c71b	0.8311631
4	0x3f52ef9c	0.82396865
5	0x3e2725a4	0.16322953
6	0x3f41e01d	0.75732595
7	0x3f0d4186	0.55178106
8	0x3d31ab6e	0.04337638
9	0x3ebec757	0.3726146
10	0x3eb42372	0.35183293
11	0x3dea068b	0.11427029
12	0x3f175a04	0.5912173
13	0x3f4d0bda	0.8009621
14	0x3eeab9c5	0.45844856
15	0x3e47722e	0.1947715
16	0x3ebdcfef	0.37072703
17	0x3f41d81c	0.7572038
18	0x3ea4f434	0.32217562
19	0x3f5c6082	0.8608476
20	0x3ef3c892	0.4761396
21	0x3f4b8578	0.7950053
22	0x3ee3fb7c	0.44527805
23	0x3e3db318	0.1852535
24	0x3f4f9adc	0.8109567
25	0x3ddf75aa	0.109111145
26	0x3f10f81d	0.5662859
27	0x3ee63976	0.44965714
28	0x3f23b9a9	0.6395517
29	0x3e7b6ac1	0.24552442
30	0x3e238967	0.15970384
31	0x3dc35049	0.095367976
32	0x3ee11602	0.43962103
33	0x3f0cf2e4	0.5505812
34	0x3f2f7639	0.6853977
35	0x3f4f285b	0.8092095
36	0x3d8a4d30	0.067530036
37	0x3f1a03ac	0.6016185
38	0x3e0b4907	0.13602076
39	0x3f6406d5	0.89072925
40	0x3e013d73	0.12621097
41	0x3ed49553	0.41520175
42	0x3e2821f5	0.16419204
43	0x3e936ac4	0.28792393
44	0x3e49d020	0.197083
45	0x3f1827e7	0.59435886
46	0x3d4909e2	0.04908169
47	0x3e2efd5c	0.17088836
48	0x3e7d5170	0.24738097
49	0x3eb46fe3	0.35241613
50	0x3f71c8cb	0.9444701
51	0x3ef2287f	0.4729652
52	0x3f658439	0.8965488
53	0x3ecdcb9c	0.40194404
54	0x3ec84841	0.39117625
55	0x3db09a76	0.08623211
56	0x3f15276a	0.58263266
57	0x3f121cc5	0.5707515
58	0x3de803d5	0.11328856
59	0x3ea68767	0.3252518
60	0x3f7452c4	0.9543879
61	0x3ed947ad	0.42437497
62	0x3e50dfc2	0.20397857
63	0x3f4f856c	0.8106296
64	0x3f0af127	0.5427422
65	0x3eb77cd4	0.35837424
66	0x3e976629	0.2957013
67	0x3e963d28	0.29343534
68	0x3db9f043	0.090790294
69	0x3f04df6c	0.51903415
70	0x3f151695	0.5823758
71	0x3ebab262	0.3646422
72	0x3eecd122	0.46253306
73	0x3f278d28	0.6544976
74	0x3f7519bd	0.957424
75	0x3dd432e4	0.10361269
76	0x3ec7ef03	0.3904954
77	0x3e686f9f	0.2269883
78	0x3eb10918	0.3457725
79	0x3f302063	0.6879942
80	0x3f6519b5	0.8949235
81	0x3f5f393b	0.871967
82	0x3f04ef99	0.51928097
83	0x3f3c4724	0.7354605
84	0x3e1b6a01	0.15177156
85	0x3f328762	0.6973783
86	0x3f1d93f6	0.61553895
87	0x3f416b73	0.7555458
88	0x3ef37fd2	0.47558457
89	0x3e6bc255	0.2302335
90	0x3f2bb030	0.67065716
91	0x3ecaf724	0.39641678
92	0x3e857cf4	0.26071894
93	0x3f00d936	0.5033144
94	0x3f1bc57a	0.608482
95	0x3db10143	0.08642819
96	0x3ece3923	0.40277967
97	0x3e89493e	0.26813692
98	0x3f1087dd	0.5645731
99	0x3e9fa97d	0.31183997
100	0x3f2d8bf3	0.6779167
101	0x3f51096d	0.8165501
102	0x3eb525ad	0.35380307
103	0x3da4ae8f	0.08041107
104	0x3f316728	0.6929803
105	0x3e04ea7b	0.12980072
106	0x3f27149d	0.6526583
107	0x3eec594e	0.46161884
108	0x3f4426fe	0.76622
109	0x3e325839	0.17416467
110	0x3f53dc27	0.827578
111	0x3e0db02c	0.13836735
112	0x3f438111	0.76368815
113	0x3eec761e	0.46183866
114	0x3f55fdff	0.8359069
115	0x3e51e508	0.20497525
116	0x3f4851d4	0.7824986
117	0x3e84db33	0.25948486
118	0x3e0fc1f6	0.14038834
119	0x3df9a676	0.12189953
120	0x3edae26a	0.42750865
121	0x3f0afc8f	0.54291624
122	0x3f2c0679	0.67197376
123	0x3db2ac5d	0.08724282
124	0x3f61964f	0.8811998
125	0x3f3e47b8	0.74328184
126	0x3f06ece2	0.52705204
127	0x3e60a9c2	0.21939757

net.9.bias f4 [128]
0	0xbc277f20	-0.01022318
1	0xbe06c073	-0.13159351
2	0xbd960b23	-0.07326343
3	0xbd5b7af0	-0.05358404
4	0xbd51f3f9	-0.05125806
5	0xba7c4a3d	-0.00096240995
6	0xbc09e09a	-0.008415366
7	0x3d3461ce	0.044038586
8	0xbd0e8028	-0.034790188
9	0x3c797b53	0.015227157
10	0xbd762fb5	-0.06010409
11	0xbd57622d	-0.052583862
12	0xbdc9f67e	-0.09861468
13	0xbbe990a1	-0.007127837
14	0xbcabf2d2	-0.02098981
15	0xbd08a997	-0.03336486
16	0xbd286044	-0.04110743
17	0xbd0c7e4b	-0.03430013
18	0xbce965dd	-0.028490955
19	0xbc9dcb59	-0.019262003
20	0xbd2c9b72	-0.04214043
21	0xbd8f0ad9	-0.06984491
22	0xbd5f5a12	-0.054529257
23	0xbd8d7d7b	-0.06908699
24	0xbd396572	-0.04526276
25	0x3ce3041a	0.027711917
26	0x3c613632	0.013745831
27	0xbd9986fc	-0.07496449
28	0x3dcb1984	0.09916976
29	0xbd024788	-0.0318065
30	0xbd1edfe0	-0.038787723
31	0xbd2f0074	-0.04272504
32	0x3d6491e6	0.055803202
33	0x3d6a1b77	0.0571551
34	0xbd13d007	-0.036087062
35	0xbdcff4c1	-0.10154105
36	0xbd134dc2	-0.035962828
37	0x3d0db9a4	0.03460087
38	0xbd3efeb6	-0.04662963
39	0xbd785a39	-0.060632918
40	0xbd29a2d1	-0.04141504
41	0xbd5209a6	-0.051278733
42	0xbc1f02f8	-0.009705298
43	0xbac0c557	-0.0014707249
44	0xbd651de5	-0.055936713
45	0xba7b610b	-0.00095893507
46	0x3c13991e	0.009008674
47	0xbd5dcd63	-0.05415095
48	0xbd1f42c4	-0.038882032
49	0x3d773d2e	0.06036108
50	0xbb63880a	-0.0034718537
51	0xbc1148a6	-0.008867418
52	0xbb3d0913	-0.002884452
53	0xbd99bdf3	-0.07506933
54	0x3d4d5deb	0.050138395
55	0xbd4dc858	-0.05023989
56	0xbd0913e0	-0.03346622
57	0xbdaddaf0	-0.08489025
58	0x3c6741e8	0.014114834
59	0xbd03c834	-0.03217335
60	0xba4e1307	-0.00078611117
61	0xbd150cc7	-0.03638914
62	0xbda53695	-0.08067051
63	0x3d6e1dd4	0.058133915
64	0x3d81db67	0.06340676
65	0xbcdf81bb	-0.02728354
66	0xbd26823c	-0.040651545
67	0xbcb70b16	-0.022344153
68	0xbc4e3165	-0.012585019
69	0xbd3e881b	-0.04651652
70	0x3c35c940	0.011095345
71	0xbd905be6	-0.07048778
72	0xbd80ad7f	-0.06283092
73	0x3d683ea6	0.05670037
74	0xbd6ebc18	-0.05828485
75	0xbd395291	-0.045244757
76	0x3d7d168c	0.06178908
77	0x3d5b75af	0.05357903
78	0x3d40c25c	0.047060356
79	0x3c8063fd	0.015672678
80	0xbd487ef7	-0.048949208
81	0x3b9b6f35	0.0047434815
82	0xbd7d4b4c	-0.061839387
83	0xbcea4218	-0.02859597
84	0x3cec5b29	0.028852062
85	0xbd2bac09	-0.041912112
86	0xbdc29a7c	-0.09502122
87	0xbd5e054a	-0.054204263
88	0xbdcbaf73	-0.09945574
89	0xbd48cb26	-0.049021862
90	0xbd3a7217	-0.04551896
91	0xbbb0b0f4	-0.005392188
92	0xbd085991	-0.033288542
93	0x3ce96ead	0.028495157
94	0xbd939060	-0.07205272
95	0x3d4ce75c	0.05002533
96	0xbd81d906	-0.06340222
97	0xbd98fb75	-0.074698366
98	0xbd4402b7	-0.04785415
99	0xbcd3ba23	-0.025845593
100	0xbd1868a6	-0.037209176
101	0xbdc5f612	-0.09666075
102	0x3d956bbf	0.072959416
103	0xbd434eea	-0.04768268
104	0xbd1a1503	-0.037617695
105	0xbd168fd9	-0.036758278
106	0xbd889be2	-0.06670357
107	0xbd83cd56	-0.06435649
108	0xbc441efd	-0.011970279
109	0xbd5fc067	-0.05462685
110	0xbd450c39	-0.04810736
111	0xbd06acee	-0.032879762
112	0xbce4323e	-0.027855989
113	0x3d2abb8c	0.041682765
114	0xbe460ec7	-0.19341575
115	0xbcbe8f5f	-0.023261724
116	0xbb83e50a	-0.0040251063
117	0xbd39c5a8	-0.045354515
118	0x3cf88990	0.030339032
119	0xbc49b8fb	-0.012312169
120	0xbd4d9788	-0.05019334
121	0xbb802b4a	-0.0039114105
122	0xbd0d9597	-0.034566488
123	0xbc8469b7	-0.01616369
124	0xbd4de460	-0.050266623
125	0xbe10a4ef	-0.14125417
126	0xbd00a1f3	-0.031404447
127	0xbdc232fc	-0.09482381
