D_A.pth (torch_old, 401728 bytes, 21 tensors)

net.0.weight f4 [16, 3, 3, 3]
-0.031784385 -0.14719692 0.19373384 0.008112858 -0.12001109 -0.10682915 0.0832679 0.15230235
0.020375699 0.08371179 -0.098334886 -0.07106915 0.096747704 -0.036002032 -0.08405038 -0.12531371
-0.08187774 0.09722682 0.14269099 0.18689026 -0.12700243 0.014626242 0.1399631 -0.04458981
-0.11793082 -0.14380135 0.08098589 0.1288429 0.13335972 0.04604918 0.08363462 0.037059937
-0.15716639 -0.12970677 0.12279485 0.0504825 -0.12802966 -0.024705434 0.15263352 0.055351436
0.06015213 0.17822276 -0.07142868 -0.033209115 0.10703495 0.08865013 0.0548741 0.16557653
0.13563599 -0.10717097 0.067605704 0.1702965 -0.10683867 -0.03304421 -0.0028516331 -0.084210314
0.080509216 0.050575078 -0.014102994 0.033494916 -0.18475445 -0.12738627 0.03882519 0.025854941
-0.1760346 -0.17547396 0.0005277075 -0.13552408 -0.08846839 -0.038806748 -0.15599534 -0.039140034
0.054502223 -0.17495133 -0.0069758208 0.08765139 0.08556466 0.034267087 -0.15149885 -0.1446073
0.14610378 -0.106897525 0.016534599 0.12391488 0.10180616 -0.13558312 -0.044190153 0.09820641
0.09444914 -0.017599732 -0.050587025 -0.082946904 0.0079677645 0.07666115 0.029619552 -0.15076418
0.18665288 -0.07462253 -0.13187823 0.101846986 0.13073593 0.18556538 0.039531305 -0.07961844
-0.14746518 0.03945821 0.05784777 0.0550188 0.11814403 0.0757594 0.120622315 -0.052624673
0.097966544 -0.040811498 -0.113508016 0.15466216 0.14362954 -0.014213323 -0.17115119 0.15923257
0.024840882 -0.06922926 0.18484986 0.047587533 -0.07758752 -0.03362333 0.13154572 -0.13536662
0.022909762 -0.14777376 0.15365916 0.09134963 -0.16189326 0.10233313 0.16619648 0.108187616
0.06844509 -0.17288898 0.00689257 0.056032892 0.11997831 0.11292694 0.109216 -0.05825007
0.13736342 -0.05267832 0.08854413 -0.17223959 -0.054450225 -0.08554297 0.16722056 -0.04643799
-0.120932974 -0.0081217885 0.08349556 0.18868676 -0.11607594 0.0741508 -0.023569064 0.13749482
-0.14886373 0.16710226 -0.07343332 0.092560105 0.13623649 0.101820976 0.13768294 -0.17873374
-0.10586518 0.114780724 0.15736014 -0.13912489 0.114401 -0.008582662 0.18888436 0.17605756
-0.035102006 0.05391032 0.1368506 -0.048790168 0.10930977 -0.10304432 0.1530789 0.14155126
-0.039869104 -0.037903 0.13054426 0.16829072 -0.0047017317 0.18337187 0.054157 0.11090112
0.037349343 0.0012940848 0.15725085 -0.17896509 0.16660942 -0.10815939 0.12267303 0.03486812
-0.017674087 -0.104985386 0.0058121677 -0.10647133 -0.10251261 0.0440493 -0.14609638 -0.03351787
0.07155565 -0.034984615 -0.008894153 0.10552777 -0.018524803 0.056251414 -0.1524657 0.122023664
-0.17483641 -0.016049987 -0.014690332 -0.07353596 0.14748135 0.07146441 -0.10307654 0.0700052
0.1330568 0.14530663 0.09462047 -0.07389937 0.14587879 0.18425864 -0.009067827 -0.14576188
0.13453938 0.05534968 0.13667604 0.14140762 -0.07056588 -0.053334784 0.13303433 0.18563426
-0.17212828 -0.07378748 -0.02024414 -0.13222815 -0.17801285 -0.19405091 0.0005639978 -0.094617575
0.029023323 0.12326611 0.11525887 -0.014630504 0.06256416 -0.036191784 -0.08497746 -0.047825243
00000000: 5830 02bd caba 16be 2a62 463e cbeb 043c
00000010: 60c8 f5bd 3ec9 dabd 5c88 aa3d 26f5 1b3e
00000020: f0ea a63c 1671 ab3d cd63 c9bd b48c 91bd
00000030: a923 c63d de76 13bd 9b22 acbd 3d52 00be
00000040: 84af a7bd db1e c73d 961d 123e 2960 3f3e
00000050: ed0c 02be e8a2 6f3c 7d52 0f3e cea3 36bd
00000060: b785 f1bd a940 13be eedb a53d 65ef 033e
00000070: 738f 083e 119e 3c3d a148 ab3d 29cc 173d
00000080: 3af0 20be dad1 04be de7b fb3d bdc6 4e3d
00000090: 351a 03be 0d63 cabc f64b 1c3e 30b8 623d
000000a0: 1462 763d 0780 363e 3349 92bd 4806 08bd
000000b0: 2435 db3d 338e b53d aac3 603d e58c 293e
000000c0: 29e4 0a3e 747c dbbd dc74 8a3d 3562 2e3e
000000d0: 3cce dabd 5e59 07bd 77e2 3abb 7576 acbd
000000e0: 04e2 a43d d027 4f3d 3f10 67bc f731 093d
000000f0: 4530 3dbe 8c71 02be 2a07 1f3d becd d33c
00000100: 6a42 34be 72af 33be da55 0a3a d3c6 0abe
00000110: ea2e b5bd d3f3 1ebd 3ebd 1fbe 4d51 20bd
00000120: b93d 5f3d 7126 33be 6d95 e4bb 9282 b33d
00000130: 863c af3d a55b 0c3d 8422 1bbe f013 14be
00000140: 3b9c 153e 17ed dabd 9173 873c 16c7 fd3d
00000150: bf7f d03d 4dd6 0abe bc00 35bd 7120 c93d
00000160: 8d6e c13d 502d 90bc 5734 4fbd 11e0 a9bd
00000170: 3a8b 023c 8500 9d3d b4a4 f23c ed61 1abe
00000180: ef21 3f3e b2d3 98bd 160b 07be 2795 d03d
00000190: a4df 053e da04 3e3e 94eb 213d fe0e a3bd
000001a0: 1d01 17be ef9e 213d c9f1 6c3d 655b 613d
000001b0: 7ff5 f13d bf27 9b3d d508 f73d f88c 57bd
000001c0: afa2 c83d f529 27bd e476 e8bd c25f 1e3e
000001d0: 9f13 133e ffde 68bc 4242 2fbe dd0d 233e
000001e0: 1b7f cb3c 12c8 8dbd 4849 3d3e 25eb 423d
000001f0: 35e6 9ebd 9eb8 09bd ecb3 063e 8c9d 0abe
00000200: 41ad bb3c 0152 17be d458 1d3e 8415 bb3d
00000210: 59c7 25be 0894 d13d 692f 2a3e 7891 dd3d
00000220: f02c 8c3d cf09 31be 11db e13b bf82 653d
00000230: 30b7 f53d 3d46 e73d a3ac df3d a097 6ebd
00000240: ffa8 0c3e 39c5 57bd a056 b53d 935f 30be
00000250: 3307 5fbd 2731 afbd de3b 2b3e c335 3ebd
00000260: b5ab f7bd 4011 05bc b8ff aa3d 1a37 413e
00000270: 39b9 edbd 60dc 973d e913 c1bc 71cb 0c3e
00000280: bc6f 18be db1c 2b3e 3564 96bd 2790 bd3d
00000290: 9481 0b3e 8487 d03d c2fc 0c3e fa05 37be
000002a0: d8cf d8bd 2812 eb3d 0423 213e c176 0ebe
000002b0: 124b ea3d 4b9e 0cbc e76a 413e 6f48 343e
000002c0: 1fc7 0fbd 11d1 5c3d 9022 0c3e 33d8 47bd
000002d0: cddd df3d e708 d3bd b7c0 1c3e d0f2 103e
000002e0: c94d 23bd 2d40 1bbd 65ad 053e 6754 2c3e
000002f0: fc10 9abb d6c5 3b3e bbd3 5d3d 2020 e33d
00000300: a0fb 183d 489e a93a 5e06 213e a042 37be
00000310: a99b 2a3e ac82 ddbd ff3b fb3d e0d1 0e3d
00000320: 3fc9 90bc 9402 d7bd ff73 be3b a40d dabd
00000330: 22f2 d1bd 0a6d 343d 4a9a 15be 094a 09bd
00000340: c58b 923d 074c 0fbd c8b8 11bc f21e d83d
00000350: 54c1 97bc e267 663d f81f 1cbe 8be7 f93d
00000360: 5108 33be 437b 83bc b8af 70bc 059a 96bd
00000370: 5a05 173e ef5b 923d cb19 d3bd e35e 8f3d
00000380: 0b40 083e 43cb 143e 61c8 c13d 8e58 97bd
00000390: 4061 153e 4cae 3c3e 3991 14bc 9a42 15be
000003a0: b1c4 093e 59b6 623d cef4 0b3e 29cd 103e
000003b0: d884 90bd 9375 5abd 273a 083e e816 3e3e
000003c0: 6542 30be e41d 97bd 0ad7 a5bc d166 07be
000003d0: 0049 36be 48b5 46be 40d9 133a dcc6 c1bd
000003e0: 52c2 ed3c f172 fc3d d80c ec3d c8b4 6fbc
000003f0: a321 803d d63d 14bd aa08 aebd 67e4 43bd

net.0.bias f4 [16]
0.2003568 -0.05893106 -0.011188505 0.1962852 -0.06512957 0.08509891 0.03664042 -0.114883944
0.14510475 -0.10847153 0.20389648 -0.09045288 -0.16483814 -0.12249114 -0.20962422 -0.18805015
00000000: 552a 4d3e b261 71bd fe4f 37bc fdfe 483e
00000010: a762 85bd 5648 ae3d 4414 163d 4648 ebbd
00000020: 5796 143e 5226 debd 3dca 503e 5c3f b9bd
00000030: 54cb 28be a3dc fabd bba7 56be 3890 40be

net.2.weight f4 [32, 16, 3, 3]
-0.020637479 -0.056718316 0.02135968 -0.060007107 0.06431377 -0.09557414 0.030872578 0.040449653
0.032581616 4.061241e-06 -0.046001837 0.015320189 0.009248452 -0.029066782 -0.047808785 -0.024658272
-0.033603203 -0.034558646 -0.0597615 -0.022008551 -0.044871658 -0.05716875 0.05357026 -0.036993936
-0.00036882 -0.06600726 0.0660718 -0.07455268 -0.091717385 0.040585846 -0.017244395 -0.0052717337
-0.01518593 -0.026856603 0.042655587 -0.032192297 -0.070994936 -0.028490132 0.06071892 -0.068249725
0.026882805 0.018164936 -0.035752453 -0.02447995 0.04285063 0.020701865 -0.05756039 0.043086097
-0.080573924 0.07156187 -0.03188852 0.07671834 0.067421585 0.027617425 -0.008854445 0.017047342
-0.060930364 -0.077245645 -0.015335336 -0.029998811 -0.035473306 -0.025777519 0.05544028 0.06395741
0.07704733 0.024372693 -0.01763603 -0.0043921224 -0.014160821 0.08709165 0.015295679 -0.048078902
0.0019438046 -0.017561233 0.049643606 -0.0031704418 -0.019309815 -0.056187414 0.092284374 0.0083197495
0.06808469 0.017644903 -0.034870792 0.048859525 0.018583406 0.005605669 0.009705637 0.006554822
-0.040563535 -0.04046645 0.07264364 -0.06256685 -0.039229397 -0.08758763 -0.062140767 0.047169827
0.07428784 0.062045407 0.081012554 0.038488325 -0.055742413 -0.019946313 0.021949034 0.01561493
-0.062591285 -0.06466829 -0.07333155 -0.057288814 -0.049234685 -0.022711197 0.047427673 -0.07263693
-0.072902195 0.008861276 0.028848246 -0.0242086 0.029900465 -0.047870368 0.009372067 -0.0073432955
0.0037143696 0.070481226 0.05148973 -0.049565133 0.015886405 -0.011271015 0.0075091827 -0.06890183
0.013047818 0.0336925 0.061227918 0.01528936 -0.0689761 0.07788358 0.02383594 0.07263089
0.039159 0.040602375 -0.019519614 0.049933832 0.049500637 -0.0663426 -0.045345604 0.0133982105
-0.03880625 -0.03707763 0.028722202 0.010470932 -0.062019307 -0.052175764 0.012362354 0.049651705
-0.048388105 -0.026712405 -0.042026535 -0.009054883 0.048699293 -0.07396361 0.012419685 -0.021813262
-0.08323943 0.00020234917 -0.039933912 -0.060951643 0.07931014 -0.029504852 -0.07039949 0.029482657
-0.046219412 0.03303864 0.0648435 -0.064148456 0.020134564 -0.00786617 -0.057790395 0.030761546
-0.010915682 -0.010552557 -0.09204461 0.015560875 0.0147620635 0.017548108 -0.019314937 -0.03971959
0.060091253 -0.06715563 0.02558723 0.030183408 -0.028436122 -0.055676125 -0.0437624 0.014130962
0.023125503 0.027732681 -0.019723745 0.06566414 0.015749304 -0.010016359 0.0946585 -0.07793965
-0.08323401 -0.058470514 -0.007787822 -0.016987951 0.06670497 -0.029186312 -0.058548808 0.081647046
-0.014551195 -0.03153681 0.00653369 0.059134 0.060873426 0.06669172 -0.08824778 -0.028072622
0.052554086 -0.0001814303 -0.005632643 -0.08315005 -8.347493e-05 0.015795292 0.045890518 0.07098093
0.049393114 -0.096357025 0.051121924 0.009003464 0.061020162 -0.0035454053 0.017363707 0.064520635
-0.046932854 0.021730289 -0.018623684 0.023402905 0.033608686 -0.07074404 -0.07831346 0.010818428
0.07266468 -0.053236518 0.02573811 0.0725349 -0.065634005 0.03632355 0.07039646 0.024225267
-0.055903252 0.013599988 -0.050520137 0.006860877 0.004292596 0.03797631 -0.050390992 0.04396514
00000000: ee0f a9bc 7751 68bd 7ffa ae3c 03ca 75bd
00000010: f0b6 833d 60bc c3bd 7de8 fc3c 89ae 253d
00000020: 4d74 053d cb45 8836 6c6c 3cbd 8801 7b3c
00000030: d286 173c 761d eebc 25d3 43bd 2500 cabc
00000040: 83a3 09bd 5e8d 0dbd 7ac8 74bd 474b b4bc
00000050: 58cb 37bd c729 6abd 7d6c 5b3d f486 17bd
00000060: 2f5e c1b9 d02e 87bd a750 873d 13af 98bd
00000070: 53d6 bbbd 583d 263d 1e44 8dbc 82be acbb
00000080: 68ce 78bc 6102 dcbc a0b7 2e3d 12dc 03bd
00000090: cb65 91bd 2364 e9bc 67b4 783d 83c6 8bbd
000000a0: 5439 dc3c a2ce 943c 2a71 12bd 2d8a c8bc
000000b0: 2484 2f3d f596 a93c 72c4 6bbd 0c7b 303d
000000c0: f103 a5bd 088f 923d 899d 02bd 811e 9d3d
000000d0: 5414 8a3d f03d e23c 3c12 11bc dea6 8b3c
000000e0: 1e92 79bd f732 9ebd 1041 7bbc 11c0 f5bc
000000f0: 754c 11bd 602b d3bc 5915 633d 1afc 823d
00000100: feca 9d3d 3ea9 c73c 7079 90bc cbeb 8fbb
00000110: ca02 68bc 1b5d b23d ba9a 7a3c 62ee 44bd
00000120: 42c7 fe3a 93dc 8fbc 1857 4b3d 30c7 4fbb
00000130: 9e2f 9ebc c624 66bd 97ff bc3d 8f4f 083c
00000140: fc6f 8b3d 0b8c 903c add4 0ebd ed20 483d
00000150: 3a3c 983c c3af b73b 6404 1f3c d5c9 d63b
00000160: f325 26bd 26c0 25bd 30c6 943d 0c23 80bd
00000170: 01af 20bd 2561 b3bd 5187 7ebd 2635 413d
00000180: 3924 983d 5323 7e3d e9e9 a53d efa5 1d3d
00000190: 2852 64bd 7366 a3bc 76ce b33c c3d5 7f3c
000001a0: dc2f 80bd cf70 84bd da2e 96bd ada7 6abd
000001b0: 4faa 49bd d50c babc 8543 423d acc2 94bd
000001c0: bf4d 95bd e32e 113c 2853 ec3c 1d51 c6bc
000001d0: d2f1 f43c b813 44bd 4c8d 193c 07a0 f0bb
000001e0: c86c 733b 7658 903d e5e6 523d cf04 4bbd
000001f0: 3524 823c 10aa 38bc 970f f63b 671c 8dbd
00000200: 84c6 553c 2601 0a3d 20ca 7a3d 3980 7a3c
00000210: 5743 8dbd 6d81 9f3d 9743 c33c 81bf 943d
00000220: 3065 203d ad4e 263d 99e7 9fbc 6b87 4c3d
00000230: 2ec1 4a3d a1de 87bd 50bc 39bd 2b84 5b3c
00000240: 4df3 1ebd b7de 17bd d34a eb3c 468e 2b3c
00000250: f507 7ebd 41b6 55bd 798b 4a3c 965f 4b3d
00000260: 9b32 46bd f9d3 dabc 0424 2cbd ef5a 14bc
00000270: e978 473d 3c7a 97bd ef7b 4b3c bab1 b2bc
00000280: 6f79 aabd b12d 5439 be91 23bd 6ea8 79bd
00000290: 5b6d a23d 29b4 f1bc 9c2d 90bd 9d85 f13c
000002a0: 9150 3dbd 8653 073d abcc 843d 4460 83bd
000002b0: 3ef1 a43c 1ce1 00bc 9fb5 6cbd a3ff fb3c
000002c0: b0d7 32bc a2e4 2cbc e281 bcbd 0af3 7e3c
000002d0: 95dc 713c 0dc1 8f3c 5c3a 9ebc 02b1 22bd
000002e0: 3f22 763d e488 89bd 509c d13c 3243 f73c
000002f0: dff2 e8bc a60c 64bd 3440 33bd 8d85 673c
00000300: b271 bd3c a62f e33c b193 a1bc ec7a 863d
00000310: af04 813c a81b 24bc 51dc c13d d39e 9fbd
00000320: 9876 aabd c77e 6fbd fc30 ffbb 512a 8bbc
00000330: 9e9c 883d 2218 efbc e0d0 6fbd 9136 a73d
00000340: 2368 6ebc be2c 01bd 9018 d63b 7e36 723d
00000350: 6a56 793d ab95 883d 41bb b4bd 8ef8 e5bc
00000360: f442 573d 533e 3eb9 0992 b8bb 934a aabd
00000370: 430f afb8 2165 813c b2f7 3b3d 735e 913d
00000380: 6f50 4a3d d556 c5bd 3965 513d 4483 133c
00000390: 47f0 793d 085a 68bb 553e 8e3c 6523 843d
000003a0: aa3c 40bd b803 b23c b290 98bc 73b7 bf3c
000003b0: 43a9 093d 40e2 90bd cf62 a0bd c73f 313c
000003c0: 38d1 943d 890e 5abd bbd8 d23c 2d8d 943d
000003d0: 1f6b 86bd 01c8 143d 052c 903d 1174 c63c
000003e0: cffa 64bd 7cd2 5e3c 34ee 4ebd 35d1 e03b
000003f0: e8a8 8c3b 0c8d 1b3d c966 4ebd ca14 343d

net.2.bias f4 [32]
0.02327871 -0.07918514 -0.009609908 0.013360637 0.067136556 0.017397586 -0.021680921 -0.07684008
-0.011762209 -0.05505192 -0.06032888 -0.06936914 -0.07246471 -0.015919708 -0.04752496 -0.0020532694
-0.06121444 -0.040574163 -0.07378806 0.071609974 -0.07584521 -0.06866951 -0.026390117 0.0560912
-0.0432857 0.016133618 0.070459545 -0.049272954 0.06978426 0.015149833 0.029550144 0.03082469
00000000: feb2 be3c d22b a2bd e072 1dbc 93e6 5a3c
00000010: e47e 893d 6285 8e3c 309c b1bc 555e 9dbd
00000020: 48b6 40bc 1f7e 61bd 6a1b 77bd 6811 8ebd
00000030: 6168 94bd 0c6a 82bc 88a9 42bd 2590 06bb
00000040: febb 7abd 1831 26bd 321e 97bd 40a8 923d
00000050: bc54 9bbd 9aa2 8cbd 1630 d8bc e3bf 653d
00000060: 594c 31bd a62a 843c 184d 903d 70d2 49bd
00000070: 0deb 8e3d 0137 783c 2513 f23c 0f84 fc3c

net.3.weight f4 [32]
0.40785307 0.557972 0.5736893 0.27839723 0.78260064 0.5380998 0.9995138 0.7061388
0.29437843 0.39989755 0.8424396 0.19332628 0.7748981 0.24231932 0.34747568 0.5381023
0.36748338 0.88013566 0.15936488 0.57630444 0.4072056 0.40115598 0.6678252 0.81231785
0.83567375 0.13249655 0.09769583 0.43411386 0.5182719 0.4274366 0.5225122 0.3106086
00000000: 1ed2 d03e 41d7 0e3f 4ddd 123f 158a 8e3e
00000010: 8458 483f e9c0 093f 23e0 7f3f 83c5 343f
00000020: c5b8 963e 5fbf cc3e 1faa 573f 53f7 453e
00000030: b95f 463f 8e22 783e 55e8 b13e 13c1 093f
00000040: c826 bc3e 9250 613f 8c30 233e b088 133f
00000050: 417d d03e 5164 cd3e 98f6 2a3f 10f4 4f3f
00000060: b7ee 553f 2dad 073e c014 c83d 2c44 de3e
00000070: 78ad 043f f8d8 da3e 5cc3 053f 1708 9f3e

net.3.bias f4 [32]
0.0041256766 -0.00069506234 -0.037505176 0.003912172 -0.0070764334 -0.0077371686 -0.007694351 -0.010647061
-0.009421188 -0.005660461 0.005604814 0.0021831065 0.0011120149 -0.015253147 0.00507608 -0.013164565
-0.022741335 -0.029452737 0.02231846 0.0120057585 -0.010566948 0.0075325035 -0.0034214156 -0.018740395
-0.010797441 0.0061415997 0.023383224 -0.0078080697 -0.0075328304 9.95965e-05 -0.02275321 0.009464569
00000000: af30 873b d834 36ba 079f 19bd ad31 803b
00000010: 6de1 e7bb 1388 fdbb e520 fcbb 0371 2ebc
00000020: 545b 1abc 637b b9bb 96a8 b73b 7312 0f3b
00000030: 07c1 913a 56e8 79bc 3f55 a63b 30b0 57bc
00000040: 094c babc de46 f1bc 34d5 b63c cdb3 443c
00000050: fe20 2dbc 38d3 f63b d439 60bb 7585 99bc
00000060: c0e7 30bc 793f c93b 2d8e bf3c d6da ffbb
00000070: f6d5 f6bb 77de d038 f164 babc 4811 1b3c

net.3.running_mean f4 [32]
-0.096970916 -0.23758718 -0.20354465 -0.13680065 0.20799093 -0.121703885 0.12204361 -0.38088936
-0.04961942 -0.12490379 0.33362913 -0.06588066 -0.21278529 -0.13149092 -0.11989759 -0.10770771
-0.23953691 0.19909333 -0.070902385 0.44442022 -0.16374147 -0.22285351 0.16314867 0.068174906
-0.036069084 0.4917244 0.10255547 -0.20127761 0.068186134 0.38132367 -0.000715887 0.1572449
00000000: b098 c6bd 0e4a 73be 026e 50be 7815 0cbe
00000010: 93fb 543e e33f f9bd 00f2 f93d ee03 c3be
00000020: bc3d 4bbd 8fcd ffbd 70d1 aa3e 71ec 86bd
00000030: 63e4 59be 8ea5 06be de8c f5bd dc95 dcbd
00000040: 2a49 75be 1fdf 4b3e 4535 91bd 0c8b e33e
00000050: d8ab 27be b633 64be 7210 273e 499f 8b3d
00000060: 2dbd 13bd 4dc3 fb3e 9a08 d23d b81b 4ebe
00000070: 2ca5 8b3d db3c c33e 5daa 3bba cf04 213e

net.3.running_var f4 [32]
0.004935751 0.0027745322 0.00791908 0.001048448 0.0040521314 0.0038653295 0.001237245 0.00765903
0.00321213 0.0020773762 0.0116280895 0.0025404925 0.0031069077 0.002982979 0.0018824402 0.0011387137
0.0029802842 0.010298183 0.0018435383 0.017266037 0.0034314059 0.0015541012 0.0023685682 0.0035592015
0.002473036 0.018444385 0.0014229176 0.0027099643 0.0031702786 0.012980553 0.0016294364 0.0016947738
00000000: 15bc a13b edd4 353b 07bf 013c 146c 893a
00000010: bec7 843b 7851 7d3b 0e2b a23a 9af8 fa3b
00000020: 9982 523b 9724 083b be83 3e3c 647e 263b
00000030: 439d 4b3b 157e 433b 36bc f63a e440 953a
00000040: df50 433b b6b9 283c e1a2 f13a 8171 8d3c
00000050: 70e1 603b fcb2 cb3a fb39 1b3b 7e41 693b
00000060: a912 223b ae18 973c 3181 ba3a a899 313b
00000070: 73c4 4f3b 63ac 543c d092 d53a 2c23 de3a

net.5.weight f4 [64, 32, 3, 3]
0.015496875 -0.015019001 0.05179012 0.0005533734 -0.037065443 -0.026575161 -0.05402224 -0.05003073
0.019146394 -0.023415029 -0.027978059 0.020360608 0.043747265 -0.012363643 0.004473404 0.046416566
-0.03516997 -0.046961453 0.0441804 -0.012972059 0.0026357214 -0.028767923 0.011001841 -0.015612298
-0.030096198 -0.05736163 0.057926275 0.058125697 0.019744892 0.039880916 0.04068127 -0.026310505
-0.00056356704 -0.008354546 -0.034935515 -0.057362642 0.014151711 0.041801885 -0.002490308 0.0004410375
0.0010473533 -0.005396962 0.02882906 0.049988363 -0.02746881 0.0035738791 -0.011710473 0.01689791
-0.061937805 -0.04918232 0.025990143 -0.040755365 0.01946599 -0.021282893 -0.04506752 -0.037529964
0.019710671 0.016585955 0.017863441 0.017966177 -0.0030567872 0.02287677 -0.049286555 -0.023602454
-0.044372562 -0.008983907 -0.031395826 0.021591932 0.02477522 -0.042093333 0.00864422 0.031040912
-0.041294623 0.027503287 -0.014386455 -0.012758354 0.034337536 -0.0088005345 0.0003646238 -0.021240586
0.0034339684 0.03764023 0.015365686 -0.03549235 0.047928505 0.045957234 0.026787227 0.019429784
-0.0027526356 0.033182286 -0.029535256 -0.037990384 0.0113341175 0.009078072 0.04420249 0.018662052
0.0012844045 -0.061147712 -0.008187849 -0.048788067 -0.009186999 -0.014315571 -0.027333764 -0.010691096
0.012308733 0.0007679259 -0.002060753 -0.034068696 0.026440484 0.03517596 0.02621598 0.006047846
0.012296803 -0.048371963 0.027129268 -0.051308535 0.028270558 -0.009952001 -0.0248887 -0.014082387
-0.056975562 0.023008142 0.009544322 0.046752863 -0.021365158 0.037449896 0.015479544 -0.033290558
0.06384118 0.052302815 -0.053063948 -0.04260243 0.054794855 -0.04741307 -0.027847352 0.055188805
0.016709562 -0.008958018 0.0037422057 0.008159977 -0.056919932 0.01797595 -0.043380395 0.011395081
-0.0038811122 0.0017257517 -0.0323692 -0.0007148445 0.0127217565 -0.046678167 -0.03336817 -0.061074264
-0.020015351 0.036769986 -0.039587915 0.050062176 0.0123612 0.0023264275 0.0047285683 0.0010270532
0.035154615 0.016027208 0.016827619 -0.01991859 -0.00048622742 0.036394715 -0.06368406 -0.03312113
-0.01674879 0.038133457 -0.009923338 -0.012079567 0.019887097 -0.040095117 0.029996142 0.030394757
0.04350086 -0.053297073 -0.03616585 -0.011668631 0.035276566 -0.05211488 -0.061589703 -0.021744372
0.0150358165 -0.011382841 -0.03906605 0.044444032 -0.07582221 -0.04643669 -0.05793313 0.00028861457
-0.031871077 -0.023498887 0.032003462 -0.012153914 -0.03126621 -0.061476573 0.013690916 0.007896324
-0.0024981909 -0.05393513 -0.048069384 0.05747087 -0.015960969 -0.00497148 -0.021003235 0.0042509814
-0.026969224 0.050945677 -0.012201806 0.04471372 -0.05520967 -0.02033336 0.015655467 0.048212223
-0.04628784 0.032926336 -0.05050922 -0.05892985 0.0011222989 -0.011824826 -0.027652016 -0.0051515317
-0.037434205 -0.038996242 0.018417278 -0.0012263604 0.009649939 -0.04580128 0.024415916 0.03566986
0.029460652 0.018497832 -0.046127956 -0.029545302 0.024431743 -0.015784213 0.013374946 0.05883598
-0.019182205 0.05558047 0.014384541 -0.0075692935 -0.047647577 0.008493687 0.02449166 -0.049744863
0.03527303 -0.05642665 0.008256402 0.039597824 -0.014827987 0.01436025 -0.009360202 -0.0478687
00000000: 9be6 7d3c 4212 76bc e021 543d 4310 113a
00000010: efd1 17bd 27b4 d9bc 6d46 5dbd 06ed 4cbd
00000020: e6d8 9c3c e0d0 bfbc 3e32 e5bc 4acb a63c
00000030: 5530 333d e190 4abc a295 923b 4c1f 3e3d
00000040: 630e 10bd a75a 40bd 82f6 343d c288 54bc
00000050: 11bc 2c3b b5aa ebbc 1141 343c b9ca 7fbc
00000060: 4d8c f6bc 07f4 6abd 1a44 6d3d 3615 6e3d
00000070: 0ac0 a13c 2c5a 233d 67a1 263d 2189 d7bc
00000080: 58bc 13ba 81e1 08bc 8b18 0fbd 17f5 6abd
00000090: 94dc 673c 7438 2b3d 6f34 23bb 0d3b e739
000000a0: 5847 893a 00d9 b0bb ec2a ec3c 99c0 4c3d
000000b0: 4506 e1bc be37 6a3b 49dd 3fbc 7c6d 8a3c
000000c0: 7fb2 7dbd 6673 49bd 48e9 d43c 19ef 26bd
000000d0: 2477 9f3c 7659 aebc b898 38bd 05b9 19bd
000000e0: 4678 a13c 45df 873c 5a56 923c ce2d 933c
000000f0: 6154 48bb 1068 bb3c b3e0 49bd ef59 c1bc
00000100: 01c0 35bd 3d31 13bc e998 00bd 90e1 b03c
00000110: 67f5 ca3c 0f6a 2cbd 7da0 0d3c 8349 fe3c
00000120: 8d24 29bd 934e e13c 2ab5 6bbc 6a08 51bc
00000130: 84a5 0c3d 1e30 10bc fa2a bf39 bd00 aebc
00000140: 6e0c 613b a42c 1a3d 5cc0 7b3c 6d60 11bd
00000150: ae50 443d a73d 3c3d e370 db3c 362b 9f3c
00000160: 9065 34bb 26ea 073d ecf3 f1bc ce9b 1bbd
00000170: bcb2 393c 32bc 143c ac0d 353d 29e1 983c
00000180: 7759 a83a 0676 7abd 5426 06bc ffd5 47bd
00000190: 1185 16bc db8b 6abc 0feb dfbc b529 2fbc
000001a0: 91aa 493c a34e 493a b30d 07bb 9e8b 0bbd
000001b0: b799 d83c ab14 103d e5c2 d63c 022d c63b
000001c0: 8878 493c ae21 46bd 333e de3c e628 52bd
000001d0: a897 e73c b80d 23bc 63e3 cbbc d0b9 66bc
000001e0: 355f 69bd 927b bc3c ca5f 1c3c ee7f 3f3d
000001f0: fc05 afbc 1065 193d ea9d 7d3c ae5b 08bd
00000200: 2abf 823d 7a3b 563d 9559 59bd e37f 2ebd
00000210: 9270 603d 3534 42bd 2120 e4bc a80d 623d
00000220: 7ee2 883c a7c4 12bc cb3f 753b 6db1 053c
00000230: e024 69bd 4d42 933c a4af 31bd 6fb2 3a3c
00000240: 425a 7ebb 9e32 e23a 9195 04bd 6764 3bba
00000250: ea6e 503c 9b31 3fbd 10ad 08bd 0229 7abd
00000260: 3cf7 a3bc 209c 163d f026 22bd ff0d 4d3d
00000270: a186 4a3c fa76 183b 1bf2 9a3b 309e 863a
00000280: 49fe 0f3d 7e4b 833c 13da 893c 502c a3bc
00000290: 57ec feb9 a012 153d ca6c 82bd 06aa 07bd
000002a0: c234 89bc d431 1c3d 7f95 22bc 60e9 45bc
000002b0: 44ea a23c c73a 24bd 78ba f53c 6dfe f83c
000002c0: f52d 323d 084e 5abd a422 14bd c92d 3fbc
000002d0: 297e 103d 6a76 55bd 7c45 7cbd 4121 b2bc
000002e0: c958 763c 187f 3abc b903 20bd f20a 363d
000002f0: ad48 9bbd 6634 3ebd 4a4b 6dbd 3151 9739
00000300: 3f8b 02bd bd80 c0bc 1016 033d 3621 47bc
00000310: ff10 00bd dcce 7bbd dd4f 603c 955f 013c
00000320: b0b8 23bb 15eb 5cbd 67e4 44bd 9366 6b3d
00000330: 94c0 82bc cce7 a2bb fa0e acbc d14b 8b3b
00000340: 90ee dcbc 6aac 503d 15ea 47bc bc25 373d
00000350: 8923 62bd 2692 a6bc e53f 803c 2e7a 453d
00000360: 5198 3dbd c4dd 063d c2e2 4ebd 6d60 71bd
00000370: 1a1a 933a eabc 41bc 7b86 e2bc 2ece a8bb
00000380: 9c54 19bd 86ba 1fbd d5df 963c d4bd a0ba
00000390: c71a 1e3c 1f9a 3bbd e303 c83c 8f1a 123d
000003a0: 7757 f13c c488 973c abf0 3cbd fd08 f2bc
000003b0: 1425 c83c e54d 81bc 9722 5b3c fffd 703d
000003c0: 0024 9dbc 59a8 633d 23ad 6b3c d607 f8bb
000003d0: 1b2a 43bd 1b29 0b3c bca2 c83c 45c1 4bbd
000003e0: 747a 103d a21f 67bd dc45 073c 5431 223d
000003f0: 16f1 72bc 4147 6b3c 885b 19bc f811 44bd

net.5.bias f4 [64]
-0.028701764 0.04400445 0.041222744 -0.011668782 -0.006431335 -0.015651463 -0.012122729 -0.045911916
0.04284293 -0.025056213 0.043141004 0.030274529 -0.035886113 0.02269878 0.033228878 0.05456588
-0.05651204 -0.04115771 -0.044457737 -0.027897622 -0.049658217 -0.0119251665 0.019163392 -0.04995646
-0.020574417 0.00416175 -0.0554795 0.03005821 0.027255692 -0.027492508 -0.01989045 0.0341481
-0.00075337285 0.04558967 0.033425614 0.003108586 -0.034393262 0.016795322 -0.037816826 0.055024408
-0.047037236 0.029112387 -0.015473525 0.053164084 -0.035804924 -0.003712668 -0.024498625 -0.0070761233
-0.032103427 -0.046085026 0.0063275457 0.035606384 -0.051822264 -0.049033403 -0.0042659007 0.055978008
0.0012489432 0.006485836 -0.053550053 0.058101013 0.03426448 -0.040631063 0.051310297 -0.037714127
00000000: f61f ebbc 033e 343d 2ed9 283d 6b2e 3fbc
00000010: f3bd d2bb 7f37 80bc 699e 46bc 220e 3cbd
00000020: 117c 2f3d b042 cdbc 9fb4 303d 4a02 f83c
00000030: 51fd 12bd cbf2 b93c 011b 083d 7980 5f3d
00000040: 2b79 67bd fd94 28bd 5119 36bd 8e89 e4bc
00000050: 6a66 4bbd c661 43bc 8cfc 9c3c 259f 4cbd
00000060: ae8b a8bc 4a5f 883b 793e 63bd a33c f63c
00000070: 5447 df3c f837 e1bc 4cf1 a2bc e1de 0b3d
00000080: ff7d 45ba 3cbc 3a3d 4ce9 083d 6bb9 4b3b
00000090: f3df 0cbd 5896 893c d1e5 1abd 4661 613d
000000a0: 1eaa 40bd 1a7d ee3c ab84 7dbc 95c2 593d
000000b0: 2fa8 12bd 3c50 73bb 57b1 c8bc d3de e7bb
000000c0: e27e 03bd a7c3 3cbd 4d57 cf3b 00d8 113d
000000d0: 9543 54bd 40d7 48bd f8c8 8bbb 3249 653d
000000e0: 94b3 a33a 2387 d43b 4d57 5bbd 54fb 6d3d
000000f0: e958 0c3d c26c 26bd bf2a 523d 217a 1abd

net.6.weight f4 [64]
0.99349535 0.8717871 0.68156004 0.79533607 0.54398197 0.84429693 0.3330694 0.14316623
0.1562755 0.9566834 0.34744406 0.279765 0.7328953 0.14138515 0.9155317 0.12457752
0.85710067 0.2664709 0.8075878 0.81523734 0.26670146 0.9336754 0.2935667 0.41258445
0.08009967 0.7388759 0.24835129 0.08991063 0.15834215 0.11654839 0.17758042 0.18979755
0.9831012 0.7704763 0.4019919 0.27803788 0.5171793 0.046166804 0.4424794 0.084570706
0.5655265 0.25467026 0.94053954 0.40251184 0.2860683 0.56096214 0.8199309 0.06098677
0.36792472 0.5961664 0.5037123 0.116519324 0.49998412 0.40625438 0.9897589 0.7771101
0.72843885 0.28127939 0.20813489 0.7824318 0.9421688 0.11890295 0.105791464 0.35990405
00000000: b655 7e3f 702d 5f3f b87a 2e3f 259b 4b3f
00000010: 6742 0b3f d823 583f 1388 aa3e 2b9a 123e
00000020: af06 203e 34e9 743f 30e4 b13e 5c3d 8f3e
00000030: 079f 3b3f 45c7 103e 4960 6a3f 8022 ff3d
00000040: f36a 5b3f e06e 883e 13be 4e3f 65b3 503f
00000050: 188d 883e 5a05 6f3f 604e 963e 453e d33e
00000060: 4c0b a43d f926 3d3f cd4f 7e3e 1023 b83d
00000070: 7224 223e ecb0 ee3d a4d7 353e 4a5a 423e
00000080: 85ac 7b3f ef3d 453f e2d1 cd3e fb5a 8e3e
00000090: dd65 043f 6719 3d3d a98c e23e 6833 ad3d
000000a0: 58c6 103f 2464 823e 33c7 703f 0816 ce3e
000000b0: 8b77 923e 379b 0f3f fee6 513f 43cd 793d
000000c0: a160 bc3e 5c9e 183f 4af3 003f afa1 ee3d
000000d0: ebfd ff3e 9300 d03e d760 7d3f b0f0 463f
000000e0: f87a 3a3f da03 903e 5021 553e 734d 483f
000000f0: f931 713f 6483 f33d 32a9 d83d 5845 b83e

net.6.bias f4 [64]
-0.014343863 -0.03999449 0.0020991166 -0.0063618426 -0.010185207 -0.022174932 0.014839241 -0.0041340524
-0.0013876286 -0.027316935 -0.0053193183 -0.016228896 -0.007707426 -0.007862634 -0.013811699 -0.0043806667
-0.0055839913 0.015892008 -0.039380953 -0.023245772 -0.013683981 -0.034601137 -0.008220009 -0.0041117766
-0.002583131 -0.033314653 -0.008837958 -0.0052046645 0.011797017 0.005006687 0.016347159 -0.0068269684
-0.01281766 -0.020487286 -0.003925383 -0.011527467 -0.00760616 0.029111993 -0.014558094 0.010201017
-0.0076820087 -0.0017220944 -0.044705544 -0.035624444 0.0054326756 -0.023557715 -0.010712265 0.01401112
-0.020350805 -0.04186263 -0.028872887 0.008706924 -0.030649357 -0.0017417548 -0.01550172 -0.029572008
-0.003570048 0.016682804 0.004106741 -0.040929068 -0.011558487 0.0134814475 0.018576147 -0.020999573
00000000: 8602 6bbc 43d1 23bd 5591 093b 0177 d0bb
00000010: dbdf 26bc 34a8 b5bc 4a20 733c f276 87bb
00000020: 17e1 b5ba c4c7 dfbc ad4d aebb 76f2 84bc
00000030: 938e fcbb 47d2 00bc 774a 62bc b28b 8fbb
00000040: eaf9 b6bb f52f 823c ec4d 21bd eb6d bebc
00000050: c732 60bc ecb9 0dbd 37ad 06bc 15bc 86bb
00000060: bf49 29bb f274 08bd 15cd 10bc e48b aabb
00000070: 4748 413c 220f a43b 7aea 853c c3b4 dfbb
00000080: 2a01 52bc f4d4 a7bc 80a0 80bb b3dd 3cbc
00000090: 183d f9bb 467c ee3c 1285 6ebc 2b22 273c
000000a0: 5cb9 fbbb e6b7 e1ba 291d 37bd f0ea 11bd
000000b0: 9604 b23b 1cfc c0bc 7f82 2fbc e68e 653c
000000c0: bbb6 a6bc 2678 2bbd d586 ecbc 7ca7 0e3c
000000d0: 5c14 fbbc 984b e4ba edfa 7dbc ff40 f2bc
000000e0: 77f7 69bb 60aa 883c d791 863b 3da5 27bd
000000f0: cf5f 3dbc 4ae1 5c3c 012d 983c 4c07 acbc

net.6.running_mean f4 [64]
-0.15462162 0.20579615 -0.37553403 0.12894762 0.016498161 0.20358197 -0.27338508 0.13424136
0.16037886 0.19385986 0.16684474 0.1867154 -0.12432391 0.22915207 -0.03139308 0.28860196
-0.25166154 -0.5325775 0.058172137 0.046587043 0.23298371 0.29332718 0.12493594 -0.31138915
0.25422764 0.38379478 0.033085782 0.21937107 -0.09895041 -0.09199892 -0.37612584 0.21066365
0.055453446 0.06711329 -0.17655724 0.22300394 0.12500243 -0.031424616 6.8512265e-05 0.16877382
-0.44015953 0.19575901 0.21244274 0.0904944 -0.1749261 0.21163723 -0.1163663 -0.1446139
0.29032263 -0.016584048 0.18374774 0.3574413 0.118059434 0.33773562 -0.044983834 0.24284063
-0.3539486 -0.48288748 -0.0587352 0.040159497 -0.33463544 0.019838322 0.18527883 0.064168826
00000000: 2155 1ebe 3abc 523e ff45 c0be d80a 043e
00000010: 2727 873c cb77 503e 21f9 8bbe 9176 093e
00000020: 5b3a 243e 3383 463e 59d9 2a3e 5232 3f3e
00000030: 899d febd d7a6 6a3e 0896 00bd a3c3 933e
00000040: c8d9 80be 0057 08bf e845 6e3d 0ed2 3e3d
00000050: 4893 6e3e fb2e 963e 6ade ff3d 666e 9fbe
00000060: 202a 823e c080 c43e f584 073d cfa2 603e
00000070: 83a6 cabd ee69 bcbd 9193 c0be 36b8 573e
00000080: 2723 633d b172 893d 6ccb 34be 255b 643e
00000090: a300 003e 19b7 00bd 3eae 8f38 0bd3 2c3e
000000a0: 975c e1be 0d75 483e 978a 593e 2155 b93d
000000b0: d41f 33be 6eb7 583e 7451 eebd ab15 14be
000000c0: 2ba5 943e 45db 87bc 5e28 3c3e 8c02 b73e
000000d0: 25c9 f13d afeb ac3e f840 38bd 37ab 783e
000000e0: c038 b5be 073d f7be 5294 70bd 497e 243d
000000f0: 5655 abbe fa83 a23c bcb9 3d3e f26a 833d

net.6.running_var f4 [64]
0.024580257 0.019792497 0.10682906 0.05637792 0.068898305 0.049405154 0.073231526 0.045396697
0.014439761 0.06583632 0.056937825 0.042885393 0.04531984 0.021164259 0.053077225 0.016458042
0.063539006 0.07633693 0.036786042 0.032044273 0.026021058 0.05069454 0.020424524 0.03485483
0.025885036 0.05147867 0.037585236 0.017963707 0.028532133 0.033809945 0.04642179 0.015819805
0.10244696 0.03145956 0.06220871 0.04750609 0.03163927 0.034158304 0.03180486 0.013893246
0.04543785 0.024684248 0.029982103 0.027636774 0.0101536475 0.043879684 0.11864329 0.036680233
0.033091247 0.015174937 0.021079019 0.041013334 0.036927197 0.049061432 0.034193236 0.019850979
0.052587967 0.14902914 0.026997136 0.032736763 0.08471987 0.04335681 0.015602224 0.034027353
00000000: 895c c93c e023 a23c 32c9 da3d 89ec 663d
00000010: 8e1a 8d3d 0f5d 4a3d 69fa 953d e3f1 393d
00000020: bf94 6c3c 31d5 863d a337 693d 98a8 2f3d
00000030: 4ca1 393d ab60 ad3c 8167 593d 04d3 863c
00000040: bd20 823d 8956 9c3d f6ac 163d db40 033d
00000050: 1d2a d53c 14a5 4f3d 5551 a73c f0c3 0e3d
00000060: db0c d43c 4cdb 523d faf2 193d a028 933c
00000070: 38bc e93c 4c7c 0a3d c624 3e3d 8998 813c
00000080: b6cf d13d bddb 003d 8fce 7e3d bf95 423d
00000090: 2e98 013d 94e9 0b3d d045 023d 7fa0 633c
000000a0: 0a1d 3a3d 9f36 ca3c 079d f53c 8466 e23c
000000b0: 7c5b 263c 2fbb 333d 41fb f23d 033e 163d
000000c0: b08a 073d 4da0 783c e8ad ac3c 99fd 273d
000000d0: f940 173d a4f4 483d 350e 0c3d 859e a23c
000000e0: 7b66 573d 189b 183e 1929 dd3c fc16 063d
000000f0: 9c81 ad3d e996 313d 78a0 7f3c 4460 0b3d

net.8.weight f4 [128, 64, 3, 3]
0.030306842 -0.010135648 -0.013796599 -0.005622444 0.011133483 -0.029931037 0.02650178 -0.008526515
-0.013941582 0.045540273 0.030198002 0.0067245676 0.03940442 0.03021866 -0.026710892 0.00502428
0.0036849005 -0.02821737 -0.02170467 0.017422404 0.04364498 0.03616675 -0.014811203 -0.018867027
0.04147465 -0.020268403 -0.020416578 -0.0044329334 -0.015067435 -0.049767848 0.018445307 -0.01753057
0.012097536 0.009429056 -0.014579375 0.013871858 -0.002482211 0.032419287 -0.006169602 0.010863857
-0.036233544 0.019821035 -0.032448146 0.004294422 0.0027143497 0.0041109817 0.034086302 -0.0284282
-0.028565561 -0.0059858193 -0.03126334 -0.013372997 0.027827572 -0.02750681 -0.026676744 0.037449818
-0.0055034286 0.0146157555 0.00046896885 -0.013657737 -0.024131518 -0.012800648 -0.019435124 -0.009056854
-0.03151835 0.03249816 0.012881376 -0.04157709 -0.035287146 -0.04359229 0.021044249 -0.003949277
-0.036799885 0.0054983543 -0.045603875 0.040340275 -0.016071234 0.015736207 0.026854789 -0.031405855
-0.0009550551 0.0063875862 -0.014592544 -0.031204509 -0.017329132 0.010425815 0.030843738 0.025588414
-0.012337361 -0.018628247 -0.033221487 -0.013442718 -0.0019088496 -0.0053292783 -0.018968496 -0.03739889
0.031717755 -0.00016213191 0.009057625 -0.0010419954 -0.002507859 -0.05118471 0.029097235 -0.012049341
-0.02611344 -0.011916334 0.00056097924 -0.0008149836 -0.0032494531 -0.04440834 -0.04440498 -0.0030307167
0.031709973 -0.03766199 0.032111347 0.0078216875 0.012345479 0.017106265 0.015855933 0.005774413
0.025306646 -0.009119892 0.018265871 0.0076714964 -0.03635467 -0.043481957 -0.022908403 0.015150058
-0.039888967 0.0099143125 -0.012928895 -0.04144301 -0.025321757 0.009414522 -0.022604328 0.043723475
-0.02511626 0.019701084 -0.008521708 -0.016845318 -0.012706502 -0.00019801072 0.030317072 0.01148492
-0.021467827 0.008673884 0.007574105 0.024016345 0.013781747 -0.030261151 -0.032183148 -0.025284585
-0.016927429 0.023983523 0.038212117 0.0407948 0.008676886 0.039486017 0.043628335 0.036079224
-0.018070448 0.005661085 0.02201079 0.03798418 -0.011600159 0.00745251 0.015971621 0.00027792342
0.0015012799 -0.0070906016 -0.0035823856 0.04105692 0.018981181 -0.019320903 -0.021994816 0.008550355
-0.0399276 -0.026066303 0.0051675267 -0.022325693 0.027790604 -9.015958e-05 0.021959886 -0.001120568
-0.008555179 0.026761686 -0.023818098 0.031018538 -0.026952377 0.019289622 -0.026820846 -0.031759683
0.029082535 0.01102435 0.03136262 0.04335907 -0.00547253 -0.02070703 0.020225145 -0.004247078
0.009996913 -0.003379679 -0.037891105 -0.04625133 0.030043565 -0.006344773 -0.032116555 -0.011337554
0.03104931 0.041180138 -0.014000858 0.019474497 -0.036088914 0.0047698594 0.016044406 0.025534919
0.030675396 -0.008833277 0.03997075 -0.043209027 -0.057970405 0.00079529977 0.025376184 0.026809769
-0.014335793 -0.020386491 0.01593995 -0.008269608 0.04135667 0.009951322 -0.033621803 -0.019282369
-0.0010971196 0.04483745 0.01799115 -0.023771308 -0.027208613 0.0008193444 -0.045097895 -0.028328264
0.019809391 -0.04224148 0.02208371 -0.04234066 0.024214521 0.018204115 -0.027555974 -0.00865666
0.03462434 0.04125049 -0.023292875 0.030616494 -0.04673427 -0.038680345 0.03886129 -0.036817215
00000000: 0e46 f83c fd0f 26bc 210b 62bc 7b3c b8bb
00000010: 3669 363c ef31 f5bc 431a d93c ccb2 0bbc
00000020: 3c6b 64bc 7088 3a3d cd61 f73c c359 dc3b
00000030: 8766 213d 208d f73c cdd0 dabc b7a2 a43b
00000040: 5f7e 713b 1d28 e7bc fecd b1bc 6eb9 8e3c
00000050: 14c5 323d 9623 143d b0aa 72bc 068f 9abc
00000060: 53e1 293d ec09 a6bc ab40 a7bc 2442 91bb
00000070: 67dd 76bc 5fd9 4bbd 9d1a 973c 459c 8fbc
00000080: be34 463c 547c 1a3c 55de 6ebc ca46 633c
00000090: 97ac 22bb 16ca 043d 5f2a cabb 52fe 313c
000000a0: a069 14bd b95f a23c 59e8 04bd 39b8 8c3b
000000b0: 3be3 313b 6ab5 863b 149e 0b3d 42e2 e8bc
000000c0: 5302 eabc b124 c4bb fd0d 00bd 6a1a 5bbc
000000d0: a6f6 e33c f655 e1bc 3089 dabc fb64 193d
000000e0: 1b56 b4bb ec76 6f3c efdf f539 b3c4 5fbc
000000f0: 76af c5bc cfb9 51bc 6936 9fbc 3363 14bc
00000100: 6319 01bd ca1c 053d 680c 533c bd4c 2abd
00000110: 4189 10bd d48d 32bd fd64 ac3c f068 81bb
00000120: 7abb 16bd 8a2b b43b 21cb 3abd d83b 253d
00000130: d2a7 83bc 38e9 803c 93fe db3c 6da3 00bd
00000140: aa5c 7aba f54e d13b 9115 6fbc 99a0 ffbc
00000150: d3f5 8dbc 0ad1 2a3c 02ac fc3c cb9e d13c
00000160: a522 4abc 449a 98bc 4113 08bd d93e 5cbc
00000170: 5d32 faba 3aa1 aebb d263 9bbc 942f 19bd
00000180: 7aea 013d f401 2ab9 6f66 143c 9093 88ba
00000190: e45a 24bb 0fa7 51bd 535d ee3c 996a 45bc
000001a0: daeb d5bc ba3c 43bc ae0e 133a a0a4 55ba
000001b0: c7f4 54bb 85e5 35bd ffe1 35bd fd9e 46bb
000001c0: 51e2 013d 7543 1abd 3087 033d 8926 003c
000001d0: b144 4a3c 7022 8c3c 4de4 813c 4937 bd3b
000001e0: e24f cf3c 996b 15bc 4fa2 953c 2d61 fb3b
000001f0: a2e8 14bd 231a 32bd 67aa bbbc f337 783c
00000200: 9d62 23bd a46f 223c b7d3 53bc 25c0 29bd
00000210: 936f cfbc 5e3f 1a3c b62c b9bc 6317 333d
00000220: 9dc0 cdbc 2b64 a13c a29e 0bbc 31ff 89bc
00000230: ef2e 50bc 19a1 4fb9 825b f83c 3f2b 3c3c
00000240: 4cdd afbc e81c 0e3c 3330 f83b edbd c43c
00000250: d6cc 613c 3ce6 f7bc 7ad2 03bd 9e21 cfbc
00000260: 64ab 8abc 1879 c43c 4f84 1c3d 7318 273d
00000270: 7f29 0e3c 17bc 213d a0b3 323d cfc7 133d
00000280: 7a08 94bc 9f80 b93b f94f b43c 4d95 1b3d
00000290: 980e 3ebc 2f34 f43b ebd6 823c 40b6 9139
000002a0: 98c6 c43a 4758 e8bb 75c6 6abb 4d2b 283d
000002b0: 6c7e 9b3c df46 9ebc 792e b4bc ca16 0c3c
000002c0: 208b 23bd 0089 d5bc 5b54 a93b 5fe4 b6bc
000002d0: 1fa9 e33c 0e14 bdb8 38e5 b33c 06e0 92ba
000002e0: 062b 0cbc 533b db3c 2c1e c3bc 971a fe3c
000002f0: 3bcb dcbc 4505 9e3c 64b7 dbbc 7116 02bd
00000300: 7f3e ee3c 7a9f 343c 1776 003d 4899 313d
00000310: e952 b3bb caa1 a9bc 34af a53c 132b 8bbb
00000320: 18ca 233c 9b7d 5dbb b433 1bbd 0972 3dbd
00000330: ec1d f63c d0e7 cfbb a68c 03bd 26c1 39bc
00000340: 1f5b fe3c 81ac 283d db63 65bc fb88 9f3c
00000350: f8d1 13bd 7b4c 9c3b 8f6f 833c 9b2e d13c
00000360: f84a fb3c 73b9 10bc 5fb8 233d f3fb 30bd
00000370: 6072 6dbd aa7b 503a b7e1 cf3c 29a0 db3c
00000380: ade0 6abc 9201 a7bc 7f94 823c 407d 07bc
00000390: 9d65 293d df0a 233c 04b7 09bd 0ff6 9dbc
000003a0: 3acd 8fba 79a7 373d 2d62 933c 0cbc c2bc
000003b0: 99e4 debc 46c9 563a 92b8 38bd ad10 e8bc
000003c0: 4e47 a23c 6705 2dbd e6e8 b43c 666d 2dbd
000003d0: 885d c63c cc20 953c 11bd e1bc aad4 0dbc
000003e0: 40d2 0d3d 46f6 283d b3d0 bebc 71cf fa3c
000003f0: 6f6c 3fbd 486f 1ebd 042d 1f3d a6cd 16bd

net.8.bias f4 [128]
-0.035188712 -0.027851189 -0.028494658 0.009633929 -0.023718327 -0.0006739787 -0.0064528026 0.004498649
0.0017768567 -0.03730858 0.010162225 0.023822522 -0.027803779 -0.018999774 0.027681928 -0.0077366126
0.008941683 0.003404979 0.0034540861 -0.02232324 0.02561514 0.033873327 -0.010895654 0.0041023274
-0.010418818 0.020890381 0.025220325 -0.01757507 -0.0011268728 0.019225927 -0.031481825 -0.019287787
0.006061412 -0.015903354 0.027137153 0.02601014 -0.02756393 0.02021166 0.014803865 0.017436735
0.02226141 0.011283195 0.004299414 -0.030096835 -0.037372183 0.03448945 -0.020822357 0.017419979
-0.023353862 0.02602538 -0.020178806 -0.030791495 -0.011050424 -0.033078242 0.027072504 0.004189977
-0.033748113 0.027533865 0.0044019795 -0.03493646 -0.011698265 0.027870055 -0.02547378 0.036639746
-0.011599093 0.0037752893 -0.031685308 0.031792358 -0.024150006 -0.028871894 -0.03125157 0.027787484
-0.00021862375 -0.006634122 -0.0146440575 0.012109041 0.024985213 -0.013147626 0.022939004 -0.029254336
0.024223786 0.0041547315 -0.023929715 -0.030804519 0.014178782 -0.0415983 0.037840128 0.03440843
-0.0025228325 -0.037271462 -0.013796272 0.03340824 -0.020982262 0.017307235 0.02363428 0.006529255
0.02508505 0.027714523 0.034978956 0.01515325 0.029567255 -0.04193924 0.04020807 -0.008321568
-0.0037436248 -0.0013049992 0.018973926 -0.02441258 -0.017238474 0.0015035279 -0.006761701 -0.012046436
-0.0049278485 0.038421843 0.00035043943 0.0073892577 -0.03178087 -0.012649966 0.017076435 0.02094849
-0.013248422 0.022564372 -0.0062206355 0.0069833375 -0.008829108 0.01657475 0.028657671 -0.008857938
00000000: 0a22 10bd 2d28 e4bc a16d e9bc a0d7 1d3c
00000010: f04c c2bc f2ad 30ba 0872 d3bb 6769 933b
00000020: 6be5 e83a e2d0 18bd 767f 263c 7327 c33c
00000030: c0c4 e3bc 6aa5 9bbc 36c5 e23c 6983 fdbb
00000040: 2380 123c 1126 5f3b f35d 623b 3adf b6bc
00000050: d8d6 d13c c2be 0a3d af83 32bc d16c 863b
00000060: b1b3 2abc 4e22 ab3c db9a ce3c 98f9 8fbc
00000070: 94b3 93ba b17f 9d3c 16f3 00bd 6c01 9ebc
00000080: cf9e c63b c047 82bc bc4e de3c 3813 d53c
00000090: c0cd e1bc ec92 a53c e98b 723c 7cd7 8e3c
000000a0: 8f5d b63c 26dd 383c 19e2 8c3b a38d f6bc
000000b0: 9313 19bd cf44 0d3d a693 aabc 58b4 8e3c
000000c0: 9950 bfbc 2d33 d53c 064e a5bc 723e fcbc
000000d0: d60c 35bc 0d7d 07bd 28c7 dd3c 134c 893b
000000e0: 763b 0abd b38e e13c 7b3e 903b 8919 0fbd
000000f0: 14aa 3fbc be4f e43c 64ae d0bc 8f13 163d
00000100: 1f0a 3ebc d86a 773b 74c8 01bd b438 023d
00000110: 3cd6 c5bc c084 ecbc a501 00bd 94a2 e33c
00000120: 5e3e 65b9 0d63 d9bb a1ed 6fbc 0065 463c
00000130: caad cc3c 2469 57bc 94ea bb3c caa6 efbc
00000140: f670 c63c 6a24 883b 4008 c4bc c259 fcbc
00000150: 1f4e 683c fb62 2abd 40fe 1a3d dbef 0c3d
00000160: 1b56 25bb f6a9 18bd c209 62bc 14d7 083d
00000170: fee2 abbc e7c7 8d3c ad9c c13c 5cf3 d53b
00000180: 2a7f cd3c 9109 e33c 1846 0f3d 5645 783c
00000190: 0737 f23c 7bc8 2bbd 38b1 243d 3057 08bc
000001a0: 9a57 75bb 820c abba 356f 9b3c e4fc c7bc
000001b0: b337 8dbc 0612 c53a 4291 ddbb 6a5e 45bc
000001c0: ca79 a1bb 3960 1d3d 2fbb b739 9621 f23b
000001d0: a82c 02bd ce41 4fbc e1e3 8b3c 2b9c ab3c
000001e0: e90f 59bc ebd8 b83c 79d6 cbbb 7bd4 e43b
000001f0: f7a7 10bc c5c7 873c 7ec3 ea3c e320 11bc

net.9.weight f4 [128]
0.62651443 0.7520928 0.7999231 0.44446692 0.12079434 0.071469344 0.17894986 0.29611924
0.25051087 0.77757794 0.39164943 0.52395594 0.5351966 0.6681225 0.40774557 0.2913515
0.8763824 0.36647213 0.8556099 0.17465928 0.09306083 0.8134654 0.1766627 0.44173375
0.36122438 0.6810801 0.1823975 0.6368662 0.8641308 0.94245565 0.8943112 0.3330565
0.5019256 0.076105155 0.19197783 0.8232173 0.798674 0.33634025 0.21393935 0.3881999
0.7740691 0.15551046 0.69538164 0.3351909 0.3355775 0.13752863 0.40087074 0.9220433
0.93889636 0.66818714 0.15816066 0.10279712 0.7758251 0.818934 0.17467028 0.7758491
0.38202798 0.8295019 0.6595497 0.34432963 0.030997992 0.26239806 0.07544552 0.43626186
0.87949145 0.17575487 0.8054852 0.52230465 0.69205266 0.059666354 0.8561632 0.5641788
0.93148905 0.14051923 0.049366858 0.46145254 0.61692667 0.717535 0.26679206 0.3965998
0.21889295 0.29402 0.5938117 0.13299601 0.73824495 0.48605263 0.7791439 0.5363952
0.14518304 0.92925066 0.9036331 0.8798054 0.2164232 0.4588973 0.05363487 0.021322943
0.87670344 0.43941426 0.41108724 0.21504194 0.62485313 0.9536314 0.4309668 0.4425943
0.9210787 0.117951766 0.09852705 0.95420384 0.1296861 0.040364835 0.122560106 0.038138326
0.41259435 0.091842376 0.72734207 0.27620932 0.29458573 0.566899 0.19258839 0.2635529
0.0886446 0.25040874 0.5459169 0.3844223 0.6586466 0.83715147 0.60371125 0.33455738
00000000: 4063 203f 2789 403f c3c7 4c3f 2b91 e33e
00000010: 0663 f73d 855e 923d a23e 373e f19c 973e
00000020: f642 803e 590f 473f 4686 c83e fa21 063f
00000030: a502 093f 130a 2b3f 07c4 d03e 062c 953e
00000040: 995a 603f 3ca2 bb3e 4009 5b3f e2d9 323e
00000050: ad96 be3d 453f 503f 11e7 343e ed2a e23e
00000060: 67f2 b83e 445b 2e3f 69c6 3a3e aa09 233f
00000070: ad37 5d3f c644 713f 94f1 643f 6286 aa3e
00000080: 327e 003f 05dd 9b3d d695 443e 5ebe 523f
00000090: e675 4c3f ca34 ac3e eb12 5b3e 23c2 c63e
000000a0: 6429 463f 223e 1f3e 8804 323f 249e ab3e
000000b0: d0d0 ab3e 4ed4 0c3e ee3e cd3e 080b 6c3f
000000c0: 835b 703f 500e 2b3f def4 213e 4c87 d23d
000000d0: 799c 463f a9a5 513f c4dc 323e 0c9e 463f
000000e0: 2c99 c33e 3d5a 543f 40d8 283f f94b b03e
000000f0: 80ef fd3c 0a59 863e 2e83 9a3d b75d df3e
00000100: 5a26 613f 16f9 333e 4734 4e3f c2b5 053f
00000110: 5d2a 313f b564 743d 832d 5b3f 066e 103f
00000120: 1176 6e3f 46e4 0f3e e734 4a3d 8243 ec3e
00000130: e8ee 1d3f 60b0 373f f898 883e 210f cb3e
00000140: 7925 603e ca89 963e 0b04 183f 1b30 083e
00000150: 9ffd 3c3f e4db f83e fa75 473f 3251 093f
00000160: ddaa 143e 5fe3 6d3f 8054 673f ed3a 613f
00000170: 0b9e 5d3e 96f4 ea3e 3db0 5b3d 74ad ae3c
00000180: a36f 603f e8fa e03e 077a d23e f433 5c3e
00000190: 60f6 1f3f 3021 743f aea7 dc3e b89b e23e
000001a0: d0cb 6b3f b290 f13d 8dc8 c93d b446 743f
000001b0: 6fcc 043e 9955 253d cb00 fb3d ef36 1c3d
000001c0: 913f d33e db17 bc3d 1733 3a3f 4f6b 8d3e
000001d0: f1d3 963e 4b20 113f e435 453e 68f0 863e
000001e0: 4d8b b53d 9335 803e 36c1 0b3f 00d3 c43e
000001f0: 109d 283f 8f4f 563f d28c 1a3f 1b4b ab3e

net.9.bias f4 [128]
-0.0010488903 -0.021588339 0.003881414 0.0032851268 0.0032967902 0.0031956541 0.0021125781 0.0058279354
0.0052678753 0.0059207985 -0.0014055594 -0.002979894 -0.014596525 -0.014172235 0.010507963 0.003795002
0.0013699943 -0.00031343696 -0.008881669 0.0076701683 0.007398639 0.003239051 -0.01665614 -0.0054533333
0.0024529954 -0.005128505 0.009937903 -0.0047012432 -0.0049343733 0.0016854387 -0.0060259155 -0.00053549116
-0.00056703785 0.00930871 -0.0056428537 -0.008144108 0.0060859835 0.004109589 -0.0010502657 0.0032658142
0.0058358954 0.003256911 -0.008231721 -0.0104388585 0.00567514 0.0061311065 -0.0024934213 -0.011459836
-0.006856921 0.008878461 -0.006868978 -0.002764463 -0.009724001 -0.008232275 -0.0031364157 -0.00026301673
0.0048353784 -0.0068624704 0.0058592344 -0.0053694546 -0.010550791 -0.0036506539 -0.006832165 0.008534563
0.0033465668 -0.0046162214 0.0013213048 -0.00902241 -0.0014110969 -0.005276414 0.00077203714 0.006067301
-0.011016345 0.00599225 0.0027618238 -0.0067027486 0.0033399593 -0.0109388735 -0.0027531271 -0.0017381094
-0.002373808 0.0068760994 0.0008275181 -0.010408657 -0.007857111 -0.0012605714 -0.0032205738 0.0073227016
-0.0034045388 0.0029138476 0.0067769135 0.005218327 0.0034693342 -0.014779814 0.0030977272 -0.0032649937
0.00010178661 -0.0038405806 -0.011585667 -0.01400608 0.010341749 0.0050397906 -0.007829136 0.0024147618
0.0049216766 -0.007915548 0.0015117396 0.005477359 0.004292486 -0.00238382 0.0025249536 -0.0036609927
0.002554476 0.004056135 -0.00100181 -0.0009631353 0.005973843 0.0015566334 0.0054761176 -0.010860029
-6.410053e-05 0.0012696512 -0.0017694188 0.0010762549 0.0074105216 0.003919692 0.0021055518 0.0042512966
00000000: eb7a 89ba 07da b0bc 525f 7e3b 484b 573b
00000010: f60e 583b 2e6e 513b 2e73 0a3b 44f8 be3b
00000020: 249e ac3b 4203 c23b bf3a b8ba 534a 43bb
00000030: 4326 6fbc a932 68bc 9729 2c3c 91b5 783b
00000040: 6191 b33a cc54 a4b9 6b84 11bc 0956 fb3b
00000050: 4870 f23b 4246 543b 7572 88bc e0b1 b2bb
00000060: 6fc2 203b 050d a8bb 96d2 223c e30c 9abb
00000070: 86b0 a1bb f0e9 dc3a 0b75 c5bb 3460 0cba
00000080: 44a5 14ba 8f83 183c b0e7 b8bb dd6e 05bc
00000090: ee6c c73b bba9 863b 12a9 89ba 4507 563b
000000a0: 0a3b bf3b e671 553b 57de 06bc bf07 2bbc
000000b0: 86f6 b93b 73e7 c83b ab68 23bb 09c2 3bbc
000000c0: 06b0 e0bb f776 113c 2a15 e1bb fe2b 35bb
000000d0: 6b51 1fbc aae0 06bc 538c 4dbb 82e5 89b9
000000e0: 1872 9e3b 93de e0bb d2fe bf3b 40f2 afbb
000000f0: 3add 2cbc cf3f 6fbb 5be0 dfbb 8dd4 0b3c
00000100: 1352 5b3b ac43 97bb a22f ad3a bbd2 13bc
00000110: 8ef4 b8ba c5e5 acbb 8962 4a3a 36d0 c63b
00000120: e67d 34bc a35a c43b b7ff 343b bba2 dbbb
00000130: 38e3 5a3b f638 33bc cf6d 34bb 46d1 e3ba
00000140: e491 1bbb e750 e13b cded 583a 1289 2abc
00000150: 1dbb 00bc c239 a5ba 4310 53bb 46f3 ef3b
00000160: af1e 5fbb 40f6 3e3b df10 de3b 80fe aa3b
00000170: c55d 633b 0827 72bc 3d03 4b3b 81f9 55bb
00000180: 4576 d538 40b2 7bbb cfd1 3dbc c279 65bc
00000190: 7070 293c d424 a53b c745 00bc fb40 1e3b
000001a0: 0446 a13b 37b0 01bc 9025 c63a 6b7b b33b
000001b0: fba7 8c3b dd39 1cbb b179 253b 44ed 6fbb
000001c0: ff68 273b 54e9 843b 2a4f 83ba ea7a 7cba
000001d0: 3ac0 c33b f307 cc3a 0171 b33b 43ee 31bc
000001e0: b66d 86b8 6d6a a63a d8eb e7ba 1f11 8d3a
000001f0: f6d3 f23b c270 803b 4cfd 093b 764e 8b3b

net.9.running_mean f4 [128]
-0.07686309 -0.12963915 -0.038773775 0.09085679 0.11759317 0.0955589 0.12156995 -0.31516808
0.28460312 -0.4647985 -0.28099364 0.11542215 -0.29594338 -0.1747812 0.18892963 0.13001947
0.14160651 0.18543904 0.34969437 0.33845907 -0.26398873 -0.07685013 -0.22449522 -0.08877705
0.107234985 0.09526735 -0.043180306 -0.28174677 0.4243764 -0.008826533 -0.002499415 0.0006706925
0.008569722 -0.28123403 -0.16881043 -0.10154149 0.036140814 -0.05582018 -0.00051572785 0.26539457
-0.068275966 0.07152145 0.023779076 0.08140158 0.12017742 -0.08436135 0.11522722 -0.21539868
-0.05915292 0.21181497 -0.25919396 -0.31707415 -0.34955782 -0.31685382 -0.23529008 -0.011903641
-0.15227827 0.011367389 0.082497045 0.0010712601 -0.090283565 0.1167155 -0.23296666 0.22046557
0.0369675 0.19194825 -0.41851372 -0.072431326 0.03433353 -0.050893243 -0.08832855 0.20132117
-0.08458901 0.018854674 -0.07002303 -0.13335681 -0.15029174 -0.083049454 0.33319747 -0.3549003
0.27226266 0.093675874 -0.1503162 -0.3585579 -0.08481472 -0.08538033 0.15583561 0.17457744
-0.21995485 0.069173925 -0.16943982 0.019253567 0.030898608 -0.163108 -0.0026772202 -0.01963221
0.32659087 -0.10442913 -0.30411857 0.010636062 0.3052183 -0.020143913 -0.15993404 -0.21998303
0.069303334 -0.33465263 -0.07974996 0.08388381 0.11282233 -0.07051193 -0.22539516 -0.15440892
-0.02365987 -0.18207002 -0.013649686 0.12638268 -0.19999315 -0.03816193 -0.12499556 -0.24469306
0.1482766 0.12722242 -0.005248184 0.19884437 -0.09695425 0.035722714 -0.10603446 -0.05700458
00000000: 656a 9dbd 20c0 04be 40d1 1ebd 2013 ba3d
00000010: b0d4 f03d 62b4 c33d aaf9 f83d b65d a1be
00000020: 80b7 913e 12fa edbe 66de 8fbe 7362 ec3d
00000030: e485 97be d8f9 32be c576 413e d323 053e
00000040: 4c01 113e bbe3 3d3e 240b b33e 824a ad3e
00000050: 8829 87be 9a63 9dbd 13e2 65be bed0 b5bd
00000060: 049e db3d 871b c33d d5dd 30bd 1d41 90be
00000070: dd47 d93e 2a9d 10bc 3acd 23bb 69d1 2f3a
00000080: 0568 0c3c e8fd 8fbe a4dc 2cbe fcf4 cfbd
00000090: 6408 143d b3a3 64bd e931 07ba cce1 873e
000000a0: 45d4 8bbd d779 923d 56cc c23c dfb5 a63d
000000b0: 941f f63d a5c5 acbd 40fc eb3d 7991 5cbe
000000c0: 554a 72bd 06e6 583e 12b5 84be 8b57 a2be
000000d0: 3ef9 b2be aa3a a2be e2ef 70be 7d07 43bc
000000e0: d6ee 1bbe 493e 3a3c 36f4 a83d 8669 8c3a
000000f0: 97e6 b8bd 8908 ef3d d08e 6ebe bac1 613e
00000100: 3c6b 173d 158e 443e 6e47 d6be e056 94bd
00000110: 51a1 0c3d 6f75 50bd 99e5 b4bd 2327 4e3e
00000120: 013d adbd 1e75 9a3c 3c68 8fbd b08e 08be
00000130: 14e6 19be d515 aabd dc98 aa3e 7eb5 b5be
00000140: 0366 8b3e 23d9 bf3d 7dec 19be e794 b7be
00000150: 57b3 adbd e2db aebd 5f93 1f3e 6ec4 323e
00000160: d83b 61be 0fab 8d3d a281 2dbe a8b9 9d3c
00000170: 141f fd3c c905 27be 4d74 2fbb bad3 a0bc
00000180: eb36 a73e f1de d5bd 6eb5 9bbe e142 2e3c
00000190: 9345 9c3e d904 a5bc c0c5 23be 3b43 61be
000001a0: e8ee 8d3d 9757 abbe f253 a3bd 46cb ab3d
000001b0: 650f e73d 8f68 90bd fdcd 66be 5f1d 1ebe
000001c0: 58d2 c1bc 9070 3abe efa2 5fbc 766a 013e
000001d0: 01cb 4cbe af4f 1cbd acfd ffbd d190 7abe
000001e0: d2d5 173e 9846 023e f5f8 abbb dc9d 4b3e
000001f0: f38f c6bd fb51 123d 9828 d9bd a27d 69bd
