D_A.pth (torch_old, 401728 bytes, 21 tensors)

net.0.weight f4 [16, 3, 3, 3]
00000000: aa2f fcbc ff1b 13be 4186 403e 39fc b138
00000010: 2e15 febd 7a3b d9bd c88d 8f3d 5854 1a3e
00000020: 6417 013d 7c76 b83d e5c9 bdbd d5a1 8ebd
00000030: 7955 bd3d baf2 19bd b26a afbd 7187 0dbe
00000040: b3ae 9fbd 1216 c83d ddd7 153e 4ab5 413e
00000050: 4983 04be d78e b4bb 6db7 073e 13ba 34bd
00000060: c8c5 08be 6697 13be 4d54 c23d 6da3 e23d
00000070: 7eb8 f13d aa7f a73c 4a11 cb3d 7887 373d
00000080: c24a 29be 4dbe ffbd e035 ef3d 85b9 5c3d
00000090: e44e 16be 9671 20bd 8204 143e c664 7c3d
000000a0: dc7a 4b3d 13bb 263e 8c0a a3bd 55b4 22bd
000000b0: 7d01 fa3d d89b a93d 1b2f 153d 3eba 193e
000000c0: 55d1 163e 0320 d0bd 8d95 903d e3c7 363e
000000d0: e7bc c8bd 032b e33a 16cc 0d3d 5681 dbbd
000000e0: f561 1ebd 7694 b73d 0210 3fbd ecfb 7fbd
000000f0: 673a 0cbe f6a8 08be 9940 22bd 530c 493d
00000100: 1397 84be f2ff 8ebe 59bc ec3c 8bff 61be
00000110: f523 22be 766b d83c 6955 09be 36c9 91bd
00000120: eb47 a83d cb68 36be 799b eebd 8bee 193e
00000130: 6789 003e 15c6 1cbd 3c06 97bd 19c0 95bd
00000140: c0c3 ea3d ae0d e5bd b5e6 593c 941d 043e
00000150: 53c9 e43d 6e42 09be 4330 18bd cc4b d03d
00000160: 2480 c03d 52a8 98bc 202f 78bd 2837 b5bd
00000170: e2c7 813b 6d21 973d 8ca8 aa3c e67d 20be
00000180: b4a8 333e 5b03 b0bd 721d 13be 6977 cb3d
00000190: 12c2 053e ebf6 453e c352 1e3d 59b1 a7bd
000001a0: 986d 0bbe 8a3c 093d d4ce 413d 8d8a 5e3d
000001b0: 3390 ed3d 6a26 5f3d a341 f63d cda7 cdbc
000001c0: 7fd1 cc3d 3411 37bd 0fad d3bd 6fbd 1d3e
000001d0: 4e05 d33d 44ff 0cbd 8825 31be b7e6 1e3e
000001e0: e2fb c23c 5fa0 3dbd 8ecb 333e 1b91 463d
000001f0: efbd 5bbd 69e5 8cbd 85c9 fa3d b69a 03be
00000200: 7891 373d 02db c2bd 1556 463e 932d d83d
00000210: 0ee5 07be bf30 0e3e 1dd9 183e 23ea e43d
00000220: a7f3 af3d 0f3d 2abe 3225 e53c 1d68 953d
00000230: fc5e db3d 5509 d73d b5f3 ee3d 3438 93bd
00000240: c6f6 d73d b267 5bbd acde a23d a6c0 34be
00000250: e596 0ebd 8cb1 a0bd 6989 193e da63 e7bc
00000260: 6f71 f6bd 4462 06bd 3da4 c73d 449c 393e
00000270: d0d1 02be 1664 c63d 447a 83bc a717 eb3d
00000280: d600 13be d46c 2d3e 3769 babd ae9a 803d
00000290: e2c1 0b3e 6ee6 b83d d646 f03d 6c73 3cbe
000002a0: 9b39 d4bd 3933 cf3d c919 f93d 99f5 23be
000002b0: 4603 f63d 508b 7a3c 51a4 223e edec 2d3e
000002c0: d32f 37bd a7c2 4d3c 25ea f73d 8f63 9fbd
000002d0: b10a ba3d 629f c6bd b7e3 293e a47c 033e
000002e0: 55b9 86bc 7105 27bd bfa1 b73d b57c 373e
000002f0: 4104 f0bc 716a 3a3e 839b 603d db35 e13d
00000300: f282 0d3d 67b0 3739 4675 1e3e d620 34be
00000310: a5d0 2d3e d2aa d8bd cb85 fa3d c382 0b3d
00000320: 7a9a 8bbc 8654 d8bd 9488 843b 9f11 d9bd
00000330: 63bd cbbd fdf3 343d b6f4 12be 6c5a 11bd
00000340: 5b1b 953d 56d0 0dbd a3ef 32bc cfdd d83d
00000350: 0909 a3bc f25a 673d 6d65 1abe b332 f73d
00000360: be6d 32be e0e4 bbbc 6d4d 93bc 7626 a5bd
00000370: 0c45 083e 7a68 a03d 11de c8bd 5b9a 8a3d
00000380: faef 0e3e a984 0b3e 9c92 a73d 2686 91bd
00000390: 115f 083e 911a 323e 12c3 953b 4338 10be
000003a0: b891 013e 1618 5b3d bbc9 093e 42fb 0c3e
000003b0: 1312 65bd 6c11 87bd a5a4 f73d 2bec 433e
000003c0: add6 27be 97f6 73bd b130 94bc eb6c 1cbe
000003d0: 6fc8 3cbe f848 45be 4669 aab9 3db8 b6bd
000003e0: 3fb4 fb3c fe90 063e a12c 063e fff3 52b9
000003f0: d1c9 9b3d c6e0 d5bc 8106 8dbd 5f99 09bd
-0.030784447 -0.14366148 0.18801214 8.486998e-05 -0.124063835 -0.106070474 0.070094645 0.15071237
0.031516448 0.09006974 -0.09267024 -0.06964461 0.09244818 -0.037584998 -0.085652724 -0.13821198
-0.07796993 0.097698346 0.14633127 0.18916813 -0.12940706 -0.005510192 0.13253565 -0.044122767
-0.13356698 -0.14413223 0.09488735 0.11066327 0.11802767 0.020446617 0.09915407 0.044806927
-0.16532424 -0.12487469 0.11680198 0.053887863 -0.14678532 -0.039170824 0.14454845 0.061619543
0.049677715 0.162823 -0.07960996 -0.03972276 0.12207315 0.08281678 0.036421876 0.15012452
0.14728291 -0.10162356 0.070597745 0.17849688 -0.09801655 0.0017331544 0.03461846 -0.10718028
-0.038667638 0.089638636 -0.046646126 -0.06249611 -0.13694154 -0.13345703 -0.039612386 0.04908402
-0.2589651 -0.27929646 0.028898405 -0.22070138 -0.15834029 0.026418429 -0.13411488 -0.07118456
0.08216842 -0.17813413 -0.11650748 0.15032403 0.12552415 -0.038274843 -0.07374236 -0.0731203
0.114631176 -0.1118425 0.013299634 0.12901908 0.11171212 -0.13404247 -0.0371554 0.10170707
0.09399441 -0.018634949 -0.060591817 -0.08848411 0.0039605955 0.07379422 0.020832323 -0.15673026
0.17544824 -0.0859439 -0.14366701 0.09934885 0.13062313 0.19332473 0.038653146 -0.08188123
-0.13616025 0.033505 0.047316387 0.05433135 0.115997694 0.054479994 0.12024238 -0.025104428
0.10000896 -0.04469414 -0.10335743 0.15404294 0.10303746 -0.034423128 -0.17299473 0.15517698
0.023801748 -0.04629552 0.17558119 0.048478227 -0.05364793 -0.06879694 0.12245468 -0.12851986
0.044816464 -0.09514429 0.19368775 0.105555676 -0.13270971 0.13885783 0.14926572 0.111774705
0.08591395 -0.16624855 0.027971838 0.07295249 0.10711476 0.10499827 0.11667577 -0.07188454
0.10545115 -0.05356569 0.079526275 -0.17651615 -0.034811873 -0.078463644 0.14993824 -0.028245855
-0.120333545 -0.032808557 0.09748123 0.18126017 -0.1277535 0.09687059 -0.016049512 0.11479121
-0.14355788 0.16936046 -0.091020994 0.06279503 0.13648179 0.09028326 0.11732261 -0.18403405
-0.1036255 0.10117192 0.12163121 -0.16011657 0.12012343 0.015292004 0.15882994 0.16984911
-0.044723343 0.012558616 0.121052064 -0.07782661 0.090840705 -0.096983686 0.16590773 0.12840515
-0.016445795 -0.040776674 0.089663975 0.17918666 -0.029298903 0.18204667 0.054835808 0.109966
0.034548707 0.00017517955 0.15474424 -0.17590651 0.16974123 -0.105794564 0.1223255 0.03406025
-0.017041434 -0.105629966 0.0040446017 -0.10599064 -0.09948232 0.044177998 -0.14351162 -0.035486624
0.07280608 -0.034622513 -0.010921392 0.10589182 -0.01990177 0.056483217 -0.15077753 0.12070217
-0.17424676 -0.022936285 -0.017981255 -0.080639765 0.1330759 0.07832427 -0.09807981 0.06767722
0.13958731 0.13624825 0.081822604 -0.07105665 0.13317515 0.17392947 0.0045703733 -0.14083962
0.12653244 0.053489767 0.1345586 0.13767722 -0.05592544 -0.0659512 0.1209195 0.1913306
-0.16390486 -0.05956134 -0.018089624 -0.15275924 -0.18435834 -0.19266117 -0.00032503362 -0.089218594
0.030725596 0.13141248 0.13102962 -0.00020118056 0.07606853 -0.026108157 -0.06886006 -0.03359353

net.0.bias f4 [16]
00000000: e0ae 563e 67ab 4dbd 97f9 bd3c ea93 523e
00000010: 2cba 76bd af77 c23d db95 5f3d 4480 febd
00000020: 368d 183e f4e4 02be 2e59 593e e7c7 c5bd
00000030: dc0e 0ebe ceef f9bd e511 5bbe ea1e 50be
0.20965147 -0.05021229 0.023190303 0.20564237 -0.06023614 0.09495484 0.054586273 -0.124268085
0.14897618 -0.12782651 0.21225426 -0.09657269 -0.13872856 -0.12203942 -0.21393545 -0.20324293

net.2.weight f4 [32, 16, 3, 3]
00000000: 1783 a5bc ec82 4ebd 61aa b53c fa86 6bbd
00000010: 3900 2e3d 0bab 9cbd 1f1a 833c 54fd 413d
00000020: 8a09 163d 2d61 813b 0ee1 4bbd ab7d cf3c
00000030: 2e31 963b ee41 ecbc 4224 5cbd c8a3 afbc
00000040: 3ff1 11bd bd95 10bd e02a dbbd 5d26 aabd
00000050: 0e5a 25bd 90ca bebd c870 5bbb 43b7 07bd
00000060: 277e 08bc 09ec c4bd 7270 913d f089 b9bd
00000070: aeaf 7cbd 4c3b 003d 0c70 24bc 8607 32bc
00000080: 2a9f 69bd 38df 8dbc 2361 e5bb c498 70ba
00000090: 885e 91bd c9de 0dbd ed3e 8d3d 8a7e 74bd
000000a0: 8f7e d23a e672 de3c abdc c7bc e4a8 aabc
000000b0: 4662 593d 178e f23c d160 30bd 73cf 6f3d
000000c0: ab89 37bd 97c3 cd3d c0af 4fbd fc57 673d
000000d0: 1003 f83c 1f66 6e3c e3e4 2cbd 9e71 483d
000000e0: 6053 81bd 6928 d6bd 3c23 00b8 6e7c 5bbd
000000f0: 723e e2bc 1530 b7bc 9ae3 633d 9657 1c3d
00000100: 3e65 eb3d 49d7 8e3d 38cd cd3b 6134 753d
00000110: 4a51 043c e2f4 c63d e774 193d dbe7 abbd
00000120: ef49 43bb 34c9 cab9 57a0 5d3d 6949 8bbd
00000130: 7342 1ebd 2a1d 58bd f3cc 7f3d 4dcc b33c
00000140: b035 4b3d 11b1 183d 9e43 2bbd c288 3b3d
00000150: 8996 133c 7e75 41bc ee90 713c f7f8 e0ba
00000160: 5cd9 21bd 6af8 19bd 05d7 553d c36a 49bd
00000170: dc35 10bd 2ac0 9fbd bfb9 42bd f044 bc3c
00000180: 8e8c 8b3d df10 083d ac21 823d 0026 033d
00000190: b3da 31bd 1e93 ba3b 5321 2e3c f203 2a3d
000001a0: 2be9 67bd 90a2 9dbd c849 8cbd 8474 66bd
000001b0: 6942 343c d73a 20bd 6f86 c63d 25a4 573c
000001c0: 638f 53bd c162 783c 98e4 cebb a2d0 fcbd
000001d0: d4f0 6a3d a58a 67bd 64f7 283c 9e6c 013c
000001e0: 0d65 ca3a 6df3 8f3d 3917 5e3d 7cb3 4ebd
000001f0: 3063 9d3c 89d6 0abc 1b86 f13c 6f6b f4bc
00000200: f2a8 b93c 6b74 363d 7241 a33d d9ba 8a3c
00000210: 3de4 64bd fc87 b13d c718 f23c e725 8b3d
00000220: 537a 533d d882 8c3d 6259 9bbc 80b4 923d
00000230: 1b2c 2b3d 62bc 67bd 3832 29bd 5e9e 543b
00000240: 830a 5cbd db77 a3bc 210c ad3c af29 183d
00000250: fe4f debd 4e55 17bd d532 d43c 3728 0b3d
00000260: 184d 1fbc e76f e0bc 3672 04bd ff68 5c3c
00000270: 5acf 1e3d 45ac 92bd 4943 a13c 901f a9bc
00000280: ac6b 84bd 82a4 703b 6ce7 39bd 947e ddbd
00000290: dce5 0bbc ce60 75bc 27d6 06be d717 15bd
000002a0: b46e 2fbd b6ea 32bc 7854 a43c 4b6a 36bd
000002b0: a6eb 9c3c 2037 70bb eb06 a9bd 29d2 953c
000002c0: 1789 18bc 76ea ebbc 978c c1bd 9077 623c
000002d0: 2e3d 293c 93cc cf3c f8dd f4b9 ff5c 5bbd
000002e0: 31b5 8f3d 416e 3cbd a498 813d 3fae f53c
000002f0: 1df5 a4bc 6d5a 2fbd dd90 34bd a180 d33c
00000300: 2bc8 ab3c f6b2 f13c 19ca a7bc e67a 363d
00000310: e8fa d63b c931 99bb 8f74 c83d b5fa b5bd
00000320: 7993 88bd 4daf aabd 231d c439 90d0 63bc
00000330: 862e 8d3d 63b2 71bb fc94 90bd 02ea a13d
00000340: 7bb2 5cbc 3898 cb3a fa28 563c 4ae9 3f3d
00000350: da8e a63d 0c48 5e3d bc74 17bd e98e 92bc
00000360: aab5 333d 4bcc 44bb 9eec 33ba 9ac1 b0bd
00000370: 3580 9bbb 35b9 253c e0e1 3f3d 401b 993d
00000380: 4ad4 fe3c 7328 c8bd feb0 453d 51c0 bebc
00000390: cfe1 8e3d b702 66bc 0247 82bb fd55 333d
000003a0: 843c 8bbd 3fb8 533c bd15 4ebc 509a f3bb
000003b0: deb4 c43c 4545 9bbd 0c01 9cbd 040e 35ba
000003c0: ebed 573d d456 c2bc 8b1f d43b dd2d a13d
000003d0: ca2b 8bbd 91cb 733d 63f0 763d ee71 4c3c
000003e0: 8ab3 72bd 4a71 a2bc 4b0e bbb9 fec3 913a
000003f0: 7b81 003e d097 7a3d df63 5bbd 2571 b43d
-0.02020411 -0.050417826 0.02217597 -0.05750177 0.04248068 -0.07649811 0.016003666 0.047360733
0.03663019 0.003948352 -0.049775176 0.025328478 0.0045834994 -0.028840031 -0.053745516 -0.021440402
-0.03563046 -0.03529905 -0.10701537 -0.083080985 -0.040369086 -0.093159795 -0.003348397 -0.033133756
-0.008330858 -0.09615333 0.07101525 -0.090595126 -0.06169098 0.03130655 -0.01003648 -0.010866052
-0.057036556 -0.017318353 -0.007000105 -0.0009178037 -0.070981085 -0.034636293 0.06896768 -0.05969099
0.0016059446 0.027154397 -0.024397215 -0.020832486 0.053072236 0.02960877 -0.04306108 0.05854745
-0.044809025 0.100470714 -0.050704718 0.056480393 0.030274898 0.014550715 -0.04221047 0.04893648
-0.06314731 -0.104569264 -3.0550393e-05 -0.053585462 -0.027617667 -0.022361794 0.05563698 0.038169466
0.1149392 0.06974656 0.0062805675 0.059864406 0.008076021 0.097146764 0.037465002 -0.08393832
-0.0029798707 -0.0003867835 0.05410799 -0.06801111 -0.03863759 -0.052762188 0.062451314 0.021948004
0.049611747 0.03727824 -0.04181253 0.04578472 0.009008058 -0.0118077975 0.014744027 -0.0017164041
-0.03951393 -0.03759042 0.05220701 -0.04917408 -0.035207614 -0.07800324 -0.047540423 0.02298209
0.06813918 0.033219215 0.06354079 0.03201866 -0.04342146 0.0056938073 0.010628062 0.04150767
-0.05661885 -0.07697022 -0.0685001 -0.05626346 0.011002162 -0.039118614 0.0969361 0.013161694
-0.051650416 0.0151602635 -0.0063138716 -0.12344481 0.057358578 -0.056528706 0.010312889 0.0078994315
0.0015441492 0.07028852 0.054221366 -0.05046414 0.019212335 -0.008474001 0.029482892 -0.029836385
0.022663567 0.04454462 0.07971467 0.016934799 -0.055881727 0.08668515 0.02955283 0.06794339
0.05163033 0.06860894 -0.01896352 0.07163334 0.04179011 -0.05657614 -0.041307658 0.0032443027
-0.053720962 -0.019954612 0.021123948 0.037149128 -0.10855101 -0.036946587 0.025903145 0.0339739
-0.00972297 -0.02739711 -0.032335483 0.013452767 0.038771965 -0.07161764 0.019685404 -0.020644933
-0.06465849 0.0036719148 -0.045386717 -0.108151585 -0.008538689 -0.014976693 -0.1316763 -0.03639969
-0.042830184 -0.010920217 0.02005981 -0.044534963 0.019155335 -0.003665395 -0.082532726 0.018288689
-0.0093100285 -0.028798323 -0.094506435 0.013822451 0.010329528 0.025366103 -0.00046704686 -0.053555485
0.070169814 -0.046003584 0.06327942 0.029990314 -0.02013641 -0.042810846 -0.044083465 0.025818171
0.020969471 0.02950428 -0.02048211 0.0445508 0.006560672 -0.0046751243 0.09787857 -0.08885709
-0.06668753 -0.08334217 0.00037405742 -0.013904706 0.06893639 -0.0036880008 -0.070596665 0.079059616
-0.013470287 0.0015533036 0.013071293 0.04685334 0.081327155 0.054267928 -0.03697656 -0.01789041
0.04387442 -0.0030028995 -0.0006863567 -0.086306766 -0.004745508 0.010114958 0.04684627 0.07475901
0.031107087 -0.0977334 0.048264496 -0.023285063 0.06976663 -0.014038733 -0.00397575 0.043783177
-0.06798652 0.012922346 -0.012578425 -0.007434167 0.024012025 -0.075815715 -0.07617387 -0.00069066905
0.05271713 -0.023723044 0.006473487 0.07870076 -0.067954615 0.059520308 0.060287844 0.012478335
-0.059253253 -0.019829411 -0.00035678069 0.0011121032 0.12549393 0.061179936 -0.05356204 0.08810643

net.2.bias f4 [32]
00000000: 78dc ba3c 588f a1bd 31bf 1cbc 1466 193c
00000010: 9473 853d c75d 8a3c 46cc bbbc 22f2 9abd
00000020: b6aa 5cbc b1a1 63bd 7c05 77bd f0e2 8fbd
00000030: 8ee9 94bd afdd 88bc 1136 40bd c14b 21bb
00000040: 06ad 76bd 1fe6 27bd 7d0b 9bbd 9808 913d
00000050: 5be4 99bd db9c 90bd bc1d debc 8c4e 5f3d
00000060: a837 36bd 7e68 873c 10c7 943d 392c 4ebd
00000070: 9b2b 8b3d f1b8 6c3c 1e6a e33c 9c61 043d
0.022810206 -0.07888669 -0.009567068 0.009362716 0.065161854 0.01689042 -0.022924554 -0.075657144
-0.013468435 -0.055574123 -0.060307965 -0.07025707 -0.072711095 -0.01670727 -0.04692656 -0.0024611803
-0.0602236 -0.040990945 -0.075705506 0.07081717 -0.075142585 -0.07061168 -0.027113788 0.054518268
-0.04448667 0.016529318 0.07264531 -0.050335143 0.067954265 0.01444839 0.027760562 0.03231965

net.3.weight f4 [32]
00000000: 815b d53e 5cd0 0f3f c86a 123f a921 933e
00000010: e011 473f 5d1f 0b3f 8fe1 7d3f 9822 333f
00000020: 2130 9b3e 34f0 cc3e 69d5 563f be71 713e
00000030: 9d15 453f 61d7 843e d56c b73e 424b 083f
00000040: 2ae7 bc3e 006b 5f3f ddd7 3d3e bfa9 123f
00000050: 0dcb ce3e af3d cd3e fd6a 2a3f b842 493f
00000060: 0b4f 513f 9b74 1a3e 8ef2 e23d 62cd de3e
00000070: 9558 043f 4449 db3e c03c 083f 95d9 a73e
0.41671374 0.56177306 0.57194185 0.28736618 0.7776165 0.5434473 0.991723 0.6997466
0.30310157 0.4002701 0.8391939 0.23578545 0.76986104 0.2594557 0.3582522 0.53239834
0.36895114 0.87272644 0.18539377 0.5729026 0.4038929 0.40086123 0.665695 0.7861743
0.81761235 0.15083544 0.1108142 0.4351607 0.51697665 0.42829335 0.532177 0.3278319

net.3.bias f4 [32]
00000000: e221 dc3b 2370 11bc de3b fbbc 1883 ae3a
00000010: 853b 063b 13f0 d4ba 78a9 b6bb f002 83bc
00000020: 94a1 323c 9117 85bb 2e1a 633b b703 ba3c
00000030: 31fa f5bb 3dda b1bb 5d96 403b f077 6cbc
00000040: 774a 83bb 79cb 0abd 6a34 db3c e422 b93c
00000050: 0f8b 31bc dd86 5b3b 750a 743c ef43 cdbc
00000060: e047 8dbc 3c32 8f3c eb63 e13c d8fe b5bb
00000070: 7b15 19bc 2fb7 a13c cc3c d3bc ad1c f73c
0.0067179063 -0.008876833 -0.030668195 0.0013314215 0.0020482254 -0.0016245864 -0.0055744015 -0.015992612
0.010902781 -0.004061647 0.0034653055 0.02270685 -0.007506632 -0.0054276274 0.0029386498 -0.014432892
-0.0040066796 -0.033885453 0.026758391 0.022599645 -0.010836377 0.0033497133 0.014895071 -0.025056807
-0.017246187 0.017480008 0.027513465 -0.0055540614 -0.0093435 0.019740669 -0.025785826 0.03016504

net.3.running_mean f4 [32]
00000000: 47da 06be de98 38be cfc7 64be 04ff a7bd
00000010: 811d 883e 4886 3bbd 2cbc 173e 9c51 bebe
00000020: 9e9b f3bd 63c1 31be b82a df3e 35a0 5fbd
00000030: 3969 8dbe 6bbc c0bd f9ea 5cbd 1be8 04be
00000040: 65a6 3fbe 493e 4b3e eeca efbd 7e45 683e
00000050: 4b7e 57be ce13 52be f890 253e f92c ab3d
00000060: cd1c 3bbd 03a5 533e 3f7e 973d 0a89 72be
00000070: 96cd 4b3c ba59 5e3e c45d b03c 1496 db3d
-0.13169204 -0.18027064 -0.22341846 -0.08202937 0.2658501 -0.045782357 0.14817876 -0.37171638
-0.11894916 -0.17358927 0.4358728 -0.054596145 -0.2761934 -0.09410938 -0.053935025 -0.12979166
-0.18715818 0.19847979 -0.11708628 0.22682759 -0.2104427 -0.20515367 0.16168582 0.08358187
-0.045681763 0.20668416 0.073971264 -0.23685089 0.012439152 0.21713915 0.021529086 0.107219845

net.3.running_var f4 [32]
00000000: 1ab4 7f3b d8ac b33a ff29 063c c95e 8039
00000010: 2e9e 4c3b aecf a73a d648 bd3a c46e 963b
00000020: 8493 e63a 5e8e 6b3b 36c0 953c 6b4c a93a
00000030: 1ad1 413b 027d 893a fe67 6b3a 1b6a 5b3a
00000040: c960 4e3a 9e33 de3b dd9a b03a d9d2 b53a
00000050: ba42 213b ca68 323a 2fd9 d53a c50a 823b
00000060: 4459 d33a e035 ca3a 2ac5 113a 1f3c 743b
00000070: 400a f03a 0372 1f3b 38f7 c83a 070e 103a
0.003901726 0.0013708128 0.008188724 0.00024484683 0.0031222212 0.0012802982 0.0014441262 0.004590841
0.001759157 0.0035943012 0.01828013 0.0012916451 0.0029574097 0.0010489526 0.00089800346 0.0008369998
0.00078726985 0.0067810556 0.0013473887 0.0013872042 0.0024606423 0.0006805776 0.0016315336 0.003968569
0.0016124626 0.0015427433 0.0005560691 0.003726728 0.0018313602 0.002432943 0.0015332466 0.00054952543

net.5.weight f4 [64, 32, 3, 3]
00000000: 5272 613c 1840 a2bc dfee 633d a918 713b
00000010: e442 1bbd 2bc9 b3bc b78a 36bd 38a2 37bd
00000020: 1912 c13c c7bf 07bd 90fc 23bd c41d 683c
00000030: 5521 043d 6537 1bbd 0aea 15bb 3dae 173d
00000040: f842 14bd 48b8 57bd b977 213d 6d12 61bc
00000050: b7a1 2cbb eb5f b8bc ca8b 2d3a c8a7 9bbc
00000060: 65ff c8bc a810 60bd d0b8 5c3d 8335 663d
00000070: 2d01 6b3c 6c57 2c3d 3731 0d3d 3c3a cebc
00000080: b3a3 1a3a 4b7f 96bb 119f 15bd 6a6c 5bbd
00000090: c830 963c 3f1b 353d 2723 8f3b d40c f93a
000000a0: ae46 f23b c9ed 253b 3fe4 f93c 9145 673d
000000b0: 672e c3bc f117 fcbb d3ed c5bc 651a bb3c
000000c0: bb17 5dbd c34e 49bd cb8e 053d 1484 14bd
000000d0: 3f34 1f3c cc40 5bbc 8c7e d4bc d726 0fbd
000000e0: b872 c03c 68fd 7e3c 5e51 e73b 7379 493c
000000f0: a4a1 2139 1361 023c 9ba9 16bd ebdb bfbc
00000100: 1a41 47bd 5daf 44bb 2242 cdbc 4f0a 343c
00000110: 7386 fc3c 399e 30bd c78a 183c a385 113d
00000120: 3ed1 1abd b77e ac3c d900 31bc 4389 ebbc
00000130: 5b8d 903c b631 4cbc 8cf7 70bc 053a 10bd
00000140: a62b bcba a984 0f3d 5b26 433c 3e94 d5bc
00000150: b3c8 383d 6c00 3e3d eee3 083d f2b6 6e3c
00000160: 5eff 1ebb 6753 263d 1212 b3bc 770f debc
00000170: 57af 963c 3d86 893c 5f67 553d 3d29 c33c
00000180: f702 163c 0635 5abd 3a21 02bc f31b 3dbd
00000190: 70d8 19ba f847 7bbc 1473 5cbc a667 79bc
000001a0: ec39 3c3c 7cf6 403c 942f 303b 8444 1cbd
000001b0: 9784 9f3c 2ce9 b13c 19c3 ea3c f4f2 593c
000001c0: 48ce 613c c620 35bd 420c 013d 398d 20bd
000001d0: 99c1 013d 6f98 043c 0161 03bc 4cc7 38bc
000001e0: 5a74 15bd 7529 e63c a50b 983b 1c70 503d
000001f0: 4e0c 27bc 7da7 f83c 3958 5c3c 58dd 04bd
00000200: 6029 653d d0a7 c03c ceb9 9abd cbb4 45bd
00000210: 9b97 2e3d 360e 7ebd f4ef 1dbd c2d5 543d
00000220: 5c8b 4e3c da18 8c3b 68c1 fbbb 33df 9dbc
00000230: 7668 34bd e72d d9ba aa0e 81bd 74cf 893c
00000240: 8dd8 7cbb cde1 353b 6cef 02bd f650 02bc
00000250: 7318 21bc 8cf9 45bd 1c4b 16bd 1530 94bd
00000260: 4db9 9fbc 6b4f 143d c8b0 dabc b83b 553d
00000270: dcfe 603c a1ef cf3b aa0c 083c 0adf f23b
00000280: bac5 103d fde8 713c 51b3 ac3c cc41 a2bc
00000290: 501c 1abb dba9 1d3d 8c98 8cbd b7c6 1ebd
000002a0: 841c f5ba 11d0 bf3c d05a 84bc 4ea6 02bc
000002b0: 38e6 e03c 13d1 f5bc 224c cd3c 9065 063d
000002c0: 8a57 4d3d ca85 48bd 6f7c 18bd 4bf5 12bc
000002d0: 8778 453d 78ea 0fbd e794 83bd faf9 82bc
000002e0: 4797 ca3c c4b2 babc f590 08bd 240a 303d
000002f0: 25a1 abbd 99d4 40bd 82cf 51bd 68e9 903a
00000300: 7ae1 01bd 0d78 15bd ddd5 013d 431d b3bc
00000310: f278 09bd 6f04 75bd f4b5 8fbb 52c7 923b
00000320: 4958 023b 8e0c 10bd d036 e2bc 5d62 903d
00000330: 8084 27bc 0699 12bc 4c8c 25bc 3def 513c
00000340: 8fdf 63bc d20f 633d 627e 16bc 7548 4d3d
00000350: 54a2 34bd cf30 45bc b00d a73c 4022 443d
00000360: b84d 24bd 0622 123d d9b3 7bbd 7f33 45bd
00000370: 4dd4 153c f6cc 08bd 6560 9cbc 88e4 f8b9
00000380: 7d87 4cbd 8a19 abbc b74e 013d c5bb 793c
00000390: 73ae ca3c de35 e7bc c8a5 1c3d 711b 3c3d
000003a0: e99d 273d 4fdf db3c 82e7 0abd 584a fabc
000003b0: fd38 013d af7e b8bb f34a 943c 71c0 843d
000003c0: 1eb9 bbbb b8f7 7e3d b14f a73c 3075 60bb
000003d0: 47dd 4fbd 1867 9b3c c2a7 c13c f6ff 60bd
000003e0: f160 2b3d 972b 7abd d983 bcba 6dcb 403d
000003f0: bf24 61bb 605c 8b3c f1e9 b8bc 2869 1ebd
0.013760166 -0.019805953 0.055647727 0.003678838 -0.03790559 -0.02194651 -0.044565883 -0.04483244
0.0235682 -0.033141878 -0.040035784 0.014167253 0.03225835 -0.037894625 -0.0022875094 0.0370314
-0.03619668 -0.05266598 0.039420817 -0.013737303 -0.0026341507 -0.022506675 0.00066202565 -0.019000903
-0.024535844 -0.054703385 0.05388719 0.056203377 0.014343542 0.04207556 0.034470763 -0.025174253
0.0005899027 -0.004592811 -0.03652865 -0.05357019 0.018333808 0.044215437 0.004368204 0.0019001015
0.0073936796 0.0025318733 0.030504344 0.056462828 -0.023825837 -0.0076932837 -0.024161255 0.022839734
-0.05397771 -0.04914738 0.03260688 -0.036258772 0.009717046 -0.013382148 -0.025939249 -0.03494915
0.023492202 0.015563346 0.0070592603 0.012297022 0.00015414372 0.007957715 -0.036782842 -0.023420295
-0.04864607 -0.0030011751 -0.025055949 0.010988786 0.03082583 -0.043119643 0.009310431 0.035527837
-0.037797205 0.021056516 -0.010803425 -0.028751975 0.017645529 -0.012463024 -0.014707457 -0.03521158
-0.001435627 0.035038624 0.011911 -0.026071664 0.045113277 0.04638712 0.033420496 0.014569985
-0.0024261097 0.040606882 -0.021859203 -0.027106984 0.018394155 0.016787643 0.052100535 0.023823375
0.00915598 -0.053273223 -0.007942492 -0.046169233 -0.00058687385 -0.015336983 -0.013455171 -0.015222466
0.011488419 0.011777516 0.0026883828 -0.03815128 0.019472403 0.02171763 0.028657483 0.013302553
0.013782091 -0.04422071 0.03150583 -0.03919718 0.03167877 0.008092984 -0.008018733 -0.011277985
-0.036487915 0.02809594 0.00464006 0.050888166 -0.010195805 0.030353302 0.013448768 -0.032437652
0.05594766 0.02351752 -0.07554971 -0.04826812 0.04262505 -0.06202527 -0.038558915 0.051961668
0.012606468 0.0042754235 -0.007682968 -0.019271469 -0.044044934 -0.0016569466 -0.06301625 0.016822554
-0.0038581223 0.0027752996 -0.03196661 -0.007953873 -0.009832489 -0.04833369 -0.036692724 -0.072357334
-0.019497538 0.03620855 -0.026695624 0.052058905 0.013732638 0.0063457047 0.008303801 0.0074118422
0.035344817 0.014765021 0.021081598 -0.019806765 -0.002351541 0.038492065 -0.068650335 -0.038763728
-0.0018700515 0.023414643 -0.016156584 -0.00797422 0.027453527 -0.03000692 0.025060717 0.0328117
0.050132312 -0.048955716 -0.037228044 -0.008969615 0.048210647 -0.035135716 -0.06424885 -0.015988339
0.024730338 -0.02279032 -0.033341367 0.04297842 -0.08380345 -0.04707775 -0.051223285 0.0011055889
-0.03170917 -0.036491442 0.031698097 -0.021864539 -0.033562608 -0.05981868 -0.004385704 0.0044793272
0.0019889048 -0.035168223 -0.027614027 0.07050011 -0.010224462 -0.008947616 -0.01010425 0.0128133865
-0.013908281 0.05543501 -0.009185405 0.05011793 -0.04410012 -0.012035563 0.020392269 0.047884226
-0.04011318 0.03567698 -0.061450813 -0.048144814 0.009144855 -0.03339859 -0.019088933 -0.00047472515
-0.0499339 -0.020886201 0.03156921 0.015242522 0.024741387 -0.028223928 0.03824404 0.045924608
0.04092208 0.02683988 -0.03391219 -0.030553028 0.03154849 -0.0056303362 0.018102145 0.06482018
-0.005728855 0.06224796 0.020423742 -0.0034249537 -0.050748136 0.018970057 0.023639563 -0.054931603
0.041840497 -0.061076727 -0.0014382555 0.047069002 -0.0034354178 0.017011821 -0.02257249 -0.038674504

net.5.bias f4 [64]
00000000: c6e5 e8bc ea2c 4e3d 6706 2b3d 248e 3fbc
00000010: a7b4 c8bb cde6 7fbc 1039 4dbc 7728 3abd
00000020: a514 323d b6d2 b9bc 446f 313d 8cc1 f93c
00000030: ff24 0dbd 56df d33c 6c4f 103d f2b8 6a3d
00000040: 5092 6bbd 6d79 2bbd 09bc 26bd 2ba7 c0bc
00000050: 2d56 3ebd fbad 5ebc 4d45 9b3c c807 59bd
00000060: cd4a 98bc 5600 d33b 7e8c 61bd 46d5 053d
00000070: c1d8 ee3c e96d eebc a536 b7bc c50d 163d
00000080: e8cb aeb9 a8f9 3f3d 0af4 083d 1021 663b
00000090: 35f3 0cbd ce4a 893c dbd7 19bd fea0 7b3d
000000a0: 6eb3 2ebd 42ac 0a3d bd7d 7ebc 05c1 5e3d
000000b0: 5f2d 35bd 087e 0ebb 6d5c c6bc 78dd f9bb
000000c0: 43ca edbc 2279 35bd dd39 043c 2a90 2f3d
000000d0: 6a66 4cbd 0cf6 45bd 8a7f 9bbb 4927 7e3d
000000e0: ea9b 8d3a 0eab c43b 4f70 63bd 4384 773d
000000f0: 6a1c 0f3d 1c60 18bd 1440 613d 5611 1abd
-0.028429877 0.050335802 0.041754153 -0.011691604 -0.006125051 -0.015618992 -0.012525812 -0.045448747
0.04347672 -0.022683483 0.043319 0.030487798 -0.03445911 0.02586333 0.035231993 0.057305284
-0.05751258 -0.041863848 -0.040706668 -0.023517212 -0.046468902 -0.013591285 0.018953944 -0.052985936
-0.018590355 0.006439249 -0.055065624 0.032674097 0.02915609 -0.029105144 -0.022364924 0.036634225
-0.00033339788 0.04686895 0.03343586 0.0035114922 -0.034411628 0.016759302 -0.03755937 0.06143283
-0.042651586 0.033855684 -0.015532908 0.054383297 -0.044232722 -0.00217426 -0.024213994 -0.007625278
-0.02902711 -0.044304974 0.008070436 0.042862095 -0.049902357 -0.04833035 -0.0047454285 0.062049184
0.0010803912 0.0060018366 -0.055527028 0.06042887 0.034939207 -0.037201032 0.05499275 -0.03761419

net.6.weight f4 [64]
00000000: ac6c 803f 7785 5e3f 7088 2d3f e774 493f
00000010: 9c42 0b3f dd80 543f 6f18 ad3e 07b3 213e
00000020: fcd2 363e ff6a 703f b756 b33e ca94 933e
00000030: 1318 383f f6a8 233e b24b 643f 8906 143e
00000040: 6f96 593f 20e0 8a3e 95be 4c3f 70f6 4e3f
00000050: 5c34 893e a086 6a3f 764d 9a3e e25d d83e
00000060: 51c8 bf3d 1854 3a3f 3931 7b3e 9b6a d23d
00000070: 1bcc 2d3e c413 0d3e 271d 403e b1ef 4e3e
00000080: 6c3b 793f fe42 433f b4e1 cf3e 754e 903e
00000090: 5405 043f 880e 6e3d ef77 df3e 27cd fd3d
000000a0: 6b97 0d3f 1ea0 8a3e 02b2 6c3f 5262 ce3e
000000b0: 1ab7 9a3e 9663 0d3f c2e9 513f 19e3 ca3d
000000c0: 4dac be3e 3a48 153f 062f fb3e 5f46 1d3e
000000d0: 692d 013f 2ca2 d03e 3e38 7d3f de8e 453f
000000e0: 115b 3a3f 7b6d 933e fb18 6b3e 4602 493f
000000f0: 88ae 6f3f 7c1e 163e 096f 0d3e 5ad9 ba3e
1.0033164 0.869224 0.6778631 0.78694004 0.5439851 0.8300913 0.33807704 0.1579095
0.17853922 0.93913263 0.35027096 0.28824455 0.71911734 0.15982422 0.89178 0.14455618
0.8499517 0.2712412 0.79978305 0.80844784 0.2679776 0.9161167 0.30137223 0.42259127
0.09364379 0.72784567 0.24530496 0.1027424 0.16972391 0.13777071 0.1876112 0.20208623
0.97356296 0.76274097 0.40601885 0.28184858 0.5157063 0.058119327 0.4364619 0.12392645
0.5530917 0.27075285 0.9245912 0.40309387 0.3021782 0.5523008 0.8199731 0.09906597
0.3724083 0.58313334 0.49059314 0.15358876 0.50459915 0.40748727 0.98913944 0.77171123
0.72795206 0.28794464 0.22958748 0.78519094 0.9362569 0.14660066 0.13811888 0.3649395

net.6.bias f4 [64]
00000000: f6f4 77bc 5108 76bd 043f 96ba e319 8abc
00000010: 7627 d7bc 28ac 30bd d4ef 533c 4953 a1bb
00000020: 33c0 583c de49 94bd ec89 2bbc 4725 9dbc
00000030: ead0 edbc c096 54bc 119c d9bc 6635 2d3b
00000040: 76c1 a0ba e445 b83c 7572 a9bd 7b18 57bd
00000050: 042d e3bc 5a97 57bd 3918 23bc 5d67 bbbc
00000060: 25c8 2abc 870d 4bbd 297c 8abc b682 46bb
00000070: 4479 3f3c 194c fb3b 1b0e ca3c 6120 6ebc
00000080: b4a0 bbbc 43fc 2abd cdb1 053b 78dd d2bb
00000090: 5c46 d2bb f42e 293d 6477 90bc 6333 86bb
000000a0: 6f45 a3bc 11cf a2bb 211e 8dbd c40a 8ebd
000000b0: 6a5a 1dbc 4574 26bd de43 63bc a080 d23c
000000c0: 8728 f4bc 044c bfbd 0be8 52bd 8484 a63b
000000d0: 95f3 8dbd a116 9ebb b5fa febc 7c2a 67bd
000000e0: fc61 273b c5da d53c 8120 0b3b e618 a9bd
000000f0: 9668 52bc bd7b a63c b855 193d 3879 b8bc
-0.015134087 -0.060066525 -0.0011462872 -0.016858047 -0.026263934 -0.04313293 0.012935597 -0.0049232584
0.013229418 -0.072406515 -0.010469895 -0.019182814 -0.029030282 -0.012975395 -0.026563676 0.0026429533
-0.0012264687 0.022494264 -0.08273784 -0.05251358 -0.027731426 -0.052634574 -0.009954506 -0.022876436
-0.010423695 -0.049573448 -0.016904907 -0.0030290312 0.011686627 0.0076689837 0.02466493 -0.014534087
-0.022903778 -0.04174448 0.0020400167 -0.0064350925 -0.006417079 0.041304544 -0.017635055 -0.0040954812
-0.01993057 -0.004968532 -0.06890512 -0.06935647 -0.009604076 -0.040638227 -0.013871161 0.025696099
-0.029804481 -0.09340671 -0.051490825 0.005081715 -0.06931225 -0.004824475 -0.031125406 -0.056437
0.002554058 0.026105294 0.002122909 -0.08256702 -0.012842318 0.020322675 0.037435263 -0.02251874

net.6.running_mean f4 [64]
00000000: ae73 d6bd 7be6 843e ad34 33be 2d4d c33d
00000010: 0974 593d 1663 3b3e 8ea7 84be 7d90 733e
00000020: 6034 633e 913a b63d b15d 573d cc72 513d
00000030: f29b c4bd b5d2 c63d 8b56 873d 5789 c53e
00000040: 92c3 edbe 2c29 e0be e018 453d 7ccd 9c3d
00000050: feb1 1f3e c170 933e f320 493e 0043 c1be
00000060: 102c 343e 7b27 c53e 84b1 de3a ded4 523e
00000070: 291d 403e 8b56 afbd 4d5c c6be 92f1 ab3d
00000080: cfd6 ee3d a720 b63d ccad 21be 2860 013e
00000090: 6aa1 863d 15e2 873d d215 98bd 2951 3f3e
000000a0: e324 f0be 39d9 be3d f16a 483e d008 67bd
000000b0: b4e5 b1be ea77 523e 0756 32be 1c61 e6bd
000000c0: b752 833e 6aa5 f33b 17b9 fc3c acd9 9b3d
000000d0: 2b3b 5e3d 6e71 a83e d251 2ebd d4db 883e
000000e0: eb6d eebe a98d c5be 7ad5 79bd 1165 cf3c
000000f0: f3da adbe e701 183e 7fa5 ff3d 87ba 2d3d
-0.10471283 0.25957093 -0.17500563 0.095362045 0.053089175 0.18299517 -0.25909084 0.23785587
0.22187948 0.088978894 0.052579585 0.05113487 -0.09600057 0.09708158 0.06608304 0.38581344
-0.4643827 -0.43781412 0.048119426 0.076563805 0.15595242 0.28796962 0.19641475 -0.3774643
0.17594934 0.38506684 0.001699016 0.20589015 0.18761124 -0.08561429 -0.38742295 0.08395685
0.11662065 0.08892947 -0.15788954 0.12634337 0.06573756 0.066349186 -0.07426037 0.18683304
-0.46903142 0.09318776 0.19572045 -0.05640489 -0.34745562 0.20553556 -0.1741563 -0.11248991
0.25649044 0.0074354904 0.030849976 0.07609877 0.054255646 0.3289904 -0.0425585 0.26730216
-0.46568236 -0.3858464 -0.060994603 0.025316747 -0.33956107 0.14844476 0.12482738 0.042414214

net.6.running_var f4 [64]
00000000: b5e3 153d a32a e33c bd23 323e abb3 a83d
00000010: 9e9c e63d 0273 b43d 8b87 063e 870d 333d
00000020: 99ca 9a3c 27ab 933d 97c4 cf3d 3c16 293d
00000030: cde6 a93d 6098 833c 34f5 b13d 0703 be3c
00000040: 45f1 893e 14ca e13d 0df8 203d 681f fc3c
00000050: 2acc af3c 0bc8 853d 3e2d ef3c 33f6 493d
00000060: 3d54 c83c 5a81 853d c92c 003d 1c4f ea3c
00000070: 208f bf3c c5ff 453d 9f81 863d 8093 7f3c
00000080: b2b1 223e 0184 5a3d c205 e53d bb95 173d
00000090: b57b 2b3d 5bd1 f63c d50e c73c c883 963c
000000a0: 260f ad3d 2e9b 9b3c e50b 173d 1c84 023d
000000b0: 5eae d73c 36f4 943d 9cbb 343e 1e0d dd3c
000000c0: dfb8 f53c e911 d23c 3a13 233d 76fe cd3c
000000d0: 3bd3 d63c 0b42 4e3d f940 1c3d f41a a33c
000000e0: d66a 2e3e 9695 463e 571c 073d a5c5 1c3d
000000f0: 855d 343e d752 c43c f1aa 553c ceca 3a3d
0.03659411 0.027730292 0.17396446 0.08237394 0.11260341 0.088109985 0.13137643 0.043714073
0.018895434 0.07210379 0.101449184 0.04128097 0.08295975 0.016063869 0.08689347 0.023194803
0.26941887 0.110248715 0.03929906 0.030776694 0.021459658 0.06532296 0.029196378 0.04930706
0.02445423 0.065188125 0.03129271 0.028602175 0.023383677 0.048339624 0.06567692 0.015599132
0.15888098 0.053348545 0.11182739 0.03700803 0.041866023 0.030129125 0.024299065 0.018373385
0.08450155 0.018994894 0.036876578 0.03186427 0.026328262 0.07273142 0.17649692 0.026983794
0.02999538 0.025643306 0.039813258 0.02514575 0.02622377 0.050355952 0.0381479 0.019910313
0.17032942 0.19393 0.03298601 0.038274426 0.176138 0.023965282 0.013041244 0.045603566

net.8.weight f4 [128, 64, 3, 3]
00000000: 0baf 983c b4f2 82bc 01e0 9abc 6811 1dbc
00000010: 8dd4 b43b 1ee8 18bd b140 d73c 7378 3bbc
00000020: 8ce5 19bc 263a 493d 3f21 ad3c 9668 023c
00000030: 96cb 393d a565 193d 4323 2abb e803 323c
00000040: faa0 ecbb 9978 2dbc de06 efbc 938c 983c
00000050: 6e5e 153d 4cea c53c 3b0f 73bc fcd5 06bd
00000060: 711f 2e3d 38bc 443b c86c aebc 5536 c23b
00000070: e5c9 72bc 5ab4 3bbd 6049 b03c 35d9 adbc
00000080: dedf 483c 536c a7bb 61d9 d3bc c3cb f0ba
00000090: ae85 953a 2e49 f23c 7f79 d9bb b4ba 9f3c
000000a0: 0990 1cbd d332 a33c 57c7 ffbc f1c6 6bbb
000000b0: c54a 443b 71dd 793c 4516 043d 5268 9bbc
000000c0: 95bd e0bc a6d1 37bc 1aa6 01bd 5337 bbbb
000000d0: 4243 df3c 3ce8 85bc 13bf fabc c213 093d
000000e0: 6e3a d8bb 56a6 e83b 2e51 88bb e5bc 92bc
000000f0: aaf7 b5bc 5c6e 87bc adab c0bc d394 bebc
00000100: c469 31bd de57 233d b635 2b3b 3833 53bd
00000110: 48dd f3bc 62fd 63bd a662 0b3c 6432 12bc
00000120: 229d 1abd 3067 443c 35de 64bd 4016 eb3c
00000130: f723 b0bc a63b 62bb c81f c83c 928f d9bc
00000140: b7f8 cbbb 69a6 e13b 1535 06bc 73ef fdbc
00000150: 1780 b7bc e38b af3b 3223 b53c 7d87 a03c
00000160: 8325 21bc 9582 d5bc b231 13bd acf5 82bc
00000170: 9c2b 88b7 7ad4 bcbb f703 c7bc 5259 dcbc
00000180: 2569 db3c ee51 fabb 6aab 123c 77e4 93b9
00000190: c862 3bbc 8cc6 58bd b53d 0f3d e3ef 95bc
000001a0: b053 e5bc 6f52 aebb 2aff 86bb 02ae 6a3c
000001b0: e567 383b 5ee5 20bd 5b5b 1dbd fcc5 9bbb
000001c0: d753 9f3c 1942 3bbd d706 173d 93a1 893b
000001d0: 0646 973c 09d3 c13b 9d25 b43b 41f4 c43a
000001e0: 1d7a 243b 0caf aabc 5376 7a3c 8706 8fbb
000001f0: d418 28bd 9a10 49bd 0080 b7bc 46dd 1f3c
00000200: 8174 15bd cbcb d93b 5ccb 62bc f569 15bd
00000210: bdd9 98bc 0d57 873b f41a a9bc 24ff 523d
00000220: 5f33 a9bc a184 0d3c 5e76 69bc 3d0d 5dbc
00000230: 804a 9bbc d1ce 85bb 7736 a53c 3604 d739
00000240: 568d cabc 7234 453b ba22 983b c4cb b03c
00000250: cd6e 2a3c e46b e1bc 93d6 0abd 2169 d7bc
00000260: f544 a6bc cb5c bd3c df82 1e3d 871d 233d
00000270: d5ca 263c f6e6 2a3d 0298 1a3d afaf 2e3d
00000280: a25c 08bc 545b c23b c8fd b43c e87d 2d3d
00000290: 1e2a d8bb 95a9 b83b 2f07 483c eba6 cdbb
000002a0: 32cf 7e3b c377 03bb 62b1 5fba cc74 313d
000002b0: 44ff a93c f0ca bebb d1df 5dbc 01a0 133c
000002c0: 8e26 c7bc 790b bfbc 5528 a3bb b58a 6abc
000002d0: ab87 023d 02d1 e9bb 7ec5 853c 854d d43b
000002e0: 5539 a5bc 7269 363c a82c e9bc 7b0c 813c
000002f0: 3b17 e4bc 52f8 a13c d4e9 82bc 64db 26bc
00000300: 126f d53c 2b96 753c a1ff 203d 5bdf e33c
00000310: d1e6 b0bc b5ed b3bc 58c5 a03c 3652 a4bb
00000320: 0ca5 e33a e7c6 d0bb 1f52 28bd 2db4 5cbd
00000330: a60a b33c a484 8fbc 06e4 22bd 73f2 c0bb
00000340: cd56 203d 6cf3 393d 03b5 a9bb f00c e73c
00000350: 4019 c7bc a11b 8e3c 4c57 f43c 82f0 323d
00000360: 4593 043d 5cba edbb 548c 2c3d e1a6 2fbd
00000370: 8382 97bd 48c7 e13b 1ebd e13c e592 fd3c
00000380: 4b79 64bc 1816 7abc 8f55 973c fec2 f6bb
00000390: 1093 233d d4a2 233c 3918 eebc 065d 56bc
000003a0: 6a48 b8ba 4d03 353d 5fba 103c 1938 80bc
000003b0: 2889 b7bc 6882 c9ba 485b 57bd 6879 e3bc
000003c0: f049 7d3c 2ced 15bd 1063 ad3c 1d66 11bd
000003d0: 3297 ce3c 82ad c63c be35 06bd 6549 03bc
000003e0: 08be 193d 64b4 393d 151b b4bc e6e7 393d
000003f0: 14d1 48bd ec75 74bd 8cd7 023d 1acd 58bd
0.018638154 -0.01598487 -0.018905642 -0.0095866695 0.005518502 -0.03733074 0.026275964 -0.011442292
-0.009393107 0.04912772 0.021134017 0.007959506 0.04536017 0.03745045 -0.002596096 0.010865189
-0.0072213383 -0.010587835 -0.02917808 0.018621719 0.03646701 0.024159573 -0.014835174 -0.032918915
0.042510454 0.0030019414 -0.021292105 0.005926887 -0.014818643 -0.045826294 0.021519363 -0.021221736
0.012260405 -0.005109349 -0.02586049 -0.0018371273 0.0011407638 0.02957591 -0.006636798 0.019498207
-0.0382233 0.019921696 -0.031222982 -0.0035976733 0.0029951793 0.01525055 0.0322478 -0.018970642
-0.02743415 -0.011219418 -0.031652547 -0.0057133823 0.02725375 -0.01634609 -0.03060869 0.03346611
-0.0065987622 0.007099907 -0.004160068 -0.017912338 -0.022212822 -0.016532116 -0.023519361 -0.023264324
-0.043313757 0.03987872 0.0026124544 -0.051562518 -0.029768601 -0.055661567 0.008507406 -0.008923147
-0.03774751 0.011987492 -0.055875976 0.028697133 -0.021501524 -0.0034520417 0.024429217 -0.026557717
-0.0062247175 0.0068862927 -0.008191367 -0.030997967 -0.022399945 0.005357252 0.022111509 0.019595856
-0.009835604 -0.026063243 -0.035936065 -0.015986286 -1.623277e-05 -0.005762634 -0.024293883 -0.02689806
0.026783535 -0.0076391613 0.008952001 -0.00028208244 -0.0114371255 -0.052923724 0.034970958 -0.018302863
-0.027994007 -0.0053198854 -0.0041197734 0.014323713 0.0028138098 -0.03928124 -0.0384172 -0.004753826
0.019449158 -0.045717333 0.036871757 0.0042001694 0.018466007 0.00591505 0.005497648 0.0015026407
0.00250972 -0.020835422 0.015287 -0.004364792 -0.041039303 -0.049088098 -0.022399902 0.009757346
-0.03648806 0.0066466085 -0.01384243 -0.036478 -0.018658513 0.0041302503 -0.020642735 0.051512852
-0.020654378 0.008637578 -0.014249412 -0.013491926 -0.018956423 -0.0040834923 0.020167572 0.00041011133
-0.024725597 0.0030091074 0.0046428116 0.021581538 0.0104023935 -0.027517267 -0.03389604 -0.026295247
-0.020296553 0.023115536 0.038699027 0.03982308 0.010180195 0.041724168 0.037742622 0.042648014
-0.008322867 0.0059312973 0.022093669 0.0423564 -0.0065968176 0.00563545 0.012208744 -0.0062760017
0.0038880822 -0.0020060397 -0.0008533207 0.043324277 0.020751603 -0.005822532 -0.0135421315 0.009010316
-0.024310376 -0.0233209 -0.004979173 -0.014315297 0.031867664 -0.0071355114 0.016329523 0.0064789676
-0.02016894 0.011133539 -0.028463677 0.015753021 -0.027843108 0.019771729 -0.015980639 -0.010184143
0.026053939 0.014989416 0.039306287 0.027816465 -0.021594437 -0.021963933 0.01962535 -0.005014683
0.0017367913 -0.0063713673 -0.04109394 -0.053882767 0.021855664 -0.017519303 -0.03976824 -0.005888277
0.03914528 0.04539816 -0.005179049 0.028204411 -0.024304032 0.017347159 0.029826783 0.043686397
0.03236701 -0.007254882 0.042126015 -0.042883758 -0.0739794 0.0068902113 0.027555998 0.030953834
-0.013944934 -0.015264057 0.018473415 -0.007530569 0.03993517 0.009987552 -0.029064285 -0.013083702
-0.0014059667 0.0441926 0.008833497 -0.01565175 -0.022404268 -0.0015373947 -0.052577287 -0.027767852
0.015459523 -0.036603138 0.0211654 -0.035497773 0.02521858 0.024252657 -0.032766096 -0.008013104
0.037534744 0.04533805 -0.02198557 0.04538717 -0.049027517 -0.05968277 0.031943843 -0.052929975

net.8.bias f4 [128]
00000000: bc3c 10bd 6e63 e4bc 2247 e8bc b9bd 1a3c
00000010: e37b c2bc a51f 19ba fe61 d5bb ab6e 123b
00000020: 439c fc3a 4f19 22bd e38a 263c f1b9 bf3c
00000030: 49ab e3bc 295c a3bc 5b68 e53c 7aff fabb
00000040: 0521 143c f9f5 833b 3e8d 8a3b 2851 b6bc
00000050: 179e c93c c9a6 093d e989 3fbc 7bfc 7a3b
00000060: c1fa 24bc c892 ac3c c117 ca3c dd9c 99bc
00000070: b5c6 99b9 91e7 9e3c b135 febc 3fc9 a2bc
00000080: d350 c23b 37c3 8cbc 1646 dc3c 0ec7 cd3c
00000090: 50ef e7bc 13df a23c 4843 683c 47f8 8f3c
000000a0: ba3f b63c 8ad2 363c f030 5e3b 1ddb f7bc
000000b0: 95b2 18bd e26d 0c3d e755 a9bc 273b 8d3c
000000c0: 2694 c0bc 3908 d83c b184 a7bc cae7 fbbc
000000d0: 67ac 2dbc 4270 07bd 190e dc3c 6599 8f3b
000000e0: 2252 0abd 27f7 d93c be6c 9a3b 57ea 0fbd
000000f0: 1e0b 4dbc d502 e63c d7c9 cfbc 6271 163d
00000100: 1a15 42bc 407c 813b c271 0abd 9230 ff3c
00000110: 00c1 c3bc 024c edbc d28d 02bd 9ea4 e93c
00000120: 3de2 91b9 81c2 e2bb eeff 75bc 4da3 403c
00000130: 45d1 ca3c 6173 55bc df9b be3c 1916 f0bc
00000140: d707 c83c 36b8 9c3b d8f1 bebc b922 febc
00000150: 95a0 6c3c 6b55 2dbd 1a14 1d3d 5d8b 0d3d
00000160: 14c8 2bbb a17e 18bd 7d5b 68bc 9513 083d
00000170: 632e aabc ba76 8b3c 49b3 c13c 1ce3 d73b
00000180: 2870 cd3c 047f de3c 1889 0e3d 4e44 673c
00000190: 3522 f43c 7518 2bbd 263f 213d f542 0dbc
000001a0: 0be1 87bb d109 caba ef5d 9a3c f19d c3bc
000001b0: 9343 90bc 5604 cb3a e48b dcbb 9a9a 45bc
000001c0: 2017 b0bb bc09 1d3d fa21 edb8 e372 f93b
000001d0: 021d 04bd 1053 51bc a125 843c 8ef8 ab3c
000001e0: 82be 57bc 12db bb3c a347 d1bb 9450 e63b
000001f0: 1867 1dbc 6d0b 8b3c e138 e83c 7079 18bc
-0.03521417 -0.027879443 -0.028354231 0.0094446475 -0.023740714 -0.0005841202 -0.0065119257 0.0022343795
0.0019272644 -0.039574917 0.010164949 0.023404093 -0.027791636 -0.019941406 0.028003862 -0.0076598497
0.009041076 0.004027125 0.004228263 -0.022255495 0.024611516 0.033606324 -0.011690595 0.0038297463
-0.01006955 0.021066085 0.02466953 -0.018751556 -0.00029330482 0.019397529 -0.031031461 -0.019871352
0.005930045 -0.01718293 0.026888888 0.02511933 -0.028312355 0.01988176 0.014176197 0.017574443
0.022247184 0.011158595 0.003390368 -0.030255849 -0.037279684 0.03428448 -0.020670844 0.01724012
-0.023508143 0.026371108 -0.020449014 -0.030750174 -0.010600186 -0.03306604 0.026862191 0.0043822997
-0.033769734 0.02660711 0.00471267 -0.035135593 -0.012514858 0.028077522 -0.0253648 0.036729224
-0.011845851 0.0039515793 -0.033799894 0.03115109 -0.02389574 -0.028966907 -0.03187353 0.028520878
-0.00027825116 -0.0069201593 -0.015014632 0.011757684 0.02475799 -0.013027997 0.023267685 -0.029307412
0.0244178 0.004782702 -0.02330868 -0.031022416 0.014442583 -0.04231779 0.03834925 0.034556735
-0.0026211785 -0.037230138 -0.014181969 0.0332218 -0.020774072 0.017024387 0.02364506 0.006588353
0.025077894 0.027160175 0.03479871 0.014115406 0.029801467 -0.04177137 0.039366864 -0.008621921
-0.0041467003 -0.0015414302 0.01884362 -0.023879023 -0.017610347 0.0015488963 -0.0067305434 -0.012060786
-0.0053738505 0.03833936 -0.00011307369 0.0076125725 -0.032254227 -0.012776151 0.016131224 0.020992544
-0.013167979 0.02293161 -0.0063867136 0.0070286486 -0.009607099 0.016973222 0.028347434 -0.009306297

net.9.weight f4 [128]
00000000: ece1 213f b70b 463f 7a24 4f3f a63a e83e
00000010: 4fdc 063e e640 bf3d 95a0 493e b5d2 9e3e
00000020: f7db 853e 47c2 493f c036 d03e 46c2 093f
00000030: 381f 0a3f 7cb7 2c3f 5ff9 d53e c037 9b3e
00000040: 2f46 623f 0fc1 c33e 6a95 5d3f 85d4 3f3e
00000050: 56b5 e33d 62f5 513f b106 423e ab24 eb3e
00000060: 1914 be3e db6a 363f 9c0f 4e3e 1956 263f
00000070: 1b96 5f3f 8c47 733f 39f8 673f d0d8 b33e
00000080: 8fe5 023f bdd7 c23d 6330 563e 1afb 553f
00000090: b046 4d3f cc3e b43e 680c 6c3e 4153 cd3e
000000a0: 614e 473f 93ca 2f3e 3329 353f d7e0 ae3e
000000b0: 5d84 b03e f756 1c3e 8106 d23e b584 6d3f
000000c0: 987c 743f 5abf 2c3f ad2d 293e 5986 e43d
000000d0: a088 483f 7cab 533f 5546 473e c743 4d3f
000000e0: 1078 c93e 7f46 563f 1eb9 2a3f f0e1 b43e
000000f0: 33f2 493d 0b6c 8e3e 2779 b03d 4fd5 e23e
00000100: ef95 633f dfef 3d3e febc 503f 62a5 073f
00000110: 41f2 333f 9a65 913d 72da 5f3f ab05 133f
00000120: 15ae 6f3f 1ac3 1d3e 5a9b 863d 0be9 f13e
00000130: e5bb 1f3f 2d39 3a3f 4cc8 8d3e 3350 d03e
00000140: b13d 813e b580 9c3e b306 1c3f c819 163e
00000150: 2b5a 3e3f 8cfc fc3e f90c 493f 893d 0c3f
00000160: 933d 1c3e ad75 6f3f b496 683f ab85 613f
00000170: a4f6 6b3e 5bac f03e 0b75 903d e778 073d
00000180: fae5 613f 2458 e73e 8392 d83e 8e0f 6c3e
00000190: 675b 213f d7ca 753f 5e29 e43e 92cd e83e
000001a0: e555 6d3f e5b5 003e fea9 e93d 7615 763f
000001b0: 3f6b 163e 9167 493d 0fec 0c3e c0af 433d
000001c0: c736 db3e 3b2c 053e 235f 3d3f 938d 943e
000001d0: d391 a23e 1d50 153f 063d 623e c001 8c3e
000001e0: 59eb d83d 990f 8a3e b984 0e3f 641d cd3e
000001f0: e3d4 2a3f 79af 583f dcc3 1c3f af73 b33e
0.63235354 0.77361625 0.80915034 0.45357245 0.13169979 0.0933855 0.19690163 0.31020132
0.26144382 0.7881207 0.4066677 0.5381206 0.53953886 0.67467475 0.41791818 0.3031597
0.8838834 0.3823323 0.8655611 0.18733414 0.111185715 0.8201505 0.18947865 0.45926413
0.37124708 0.712568 0.20123142 0.64975125 0.8733842 0.95031047 0.9061313 0.35126352
0.5113153 0.09513805 0.20916896 0.83586276 0.80185986 0.3520416 0.23051608 0.4010258
0.7785397 0.1716712 0.7076599 0.34155914 0.34475985 0.1526755 0.41020587 0.9278062
0.95502615 0.6747948 0.1652133 0.11158437 0.78333473 0.8268354 0.19460423 0.80181545
0.39349413 0.8370132 0.66688716 0.35328627 0.049303245 0.27816805 0.08616858 0.44303367
0.88900656 0.18548535 0.8153838 0.5298673 0.70291525 0.07099457 0.87442696 0.57430524
0.93625003 0.15406457 0.065726 0.4724811 0.6239608 0.72743493 0.27691877 0.40686187
0.2524238 0.30566946 0.6094772 0.14658272 0.74356335 0.49411428 0.7853542 0.54781395
0.15257864 0.93538934 0.90854955 0.88094586 0.23043305 0.47006497 0.07053574 0.033074286
0.8824154 0.45184433 0.4229928 0.23052809 0.63030094 0.96012634 0.4456281 0.45469338
0.9270919 0.12569387 0.114093766 0.96126497 0.14689349 0.049171034 0.13761924 0.04777503
0.4281523 0.13005154 0.7397329 0.29014263 0.3175188 0.5832537 0.22093591 0.27345085
0.10591764 0.26965025 0.5567127 0.40061486 0.6673109 0.8464275 0.6123636 0.35049197

net.9.bias f4 [128]
00000000: 15aa 87bb 77e1 70bd 978c fb3a 7c9b 6d3b
00000010: a681 2f3a 7611 e93b 3729 d13a db51 4b3b
00000020: e1cb 1d3a bb7e 963b 9c65 283b f074 8fbb
00000030: fa62 a7bc c782 a3bc 5657 743c 48b8 0dbb
00000040: c453 e3bb 2e40 8b3b c2a1 49bb 8881 e83b
00000050: d942 fc3b 97fe 9e3a 46ab b6bc c8cf 94b9
00000060: 5735 793a cd84 4bbb c5f2 843c 7c03 a5bb
00000070: b42b 95b9 b01b bf3a 83a1 58bc 09ea dabb
00000080: 9096 5bbb 9870 353c d1c7 00bc b8ab 47bc
00000090: 42da 9dba a7f6 b43b bf0c 373b a901 093c
000000a0: c788 803b 2970 e83b 97f0 08bb 418c 56bc
000000b0: 6d2d 4f3c 027b a73b f5f6 8cba 8ba6 a4bc
000000c0: 84bd e7bb 7a96 443c f46b 3cbc c0ac 51bb
000000d0: c878 69bc 6bdd c5bb 1ffc f5bb 1118 88bb
000000e0: abd4 f63b 4b5c e1bb 3086 e23b 5455 09bc
000000f0: c6a2 01bc 55a0 1ebc 2c23 ecbb 2464 dd3b
00000100: 8456 173b 6df1 18bc 3e8f 113b 21e9 28bc
00000110: 3c22 08ba 567a 0abc e7ee 69bb a81e a23a
00000120: 2acd adbc a81f 2b3c d7ba e93b e5f3 a1bb
00000130: 637a e03b b984 6bbc 9c44 bc3a e787 30bb
00000140: 316f 22bd 1c7e 5b3b 0d57 023b 38a0 64bc
00000150: c36c 38bc 3e1e 27bb 8f24 0cbb 85fc 6f3c
00000160: bad0 b8bb 1ad4 443b e475 da3b a1ec 263b
00000170: 123f e1bb e5ae abbc 94e1 ef3a 3fc3 95bb
00000180: 9812 7b3b 6ad3 1abb 393e 92bc 0a84 56bc
00000190: 5397 153b 3532 db3a dd25 40bc 6bcd 993a
000001a0: 8ded 413c e2e3 40bc a7b0 8c3a b850 b53b
000001b0: 04e7 d33b 13bb a9bb a5b7 373b bb74 d1bb
000001c0: 2ee8 4d3b 16f5 823a 9410 71bb 5eb3 c9bb
000001d0: ed82 c13b 8a55 293c ffc1 283a a14f 65bc
000001e0: dab9 e73b d90f 9fba 9710 c8bb b55a ef3b
000001f0: cdb5 f73b f7dd 5839 2fd5 84b9 5825 db3b
-0.0041401484 -0.05880877 0.0019191679 0.0036256006 0.00066950393 0.007112677 0.0015957718 0.0031024131
0.0006019455 0.004592744 0.002569533 -0.0043779537 -0.020432938 -0.01995982 0.014913401 -0.0021624733
-0.006937476 0.004249594 -0.0030766581 0.0070955195 0.0076983985 0.0012130317 -0.022298466 -0.0002838357
0.00095065444 -0.0031054497 0.016229043 -0.0050358158 -0.00028452056 0.0014580395 -0.013222101 -0.006680731
-0.003350649 0.011074208 -0.00786014 -0.012186937 -0.0012043195 0.0055225673 0.0027931181 0.008362212
0.003922555 0.0070934487 -0.0020895356 -0.013094963 0.012645108 0.005111099 -0.0010754751 -0.020098945
-0.0070721526 0.011998767 -0.011500347 -0.0031993836 -0.014249988 -0.006038358 -0.007506862 -0.0041532596
0.007532676 -0.0068774573 0.006912969 -0.00838216 -0.007912343 -0.009681781 -0.0072063413 0.0067563225
0.0023092339 -0.009334904 0.0022210623 -0.0103094885 -0.00051930896 -0.008452019 -0.0035695375 0.0012368755
-0.021215994 0.010444559 0.0071328687 -0.0049424046 0.006850527 -0.014374905 0.0014363709 -0.0026936473
-0.03965682 0.0033491915 0.0019888312 -0.013954215 -0.0112564 -0.0025500203 -0.0021384095 0.014647608
-0.0056401165 0.003003365 0.0066668857 0.0025470632 -0.0068739736 -0.02095742 0.001830148 -0.0045703943
0.0038310643 -0.0023624548 -0.017851936 -0.013093004 0.0022825792 0.0016723337 -0.011727777 0.0011734193
0.011836422 -0.0117730815 0.0010733799 0.005533304 0.006466748 -0.0051797717 0.0028033045 -0.006392089
0.0031418907 0.0009991254 -0.0036783563 -0.0061554154 0.0059055 0.0103353355 0.0006437599 -0.013996036
0.007071716 -0.001213546 -0.0061054933 0.0073045143 0.007559514 0.00020682054 -0.00025335836 0.0066878013

net.9.running_mean f4 [128]
00000000: ec28 9abd e65f 29be a228 64bd 05c3 2d3e
00000010: 36f6 2e3d 181e 833d 1a99 45bc e79b b6be
00000020: bb58 b03e 5b74 f7be deb8 86be 5e2f 043a
00000030: 8a00 9dbe e74c 50be c859 963e 5237 653e
00000040: 3736 543d ca6b 503e f643 b73e 52ba ab3e
00000050: 585e 51be 4840 863c e2be 89bd d8b3 74bd
00000060: 616d 013e a122 30bc 983d 22bc 8575 3abe
00000070: e269 753e 5149 a7bc 7ffc 8c3b 7380 f7bd
00000080: c831 a73d 5d9f 10be 3de5 08be 73bb 18be
00000090: 74c1 eebc 4f69 d03c 612e 81bd db3f 4f3e
000000a0: 3c16 ebbd 175b 1ebd be70 a0bd cd00 2d3e
000000b0: 6ad9 d33d 6ed9 e7bd d677 713d 56c7 2cbe
000000c0: 0792 83bc 430f 8e3d dc63 a4be 5af9 a2be
000000d0: c7c9 93be 76cf 9ebe d002 85be 1e62 84bc
000000e0: 1cab 90be 5005 20be 2348 ab3d 5e61 423d
000000f0: 084d 73be 53af fb3d 9d0c 59be e5d6 a53e
00000100: 96ed 1a3d 1115 203e 751b afbe 0134 13be
00000110: 1b12 7e3d c732 b4bd e8a7 52be c21d 6c3e
00000120: a7be 9cbd 8048 613c 4db4 b8bd b335 33be
00000130: 3a45 3dbd a4f3 bbbd d426 9f3e ceff bebe
00000140: ca05 6d3e 968b 3a3e 9163 70be 73fb cabe
00000150: f28a 17be 0ba5 51be abdd 4e3e 05f3 af3d
00000160: 8f9f e7bd 542c 023e c51f 82be 9f6b 29bd
00000170: 3b00 123d 8e0c 2ebe 30b9 913c 07b8 ff3d
00000180: ea1c a83e 5153 2bbe f084 8ebe 8be9 02be
00000190: 1dd6 953e c65d bebd 1a94 80be 05f0 85be
000001a0: 95f4 003e 6bd9 c8be 56d6 f6bc 7d80 8d3d
000001b0: ff80 3a3d 54c1 cdbd 351b 14be 9913 22be
000001c0: 33c0 39be 27e6 a8be aaa3 1abd a9fa 3d3e
000001d0: 556d 83be c969 92bd 6e01 34be 0cc4 92be
000001e0: e252 a23d 4056 073e f992 1ebd 02cb 163e
000001f0: 3e21 26be 4d53 13bd cf36 30be 98a5 89ba
-0.075273365 -0.16540489 -0.055702813 0.16968925 0.042715274 0.06402224 -0.012060428 -0.3566582
0.34442696 -0.4833096 -0.26312917 0.00050424587 -0.30664474 -0.20341836 0.29365373 0.22384384
0.051809516 0.20353618 0.35794038 0.3354059 -0.20446146 0.016388074 -0.06725861 -0.059741825
0.12639381 -0.010750444 -0.00990238 -0.18208893 0.23966172 -0.020420702 0.004302561 -0.120850466
0.08163792 -0.14123292 -0.13368697 -0.14915256 -0.02914498 0.02544084 -0.06307674 0.20239203
-0.1147885 -0.03866109 -0.07834004 0.16894837 0.10344203 -0.11320768 0.058952175 -0.16872916
-0.016060842 0.06936505 -0.32107437 -0.31830865 -0.2886488 -0.31017655 -0.25978708 -0.016160067
-0.28255546 -0.15627027 0.08363368 0.047456138 -0.23759854 0.122893 -0.21196218 0.32390514
0.037824236 0.15633036 -0.34200636 -0.14375307 0.062028985 -0.087987475 -0.20571864 0.23058227
-0.076535515 0.0137501955 -0.09018765 -0.17500953 -0.046208598 -0.0917733 0.3108431 -0.37304538
0.2314674 0.1821731 -0.23475482 -0.39644966 -0.14799097 -0.20473115 0.20201747 0.08591274
-0.1130973 0.12712222 -0.25414863 -0.0413624 0.03564475 -0.16996977 0.0177885 0.12486272
0.3283456 -0.16731001 -0.27835798 -0.12784402 0.29264918 -0.092952296 -0.25112993 -0.26159683
0.125933 -0.39228377 -0.0301315 0.06909273 0.045533177 -0.1004664 -0.14463504 -0.15827788
-0.18139724 -0.32988092 -0.03775374 0.1855265 -0.2566935 -0.07149083 -0.1757867 -0.28665197
0.07925965 0.13216496 -0.038714383 0.14725879 -0.16223618 -0.035968114 -0.17208408 -0.0010501621
