D_A.pth (torch_old, 401728 bytes, 21 tensors)

net.0.weight f4 [16, 3, 3, 3]
00000000: 0144 00bd d81a 14be b980 423e 4005 653a
00000010: a41b ffbd f262 e0bd 93cc 973d c25a 193e
00000020: 80d3 cc3c b77d b63d 8fa4 bebd 30cf 8dbd
00000030: 314a c03d 8d40 16bd d07d aebd 3e8b 0bbe
00000040: 2297 a5bd d74b c53d 45b4 133e 5c0f 423e
00000050: 1083 04be d8ba a4ba 5003 0a3e 14dc 38bd
00000060: 4d15 06be 6fe0 15be 381a b33d 145b f63d
00000070: 209e f73d cbc7 023d 17ce cf3d bb2e 123d
00000080: dc29 29be 7779 00be bd2d de3d 55be 353d
00000090: fbb4 0abe 4b6d 09bd b400 193e ec36 833d
000000a0: 99a2 483d 2940 2c3e 94a8 99bd e4d1 36bd
000000b0: 3fd5 f43d 927a b53d 0fbf 3a3d 5d7e 223e
000000c0: ffbd 173e 4564 d2bd 71af 9d3d bdaa 2e3e
000000d0: 8b83 e5bd bfa0 37bc 90af ec3c 5334 d2bd
000000e0: 649c 10bc d626 b03d 6732 43bd 4024 4dbd
000000f0: 3f0b 14be 2d5f 26be 4f9f 31bd 6610 4f3d
00000100: a450 68be d712 7fbe ce87 0e3d b8d4 3bbe
00000110: e542 0cbe f9ce a73c c0a1 16be 9d7a 90bd
00000120: f62a 9f3d 1936 2fbe 6738 b9bd ad70 123e
00000130: 04aa fa3d 0884 3cbc dee7 b5bd 653e d5bd
00000140: 798a dd3d 136e e7bd 24ba 753c 663a 063e
00000150: 2de1 dd3d 5012 08be e08c 18bd 3e17 d63d
00000160: 8e4b c63d 7aac 87bc 1cd8 76bd 26c9 aebd
00000170: c044 0d3c 594b 923d d0df b93c 2413 1ebe
00000180: d46a 373e af3c a9bd 9dd8 0ebe 8279 c63d
00000190: 515f 053e cd64 443e 3548 0e3d a4bf a9bd
000001a0: 8c08 10be 0ac3 133d 7d38 493d b5b4 583d
000001b0: e6de ff3d 129e 813d 188f ea3d 5439 18bd
000001c0: 7259 d43d 809f 2ebd 0bda f2bd de28 1d3e
000001d0: b173 ef3d 113a bfbc ac20 31be 1506 1a3e
000001e0: 65bc a53c 37cc 46bd eed9 343e 7d6f 3f3d
000001f0: 7567 5ebd 6624 71bd 7eb2 0a3e 400a 09be
00000200: d108 093d c7b3 e1bd 0602 403e 069c d03d
00000210: da0f 11be 5161 0e3e 8ca4 253e b3ca ed3d
00000220: 18d2 a13d d4e4 28be 59b8 aa3c 23fa 833d
00000230: 2df4 dc3d 2152 e23d 77ea e83d 775a 88bd
00000240: a660 f23d 4a2f 65bd dc63 a93d 3bc3 31be
00000250: 851f 37bd 7ca4 a9bd f46a 1e3e 52ef 05bd
00000260: 0e9a e9bd ecc3 cbbc e371 be3d 891f 3c3e
00000270: 93aa 00be 2145 bd3d 7c50 85bc 985c fc3d
00000280: b089 10be 4645 343e 7956 c0bd 4591 923d
00000290: 009a 073e 419a ad3d 2769 ef3d 3d2b 42be
000002a0: e0ab dbbd 59aa cb3d 8b65 033e 2c96 20be
000002b0: 1402 043e 7ef9 413c 8926 243e 63b2 303e
000002c0: 700d 25bd bc17 b43c 7068 fe3d b57b 90bd
000002d0: 8f81 b33d 2ab4 c8bd e978 223e fff7 f73d
000002e0: b399 c4bc 899a 11bd 07c2 b83d 7481 2c3e
000002f0: dcee b9bc 6891 3b3e ee6c 633d 7546 e33d
00000300: b8f6 123d 464f 003b 0f85 203e e75a 34be
00000310: c2ad 2e3e 4fd3 d6bd 3cbf fc3d 11b3 103d
00000320: 7a4e 87bc 552d d4bd 8069 d83b 272c d6bd
00000330: d830 ccbd b18d 393d 647d 12be 433e 0cbd
00000340: af6b 953d 5013 0cbd 07b9 26bc 5af6 da3d
00000350: 2b50 97bc 53af 663d 8ca2 19be 0a35 fb3d
00000360: 21d5 2fbe 75f3 9fbc 1bbc 85bc 7cdc 9ebd
00000370: b0df 0f3e b5d4 9b3d 9512 d0bd 5619 8c3d
00000380: 9358 0d3e 1465 0d3e afe1 af3d 9948 8fbd
00000390: 2e8c 0d3e 13b2 3a3e 7821 cd3a f65f 11be
000003a0: 853a 083e 412d 5b3d 0a3d 0a3e eb38 0d3e
000003b0: b042 74bd ba96 7fbd c82f 033e 9ad4 413e
000003c0: dbf3 2abe 1b2d 70bd 8e17 95bc 0832 18be
000003d0: 3379 40be e41e 4abe e738 143b bb35 bebd
000003e0: a6ac f33c d889 0b3e d7ef 033e 4cf7 9dbb
000003f0: 6985 9d3d eec3 f4bc 4ec0 9bbd 870d 06bd
-0.031314854 -0.14463365 0.18994416 0.0008736439 -0.12456444 -0.10956372 0.07412066 0.14976028
0.025003195 0.08910697 -0.09308731 -0.069242835 0.09389151 -0.036682654 -0.085200906 -0.13627335
-0.08085467 0.09633606 0.14424236 0.18951172 -0.12940621 -0.0012567891 0.13477826 -0.045131758
-0.13094063 -0.14636396 0.08745235 0.120290905 0.12090707 0.03192882 0.101467304 0.035689097
-0.16519874 -0.12546335 0.10848568 0.044370968 -0.13545601 -0.033551496 0.14941674 0.0640696
0.04898319 0.1682135 -0.07502857 -0.04463376 0.11954736 0.08861269 0.045592364 0.15868516
0.14818572 -0.10273031 0.076994784 0.17057319 -0.112067305 -0.011207758 0.028892308 -0.10263886
-0.008826349 0.08601157 -0.04765549 -0.0500834 -0.14457415 -0.16247244 -0.04336482 0.05055275
-0.22687012 -0.2490953 0.034797482 -0.18342865 -0.13697393 0.020484434 -0.1471014 -0.070546366
0.07771866 -0.1711048 -0.09043961 0.14300795 0.12239459 -0.011506088 -0.08882116 -0.104122914
0.10817427 -0.11300292 0.014997993 0.13108215 0.108339645 -0.13288236 -0.037243724 0.10453652
0.0968238 -0.016561735 -0.06026469 -0.0853446 0.008622348 0.07143278 0.02268973 -0.15436989
0.17911845 -0.082635276 -0.13949819 0.096911445 0.13024642 0.19179077 0.03473683 -0.08288506
-0.1406576 0.036074676 0.049126137 0.05290671 0.124936864 0.06328978 0.11453074 -0.037164047
0.10368623 -0.04263258 -0.11857995 0.15347621 0.11691988 -0.023343118 -0.1729762 0.15041383
0.020231435 -0.0485346 0.17661259 0.046737183 -0.054297883 -0.058872603 0.13544652 -0.13382816
0.033455674 -0.11020618 0.18750772 0.10186009 -0.14166203 0.13904311 0.16176051 0.116109274
0.079014 -0.16493541 0.020839857 0.06444194 0.1078876 0.11050821 0.113728456 -0.0665788
0.118348405 -0.0559533 0.08271 -0.17359631 -0.044707794 -0.08283326 0.15470487 -0.032698937
-0.11406337 -0.024873696 0.09299066 0.18371405 -0.12565069 0.09241701 -0.01627373 0.12322348
-0.14115024 0.1760455 -0.09391493 0.07156614 0.1324234 0.08476687 0.11689978 -0.18961807
-0.10726142 0.099446006 0.12831704 -0.15682286 0.12891418 0.011839269 0.16030325 0.17255549
-0.040296018 0.021983974 0.124222636 -0.07054845 0.08764946 -0.097999886 0.15866436 0.121078484
-0.02399907 -0.035547767 0.09021383 0.16846257 -0.022696905 0.18317187 0.055523805 0.11097423
0.03587982 0.00195785 0.15675758 -0.17612801 0.17058471 -0.10489523 0.123411626 0.03532702
-0.016516913 -0.10360209 0.0066043735 -0.1045764 -0.09970254 0.045301143 -0.14305645 -0.034239065
0.0729593 -0.034198105 -0.01017595 0.10691519 -0.018470844 0.056319546 -0.15003413 0.12265976
-0.17171146 -0.019525269 -0.016325047 -0.07756898 0.14050174 0.0760893 -0.10159794 0.0684077
0.1380332 0.1380809 0.085879676 -0.06996269 0.13823006 0.18231992 0.0015650233 -0.14196762
0.13303573 0.053509954 0.13499847 0.13791244 -0.05963391 -0.062399603 0.12811196 0.18928757
-0.16694586 -0.058636766 -0.018199708 -0.14862835 -0.18796234 -0.19738346 0.0022616924 -0.09287592
0.029745411 0.13626802 0.1288446 -0.00482074 0.076914616 -0.029878583 -0.076050386 -0.032727744

net.0.bias f4 [16]
00000000: 8920 543e 94c9 58bd 52b8 9e3c fe91 4f3e
00000010: c853 6dbd b160 ba3d f2d3 5b3d f968 f9bd
00000020: 2b1c 163e 2c36 f1bd c1b4 593e d5dc c4bd
00000030: 07fa 0fbe 1571 fabd ce2f 5dbe 27e5 4ebe
0.20715536 -0.052926615 0.019375 0.20270535 -0.05794123 0.09100474 0.053668924 -0.12178225
0.14659183 -0.117779106 0.21260358 -0.09612433 -0.14060222 -0.122286 -0.21600267 -0.20204602

net.2.weight f4 [32, 16, 3, 3]
00000000: 15bf b7bc 193d 54bd 480d a13c ad73 71bd
00000010: 2620 3a3d 9861 a0bd 750d 823c da23 2f3d
00000020: 09ca e43c 3f1e 9b3b 1e4c 5fbd fa2d 7c3c
00000030: 1560 9b3a 9f6b 03bd 3302 62bd 3c9f a9bc
00000040: 8d5c 04bd cd0a 15bd c2a7 c2bd 7905 9dbd
00000050: fb5f 33bd e0c2 9dbd 6e13 c9bb a0cb cbbc
00000060: 5b80 9abb 2f7b c5bd 3c7b 953d 8574 b0bd
00000070: 8a98 a7bd 7188 383d 53de 82bc b5b5 6abc
00000080: 46be 28bd 65a4 b9bc 829b bd3b b2d3 e5bb
00000090: 37d3 97bd 65ce 1fbd 1a47 733d 012c 88bd
000000a0: b050 0b3c 3a94 9d3c f180 c4bc a9dc aabc
000000b0: e27f 403d 7e86 9e3c dcad 88bd 770e 693d
000000c0: badb 64bd 7f7b ae3d 6992 27bd 2039 643d
000000d0: e3aa 203d d610 973c 15a6 0cbd 3df7 083d
000000e0: 0329 8abd 69a3 dfbd c17b febb b277 51bd
000000f0: 19c7 ffbc 749a b7bc 2fde 6b3d 899f 123d
00000100: eff7 be3d 59c0 243d 1ada 0ebc 40d6 113d
00000110: a10d eeb9 71fc b13d adca ff3c d87b a2bd
00000120: 8dfc 8fbc 89d3 cfbb 44bf 313d d0c1 90bd
00000130: 7d7b 0cbd 77e5 7abd d1d6 843d 3003 9e3c
00000140: 0e12 593d 6171 1e3d 62bb f2bc 6ce6 553d
00000150: 4604 263d 2989 bfbb 64fc 9a3c c1a2 733b
00000160: 0800 2fbd 18f0 18bd a5db 523d f5b0 70bd
00000170: 060a 26bd c429 afbd c7d7 5ebd 4b43 f63c
00000180: 093d 893d 6441 2a3d 4216 993d 07ef 0d3d
00000190: 240f 57bd a090 a13a f93b ed3b c561 013d
000001a0: 1bd5 7dbd 34f9 9fbd fd0e 8cbd 2028 68bd
000001b0: 337a 0dbc e207 2bbd cdbe c53d c74e 39bc
000001c0: ccde 6fbd cbc8 043d 2b2d 303c 6638 b5bd
000001d0: 2d7c 5a3d dd41 72bd 092a 163c 26df 47ba
000001e0: dec9 24bb 899f 973d 4311 433d 6a6e 42bd
000001f0: 041a b23c a09d 2bbc 9f6c ed3c 5a33 36bd
00000200: d290 9f3c 4a1a 303d 4fe3 9e3d 277f 5c3c
00000210: 5a7c 67bd 82a0 b63d 16b3 e43c cf97 863d
00000220: 9ee2 363d 702c 643d ac2a c2bc f1e6 7d3d
00000230: 9413 363d d3ea 7dbd b17c 2ebd d45e 073c
00000240: 23c6 5bbd b1dd b8bc 7975 a43c 6bef 153d
00000250: f164 c4bd 330f 29bd b948 9c3c 0db3 883c
00000260: d890 e4bc d3f7 e5bc 971c fbbc f2cd 613c
00000270: 8693 1f3d ecc0 91bd 719c ab3c 04cf a0bc
00000280: 74d2 8abd 3b9c 563b eb87 3cbd a954 d8bd
00000290: 8a95 0f3b 7325 0ebc f6b0 04be 81d3 a7bc
000002a0: 5c0d 1cbd d50b d0bb 72e8 253d b336 29bd
000002b0: e75a 993c 63c0 8dbb 81c9 96bd d3eb a03c
000002c0: 06a2 1abc 7feb 15bd 67ed b2bd 8344 663c
000002d0: 5d91 1d3c 8fa7 d93c a262 e33b bace 68bd
000002e0: 62a3 953d 88da 30bd 860a 833d b315 d53c
000002f0: f89f b8bc 73be 30bd 3837 2dbd d249 cf3c
00000300: 30a8 af3c 8f2d eb3c 6d18 9abc b60e 343d
00000310: 7a84 0a3c ced6 f2bb 2c5d c73d ae0e b2bd
00000320: faa6 90bd 3363 a9bd 0270 bc38 ea01 71bc
00000330: ca62 8c3d 5871 a4bb e2a3 8cbd dc84 a33d
00000340: bae6 12bc 1d5d 25bc 60cb 9c3b 7f02 4c3d
00000350: 9ffc b23d c4c3 5f3d 8631 2dbd 42c6 3ebc
00000360: 3e8a 2f3d bf36 71bb 8318 70ba c973 bbbd
00000370: 4b7a 30bb a6ec 293c 773f 473d 3edd 913d
00000380: 2e33 d43c f60f ccbd 2b20 463d 5ac7 a0bc
00000390: 5e02 9f3d a674 7bbc 5292 46ba ce73 3d3d
000003a0: 457a 8bbd 702a 613c 6ef5 99bc 7a65 d5bb
000003b0: 5af5 bc3c 9316 97bd 8c73 aabd b5e4 0a3b
000003c0: e74d 563d e990 a6bc 635f 0b3c e1f2 b63d
000003d0: 3036 84bd 8e34 623d e38a 823d 62c0 343c
000003e0: deb0 71bd a9c3 cdbc eb07 ad3a d571 ee3a
000003f0: 806d d33d 4376 4d3d e40a 81bd 02da c13d
-0.022429982 -0.05181608 0.019659653 -0.058948208 0.045440815 -0.078311145 0.015875557 0.0427588
0.02792837 0.00473383 -0.05451595 0.015391821 0.0011854196 -0.032085057 -0.05517788 -0.020705812
-0.032314826 -0.036387254 -0.095046535 -0.076670595 -0.043792706 -0.07703185 -0.0061363494 -0.02487737
-0.004715008 -0.09642636 0.07298896 -0.08615974 -0.081833914 0.045051996 -0.015975153 -0.014325549
-0.041197084 -0.022661397 0.0057863602 -0.0070137614 -0.07413333 -0.039015193 0.05939398 -0.06649018
0.008503124 0.019235719 -0.023987265 -0.020857172 0.04699696 0.01935124 -0.06673786 0.05689856
-0.05587361 0.08519649 -0.040911112 0.05571854 0.03922547 0.018440645 -0.034338076 0.03343891
-0.067461036 -0.1091984 -0.0077662175 -0.05113954 -0.031222867 -0.022412516 0.057584938 0.035796676
0.09324633 0.0402225 -0.008718992 0.035604715 -0.00045405052 0.086907275 0.031224573 -0.079337776
-0.01757648 -0.0063423556 0.043395296 -0.07068217 -0.034297455 -0.06125399 0.064862855 0.01928863
0.052995734 0.038682345 -0.029630367 0.0522217 0.04053142 -0.005845208 0.018919177 0.0037175866
-0.04272464 -0.037338346 0.051479 -0.05876251 -0.040536903 -0.08552888 -0.054405 0.030061385
0.06701095 0.041566268 0.074749485 0.034651782 -0.052504674 0.0012326427 0.0072398153 0.03158738
-0.06197081 -0.078112036 -0.06838796 -0.05667889 -0.008635092 -0.041755565 0.09655533 -0.011310286
-0.058562085 0.032418054 0.010752956 -0.08848648 0.05334108 -0.059144843 0.009165295 -0.0007624499
-0.0025144736 0.07403476 0.047623884 -0.04746858 0.02174092 -0.010474592 0.028982459 -0.044482566
0.019478235 0.04299382 0.077581994 0.01345805 -0.056515075 0.08917333 0.027917426 0.06571924
0.044649713 0.05570644 -0.023701988 0.06198782 0.044452265 -0.061991524 -0.042599384 0.008262355
-0.053655755 -0.022566648 0.020075547 0.03660528 -0.095895655 -0.04127426 0.019077646 0.01668694
-0.027901098 -0.028072273 -0.030653281 0.013782011 0.03895905 -0.07116875 0.02094862 -0.019629963
-0.06778422 0.003274693 -0.04602806 -0.10563023 0.00219092 -0.008675921 -0.1295813 -0.020486595
-0.038098678 -0.0063490667 0.04050488 -0.04131193 0.018720103 -0.004325913 -0.073626526 0.0196437
-0.009438043 -0.03660154 -0.08736687 0.01405442 0.009617177 0.026569156 0.006939248 -0.056837775
0.073065534 -0.043177158 0.063984916 0.026011324 -0.022537217 -0.043150377 -0.04228899 0.025303755
0.021442503 0.028708247 -0.018810475 0.043959342 0.008454436 -0.0074108606 0.09734568 -0.08694206
-0.07063098 -0.08270874 8.985402e-05 -0.014709929 0.0685478 -0.0050183944 -0.06867196 0.07984325
-0.008966142 -0.010093001 0.0047849864 0.049807068 0.0873959 0.054630056 -0.042283557 -0.011643948
0.042856447 -0.0036806313 -0.0009158926 -0.09152944 -0.002692836 0.010371363 0.04864451 0.07122277
0.02590331 -0.09963982 0.04837052 -0.019626308 0.077641234 -0.015347635 -0.0007574904 0.046253018
-0.068104304 0.013743028 -0.018793788 -0.006512341 0.023066211 -0.073773526 -0.0832282 0.002119345
0.052320387 -0.02033277 0.008506629 0.08933044 -0.06455648 0.0552259 0.06374147 0.011032196
-0.059006564 -0.025117712 0.0013201212 0.0018191884 0.1032362 0.05016161 -0.06300905 0.0946541

net.2.bias f4 [32]
00000000: 3c4f c13c 7b13 a2bd 6dc6 24bc f906 163c
00000010: d86a 853d fb8d 8d3c 7725 b8bc c9ae 9abd
00000020: b7f2 57bc f5ed 63bd 3f56 76bd 320e 8fbd
00000030: 93cb 94bd 5b41 8dbc 9605 42bd e11a 27bb
00000040: 6720 78bd aa18 28bd 083f 99bd 5a3c 903d
00000050: 1325 9abd f567 90bd 6fd0 dcbc 77b8 623d
00000060: ab70 35bd 0fde 863c 9d87 953d a2d9 4dbd
00000070: 8dab 8b3d e8f4 6b3c db5b ee3c eb2d 033d
0.023597352 -0.07913872 -0.010057074 0.009156936 0.065145195 0.017279616 -0.022478802 -0.07552869
-0.013180426 -0.055646855 -0.060140844 -0.069851294 -0.07265391 -0.017243078 -0.04736861 -0.0025498199
-0.060577776 -0.041039146 -0.074827254 0.07042761 -0.075266026 -0.07051078 -0.026954858 0.0553517
-0.0442969 0.016463308 0.07301257 -0.05025638 0.0681983 0.014401652 0.029096534 0.032026213

net.3.weight f4 [32]
00000000: 7e84 d33e 53ba 0f3f fc62 133f 331c 933e
00000010: ff85 473f 153e 0a3f 513c 7e3f e362 333f
00000020: 2b66 9b3e f4dd cd3e b892 573f 421a 693e
00000030: 3001 453f 2e1c 853e a83b b63e e162 093f
00000040: 59c3 bd3e d348 5f3f 9821 3b3e bb55 113f
00000050: f1a0 cf3e 6216 cd3e e2f0 293f ef74 4a3f
00000060: a342 523f ca7e 123e 2e4f e53d 7228 de3e
00000070: 021d 043f af3f d93e 93c1 063f 0c9b a13e
0.4131202 0.56143683 0.57572913 0.28732452 0.77938837 0.5400098 0.99310786 0.70072764
0.30351385 0.402084 0.8420825 0.22763923 0.76954937 0.25998062 0.3559239 0.536665
0.370631 0.87220496 0.18274534 0.5677144 0.40552476 0.4005614 0.66383183 0.79084677
0.8213293 0.14306179 0.11196743 0.43390232 0.5160676 0.424314 0.5263912 0.31563604

net.3.bias f4 [32]
00000000: f304 1d3b a8ab b4bc 71d0 f6bc aeb1 3c3b
00000010: 737e c2ba 285b 29bc 3268 07bc dc0b 56bc
00000020: fefb 813a 9c40 a7bb 0831 d83b 5f04 683c
00000030: 59f6 93bb fbf3 153a 40a7 1bbb aaf1 69bc
00000040: 9d7a 4fbc 54a2 0cbd c759 0a3d 3e57 853c
00000050: 2186 2fbc d209 9f3b f5f1 a73b a45f d8bc
00000060: 95fc 46bc 481b 433c d345 c33c 1106 02bc
00000070: 5ea3 02bc cbc2 5d3c 37f6 dcbc e249 6f3c
0.0023959249 -0.022054508 -0.03012869 0.0028792429 -0.001483871 -0.010336675 -0.008264588 -0.013064351
0.0009917018 -0.0051041376 0.006597642 0.014161198 -0.004515451 0.0005720255 -0.0023750812 -0.014278809
-0.012663511 -0.034334496 0.033777025 0.016276952 -0.010713131 0.0048534656 0.005125279 -0.026412793
-0.012145181 0.01190836 0.023837006 -0.007936017 -0.00797352 0.013535212 -0.026972873 0.014605017

net.3.running_mean f4 [32]
00000000: 8f91 4dbe 8dc8 40be bda2 21be 502d a0bd
00000010: b5fd 623e 2eab 98bd 69c7 153e 9f88 b9be
00000020: d7a6 07be 3b2f 46be 0026 c63e 5753 25bd
00000030: 12ee 75be ef2c b2bd 4959 8ebd 6a64 f6bd
00000040: 998e 51be c7e2 7e3e 8284 d1bd eaa1 5b3e
00000050: 184f 66be e9e8 45be cfc2 2c3e e4e7 ca3d
00000060: f66a 35bd 97bb 863e a9c8 343d 5c50 3ebe
00000070: 5efb 8a3c 6116 803e 42b5 cc3c 5ec9 d03d
-0.20075057 -0.18826504 -0.15784736 -0.07821143 0.22167094 -0.07454525 0.1462685 -0.36237046
-0.13247238 -0.19353954 0.38700867 -0.040362682 -0.24016598 -0.08699977 -0.069506235 -0.12030871
-0.20464553 0.24891196 -0.10230352 0.21448484 -0.2249111 -0.1932713 0.16871189 0.09907511
-0.04429146 0.26314995 0.044136677 -0.18585342 0.016965564 0.25017074 0.024988774 0.10194658

net.3.running_var f4 [32]
00000000: a3cd 1c3c 7d41 ee3a 770d f83b a99c 9839
00000010: ee32 363b 8266 953a 886a db3a b65f a83b
00000020: c23c 1c3b 9090 ea3b 3203 863c 6dde 083b
00000030: 5677 5c3b fedc c43a 8aff 823a 22b2 923a
00000040: 8ad9 833a b90d 703c 9e05 a93a e154 c03a
00000050: 8fac 5b3b 46f7 4e3a 9499 203b b0e9 c03b
00000060: fa25 053b 9b8b 263b d571 8f3a a762 043b
00000070: 5656 023b 57a6 7b3b 1222 e23a ee48 7a3a
0.009570512 0.0018177476 0.0075699645 0.0002910842 0.0027801353 0.0011398348 0.0016740123 0.0051383628
0.0023839925 0.0071583465 0.016358946 0.002088453 0.0033640466 0.0015019474 0.000999437 0.0011192004
0.0010059339 0.014651709 0.0012895351 0.0014673733 0.00335196 0.0007895123 0.0024505602 0.0058872327
0.0020316825 0.0025412801 0.0010943959 0.0020200403 0.0019887886 0.0038398707 0.0017252585 0.00095476105

net.5.weight f4 [64, 32, 3, 3]
00000000: d9cb 323c 0b62 94bc 4195 5d3d 46df e43b
00000010: a4e5 04bd 2f8a bdbc d206 37bd 8e83 2ebd
00000020: e386 b83c c1b5 20bd 2d36 46bd b908 6f3c
00000030: 05bd 093d f02d 2cbd 3500 a5b8 1fde 0c3d
00000040: 7043 27bd edc2 4ebd 2afa 1a3d 10d7 68bc
00000050: 496d 2db9 b79a bcbc dde2 833b d2a1 7dbc
00000060: a68c c7bc 7839 58bd 6ebd 6b3d b925 593d
00000070: 4594 673c b2c8 2e3d 220a 133d b615 bdbc
00000080: 2510 153b d863 c3bb f681 03bd c1a8 56bd
00000090: df84 a03c f276 3b3d e019 423b be4e a53b
000000a0: d844 e43b e2d7 2e3b 1539 013d a335 643d
000000b0: 62b7 bcbc 6574 8ebc 2436 fdbc 786e 993c
000000c0: 164c 7fbd 1c22 53bd 56f4 ea3c fc95 36bd
000000d0: 7bc1 dd3b da25 8fbc 080e d9bc dfa5 05bd
000000e0: 18d6 b73c 12b0 8d3c b27b 883c af00 883c
000000f0: d348 75bb 4ae8 303c f512 25bd 12a9 c9bc
00000100: 0281 3ebd 2660 a5bb bc3f abbc a285 9e3c
00000110: 7f76 ee3c b1b3 23bd 6fce 193c 4a49 0b3d
00000120: 2c3d 1cbd 2ceb ce3c cbc6 65bc f0f4 cabc
00000130: 5c0a a43c 6bc7 7dbc 68e5 82bc 7a98 18bd
00000140: 18d3 b6bb b071 0e3d a620 683c 746b e9bc
00000150: 390e 473d 2ee8 473d ebce 023d a0ee 773c
00000160: d9cf 7fbb 91b1 1e3d 20b7 b7bc 5b05 edbc
00000170: ffa9 8b3c 38df 873c cf68 4c3d ce0e cd3c
00000180: dd2c 183c 8cb6 5ebd af85 e3bb 2f08 37bd
00000190: 42b0 85b6 a538 2ebc eb13 6dbc 38ef 58bc
000001a0: 36a7 913c 587e 383c ca80 903a dcf5 f5bc
000001b0: 0c7a a03c 0654 d83c 671e e53c 8e7e 2f3c
000001c0: 112b 923c bf89 38bd af09 e03c b069 39bd
000001d0: 8e30 fa3c f77a 9b3b deb6 1fbc 6c32 14bc
000001e0: 8e47 02bd d96a 053d 27c0 603c 980c 5d3d
000001f0: 3ef6 b7bb f3e1 1c3d 3b0c 623c 6bd9 11bd
00000200: 2558 683d 30db f73c 56fc 96bd 7190 32bd
00000210: 3a72 393d 5b84 83bd 48bb 12bd b077 613d
00000220: 9151 933c 73b9 de3a 217d 6cbb 9255 52bc
00000230: 20fc 40bd f5cd 9c3a de1f 84bd e825 6a3c
00000240: 1ffb 13bc a90e 98bb 1bd7 d1bc b5af 61bc
00000250: 6113 12bc 9ac4 24bd dcf0 26bd dfc0 91bd
00000260: 54d6 3ebc 5eb9 103d 0ebb fbbc 96d6 573d
00000270: 8581 373c 1306 a53b e94e 103c 1172 b53b
00000280: 5a02 113d 1c30 643c dc2f 9f3c 7080 b8bc
00000290: fee8 5bba 4525 1e3d c110 92bd cca0 17bd
000002a0: bfb1 24bc b894 d83c 4aea 6abc 1b67 3ebb
000002b0: 9f57 ec3c 941a eabc 6daf fb3c 7016 0c3d
000002c0: 9212 4c3d 6a75 49bd 81ef 11bd 294c 2abc
000002d0: 9721 263d 76bd 3abd c2a7 85bd fef4 c1bc
000002e0: c85f 703c cb0f bdbc f7f6 2bbd 9348 133d
000002f0: 6618 afbd 08b2 5bbd 8153 81bd bb76 d13a
00000300: d936 24bd 58e7 13bd 5a8c 033d 3ea6 d4bc
00000310: f5bf 1bbd 0853 73bd 8b27 2d39 2354 c13b
00000320: 6aff 323b 77c6 0abd c0dd debc ecef 923d
00000330: 5324 43bb ce26 ddba f8ce e5bb 8b6b 223c
00000340: cc17 95bc 8cb7 663d b295 3dbc 8e7a 3f3d
00000350: 5fca 3cbd 6a76 78bc fb38 8d3c 1280 423d
00000360: 29ad 31bd f7e4 013d 5d0f 72bd 0667 57bd
00000370: bc02 903b 3825 e4bc 1b28 bcbc ac23 97bb
00000380: 742c 3ebd 9e81 d8bc edb7 e43c e0aa 433c
00000390: 1a65 ae3c c270 11bd ad6b 0f3d 5363 363d
000003a0: 908a 103d f501 d13c 1376 2bbd be02 f5bc
000003b0: 2afc fe3c bf8d 41bc 56ec ae3c 7765 843d
000003c0: 385d 74bc e561 773d dfc1 9f3c e0bd c0bb
000003d0: 383e 4dbd 0807 733c 81ee c33c 22c3 52bd
000003e0: 07fe 223d b077 70bd 0f0c 663b 5feb 363d
000003f0: 25ad 1abc dfc0 873c 0a30 86bc d7d3 35bd
0.010912859 -0.018113157 0.054097418 0.006984624 -0.032445565 -0.02313718 -0.04468424 -0.04260593
0.022525256 -0.039235834 -0.04839151 0.014589482 0.03362753 -0.042035997 -7.867852e-05 0.03439152
-0.040835798 -0.050478864 0.03783623 -0.014211431 -0.00016539278 -0.023022993 0.004024847 -0.0154804755
-0.024359059 -0.05278918 0.0575537 0.05301449 0.014134471 0.042671867 0.035898335 -0.023081642
0.0022745219 -0.00596283 -0.032106362 -0.05240703 0.019594608 0.045767732 0.0029617473 0.005044787
0.0069662146 0.002667897 0.03154858 0.055715214 -0.023036662 -0.017389486 -0.030909605 0.018729433
-0.06232842 -0.0515462 0.028680962 -0.04457663 0.0067674494 -0.017474104 -0.026495948 -0.03262889
0.022440955 0.01729587 0.016660545 0.016601888 -0.003742744 0.0107975695 -0.040301282 -0.024616752
-0.04650975 -0.005046862 -0.020904414 0.01935083 0.029109238 -0.03996629 0.0093875965 0.03400544
-0.038144276 0.025258623 -0.014024447 -0.024774998 0.020024471 -0.0154894395 -0.01597853 -0.037254788
-0.0055793636 0.03477639 0.01416794 -0.02849362 0.04859755 0.04880541 0.031935614 0.015132576
-0.00390338 0.03874356 -0.022426188 -0.028933218 0.017048834 0.016585931 0.04990464 0.025031473
0.00928804 -0.05437331 -0.0069434266 -0.04468554 -3.984228e-06 -0.010633622 -0.014470081 -0.013240628
0.017779928 0.011260591 0.001102471 -0.030024461 0.019589446 0.026407253 0.027968599 0.010711325
0.017842801 -0.04505324 0.027348367 -0.045266807 0.03054073 0.004744883 -0.009748189 -0.009045225
-0.03180652 0.0325726 0.013717688 0.05396709 -0.005614071 0.03830142 0.013796861 -0.035607737
0.056724686 0.030255884 -0.07372348 -0.04359478 0.04527495 -0.06421729 -0.035823137 0.055045784
0.01798323 0.0016992524 -0.0036085325 -0.012837784 -0.047115445 0.0011963235 -0.06451391 0.014291264
-0.00903204 -0.0046404195 -0.025615266 -0.013774802 -0.008915753 -0.040226556 -0.040757045 -0.07116865
-0.0116477795 0.03533303 -0.030728843 0.05269488 0.011200313 0.0050361245 0.008807876 0.0055372794
0.035402633 0.013927486 0.019432 -0.022522181 -0.00083889056 0.03860976 -0.07132102 -0.037018582
-0.010052144 0.026438102 -0.014338085 -0.0029053155 0.028850375 -0.028577127 0.030723298 0.034201086
0.049822398 -0.04918424 -0.0356288 -0.010394135 0.040559378 -0.04559084 -0.06526138 -0.023676392
0.0146712735 -0.02307882 -0.04198357 0.035957884 -0.085495755 -0.05363658 -0.06314755 0.0015980819
-0.04009137 -0.0361093 0.03211627 -0.025958177 -0.03802486 -0.059405357 0.00016513297 0.0058999225
0.0027312883 -0.033880677 -0.027205348 0.07174668 -0.002977629 -0.0016872527 -0.007013198 0.009913336
-0.018199824 0.056327388 -0.011571335 0.046747737 -0.046091434 -0.015164951 0.017239084 0.04748542
-0.04337803 0.0317125 -0.059096683 -0.052588485 0.004394857 -0.027849779 -0.022968343 -0.0046124067
-0.046429113 -0.026428994 0.027919734 0.011942595 0.021288443 -0.035507925 0.035014797 0.044528317
0.035288393 0.025513628 -0.04186065 -0.029908534 0.0311261 -0.01181358 0.021352928 0.064646654
-0.014914803 0.060396094 0.019501625 -0.00588201 -0.050108165 0.014833219 0.023917438 -0.051455624
0.03979304 -0.058707893 0.0035102402 0.04465806 -0.009440695 0.01657146 -0.016380329 -0.04439148

net.5.bias f4 [64]
00000000: a649 f1bc a13e 473d 7866 293d 323d 3dbc
00000010: c146 cfbb 7da2 80bc 8978 4cbc 6578 3abd
00000020: 9b2c 313d da27 bfbc 8c4f 313d 2e8d f83c
00000030: f91e 0ebd 7215 cc3c 159c 0d3d aacb 633d
00000040: 2383 6dbd 7bf3 29bd 2678 2ebd 51c4 d1bc
00000050: 431b 41bd 3217 5ebc 38f2 9a3c 7c8a 58bd
00000060: 2a87 9ebc a811 c43b a3b9 62bd 282c 033d
00000070: f0e5 e13c 5ae5 e9bc 0835 b4bc 2303 113d
00000080: ce9a bbb9 f3ba 3f3d ea62 083d 2905 5a3b
00000090: 91b8 0cbd 1650 893c c367 19bd a22a 733d
000000a0: 81ad 33bd 9199 073d 3aa1 80bc fa10 5b3d
000000b0: 06de 34bd 6b45 3ebb 4ea8 c7bc ecbd f7bb
000000c0: 5248 f3bc 75ee 36bd 570f 033c 955f 293d
000000d0: 6b18 4fbd db9e 42bd eb5a 80bb 9848 713d
000000e0: e1a4 063a 7db8 c33b 8fef 5fbd 7d8b 733d
000000f0: b507 0e3d 1056 1cbd 788f 5e3d ebef 1abd
-0.029454064 0.048643712 0.041357487 -0.011550235 -0.006325573 -0.01570248 -0.01247991 -0.045524973
0.04325543 -0.023334432 0.043288752 0.030340757 -0.034697507 0.02491257 0.03457268 0.05561415
-0.05798639 -0.041491967 -0.04259505 -0.025606306 -0.04714514 -0.013555335 0.018914327 -0.052866444
-0.01935156 0.00598355 -0.05535282 0.032024533 0.027575463 -0.028551746 -0.021997944 0.035403382
-0.00035782758 0.046809148 0.033297457 0.0033267236 -0.034355704 0.01676182 -0.03745247 0.05936683
-0.043866638 0.033105437 -0.015701879 0.053482987 -0.04415705 -0.0029033076 -0.024372246 -0.0075604822
-0.029697571 -0.044661004 0.007999263 0.04135092 -0.050560396 -0.047514778 -0.0039170883 0.05890712
0.0005136263 0.0059729205 -0.05467182 0.0594592 0.03467532 -0.038168013 0.05433604 -0.03782646

net.6.weight f4 [64]
00000000: 37a1 803f 3c72 5e3f ce24 2e3f 24ce 483f
00000010: 823f 0b3f d9cc 543f 81e2 ab3e 4017 223e
00000020: 9249 323e 59a6 713f 51e8 b33e e28e 913e
00000030: a2af 383f 94bc 1f3e 35c0 663f 26ee 103e
00000040: 9239 5a3f 2521 8a3e fbcf 4c3f 40c8 4d3f
00000050: ceb4 893e 6231 6c3f 4398 9d3e 3333 d83e
00000060: ef28 b63d bed8 3a3f 6fd4 7c3e a8d4 cc3d
00000070: 4d56 2a3e aef6 0b3e 756e 403e a909 4c3e
00000080: 6736 7a3f 7723 433f 8793 d03e e5c2 903e
00000090: 3235 053f d712 633d 7a72 de3e 5407 f13d
000000a0: bb91 0e3f 5a7e 8a3e 2dd3 6d3f 2cdc ce3e
000000b0: f9c5 9b3e b67c 0d3f 4dd4 513f de4b c53d
000000c0: 00b4 bf3e bb93 163f 98d7 fd3e 89af 193e
000000d0: bd63 003f f9ae d23e 39f8 7c3f d835 453f
000000e0: a1bd 3a3f 0ccf 923e e63f 693e 8ebd 483f
000000f0: 3216 703f 455f 123e 2508 0c3e afff b93e
1.0049199 0.8689306 0.6802491 0.78439546 0.5439378 0.8312507 0.33571246 0.15829182
0.17410877 0.9439445 0.3513818 0.28429323 0.72142994 0.1559928 0.90137035 0.14153346
0.85244095 0.26978412 0.80004853 0.8038368 0.26895756 0.9226285 0.3078023 0.42226562
0.08894526 0.7298697 0.24690412 0.100014985 0.16634484 0.1366832 0.18792136 0.1992556
0.9773926 0.7622599 0.40737554 0.28273693 0.52034295 0.05543789 0.43446714 0.11768976
0.5569112 0.27049524 0.92900354 0.40402353 0.3042448 0.5526842 0.8196457 0.09633611
0.37442017 0.5881917 0.49578547 0.15008368 0.5015219 0.4114912 0.9881626 0.77035284
0.729456 0.2867359 0.22778282 0.7841424 0.9378387 0.14294155 0.13674982 0.36327884

net.6.bias f4 [64]
00000000: 64f5 40bc c6b1 64bd a9fd ab3a 1846 8abc
00000010: cfad b6bc 9802 23bd 76b8 383c cb6e b9bb
00000020: 0e4d 473c 3dd8 73bd 6dff 0bbc 2ff2 8abc
00000030: f870 bdbc 6d08 3bbc 2113 a8bc ace3 1a3c
00000040: 4653 c7ba f201 a43c 9220 94bd 2835 34bd
00000050: 8270 e0bc 23a1 44bd a183 73bb 4a07 09bc
00000060: 449b d0bb f9d3 3abd aa68 17bc ff74 b9ba
00000070: 60c9 563c 9a34 3e3c d410 d53c 53d6 10bc
00000080: 3cee adbc 7fe5 2cbd bc2e 3c3a e9ba b5ba
00000090: 388b c0bb f212 1f3d 3dcb 92bc 6663 d9ba
000000a0: fd60 8bbc d197 49bb 1e23 80bd af7b 64bd
000000b0: 9ec3 943a 2b71 0fbd c986 45bc ee3c d23c
000000c0: 2c55 c9bc 84bc b1bd ac95 33bd 6490 b83b
000000d0: 02bd 7ebd 1bf2 91bb ee0e edbc 29a6 4fbd
000000e0: 28b3 7c3a df00 c23c f604 9c3b 1f4e 98bd
000000f0: 7885 5abc 2ea7 993c b02a 123d 7031 74bc
-0.011777256 -0.0558336 0.0013121861 -0.016879126 -0.022299675 -0.039797395 0.011274448 -0.0056589595
0.012164367 -0.059532393 -0.008544785 -0.016961185 -0.023125157 -0.011415583 -0.020516934 0.009453695
-0.0015207313 0.020020459 -0.07232775 -0.043996006 -0.027397398 -0.048005234 -0.0037157314 -0.008363554
-0.0063661654 -0.04561231 -0.009241262 -0.0014149247 0.013109535 0.011609221 0.026009 -0.008840161
-0.021231763 -0.042211052 0.0007178595 -0.0013864908 -0.005875971 0.038836427 -0.017919177 -0.0016585409
-0.017014021 -0.0030760656 -0.06256698 -0.055782016 0.0011349802 -0.035020035 -0.012056061 0.02566382
-0.024576746 -0.086785346 -0.04384391 0.005632447 -0.06219197 -0.00445391 -0.028937783 -0.050695572
0.00096397335 0.023682056 0.0047613336 -0.074367754 -0.0133374855 0.018756475 0.03568524 -0.014904365

net.6.running_mean f4 [64]
00000000: 284f f5bd b94a 833e 69d4 18be 75f3 1a3e
00000010: fe89 4e3d 0b34 323e 07f3 8abe b319 8a3e
00000020: e951 3c3e 9c72 cc3d 83f3 913d d36d 223d
00000030: f590 a3bd 5ed3 273e 1259 563d 96f7 c33e
00000040: a99e f2be 68e9 d8be dd3d a13c 0f5d a83d
00000050: 18e2 593e be56 a73e a5c5 4b3e 4055 cebe
00000060: 10c2 4a3e 94e1 b83e fef3 2c3d a77e 6a3e
00000070: cc0b 253e 16b7 12be 2016 d7be 8256 933d
00000080: ee3c 033e 010b 163e 18a1 48be 46c2 003e
00000090: d744 1b3e 7b57 373d 936f 70bc f518 543e
000000a0: 444e fcbe 1351 0b3e 76f7 5c3e 10c7 0ebd
000000b0: 44b0 91be 8aa1 613e 5c38 3bbe f878 b8bd
000000c0: 5010 933e 7bf5 193d 1f2b f23d 806c f83d
000000d0: 8b15 963d 5832 ba3e 4ed0 6fbd 25b8 8a3e
000000e0: a9ce f0be c414 d8be d241 83bd 8710 c83b
000000f0: aa92 b7be 163f 643e 24db 313e 1db0 353d
-0.119779885 0.25642946 -0.14924778 0.15131934 0.05042457 0.17402665 -0.2713854 0.26972732
0.18390621 0.099827975 0.07126524 0.039655518 -0.07986633 0.16389224 0.052331038 0.3827483
-0.47386673 -0.42365575 0.019682819 0.082208745 0.21277654 0.32683367 0.19899614 -0.40299416
0.19800591 0.36109602 0.042224877 0.22899877 0.16117781 -0.14327654 -0.42009068 0.071942344
0.12816212 0.14652635 -0.19592702 0.1257411 0.15162979 0.044761162 -0.014675039 0.20712645
-0.49278462 0.13605146 0.21578774 -0.03485781 -0.28454792 0.22034279 -0.18283218 -0.09007448
0.28723383 0.037587624 0.11824631 0.1213007 0.07328328 0.36366534 -0.058548264 0.27093616
-0.4703267 -0.42203343 -0.064090386 0.006105486 -0.35854083 0.2228969 0.17368752 0.044357408

net.6.running_var f4 [64]
00000000: 605c 2c3d a9d1 c43c ab82 fa3d 601a 7e3d
00000010: fe79 a63d 2968 923d bbb9 e03d f76f 023d
00000020: cf97 f23c 236c 603d 9f76 923d 4d43 1d3d
00000030: f5a6 813d abef a93c 8605 8e3d 8fc5 a43c
00000040: 56bc 233e eb40 a73d 5961 d53c 36e2 e83c
00000050: 8760 ac3c a352 413d 6d17 d33c 7099 243d
00000060: 3ff7 d33c a491 5d3d 33c9 e33c ce99 fd3c
00000070: 030d af3c fa08 b33c 3a35 943d 7ddd 903c
00000080: bb21 dd3d dca6 303d 994b 9f3d ec20 113d
00000090: 0e75 0a3d 952e ff3c de51 b33c fadd 893c
000000a0: 00d1 7d3d 3fcb 803c af45 043d 2d6f 053d
000000b0: b7c4 aa3c c8ef 723d 8724 003e 522f bd3c
000000c0: abac c93c 0fbe b33c 552c 253d 133d cb3c
000000d0: d226 e03c 7b77 0f3d eb17 033d c862 7e3c
000000e0: 8e10 de3d 664b 093e af40 dc3c e08e 233d
000000f0: 9d1a f43d 4526 b53c c3dd 453c 6a6c 183d
0.042080283 0.024025755 0.12231954 0.062036872 0.08128737 0.07148773 0.10972925 0.03184506
0.029613404 0.054790627 0.071515314 0.03839426 0.06330673 0.020744165 0.06934647 0.020113735
0.15989813 0.08166679 0.026047396 0.028428178 0.021042122 0.04719795 0.025768006 0.040185392
0.025874732 0.05409397 0.0278059 0.030957129 0.02136851 0.021854866 0.07236715 0.017683739
0.10797449 0.04312788 0.07778091 0.035431787 0.03380304 0.031150142 0.021889623 0.01682948
0.061966896 0.015721915 0.032293018 0.03257673 0.020845754 0.059310704 0.12513934 0.023093853
0.024618467 0.021941213 0.04032548 0.024809396 0.027362261 0.035026055 0.03200523 0.015526481
0.10843001 0.13407668 0.026886312 0.039931178 0.119191386 0.022112975 0.012076798 0.037212767

net.8.weight f4 [128, 64, 3, 3]
00000000: 5331 6d3c 71ca 8fbc 4324 c3bc fb0b 40bc
00000010: b6c4 713b 74f8 1bbd c577 ce3c 675e 18bc
00000020: 99ed 3abc bd94 463d 7310 bb3c 26c7 c73b
00000030: 5219 2f3d 6863 113d 3bb8 14bc a25f 223c
00000040: 428a 88bb 6b05 75bc 7a6f 01bd 5a9e 1e3c
00000050: d48d fa3c b9b2 ce3c 6677 99bc 1087 12bd
00000060: 9eb5 343d ff51 97bb 77be c4bc b304 123c
00000070: 328a 3bbc 6439 2cbd f483 b63c a52b 97bc
00000080: e412 613c 09b0 67b9 d555 abbc 9e00 083b
00000090: 0c23 e73a 087e 003d 1ed7 bbbb f906 853c
000000a0: b0ce 18bd 4c9b ac3c fc7c 04bd df9d 49bb
000000b0: 123e c63a 0889 5b3c 8f48 ff3c 677c 96bc
000000c0: 1270 e7bc 1786 44bc ff7b fcbc 29e1 14bc
000000d0: cb7c ca3c 0a00 97bc 1b06 ebbc fdb8 093d
000000e0: 4127 d7bb 6d57 e83b daf7 8ebb e7e6 99bc
000000f0: bd44 c0bc 073d 86bc 3e10 c7bc ee9a b5bc
00000100: 38ac 2dbd 5abf 253d f476 9a3b b529 57bd
00000110: 552b f9bc f9a4 5abd f611 083c db98 07bc
00000120: e7e8 36bd ed67 37ba faff 6fbd 112a c53c
00000130: d3ec f6bc 4506 d5bb 9a0b af3c 63d6 13bd
00000140: 8240 05bc 847c e43b bc87 b9bb 3305 d5bc
00000150: 67a7 adbc ec99 043c 086a cc3c bad6 9c3c
00000160: a7e3 25bc 80e7 c6bc 8693 11bd 339a 5fbc
00000170: a2f3 423a 38a1 4bbc 06ea b9bc d917 09bd
00000180: 2de2 d33c 5567 f6bb 197f fa3b 32a2 1fb9
00000190: e415 14bc ccde 58bd 7269 f73c b9f9 9cbc
000001a0: 3514 f6bc 0713 1fbc 524e 97bb 7591 063c
000001b0: 22dc 8d3b f0d6 25bd 619a 15bd 2c53 a0bb
000001c0: 8710 953c d7a6 31bd feef 083d 206f d53a
000001d0: c878 663c 73aa 2b3b d1d9 ed3b 5991 1c3b
000001e0: 12e5 e43b aba1 81bc a6ab ab3c 339a d8bb
000001f0: ab31 29bd dd82 43bd 909f e1bc c2d5 213c
00000200: 6933 2bbd 6d0e c73b 3432 5fbc 9ea4 22bd
00000210: 7d2b b3bc 919f af3b bf5d bbbc 3b17 413d
00000220: 308c c3bc b9b2 a83b 1840 96bc 7048 9bbc
00000230: efb3 dcbc 9872 e6bb cf40 843c 4558 90bb
00000240: 0a19 cbbc 51df 433b 4945 413b 721e a43c
00000250: d2bb 333c ef15 f9bc e5b3 06bd 2fcb d5bc
00000260: 8b48 a6bc d0c4 b83c 37e3 1f3d e95a 1f3d
00000270: 6252 223c 2d54 363d 787c 273d c148 253d
00000280: 06a4 1dbc a07c fe3b 411b c43c 9983 2c3d
00000290: 968c 05bc 252b 073c 635b 6f3c e5d6 8bbb
000002a0: b7ba 673b 436a a1bb 5af5 60bb 5410 2e3d
000002b0: df9d b73c b288 f1bb df52 83bc 2331 283c
000002c0: 82f3 ccbc 301c cabc 5de4 25b8 824c 84bc
000002d0: 22c2 163d ee2c 9bbb a717 8f3c 2ff5 023c
000002e0: d570 9dbc 4cab 573c 3278 e7bc 8c27 7e3c
000002f0: 1994 fcbc 9bee b63c 3b7e 78bc 93ca 5ebc
00000300: 444a e33c 2fc3 783c 2630 1a3d a89c 013d
00000310: d8ef 97bc e45e c4bc d5c8 8e3c e7a9 03bc
00000320: a220 92bb 30e3 14bc 3895 29bd de95 74bd
00000330: 0912 a93c 1673 6cbc b11c 2abd b5a7 4ebb
00000340: 5d81 173d 9dea 343d f34c 81bb ecc9 cc3c
00000350: e314 ddbc bf15 7b3c c701 d83c ae3c 223d
00000360: 79fa fa3c 6f64 e4bb 14b6 1f3d 0bc2 34bd
00000370: 0995 98bd f359 073b 6058 db3c 796c e03c
00000380: 1089 8ebc 589d 65bc ee84 9d3c bab3 cdbb
00000390: 1dac 2e3d b927 313c db44 f3bc dcb8 5ebc
000003a0: 5eaa d5ba 5086 2d3d 4b9d e63b 7e9a 99bc
000003b0: 2eee debc 62dd 47bb c6c0 5cbd dbdb f6bc
000003c0: 2887 773c 494b 20bd 44ca 873c 72cb 0cbd
000003d0: 0c18 c43c e08e cc3c 7d54 03bd a280 20bc
000003e0: 0c21 153d 9fe8 3b3d 1009 c1bc e7bd 2f3d
000003f0: fa04 43bd 335d 61bd 9afd 023d 59fc 4cbd
0.014477092 -0.017552586 -0.023821002 -0.011721606 0.003689093 -0.03807874 0.025203595 -0.009299851
-0.011409187 0.04848169 0.022834992 0.0060967384 0.042748757 0.03549519 -0.009077127 0.009910496
-0.0041668722 -0.014954905 -0.031600453 0.009681309 0.030585207 0.025231706 -0.018733691 -0.035773337
0.044118516 -0.004617929 -0.024016602 0.008912253 -0.011446523 -0.04204692 0.022279717 -0.018453429
0.013737414 -0.00022095455 -0.020914951 0.002075232 0.0017634346 0.031370193 -0.005732431 0.016238676
-0.037306488 0.021070145 -0.032345757 -0.0030764265 0.00151247 0.01339937 0.031162528 -0.018369867
-0.028251681 -0.01199486 -0.030820845 -0.0090868855 0.024717709 -0.018432636 -0.028689435 0.033623684
-0.0065659587 0.0070905 -0.0043630423 -0.01878686 -0.023470277 -0.016386522 -0.024299737 -0.022168603
-0.04240057 0.04046569 0.0047138873 -0.05253001 -0.03041617 -0.053379986 0.0083050635 -0.00827619
-0.044655707 -0.0006996382 -0.058593728 0.02406791 -0.030142223 -0.0065009915 0.021367837 -0.036093127
-0.008133056 0.006972851 -0.0056619328 -0.026003456 -0.021197988 0.008093338 0.024952903 0.019145358
-0.010125077 -0.02428031 -0.03554108 -0.013647604 0.0007436817 -0.012428574 -0.022694599 -0.03347001
0.025864685 -0.0075196424 0.0076445458 -0.00015223844 -0.009038422 -0.05294685 0.030201647 -0.019162046
-0.030038932 -0.009709126 -0.004617491 0.008213391 0.0043292204 -0.040488183 -0.03652418 -0.0048927274
0.018196357 -0.043372 0.033432 0.0016283728 0.014066882 0.0026194125 0.0072586318 0.0023890345
0.006985315 -0.01582416 0.020955872 -0.006610179 -0.041307133 -0.047732223 -0.027541906 0.009877624
-0.041797075 0.0060747177 -0.013622809 -0.039707772 -0.021871323 0.005359598 -0.02287185 0.047141295
-0.023870558 0.0051482585 -0.01834111 -0.01895544 -0.026941268 -0.0070327036 0.016144184 -0.004405054
-0.024792213 0.0029887746 0.002949076 0.020034049 0.010970073 -0.030405967 -0.032886405 -0.026097862
-0.020298263 0.022554785 0.03903505 0.038905058 0.009907337 0.04451387 0.040890187 0.040352587
-0.009621626 0.0077663213 0.023938777 0.04211769 -0.008151194 0.008250033 0.014609191 -0.004267561
0.0035359093 -0.0049259975 -0.0034325928 0.04249604 0.022414146 -0.0073710317 -0.016030727 0.010265621
-0.025018457 -0.024671644 -3.9551745e-05 -0.016149763 0.036806233 -0.0047355806 0.017467333 0.007993027
-0.019218842 0.013163399 -0.028255556 0.015512358 -0.030832337 0.022330573 -0.015166814 -0.013598102
0.027745374 0.015183254 0.037643574 0.03164354 -0.018546984 -0.023971029 0.017429749 -0.008036113
-0.0044594565 -0.009087369 -0.04140207 -0.059713237 0.020638483 -0.0144317355 -0.04153127 -0.0031533067
0.036988605 0.044169057 -0.0039459406 0.024998628 -0.026987499 0.015325009 0.026368035 0.03960865
0.030637013 -0.0069699804 0.038992003 -0.044130366 -0.07450301 0.002065298 0.026775539 0.027395474
-0.01739934 -0.014014564 0.019228425 -0.0062775286 0.04264461 0.010812693 -0.029695919 -0.013593879
-0.0016301384 0.04236442 0.0070377938 -0.018750425 -0.027213182 -0.0030496945 -0.05389478 -0.030134132
0.015107907 -0.039134298 0.01657594 -0.034373708 0.023937248 0.024970472 -0.032062996 -0.009796293
0.03640847 0.04587614 -0.023563892 0.042905714 -0.047612168 -0.055020522 0.031980135 -0.050045345

net.8.bias f4 [128]
00000000: f97d 10bd 1dd5 e4bc 0a7d e9bc 37dc 1c3c
00000010: 8048 c2bc 2e97 27ba 6333 d3bb 3e31 503b
00000020: c25d f23a edb6 21bd 0d85 273c bc29 c13c
00000030: 4e28 e2bc 8b6b a0bc e082 e53c 1661 fbbb
00000040: 0229 133c ee3f 743b 6927 813b dbcc b6bc
00000050: 9b65 cc3c 1378 093d 44f1 37bc 3420 813b
00000060: ca53 28bc fefc ab3c a245 cc3c 1a10 95bc
00000070: 65e0 a5b9 fb88 9d3c 4ea1 00bd 44a7 9fbc
00000080: a96c c63b e115 8bbc 27a6 dc3c 9ca6 d33c
00000090: b4cc e3bc 1346 a33c 2a4c 693c 7590 8f3c
000000a0: 1555 b63c ad07 373c b20a 7d3b ecc7 f7bc
000000b0: 99f7 18bd 3dfc 0c3d 576d aabc fe1f 8f3c
000000c0: dad3 bebc 758d d83c d00a a6bc 06f8 fbbc
000000d0: 3839 2ebc 4b43 08bd ad46 dd3c 67b1 8c3b
000000e0: 164d 0abd e3d1 dd3c 895a 923b 47f5 0ebd
000000f0: 4b69 47bc c088 e53c 3354 d0bc ab5a 163d
00000100: 698a 3dbc 81b0 7e3b f34d 07bd 542c 013d
00000110: cafe c4bc 40dd ecbc f9a9 01bd 0c04 e73c
00000120: 86b9 ef38 f7a4 e0bb 4618 74bc 673f 423c
00000130: 7392 cc3c e7fc 57bc ba30 be3c ffab efbc
00000140: 48db c73c 7f64 9a3b 2446 c1bc b143 fdbc
00000150: 696a 693c 44a5 2cbd 45c7 1d3d 1f5c 0d3d
00000160: 5995 29bb a74e 18bd 5670 64bc 3880 073d
00000170: 5563 aabc 2344 8c3c ecbb c13c d99b d63b
00000180: 1589 cc3c e76e e03c 6d97 0f3d 125e 6e3c
00000190: b2b6 f23c 68dd 2abd b1fc 213d a7c7 13bc
000001a0: c59b 81bb 16ae b7ba 4e26 9a3c 069f c5bc
000001b0: f1bf 8ebc 4520 c93a 144c ddbb b8a2 45bc
000001c0: 08dc aabb 9d27 1d3d b1e4 3438 fbd1 f43b
000001d0: e133 03bd 66ce 4fbc ef1f 893c 7d59 ab3c
000001e0: 90fc 58bc a313 bc3c 92f4 cdbb 85df ea3b
000001f0: 413b 19bc 53c5 883c efd2 e93c 1289 17bc
-0.035276387 -0.027933652 -0.028502006 0.009573988 -0.023716211 -0.0006393072 -0.0064453348 0.0031767632
0.0018491077 -0.039481092 0.010224593 0.02357947 -0.02760711 -0.01958253 0.028016508 -0.0076714857
0.008981945 0.003726955 0.0039414656 -0.02231448 0.024950793 0.033561777 -0.011226956 0.0039406065
-0.010273883 0.02099466 0.024935547 -0.018196154 -0.0003163844 0.019230356 -0.031403832 -0.019488938
0.006055434 -0.016978206 0.026934696 0.025836281 -0.027807571 0.019930875 0.01423935 0.017524937
0.022257367 0.011171264 0.0038611111 -0.030246697 -0.037345503 0.03442024 -0.02080409 0.01747131
-0.023294378 0.02643464 -0.020268828 -0.030757915 -0.010633759 -0.0332673 0.02701124 0.004293609
-0.03376492 0.02707762 0.004466359 -0.034901883 -0.0121711 0.028019309 -0.025430774 0.03670756
-0.011568644 0.0038862529 -0.033033323 0.031536415 -0.024047274 -0.028914094 -0.03165624 0.028200172
0.000114309645 -0.006855603 -0.014898365 0.011855937 0.024972176 -0.013182855 0.023216594 -0.029256819
0.024396554 0.004711687 -0.023593016 -0.030916067 0.014246562 -0.042149797 0.038520116 0.03451168
-0.0025876372 -0.037184384 -0.013942799 0.033081263 -0.020799318 0.017122334 0.023649178 0.00654934
0.02496771 0.027396632 0.03505652 0.014548795 0.029628132 -0.041715056 0.039547626 -0.009019769
-0.0039553368 -0.0014013674 0.018817093 -0.02412368 -0.01742551 0.00153447 -0.006753454 -0.012062721
-0.005214218 0.038367856 4.312833e-05 0.0074713207 -0.032031897 -0.012683487 0.01673886 0.020916695
-0.013243809 0.022958582 -0.0062852586 0.007167759 -0.009352506 0.016695654 0.028542964 -0.009248989

net.9.weight f4 [128]
00000000: 47f9 213f c194 453f 4740 4f3f d5e1 e63e
00000010: 3fb5 033e 2110 b63d 8088 433e 059b 9c3e
00000020: 5f95 843e 0906 493f 35f9 ce3e 40bc 083f
00000030: d2e9 093f 2c3c 2c3f 1010 d53e a29f 9a3e
00000040: e039 623f e836 c13e e2f7 5c3f d460 3e3e
00000050: cc4c d83d b10e 513f 00d9 3e3e f5f2 e83e
00000060: 9f6c bd3e c8e2 353f 2d17 473e b8ce 253f
00000070: 65c4 5e3f 0603 733f 9189 673f ddb4 b03e
00000080: 4763 023f a86b b73d 41d5 513e 6e22 553f
00000090: 7e62 4d3f 4d3f b23e ed4b 673e 7032 cc3e
000000a0: d414 473f 9391 2c3e 897e 343f f634 ae3e
000000b0: 5f21 b03e 0a29 193e 377f d03e 9519 6d3f
000000c0: 6c5d 733f 5e6b 2c3f 3a4d 283e d6a2 e13d
000000d0: 7f7e 483f 06b9 533f 6417 443e b69b 4c3f
000000e0: 5f07 c93e 5081 553f 9ca9 2a3f 6242 b43e
000000f0: c0c6 383d 960e 8d3e cd20 af3d 8bf7 e23e
00000100: d470 633f a70a 3c3e 200d 503f 3b80 073f
00000110: 7727 333f 1425 8a3d 8581 5f3f bee2 123f
00000120: 2053 6f3f 3d8c 1a3e ab59 793d cdb0 f03e
00000130: 753a 1f3f 23ff 393f 0d72 8c3e 15d8 cf3e
00000140: af1c 7a3e c2ab 9b3e b3b6 1b3f a331 133e
00000150: d45e 3e3f 1894 fb3e 0dff 483f 582d 0b3f
00000160: e6fe 1a3e dc61 6f3f 3c9d 683f 6dea 613f
00000170: 1778 6a3e 0975 ef3e a5ab 883d e5e1 f33c
00000180: 6c3b 613f 888d e53e b714 d73e 0cca 673e
00000190: c672 213f 9778 753f da87 e33e ca1f e73e
000001a0: d0bf 6c3f 0efe fc3d d651 df3d 4c22 763f
000001b0: 9222 113e 839d 3d3d 6679 0a3e b58d 363d
000001c0: f6f3 d83e 4cc0 fe3d 9551 3c3f eb1d 933e
000001d0: 6634 a13e 6aa0 143f 1e2a 5a3e 114c 8b3e
000001e0: dad0 ce3d 06d1 873e 29e4 0d3f 55f4 ca3e
000001f0: 76f3 293f 9ea9 583f 0d1a 1c3f 4afc b03e
0.6327099 0.77180105 0.80957454 0.4509417 0.12862109 0.08889795 0.1909504 0.3058702
0.2589521 0.78524834 0.40424505 0.53412247 0.53872406 0.67279315 0.41613817 0.30199915
0.8836956 0.37737203 0.8631574 0.18591624 0.10561523 0.8166304 0.18637466 0.45497862
0.36996934 0.71049166 0.19442435 0.6476855 0.87018424 0.9492649 0.90444285 0.34512988
0.50932735 0.08956081 0.20491506 0.8325566 0.8022841 0.3481392 0.22587557 0.3988223
0.77766156 0.16852407 0.7050558 0.3402478 0.3440046 0.14957061 0.40722057 0.9261716
0.95064425 0.6735133 0.1643571 0.110173866 0.7831802 0.827042 0.19149548 0.79925096
0.39263436 0.8340044 0.66665053 0.35206896 0.045111418 0.2755019 0.08551178 0.44329485
0.8884404 0.18363439 0.8127003 0.5293004 0.69982094 0.06745353 0.87307006 0.5737723
0.93486214 0.15092559 0.06087653 0.47009888 0.62198573 0.7265493 0.27430764 0.40594545
0.24425004 0.30404478 0.6082565 0.14374404 0.74363446 0.49136424 0.78514177 0.54366064
0.15136299 0.93508697 0.9086492 0.8824833 0.22897373 0.46768978 0.066733636 0.0297708
0.87981296 0.44834542 0.42007992 0.22635669 0.63065755 0.9588713 0.44439584 0.4514144
0.9248018 0.123531446 0.10904281 0.9614608 0.14173344 0.046292793 0.13522872 0.044568736
0.42373627 0.124390215 0.73561984 0.28733763 0.3148529 0.5805727 0.21305129 0.27206472
0.10098429 0.2652666 0.5542627 0.39639536 0.66387117 0.84633815 0.6097725 0.3456748

net.9.bias f4 [128]
00000000: b609 26bb ce8e 3abd 8ba5 473b 7b07 6f3b
00000010: d6c9 ae3a 270c ce3b 66f0 153b acba 3a3b
00000020: 45b1 da3a 9b73 9b3b 287b 553b 7df1 a5bb
00000030: d33c 94bc 1ebc 8cbc 9247 703c 62da f7ba
00000040: b866 9fbb f82e 513b f075 c7bb 0656 e53b
00000050: ceaa f13b be6c 13b8 44b8 9fbc c086 19bb
00000060: 03de 153b 5b69 46bb 9681 6f3c 6882 91bb
00000070: edff d4ba 5e73 a73a 49b5 43bc 167d 86bb
00000080: 03ad 19bb d051 173c 7bc6 b3bb 174b 23bc
00000090: c642 0e3b bd66 833b 3893 733b 86ca e43b
000000a0: ed1e a23b 33c7 873b 3be8 8cbb 5e3f 35bc
000000b0: 5fc1 4b3c ce76 e23b 04d4 d8b9 b5d9 8bbc
000000c0: a7bd efbb 46a8 373c 40f6 25bc 4867 b0ba
000000d0: 48ca 44bc 60ec 91bb b411 8abb aeca 27bb
000000e0: f869 013c 718f 00bc 1717 d13b 9b15 14bc
000000f0: 35fb 08bc bc4c fdbb 5278 a6bb f466 f73b
00000100: 7f77 733b a3ad 01bc 660b bd3a 0a46 07bc
00000110: 4582 09b9 64be eabb 3b6d 1b39 4c94 133b
00000120: ec01 90bc ee7b 163c bbf7 a43b e9e0 86bb
00000130: eebf b63b 8e93 4fbc dcef 233a 68fe 28ba
00000140: f92d 04bd 2b70 8d3b 131a 7f3b da50 47bc
00000150: 438f 1dbc 9b34 46bb c06c b4ba 5137 4d3c
00000160: a3e4 73bb 3923 3b3b fe61 013c bdf6 823b
00000170: 5bb5 78bb c4f2 96bc 11fe 3a3b e9ed 96bb
00000180: f852 373b 2269 9dbb 161d 7fbc 5019 54bc
00000190: 486f 583b 4aeb 053b 6aef 1dbc 4559 91ba
000001a0: ecee 243c f108 12bc 521a 393a 96d3 b53b
000001b0: 4196 913b eaec 79bb 79cb a33b c98c 67bb
000001c0: b74c b33a d89a 063b c75a 7bbb 538a adbb
000001d0: 5d26 e03b 44bd f73b bf7d 113b 643b 54bc
000001e0: 58f3 9b3b d3ea baba 0a87 9cbb b467 a53b
000001f0: e2b0 d13b 0d04 233b d94d 103b d2b4 d83b
-0.0025335378 -0.045546345 0.0030463662 0.0036472965 0.0013335298 0.0062880698 0.0022878884 0.0028492613
0.001668491 0.004744006 0.0032574628 -0.005064188 -0.01809541 -0.017179545 0.014665501 -0.0018909688
-0.00486454 0.0031918865 -0.0060870573 0.00699878 0.007375098 -3.5148805e-05 -0.019497044 -0.0023426265
0.0022867925 -0.00302752 0.014618298 -0.0044405945 -0.0016250588 0.0012775471 -0.011945077 -0.004104267
-0.002344907 0.009235814 -0.005486307 -0.009966633 0.002170728 0.00401005 0.0037166607 0.0069821505
0.0049475343 0.0041436194 -0.004300145 -0.011062471 0.01243624 0.0069111353 -0.00041356694 -0.017071584
-0.0073163095 0.011209553 -0.010129511 -0.0013458515 -0.012011118 -0.004453227 -0.004213536 -0.0025602984
0.0078988 -0.007846699 0.0063809264 -0.009038354 -0.008360674 -0.0077300947 -0.0050802613 0.0075501148
0.0037150083 -0.007914933 0.0014422953 -0.008256445 -0.00013113867 -0.0071638096 0.00014822643 0.0022518812
-0.017579041 0.009184821 0.0050344146 -0.004116167 0.005577079 -0.012669457 0.00062536984 -0.0006446601
-0.032270405 0.00431635 0.0038925454 -0.012165273 -0.009616676 -0.0030243758 -0.001376532 0.0125253955
-0.0037215136 0.002855493 0.007896898 0.0039966987 -0.0037949893 -0.018426307 0.0028532783 -0.004605998
0.0027973037 -0.0048037926 -0.0155708995 -0.012945488 0.0033025313 0.0020434433 -0.0096396 -0.0011089226
0.010066729 -0.008913265 0.0007061112 0.0055489046 0.0044429605 -0.0038135597 0.004998621 -0.0035331717
0.0013679479 0.0020539071 -0.0038353668 -0.0052960305 0.0068405108 0.007560404 0.0022200195 -0.012953613
0.0047592334 -0.0014260657 -0.00477684 0.0050477628 0.00639926 0.002487424 0.0022019057 0.0066133523

net.9.running_mean f4 [128]
00000000: c122 09be 6792 79be c280 9ebd 9f9d 3d3e
00000010: a5ff d63d a2ed 863d bffe 673d cc7f cabe
00000020: 1760 ca3e d0c9 12bf f1cf cbbe eb5a 223d
00000030: f5bc bdbe 4304 75be 64c8 a53e b5b6 893e
00000040: 544b 3a3d f4f5 513e d53c ec3e 29f3 c23e
00000050: 1143 9dbe b466 02bc 81af 0dbe ab13 0ebe
00000060: 69e2 483e 436d 1e3d c611 d0bc 85bf 3bbe
00000070: 8c78 b03e 328a e9bc 19a7 ac3c 6500 acbd
00000080: ebe9 273d 25c4 56be bdcd dcbd f0ff f8bd
00000090: f5fb 65bd d3e3 4f3d 31e8 9dbd d392 8b3e
000000a0: e610 8ebd 7d25 acbc 0793 febd 9534 473e
000000b0: 2d70 ef3d aa96 26be 9a30 b13d e80c 4dbe
000000c0: 9d4a 71bd 4e6d b83d 8d23 abbe 310b b9be
000000d0: 92bc a1be a0df b3be 048d 9bbe ca14 ed3c
000000e0: f4b2 acbe 89cf 1dbe d07a 203d 26ca 513d
000000f0: fd4b 88be 669e 163e adca 8abe 5665 c03e
00000100: 468c 7abc e446 813e fd10 d3be 2b8e 40be
00000110: af40 e83d 17a0 8cbd a0e8 87be cad3 7a3e
00000120: 9358 b6bd 713a 5bbc 14a2 a8bd 1d29 7abe
00000130: 32f1 b5bd df6a ecbd 8ed1 aa3e e3e2 d8be
00000140: 2d4e 833e 6bc9 4d3e eb32 8abe c169 cbbe
00000150: e23f 23be 5b56 49be 67b1 163e 2404 c53d
00000160: fd0e 3cbe 01ca 113e 9187 97be 08ce 5cbd
00000170: 2a34 d83d 7c83 58be d458 cfbd 950c 253e
00000180: 20da c43e 9ae3 44be 6a69 98be d2d7 24be
00000190: 5c01 ae3e f185 d1bd ee82 a3be 672d 97be
000001a0: ec44 f23d 5c2f d9be 6463 86bd 5815 0c3e
000001b0: fade 6b3d bf48 07be 6697 8dbe 02ac 10be
000001c0: ee6e 28be f91d c3be 15e2 87bc 6c53 663e
000001d0: f126 a0be 7422 9fbc 8238 2ebe 8f3b 96be
000001e0: fdc1 bf3d a731 3a3e e59f 89bd ca9d 413e
000001f0: 145a 56be 660c 73bd ff8e 0abe fc28 c2bc
-0.13392164 -0.24372254 -0.07739402 0.18517159 0.10497979 0.065882936 0.05663943 -0.39550626
0.39526436 -0.5733919 -0.39807084 0.039637487 -0.37058225 -0.23927407 0.32379448 0.26897207
0.045481995 0.2050398 0.4614016 0.3807614 -0.3071523 -0.007959057 -0.1383648 -0.1387469
0.19617619 0.03867842 -0.0253991 -0.18334778 0.3446697 -0.02850828 0.021075772 -0.08398513
0.040994566 -0.2097326 -0.10781429 -0.12158191 -0.056148488 0.05075438 -0.077103026 0.27260455
-0.06936817 -0.02101397 -0.12430387 0.19453652 0.11691318 -0.16268411 0.08651848 -0.20024455
-0.058909047 0.09005223 -0.3342556 -0.3614135 -0.3158918 -0.3513155 -0.30381024 0.028940577
-0.3373028 -0.154112 0.039179623 0.051218174 -0.26620474 0.14708862 -0.27107754 0.37577313
-0.015292233 0.25249398 -0.412239 -0.18804233 0.113404624 -0.06866472 -0.26544666 0.24494854
-0.08903613 -0.013380633 -0.08234039 -0.24429746 -0.08883895 -0.115438215 0.33363003 -0.423606
0.2564558 0.20096366 -0.26991972 -0.3972912 -0.15942338 -0.19661848 0.14716111 0.096199304
-0.18365093 0.14237215 -0.29595616 -0.053907424 0.105568245 -0.21143907 -0.101243645 0.16118081
0.38447666 -0.19227448 -0.29767925 -0.16097954 0.33985412 -0.102306254 -0.3193583 -0.29526827
0.11829552 -0.42418945 -0.06561926 0.13680017 0.057585694 -0.13211344 -0.2765457 -0.14128116
-0.16448566 -0.38108805 -0.016587297 0.2249276 -0.3127971 -0.019425608 -0.17013744 -0.29342315
0.09363172 0.18183003 -0.067199506 0.18907848 -0.209328 -0.059337996 -0.13531111 -0.023701183
