D_A.pth (torch_old, 401728 bytes, 21 tensors)

net.0.weight f4 [16, 3, 3, 3]
0	0xbca67931	-0.02032146
1	0xbd19f4d0	-0.037586987
2	0xbe0c45ab	-0.13698451
3	0xbe3713b4	-0.1787861
4	0x3bb76000	0.005596161
5	0xbd36bb09	-0.044611964
6	0xbe0bc8d6	-0.13650832
7	0x3e152efc	0.14568704
8	0x3e3796ac	0.1792857
9	0xbe070ffe	-0.13189694
10	0x3dd2e246	0.102970645
11	0x3c29a7fb	0.010354991
12	0xbd0f609a	-0.035004236
13	0x3e07c8b1	0.13260151
14	0xbe05d4b4	-0.13069421
15	0xbe12e2d4	-0.1434434
16	0x3ad6fad7	0.001640166
17	0x3dc24278	0.09485334
18	0x3d8f53cc	0.06998405
19	0xbe3d000e	-0.18457052
20	0xbdad9fff	-0.084777825
21	0xbe441ea9	-0.19152321
22	0x3e391b4b	0.18076818
23	0x3e033719	0.12813987
24	0xbcc14135	-0.023590663
25	0xbd3477b0	-0.044059455
26	0xbd20b992	-0.039239474
27	0xbdc2a7d8	-0.0950467
28	0xbe2b65e8	-0.16738093
29	0x3df65ee4	0.12029818
30	0x3da8b608	0.08237845
31	0xbe44b677	-0.1921023
32	0x3da92f87	0.08261018
33	0xbe081eb2	-0.1329296
34	0x3d933371	0.07187546
35	0x3d938af0	0.072042346
36	0x3c75048e	0.014954699
37	0xbe0fd7ae	-0.14047119
38	0x3da60f5b	0.081083976
39	0xbd7930f7	-0.060837712
40	0x3d7d2da5	0.06181111
41	0xbbab3ee6	-0.005226004
42	0xbd281034	-0.041031078
43	0x3e1deaaa	0.15421548
44	0xbcb9e067	-0.022690011
45	0x3caf7d63	0.021422094
46	0x3db413ef	0.087928645
47	0xbe0cc5bb	-0.13747303
48	0x3e0c0d70	0.13677001
49	0x3e18de7a	0.14928618
50	0xbdfce68d	-0.123486616
51	0x3e0a1e6c	0.13488168
52	0x3c83f8ab	0.016109785
53	0x3d5ce325	0.05392756
54	0xbe17b660	-0.14815664
55	0x3d5605ba	0.052251555
56	0xbe1191e6	-0.14215812
57	0x3de4acf3	0.111658
58	0x3e05157e	0.1299648
59	0x3d2906cc	0.041266248
60	0xbdc58a1c	-0.09645483
61	0xbcbf8f54	-0.023383774
62	0xbe0bfe45	-0.13671215
63	0x3e024b90	0.12724137
64	0xbcec69bf	-0.028859017
65	0xbd072418	-0.032993406
66	0xbddfd10f	-0.10928547
67	0xbdc01183	-0.0937834
68	0x3d89b993	0.067248486
69	0xbd6e8cab	-0.05823962
70	0x3e25c2ed	0.1618764
71	0xbb9170f8	-0.0044385158
72	0x3dc97efc	0.098386735
73	0x3e0f89a3	0.14017348
74	0x3d8cc46a	0.068734005
75	0xbd353467	-0.044239428
76	0xbc8be674	-0.017077662
77	0x3cb6d015	0.022316018
78	0xbd018f57	-0.03163084
79	0x3d43ef8a	0.047835864
80	0xbd511253	-0.051042866
81	0x3e255c5d	0.16148515
82	0x3df99d3e	0.12188195
83	0xbd703540	-0.058644533
84	0x3e0835b7	0.1330174
85	0x3df6c289	0.120488234
86	0xbdfac157	-0.12243908
87	0xbd39a7b5	-0.045325954
88	0xbd9543f8	-0.07288355
89	0x3d63d1ef	0.05562013
90	0xbdb4858f	-0.08814537
91	0xbca41808	-0.02003099
92	0xbd936369	-0.07196695
93	0x3e0675a1	0.1313081
94	0xbd69f602	-0.057119377
95	0x3e116f0f	0.14202522
96	0x3dddb946	0.10826354
97	0x3c9d853c	0.01922857
98	0x3d44c366	0.04803791
99	0xbe1a5bf4	-0.1507414
100	0x3deb4578	0.114878595
101	0xbe426f9d	-0.1898789
102	0x3e1f3030	0.15545726
103	0xbdcce8a0	-0.10005307
104	0x3cdcd8e6	0.026958894
105	0x3e0fb3ee	0.14033481
106	0xbda1bb26	-0.07897024
107	0x3cb47ae1	0.02203125
108	0x3e1dfc57	0.15428291
109	0x3c2e68fb	0.0106451465
110	0xbdab5e0c	-0.083675474
111	0xb9de14b4	-0.00042358565
112	0x3e11d030	0.14239573
113	0xbdb08e95	-0.08620945
114	0x3dcb0d5e	0.09914659
115	0x3d954685	0.07288841
116	0xbd9667f1	-0.07344044
117	0x3df5bbe3	0.11998727
118	0xbe25ad43	-0.16179375
119	0xbc87ddf4	-0.016585328
120	0x3e0089e9	0.12552609
121	0x3e403ed7	0.18773971
122	0xbd49d67f	-0.049276825
123	0x3d08a75f	0.033362743
124	0x3d0dd336	0.034625255
125	0xbe37a6c2	-0.17934707
126	0xbca68a56	-0.020329636
127	0x3d9d362f	0.0767635
128	0x3da93df6	0.08263771
129	0x3e2cf6ee	0.16891071
130	0x3db02713	0.08601203
131	0x3e01bdb9	0.1267003
132	0x3c283a9d	0.010267881
133	0xbd16ace3	-0.03678597
134	0xbe32fc5e	-0.17479083
135	0x3d931462	0.07181622
136	0xbe2738f3	-0.16330318
137	0xbcaa061a	-0.020754863
138	0xbe01d04e	-0.12677118
139	0xbdbb0d79	-0.09133429
140	0x3deea2ca	0.11652143
141	0xbc712d81	-0.014720322
142	0xbe01312d	-0.12616415
143	0xbcefddf8	-0.029280648
144	0xbda9d782	-0.08293058
145	0x3d0e4cc6	0.034741186
146	0x3e24037e	0.16016957
147	0x3dc94206	0.09827046
148	0x3d53a1f1	0.05166811
149	0xbd8a3cf3	-0.067499064
150	0x3e3a8ce3	0.18217807
151	0xbe1602ad	-0.14649458
152	0x3d626b4a	0.0552781
153	0x3cf7d064	0.030250736
154	0xbdbe85a9	-0.093028374
155	0x3e07169d	0.1319222
156	0x3e4b320c	0.1984331
157	0x3dd5a9e1	0.104327925
158	0xbd2ca9f2	-0.04215426
159	0x3dc3f868	0.09568864
160	0xbd4d0ccc	-0.050061032
161	0x3dcc9abf	0.09990453
162	0x3c4f9cd5	0.012671669
163	0x3e78273f	0.24233721
164	0xbde1407e	-0.10998629
165	0xbdbd0b1b	-0.09230634
166	0xbd223f73	-0.03961129
167	0xbdbe9d5a	-0.09307356
168	0x3e3118e3	0.1729465
169	0x3e33e8c6	0.17569265
170	0xbd80dd39	-0.06292195
171	0x3df9c662	0.12196042
172	0x3de43caf	0.11144387
173	0xbdc6f6d0	-0.097150445
174	0xbddc3165	-0.10751609
175	0x3e10ab17	0.14127766
176	0xbdffbddd	-0.124873854
177	0xbe2708eb	-0.16311996
178	0xbdbeacec	-0.09310326
179	0x3e3d09fd	0.18460841
180	0xbdb0bb50	-0.08629477
181	0x3e50cf7a	0.20391646
182	0x3d824dca	0.06362493
183	0xbe15bcc9	-0.14622797
184	0x3e2b5443	0.16731362
185	0x3b425665	0.0029653546
186	0xbe06f6a3	-0.13180022
187	0xbbda93f5	-0.00667047
188	0xbcb91e42	-0.022597436
189	0x3d9f8b39	0.077902265
190	0xbe01e5ae	-0.12685272
191	0xbdea1213	-0.11429229
192	0xbd871554	-0.06595865
193	0x3e1b8250	0.15186429
194	0x3dba2e33	0.09090843
195	0x3def85bd	0.116954304
196	0xbe26b935	-0.16281588
197	0xbdc5cd31	-0.09658278
198	0xbe63d5a1	-0.22249462
199	0xbc6f54c0	-0.014607608
200	0xbccf36d4	-0.025294699
201	0x3d1014a1	0.035175923
202	0x3e14270b	0.14468019
203	0x3c89afcb	0.016807457
204	0xbd22d569	-0.039754305
205	0x3a3df326	0.000724601
206	0x3de05a35	0.109547056
207	0xbdddffbc	-0.10839793
208	0x3d843789	0.06455905
209	0x3e098898	0.13431013
210	0xbc1979ba	-0.009367401
211	0xbe1c6b9c	-0.15275425
212	0xbe368480	-0.17823982
213	0x3d360d3d	0.04444622
214	0x3dccd35b	0.1000125
215	0x3da5b3a3	0.080909036
216	0x3c18bf4f	0.009322955
217	0xbba66a8b	-0.005078619
218	0xbc96b691	-0.018397601
219	0x3d14ddb0	0.03634423
220	0x3e2190c2	0.15777877
221	0xbd1b393c	-0.03789638
222	0xbe2cb70f	-0.16866706
223	0x3ca74baa	0.020421822
224	0x3d8eadc8	0.0696674
225	0xbe38326c	-0.17987984
226	0xbd8f728d	-0.07004271
227	0x3d2047e7	0.03913107
228	0x3dd5c422	0.104378
229	0x3df66f9a	0.12033005
230	0xbe4a6077	-0.19763361
231	0xbe2f8d03	-0.17143635
232	0xbe0f00b9	-0.1396512
233	0x3d7d3a11	0.061822955
234	0x3dc24b72	0.09487046
235	0xbdc8d90f	-0.09807026
236	0x3c2708a8	0.010194935
237	0x3dd02509	0.10163314
238	0x3e3974be	0.1811094
239	0x3e18922c	0.1489951
240	0x3e17ec91	0.14836337
241	0x3e09257d	0.13393207
242	0xbd9fde49	-0.078060694
243	0x3d967013	0.07345595
244	0xbd85158e	-0.06498252
245	0x3e520913	0.20511274
246	0x3d9e9aa9	0.07744343
247	0xbdeec10d	-0.11657915
248	0xbddc0adc	-0.10744259
249	0xbd143baa	-0.036189713
250	0xbe28ff1a	-0.16503564
251	0x3e429908	0.1900369
252	0x3c8d5766	0.017253589
253	0xbd9f7ff7	-0.07788079
254	0xbb445af9	-0.002996145
255	0x3c93ad3a	0.018026937

net.0.bias f4 [16]
0	0x3e1be7bd	0.1522512
1	0x3db3fba8	0.08788234
2	0x3e7736e1	0.24142028
3	0xbe6c0d7d	-0.2305202
4	0x3d6dc1f1	0.058046285
5	0xbe2a6512	-0.16640118
6	0xbd850365	-0.06494788
7	0x3ab4ed94	0.0013803714
8	0xbdd75693	-0.105145596
9	0x3dc61466	0.096718594
10	0xbe075d86	-0.1321927
11	0x3e0f9d4d	0.14024849
12	0xbe15d764	-0.14632946
13	0xbc7ecf29	-0.0155523205
14	0xbdf02aab	-0.11726888
15	0x3e513590	0.20430589

net.2.weight f4 [32, 16, 3, 3]
0	0x3c3744f6	0.011185875
1	0xbdde74bf	-0.10862111
2	0x3d661700	0.05617428
3	0x3bc76c0a	0.0060858773
4	0xbc7419ba	-0.014898712
5	0x3d4718a9	0.048607502
6	0xbdd14ce4	-0.10219744
7	0x3b8203d8	0.0039677434
8	0xbd89e14f	-0.06732427
9	0x3d1a1809	0.037620578
10	0x3d32ebc4	0.043681875
11	0x3d909142	0.07058956
12	0x3ca04ffb	0.019569388
13	0x3cb18b4a	0.021672864
14	0x3dc0e43e	0.09418534
15	0xbd613c72	-0.054989286
16	0xbd2cfb92	-0.042232104
17	0xbc206864	-0.009790514
18	0xbd468251	-0.048464123
19	0x3d9fb825	0.07798795
20	0x3d0ec5a4	0.034856454
21	0xbc2606e4	-0.010133479
22	0xbd208f84	-0.039199367
23	0x3d441779	0.047873948
24	0x3d246e08	0.040143996
25	0xbd94d302	-0.07266809
26	0xbd47e36b	-0.048800867
27	0xbd4c5424	-0.04988493
28	0xbcc3ab5d	-0.023885423
29	0xbda77849	-0.081772394
30	0xbd2f6ac4	-0.04282643
31	0x3d0b0171	0.03393692
32	0x3d9f0445	0.07764486
33	0x3d02804f	0.031860646
34	0xbd3ba226	-0.045808934
35	0x3d952aa0	0.07283521
36	0x3d920fc9	0.07131917
37	0x3d0cf521	0.03441346
38	0xbc77c4f6	-0.015122643
39	0xbd7e8f53	-0.062148403
40	0x3b9d7b36	0.0048059477
41	0x3ce4771a	0.027888823
42	0x3d92750e	0.07151233
43	0xbd8c831c	-0.06860945
44	0xbd860e7c	-0.065457314
45	0xbd1ff19f	-0.039048787
46	0xbd2a143b	-0.0415232
47	0xbdcd3ec2	-0.10021736
48	0xbde9e152	-0.114199296
49	0xbddca103	-0.10772898
50	0xbd2d545c	-0.04231678
51	0xbcff6448	-0.031175748
52	0xbcbbec2f	-0.02293977
53	0x3d923d0f	0.07140552
54	0xbdd8cf2f	-0.10586392
55	0xbdb8c15c	-0.090212554
56	0x3d17cc1e	0.037059896
57	0x3d5df067	0.054184344
58	0xbe0a15ca	-0.13484874
59	0x3b78b7c3	0.0037951327
60	0x3d3490ac	0.044083282
61	0xbdab489f	-0.08363461
62	0x3d06e55c	0.032933578
63	0xbdd8efc0	-0.10592604
64	0xbdb4b52f	-0.088236205
65	0x3c9839b7	0.018582208
66	0x3c4f806a	0.012664894
67	0x3d7368d8	0.05942616
68	0xbe0d31fd	-0.137886
69	0xbcc50495	-0.024050036
70	0xbb8a6df6	-0.004224534
71	0xbd4bd0d4	-0.0497597
72	0x3d36a265	0.044588465
73	0xbdba7156	-0.09103648
74	0xbd934451	-0.07190765
75	0xbd2166d8	-0.03940472
76	0xbd3872ae	-0.045031242
77	0x3ce2b930	0.027676195
78	0x3d913abc	0.07091281
79	0x3d2ebaab	0.04265849
80	0xbc969acc	-0.01838436
81	0x3c18cdc5	0.009326403
82	0x3b83e745	0.004025372
83	0x3d2d9658	0.042379707
84	0xbc291c6c	-0.010321718
85	0x3c9f1108	0.0194173
86	0xbc2bd990	-0.010488883
87	0x3c5833b6	0.013195923
88	0xbd35e809	-0.04441074
89	0x3de62954	0.112383515
90	0xbb0e293f	-0.0021692065
91	0xbd1229fa	-0.035684563
92	0xbcaf61eb	-0.021408996
93	0xbd40960e	-0.047018103
94	0xbcae1468	-0.021249965
95	0x3cc96de8	0.02458854
96	0x3ca78c29	0.020452576
97	0xbd4cda8a	-0.050013103
98	0x3d1239cf	0.03569966
99	0x3aea708d	0.0017886326
100	0x3d2216e5	0.039572615
101	0xbd363966	-0.044488333
102	0xbd90bb92	-0.07067026
103	0xbd35efaf	-0.044418033
104	0xbd149a5a	-0.036280014
105	0xbca28137	-0.019837005
106	0xbd4f3541	-0.050587896
107	0x3ccd274a	0.025043149
108	0xbd0436ac	-0.0322787
109	0xbd543e20	-0.05181706
110	0xbd828976	-0.06373875
111	0xbbf1de10	-0.0073812082
112	0xbd5f288a	-0.05448202
113	0xbdbe3c50	-0.092888474
114	0x3d62fb46	0.055415414
115	0xbdc7e11a	-0.097597316
116	0x3d99154e	0.07474767
117	0x3d575376	0.05256983
118	0xbc9614b1	-0.018320413
119	0x3d911f59	0.07086057
120	0x3d3c9b42	0.046046503
121	0xbe15a0ed	-0.1461217
122	0xbd8215b4	-0.06351796
123	0xbd534c0f	-0.051586207
124	0xbc7885cc	-0.015168618
125	0x3d91ea01	0.07124711
126	0x3d9b98ca	0.075975016
127	0x3c4b9dc7	0.012427754
128	0xbd2e9fcc	-0.042632863
129	0x3c05d3eb	0.008168201
130	0xbb1fd6da	-0.0024389536
131	0xbb48257c	-0.003053992
132	0x3d0a622d	0.033785034
133	0xbd49c58b	-0.049260657
134	0xbb7bf7ca	-0.0038447254
135	0xbcccd1b5	-0.02500234
136	0x3cc99250	0.0246059
137	0x3c949083	0.018135315
138	0x3d34f954	0.04418309
139	0x3d899a72	0.06718911
140	0x3da82f07	0.08212095
141	0x3d691134	0.05690117
142	0xbdb62f80	-0.08895779
143	0x3d9ca2eb	0.07648262
144	0x3d3e45c8	0.046453267
145	0xbd359479	-0.044331048
146	0xbb663570	-0.0035127066
147	0xbd387883	-0.045036804
148	0x3dcaf322	0.09909655
149	0x3d902735	0.07038728
150	0x3cab5529	0.020914631
151	0x3db4a22d	0.08819995
152	0x3d8cd1fe	0.0687599
153	0x3d82ebb3	0.06392612
154	0xbd643f34	-0.055724338
155	0xbcea0297	-0.028565688
156	0x3c204187	0.009781248
157	0xbb8f218f	-0.004368014
158	0x3d9500af	0.07275521
159	0x3d1077e6	0.035270594
160	0xbd530710	-0.051520407
161	0xbda7ff4d	-0.08202992
162	0x3cbe8cab	0.023260435
163	0xbb2e031a	-0.0026552142
164	0x3becafd3	0.0072231083
165	0xbd7d90df	-0.061905738
166	0xbd551389	-0.052020583
167	0xbc67f38b	-0.014157186
168	0xbcd37ea0	-0.025817215
169	0xbbec4d7e	-0.007211386
170	0xbcfd29c5	-0.030903706
171	0x3e1da7e2	0.15396073
172	0x3d388bd1	0.045055214
173	0xbcbdf3b3	-0.023187494
174	0x3dde093f	0.10841607
175	0x3dab6089	0.08368022
176	0x3e063909	0.13107695
177	0x3b8459dd	0.004039033
178	0x3d9358a7	0.071946435
179	0xbcb47d6a	-0.022032458
180	0x3db30925	0.087419786
181	0xbd812190	-0.0630523
182	0xbde39257	-0.111118965
183	0xbd8eaac9	-0.069661684
184	0xbd12f30a	-0.03587631
185	0x3d9d1df3	0.07671728
186	0xbd9fa61d	-0.077953555
187	0x3d5b31bd	0.05351423
188	0x3db8d947	0.09025817
189	0x3d80eb55	0.06294886
190	0x3ca7e051	0.020492705
191	0xbcd2250a	-0.025652427
192	0xbe0c5ec7	-0.1370803
193	0xbd935fc0	-0.07195997
194	0xbb7437a8	-0.003726462
195	0x3d404972	0.046945043
196	0xbd6414ef	-0.055684026
197	0xbc866b7b	-0.016408673
198	0x3d2f4e39	0.04279921
199	0x3d2739cd	0.040826607
200	0xbd28dddb	-0.041227203
201	0x3d9574ac	0.07297644
202	0xbd5a46b5	-0.053290088
203	0xbd6aca23	-0.05732168
204	0x3d3cad8c	0.046063945
205	0xbdbc52f9	-0.09195513
206	0x3c4e1b0e	0.0125796925
207	0xbe01fbb1	-0.12693669
208	0xbd99a5bf	-0.07502317
209	0xbdac08ab	-0.08400091
210	0xbca4444d	-0.0200521
211	0x3cc0a5e3	0.023516601
212	0x3d5dcebc	0.054152235
213	0xbd6dd720	-0.058066487
214	0x3d5dc24b	0.05414037
215	0xbd68a5d5	-0.056798775
216	0x3e1187e8	0.14212
217	0xbdb55471	-0.088539965
218	0x3cea821d	0.028626496
219	0x3d40e11e	0.04708969
220	0xbdefeedf	-0.11715483
221	0x3d5564ba	0.052098013
222	0x3d4fc578	0.05072543
223	0xbc1a286c	-0.009409051
224	0xbd2c353b	-0.042042952
225	0xbd2f9b97	-0.04287299
226	0x3c34ae99	0.011027955
227	0xbcac4626	-0.021029543
228	0x3c59ad3a	0.013285929
229	0x3dd97f29	0.10619957
230	0xbcd27684	-0.025691278
231	0x3d207508	0.03917411
232	0xbd018881	-0.03162432
233	0x3dc41377	0.09574025
234	0x3ddb7c22	0.10717036
235	0xbda42881	-0.08015538
236	0xbda3a04c	-0.079895586
237	0xbc33ab11	-0.010966078
238	0xbc133913	-0.0089857755
239	0xbcf1bcce	-0.029508974
240	0x3d40628b	0.046968978
241	0x3dd4dc24	0.10393551
242	0x3de14db6	0.1100115
243	0xbd47c265	-0.048769373
244	0x3dc8081e	0.09767173
245	0xbcf0922a	-0.029366571
246	0xbd80399c	-0.06260988
247	0x3d9d7b5b	0.07689544
248	0xbc5d15e8	-0.013493992
249	0x3d039b69	0.032130633
250	0xbcd73318	-0.02626948
251	0x3da8a0e1	0.0823381
252	0x3c8b1b4b	0.016980788
253	0xbd836758	-0.06416196
254	0x3d54dc7c	0.051968083
255	0x3c898192	0.016785417

net.2.bias f4 [32]
0	0xb97d0e89	-0.00024133375
1	0x3d978b37	0.073996
2	0xbd8fa75b	-0.070143424
3	0x3cca5dd9	0.024702953
4	0xbd745f20	-0.05966103
5	0x3d93d103	0.072176
6	0x3d5e98f6	0.054345094
7	0xbd38af32	-0.045088954
8	0x3ca6b003	0.0203476
9	0xbd526055	-0.0513614
10	0x3c46807e	0.012115596
11	0xbcff195a	-0.031140018
12	0x3bff4ebc	0.0077913683
13	0x3da5025e	0.08057092
14	0x3d3e79d3	0.0465029
15	0xbcd06bd9	-0.02544205
16	0xbdb8f230	-0.090305686
17	0xbd5629d9	-0.052286003
18	0x3c2b5dc0	0.010459363
19	0x3d07d7f0	0.03316492
20	0xbc333a11	-0.010939137
21	0x3b28f715	0.0025782038
22	0x3cc833ad	0.024438703
23	0x3cd9a867	0.026569558
24	0xbd90c0a0	-0.0706799
25	0xbe0920d9	-0.13391437
26	0x3da27f6c	0.0793446
27	0x3ccb748a	0.024835844
28	0x3c90b9d3	0.017666733
29	0xbd5c4162	-0.05377329
30	0xbd35e6b9	-0.044409487
31	0xbda1a4e2	-0.07892777

net.3.weight f4 [32]
0	0x3ec708d0	0.3887391
1	0x3f183e1c	0.5946977
2	0x3f07f250	0.53104115
3	0x3f1f5f7d	0.6225508
4	0x3f067532	0.52522576
5	0x3f6881dc	0.9082315
6	0x3ec5f579	0.38663843
7	0x3f5776a2	0.84165394
8	0x3f45b270	0.772254
9	0x3e54686c	0.20742959
10	0x3f55071e	0.83213985
11	0x3ebd57b3	0.36980972
12	0x3efb45d3	0.4907671
13	0x3efc2191	0.4924436
14	0x3df565f9	0.1198234
15	0x3ee2bb9d	0.44283763
16	0x3f7ac0cd	0.9795044
17	0x3f6d201f	0.9262714
18	0x3f2f7d03	0.6855013
19	0x3de8d408	0.11368567
20	0x3e349796	0.1763595
21	0x3f01e150	0.50734425
22	0x3f3bde9c	0.7338655
23	0x3f003a80	0.50089264
24	0x3eb67993	0.3563963
25	0x3f1900c0	0.5976677
26	0x3df82ca7	0.12117892
27	0x3ee6fc66	0.4511444
28	0x3f1f9eb5	0.6235154
29	0x3f397e2a	0.72458136
30	0x3f639ffd	0.88916
31	0x3f6de011	0.92920023

net.3.bias f4 [32]
0	0x3c9da396	0.019243043
1	0xbc7ef853	-0.015562135
2	0x3b5a7a3c	0.0033337018
3	0x3c950a28	0.01819332
4	0x3d3513a9	0.044208203
5	0xbd992140	-0.07477045
6	0x3d3fe008	0.046844512
7	0x3d8279d0	0.0637089
8	0xbc8806ec	-0.016604863
9	0x3d3c9b1d	0.046046365
10	0x3b514444	0.0031931559
11	0xbc2ed2bf	-0.010670363
12	0xbd8a4439	-0.06751294
13	0x3a7a418d	0.0009546511
14	0x3d2f001b	0.04272471
15	0x3c01545b	0.007893647
16	0xbe0406cd	-0.1289322
17	0xbd1c0e49	-0.03809956
18	0x3d761456	0.060077988
19	0x3db75bde	0.08953069
20	0x3dcb845e	0.099373564
21	0xbd0b033f	-0.033938643
22	0xbd952903	-0.07283213
23	0xbc671a39	-0.014105373
24	0x3c25631f	0.010094433
25	0xbdac2941	-0.08406306
26	0x3d960062	0.07324292
27	0xbde128f4	-0.10994139
28	0x3d4fe469	0.05075494
29	0xbd17bec9	-0.03704718
30	0xbdb6fe75	-0.089352526
31	0x3d2ca476	0.04214903

net.3.running_mean f4 [32]
0	0xbd52f97d	-0.05150746
1	0x3d74f6a2	0.05980552
2	0x3da580b4	0.08081189
3	0x3e80fced	0.25192967
4	0xbed65c22	-0.41867167
5	0xbb4d2c99	-0.00313071
6	0xbd5c11a7	-0.053727772
7	0xbddb7a96	-0.10716741
8	0x3c07ba8d	0.008284223
9	0x3c54d505	0.012990241
10	0xbcc8f56a	-0.024531085
11	0x3d03cb5e	0.032176368
12	0x3ba828bf	0.0051318104
13	0x3cb3b5f5	0.02193735
14	0x3e25aa36	0.16178212
15	0x3ce82c52	0.028341446
16	0xbe8866c9	-0.2664092
17	0xbd269195	-0.04066618
18	0xbdd00618	-0.10157412
19	0x3db4ccdc	0.08828136
20	0xbda6b9b4	-0.08140889
21	0x3e3e87d5	0.18606503
22	0xbd73e4e3	-0.059544455
23	0x3da82538	0.08210224
24	0xbbed411f	-0.007240429
25	0xbf059141	-0.52174765
26	0x3ca9df42	0.02073634
27	0x3d866127	0.06561499
28	0x3deecedf	0.11660551
29	0xbe8aab61	-0.27083877
30	0xbec3580e	-0.38153118
31	0x3e39d69e	0.18148276

net.3.running_var f4 [32]
0	0x3b6d6e83	0.00362292
1	0x3ae30864	0.0017321226
2	0x3b2fe8d6	0.0026841662
3	0x3b305032	0.002690327
4	0x3c3318fb	0.010931249
5	0x3b21ba82	0.0024677818
6	0x3aee4d20	0.0018180944
7	0x3b238ad7	0.0024954581
8	0x3b22160b	0.0024732377
9	0x3ac8683e	0.0015289856
10	0x3ade466d	0.0016958244
11	0x3b10e406	0.0022108569
12	0x3b967bc1	0.0045923893
13	0x3a42737c	0.0007417721
14	0x3b3acd44	0.0028503696
15	0x3b9fcc0c	0.004876619
16	0x3b9d9168	0.0048085935
17	0x3b7d9490	0.0038693286
18	0x3b015194	0.0019732462
19	0x3b04640c	0.0020201234
20	0x3b37eb14	0.0028063701
21	0x3b0a5fc8	0.002111422
22	0x3b89dc69	0.004207183
23	0x3b9008d2	0.0043955827
24	0x3afa23ab	0.0019084116
25	0x3c469a0e	0.01212169
26	0x3a99dc27	0.0011738584
27	0x3b1ad6bb	0.0023626524
28	0x3b5bf1c1	0.0033560845
29	0x3b69656e	0.0035613435
30	0x3c420d78	0.0118440315
31	0x3b972a64	0.0046132077

net.5.weight f4 [64, 32, 3, 3]
0	0xbd1c2a33	-0.03812618
1	0xbcb40a37	-0.021977527
2	0x3ca00eae	0.01953825
3	0xbd5aaf71	-0.05338997
4	0xbd2dc1b2	-0.04242105
5	0xbce627c9	-0.028095143
6	0x3ab0c53c	0.0013486515
7	0xbd7e9aee	-0.06215947
8	0x3ca60e94	0.020270623
9	0x3d2ceb33	0.04221649
10	0x3bbe57de	0.0058088144
11	0xb9c4f458	-0.00037566083
12	0xbc567ed9	-0.013091766
13	0x3c8e6da8	0.017386273
14	0xbb8335d8	-0.0040042214
15	0xbd851c69	-0.064995594
16	0xbda72b79	-0.081625886
17	0x3b6f7e77	0.0036543885
18	0xbd60c815	-0.054878313
19	0x3b968060	0.00459294
20	0x3c8afd65	0.016966531
21	0xbd057f95	-0.032592375
22	0xbce9feb8	-0.028563842
23	0x3dd13a70	0.10216224
24	0xba8d65f9	-0.0010787837
25	0xbb3efd7b	-0.0029142785
26	0x3d0e930c	0.034808204
27	0xbcefe25a	-0.029282738
28	0xbc150b01	-0.009096862
29	0x3d1d595d	0.0384153
30	0xbd42efb0	-0.047591865
31	0x3c9e69f6	0.019337635
32	0x3d01bcc6	0.03167417
33	0xbd7540c3	-0.059876215
34	0x3b483c29	0.0030553436
35	0x3ab95300	0.0014139116
36	0x3b543b35	0.0032383923
37	0x3bd08075	0.0063629695
38	0x3d6fdffe	0.058563225
39	0xbb9ba1a8	-0.0047494955
40	0x3cbe17b1	0.023204656
41	0xbc5d6e0c	-0.013515007
42	0xbdaa729b	-0.083226405
43	0xbcd50d99	-0.02600746
44	0xbc6656c6	-0.014058774
45	0x3b5afb85	0.0033414077
46	0xbd293c8c	-0.041317508
47	0x3cc82a21	0.024434151
48	0x3d04b229	0.03239647
49	0x3caef3bc	0.021356456
50	0xbc2b359b	-0.010449792
51	0xbc44fbbc	-0.012022909
52	0x3b74cd87	0.003735395
53	0x3dbbe04c	0.091736406
54	0xbbe5499d	-0.006997301
55	0xbb042128	-0.0020161364
56	0xbc576176	-0.013145795
57	0x3d916ac3	0.07100441
58	0x3d903b65	0.070425786
59	0xbd429e68	-0.04751435
60	0x3d00296e	0.03128951
61	0xbc34dfda	-0.0110396985
62	0xbc87da09	-0.01658346
63	0x3d1424cb	0.0361679
64	0xbca6eaa9	-0.020375567
65	0x3d57d368	0.052691847
66	0xbc868e79	-0.016425358
67	0x3d2e3dd2	0.042539425
68	0x3d2485e4	0.04016675
69	0x3d374ee4	0.04475297
70	0x3d2713c9	0.040790353
71	0x3cbe298b	0.023213169
72	0xbd2b9304	-0.041888252
73	0xbd0aa43a	-0.033848025
74	0x3d6bc513	0.05756099
75	0x3c5613b0	0.013066217
76	0xbd39a8c2	-0.045326956
77	0xbcaa4c41	-0.020788314
78	0x3cfaf226	0.030633043
79	0xbdfcd919	-0.123460956
80	0x3ce47372	0.02788708
81	0xbc44dd1f	-0.01201561
82	0x3bed0ea5	0.007234412
83	0x3d35a6b5	0.044348437
84	0xbc20d4ae	-0.009816332
85	0x393ab451	0.00017805515
86	0x3ce2987b	0.027660599
87	0x3d82041f	0.06348442
88	0xbd4c01b4	-0.04980631
89	0x3d8d1a66	0.06889801
90	0xbca864ab	-0.020555815
91	0xbc2effb7	-0.010681084
92	0x3d33b9f7	0.04387852
93	0xbd86f6c1	-0.06590033
94	0xbd071c31	-0.03298587
95	0x3b063446	0.0020477935
96	0x3d03dbe7	0.032192137
97	0xbccdeca3	-0.025137251
98	0x3c2d075d	0.010560838
99	0xbc1167da	-0.008874858
100	0xbd86ebad	-0.0658792
101	0xbd8dbf4a	-0.06921251
102	0xbc33664c	-0.010949682
103	0xbcaa4dd5	-0.020789066
104	0xbd23fb57	-0.04003462
105	0xbc33b4fa	-0.010968441
106	0xbc52f6c3	-0.012876215
107	0x3c7f51d9	0.015583479
108	0x3c8d07a5	0.01721556
109	0xbd9b0cff	-0.07570838
110	0x3cc2747b	0.023737183
111	0xbaaf6761	-0.001338225
112	0x3b1908bd	0.0023351156
113	0x3c4997e9	0.012304285
114	0xbd2ba036	-0.041900836
115	0xbd6abec4	-0.057310835
116	0xbbdd25d2	-0.0067488933
117	0x3cfd3cf8	0.030912861
118	0x3b35d71c	0.0027746623
119	0xbbd39103	-0.0064564957
120	0xbcbfb4d5	-0.023401657
121	0xbd187956	-0.03722509
122	0xbbfbeee0	-0.007688388
123	0xbc86a46b	-0.016435822
124	0xbcaf7fc6	-0.021423232
125	0x3d1730dc	0.03691183
126	0xbd59d01d	-0.053176988
127	0xbc71c12e	-0.01475553
128	0xbd90c4eb	-0.07068809
129	0xbd96cace	-0.07362901
130	0xbc8b0e9a	-0.016974736
131	0xbc1af422	-0.00945762
132	0x3c9bdafa	0.019025315
133	0xbcbf1156	-0.023323696
134	0x3b2b06fd	0.0026096695
135	0x3d0d15e0	0.03444469
136	0x3d23cba8	0.039989144
137	0xbc213802	-0.009840013
138	0x3c6bb8bb	0.014387305
139	0xbcda196c	-0.02662345
140	0x3c5a0165	0.013305997
141	0xbd868edc	-0.06570217
142	0xbd98ba05	-0.074573554
143	0x3b61e181	0.0034466686
144	0xbb9aea4b	-0.004727637
145	0x3d425088	0.04744008
146	0x3d23ea09	0.040018115
147	0x3d4c20da	0.049836017
148	0xbd2bea82	-0.04197169
149	0xbd885549	-0.06656892
150	0x3d31baab	0.04339091
151	0xbdf5f5a6	-0.12009744
152	0xbd64069d	-0.05567037
153	0xbd4bed3e	-0.0497868
154	0xbd86df39	-0.06585545
155	0xbcd98738	-0.026553735
156	0xbd29dbc5	-0.041469354
157	0xbd3c69d2	-0.045999356
158	0x3c51db85	0.012808685
159	0xbd3f5e0f	-0.04672056
160	0xbd5a7d91	-0.053342406
161	0xbc2ba445	-0.010476177
162	0xbce8f247	-0.02843584
163	0x3cf34b74	0.029699065
164	0xbbfd7451	-0.0077348133
165	0x3d90c857	0.07069462
166	0x3c972702	0.018451218
167	0x3d1af2cf	0.037829217
168	0xbcba2d08	-0.02272655
169	0x3c6fdd6f	0.014640196
170	0xbd42e3f9	-0.047580693
171	0x3d3260d9	0.043549392
172	0x39b6460e	0.0003476594
173	0x3db89dd5	0.09014479
174	0xbd5a19be	-0.053247206
175	0xbda939c2	-0.082629696
176	0x3ca9ab3d	0.020711536
177	0xbdbcbe9c	-0.09216043
178	0xbdfaa601	-0.12238694
179	0xbd400350	-0.04687816
180	0xbd6c346b	-0.057667177
181	0xbd26e30b	-0.04074387
182	0xbc9fa60d	-0.019488359
183	0xba1d57ce	-0.00060021586
184	0xbcdc81ca	-0.026917357
185	0xbc7e2063	-0.015510651
186	0x3ce60799	0.028079795
187	0xbce34e70	-0.027747363
188	0xbd282954	-0.04105504
189	0x3d1ce096	0.03830012
190	0x3d4f3277	0.050585236
191	0x3cbe01d8	0.023194239
192	0xbc6f5ea6	-0.014609968
193	0x38da9f97	0.00010424776
194	0xbd4c15b5	-0.04982539
195	0xbd544544	-0.05182387
196	0xbc9d737b	-0.019220104
197	0xbd46ad82	-0.048505314
198	0xbc6bdd66	-0.014396047
199	0xbd2bd614	-0.041952208
200	0xbd6e6a47	-0.058206823
201	0xbbe7d2bf	-0.0070746834
202	0xbd72c290	-0.05926758
203	0xbda9796b	-0.08275112
204	0xbc880919	-0.0166059
205	0xbd053c58	-0.03252825
206	0xbc92f600	-0.017939568
207	0xbb89b1d3	-0.0042021065
208	0xbd7d10ee	-0.061783724
209	0xbd82e898	-0.0639202
210	0x3c90a214	0.01765541
211	0xbc8ae3ec	-0.016954385
212	0x3ccf656e	0.02531692
213	0xbd40936d	-0.047015596
214	0x3b504a82	0.0031782691
215	0xbbe6cfe2	-0.0070438245
216	0x3a5fb3ac	0.0008533548
217	0x3cef5b0b	0.029218217
218	0xbab33188	-0.0013671378
219	0xbc1b6b84	-0.009486083
220	0x3cc0c6c9	0.023532288
221	0x3d1133fb	0.035449963
222	0x3d829404	0.06375888
223	0xbe14c90e	-0.14529821
224	0xbdb38112	-0.087648526
225	0x3d630340	0.05542302
226	0x3d451ef2	0.048125215
227	0xbc8732ad	-0.016503656
228	0xbc3587b4	-0.011079717
229	0xbd8532b2	-0.0650381
230	0x3cdf25d8	0.027239725
231	0xbd7ffae1	-0.062495116
232	0xbe1c6ee9	-0.15276684
233	0xbb2e8d0b	-0.002663436
234	0xbcdc7237	-0.02690993
235	0xbc3d1ec6	-0.0115429815
236	0xbb4bee60	-0.0031117424
237	0xbce05fa4	-0.027389355
238	0x3b3556a6	0.0027670055
239	0x3da38e6e	0.07986151
240	0xbd2e67cd	-0.04257946
241	0x3c0bf3d3	0.008542019
242	0xbc966012	-0.018356357
243	0x3b7b4615	0.0038341333
244	0xbd6232cc	-0.055224225
245	0xbb6a5630	-0.0035756938
246	0x3c295fb4	0.010337759
247	0xbc814aff	-0.015782831
248	0xbcccc1c5	-0.02499474
249	0x3d05987b	0.03261612
250	0xbd3199c7	-0.043359544
251	0xbc93b772	-0.01803181
252	0x3da63bea	0.081168965
253	0x3d8bfa4c	0.0683485
254	0x3b6f3e9d	0.0036505826
255	0x3d97459d	0.073863246

net.5.bias f4 [64]
0	0x3cbbe9e6	0.02293868
1	0x3d3024b2	0.043003745
2	0x3d4f5c64	0.05062522
3	0xbd2514ec	-0.040303156
4	0xbd43072e	-0.04761427
5	0x3c90698c	0.017628454
6	0x3d2186ef	0.039435323
7	0xbd21413d	-0.039368857
8	0xbcf27033	-0.029594516
9	0x3c2aa5b9	0.010415488
10	0x3cf576c5	0.02996386
11	0xbcc256e7	-0.023723079
12	0x3caafb7d	0.020871872
13	0x3cb58f69	0.02216311
14	0x3cd9e3be	0.026597854
15	0xbc1d93da	-0.00961777
16	0x3ce03de5	0.027373264
17	0xbd593b21	-0.053034905
18	0xbaf74bb5	-0.0018867167
19	0x3d2e9d9c	0.042630777
20	0x3bad0b48	0.005280886
21	0xbce4f086	-0.027946722
22	0xba22740a	-0.0006197101
23	0xbd304895	-0.04303797
24	0x3b04cb2f	0.0020262708
25	0x3cd8965d	0.026438886
26	0xbc8a2987	-0.016865505
27	0x3c73967d	0.014867422
28	0x3d034120	0.03204453
29	0xbcec84cc	-0.028871916
30	0xbc97add8	-0.018515512
31	0xbcf7d834	-0.03025446
32	0xbd1a187e	-0.037621014
33	0xbc53eaf3	-0.012934434
34	0xbc0f4141	-0.008743585
35	0x3d364c4c	0.044506356
36	0x3c42630c	0.011864435
37	0x3cc07df4	0.02349756
38	0xbd137b4d	-0.03600626
39	0x3c5bbc7e	0.013411639
40	0xbc8da587	-0.017290844
41	0xb9b62895	-0.0003474398
42	0xbd483289	-0.04887632
43	0x3b688d12	0.0035484475
44	0xbcaaf863	-0.020870393
45	0xbd3ee93a	-0.04660914
46	0xbcc8f3df	-0.02453035
47	0xbc4db93d	-0.012556371
48	0xbd2e7102	-0.04258824
49	0xbcd1f441	-0.025629165
50	0xbcb1b630	-0.02169332
51	0xbbaedef3	-0.005336636
52	0xbd3ab374	-0.045581296
53	0x3d92f4c5	0.07175592
54	0x3d8582a0	0.06519055
55	0xbbb6c2c1	-0.0055774157
56	0xbd62fc42	-0.055416353
57	0xbbcd2032	-0.0062599415
58	0x3ce25c68	0.027631953
59	0xbbfdd6bf	-0.007746547
60	0x3d556351	0.05209667
61	0x3d139369	0.036029253
62	0x3d17d6e5	0.037070174
63	0x3d152413	0.036411356

net.6.weight f4 [64]
0	0x3f0e7492	0.5564662
1	0x3e28c6bf	0.16482066
2	0x3e9e8d86	0.3096735
3	0x3f16b6f9	0.58872944
4	0x3f0be02f	0.5463895
5	0x3e9b481d	0.30328456
6	0x3e52f3a8	0.2060076
7	0x3f497cb9	0.78705937
8	0x3f072a80	0.52799225
9	0x3f283e03	0.6571962
10	0x3ed6c4e3	0.41947088
11	0x3df51a06	0.11967854
12	0x3f4ce2ad	0.8003338
13	0x3e0d48fa	0.1379737
14	0x3e90885c	0.28229034
15	0x3e9d43fa	0.30715925
16	0x3e93f5b3	0.2889839
17	0x3e878cef	0.2647471
18	0x3e259d1f	0.16173218
19	0x3eb6ebfc	0.35726917
20	0x3ec22a68	0.37922978
21	0x3f2686b9	0.6504932
22	0x3e7a2421	0.24427845
23	0x3e87b641	0.26506236
24	0x3e0e6d92	0.13908985
25	0x3ee9cb11	0.4566274
26	0x3ed5743f	0.4169025
27	0x3ee3ed4b	0.44516978
28	0x3f074bd9	0.5285011
29	0x3f103814	0.5633557
30	0x3e3e37eb	0.18576019
31	0x3f6d8751	0.927846
32	0x3f7180f5	0.943374
33	0x3f4c6f42	0.79857266
34	0x3f12b1d9	0.57302624
35	0x3eb790cf	0.35852668
36	0x3eb274d3	0.34854755
37	0x3eb634f8	0.35587287
38	0x3de5ffec	0.11230454
39	0x3f0cc94c	0.54994655
40	0x3e5b1742	0.21395591
41	0x3f182fbb	0.5944783
42	0x3d532674	0.051550344
43	0x3e138602	0.14406589
44	0x3e7756ba	0.24154177
45	0x3f19913b	0.5998723
46	0x3f6cce54	0.9250233
47	0x3f07c29f	0.53031343
48	0x3e11b9ca	0.14231029
49	0x3e3baef5	0.1832846
50	0x3f461b8f	0.773858
51	0x3e56b28e	0.2096655
52	0x3f0eadec	0.55734134
53	0x3f37a0f3	0.71729964
54	0x3e4e758b	0.20162027
55	0x3e602920	0.21890688
56	0x3f4c2bfe	0.79754627
57	0x3f68ce24	0.90939546
58	0x3eaa95d8	0.33317447
59	0x3e609441	0.21931554
60	0x3df4d26c	0.11954197
61	0x3e42fabf	0.19040965
62	0x3d63ed3d	0.05564617
63	0x3e3d531d	0.18488736

net.6.bias f4 [64]
0	0xbdb10e36	-0.08645289
1	0xbdac2869	-0.08406145
2	0x3c622831	0.013803528
3	0xbde99905	-0.11406139
4	0xbe121f3c	-0.14269727
5	0xbe178044	-0.14795023
6	0xbdf6718e	-0.120333776
7	0xbddc2f60	-0.107512236
8	0xbde92c52	-0.113854066
9	0xbe636477	-0.22206293
10	0xbe745853	-0.23861818
11	0xbd90449d	-0.07044337
12	0xbe1cab82	-0.152998
13	0xba3ef257	-0.0007284036
14	0xbe4181af	-0.18897127
15	0xbd670740	-0.0564034
16	0xbe4ef0ec	-0.20209092
17	0xbe220673	-0.15822773
18	0x3ce6f97f	0.02819514
19	0xbe17d7e5	-0.14828451
20	0xbdb4199f	-0.08793949
21	0xbe91391e	-0.2836389
22	0xbd0ecf39	-0.03486559
23	0xbe0f1429	-0.13972534
24	0xbd35a60a	-0.0443478
25	0xbd89f959	-0.067370124
26	0xbe7c1972	-0.24619082
27	0x390f9da4	0.00013696268
28	0xbe5ababc	-0.21360296
29	0xbd3722e8	-0.044711024
30	0x3bbfda3c	0.005854873
31	0xbe04b2fe	-0.12958905
32	0xbd856c2d	-0.065147735
33	0xbe4a2c5a	-0.19743481
34	0xbd4b7b76	-0.04967829
35	0x3c7bbad1	0.015364365
36	0xbe191a44	-0.14951426
37	0xbe6ebb10	-0.23313546
38	0xbdbc5a28	-0.091968834
39	0xbe474c7d	-0.19462772
40	0xbde487a1	-0.11158682
41	0xbe770975	-0.24124701
42	0x3d2239ed	0.039606024
43	0xbd49bf44	-0.04925467
44	0xbd394171	-0.045228425
45	0xbe509a07	-0.20371257
46	0xbe992203	-0.2990876
47	0xbd3024a8	-0.043003708
48	0x3c5c922e	0.013462586
49	0x3c7552ee	0.014973385
50	0xbd9e8719	-0.077406116
51	0xbd9c435f	-0.076300375
52	0xbde5306a	-0.11190875
53	0xbe9490bf	-0.29016683
54	0xbe34fa15	-0.17673524
55	0xbe31ee04	-0.17375952
56	0xbe464a09	-0.1936418
57	0xbd96636c	-0.07343182
58	0xbd9d66a2	-0.07685591
59	0xbe0692a2	-0.13141873
60	0xbd75593b	-0.05989955
61	0xbd86916c	-0.06570706
62	0x3d19bc8a	0.03753332
63	0xbe1215ac	-0.1426608

net.6.running_mean f4 [64]
0	0xbe92c36d	-0.28664723
1	0x3f50a188	0.8149648
2	0xbf2c98c9	-0.6742063
3	0xbf06bb8c	-0.52629924
4	0x3dbffe01	0.09374619
5	0x3f183613	0.5945751
6	0x3f1571e4	0.5837691
7	0xbf61a670	-0.8814459
8	0xbc95cc56	-0.018285912
9	0x3f3ed3ae	0.7454175
10	0x3efb4b33	0.4908081
11	0x3e8c808f	0.27441832
12	0xbe4a7a5e	-0.19773242
13	0x3f033531	0.5125304
14	0x3f3cd00b	0.7375495
15	0xbf0b8672	-0.5450202
16	0x3f2011ea	0.62527335
17	0x3f08b022	0.5339376
18	0xbef51fde	-0.47875875
19	0x3ed6eea1	0.41978934
20	0xbf375773	-0.7161781
21	0x3e2a26dc	0.16616386
22	0x3f390238	0.7226901
23	0x3ec8a594	0.39188826
24	0xbea1c5e5	-0.31596294
25	0x3e7076e5	0.23482855
26	0x3f0b38ee	0.5438374
27	0xbf5a9b44	-0.85393167
28	0x3e3e8caa	0.18608347
29	0xbf5205ce	-0.8204011
30	0xbec60aa0	-0.3867998
31	0xbf332631	-0.6998015
32	0xbf3385f1	-0.70126253
33	0x3dc35503	0.09537699
34	0xbf179078	-0.59204817
35	0xbf1adb71	-0.6049109
36	0x3e27b478	0.16377437
37	0x3ee34489	0.44388226
38	0x3ee7593b	0.45185265
39	0x3f494996	0.7862791
40	0xbf136c54	-0.5758717
41	0x3f12bcc6	0.57319295
42	0x3e33db5b	0.17564146
43	0x3e636b83	0.22208981
44	0xbf16d03f	-0.5891151
45	0xba86ad9d	-0.001027513
46	0x3be68fab	0.0070361695
47	0xbf8aa76c	-1.0832343
48	0xbf74f7c3	-0.95690554
49	0xbf469a45	-0.77579147
50	0xbead9aed	-0.33907261
51	0x3f0a4451	0.5401049
52	0xbf750e54	-0.9572499
53	0x3f182f34	0.59447026
54	0x3f00484f	0.50110334
55	0x3edd9bd3	0.43282947
56	0xbf0f7f3a	-0.5605351
57	0xbf4298ba	-0.7601429
58	0xbf8a7318	-1.0816374
59	0xbf33829b	-0.70121163
60	0x3eae09b7	0.33991787
61	0x3f608156	0.8769735
62	0x3dcad39b	0.09903642
63	0x3f266066	0.6499084

net.6.running_var f4 [64]
0	0x3eeaa848	0.45831513
1	0x3e877a06	0.26460284
2	0x3f193bf0	0.5985708
3	0x3f7ae348	0.98003054
4	0x3eebd335	0.46059576
5	0x3e2a23a8	0.16615164
6	0x3e0f7790	0.14010453
7	0x3ea20594	0.3164488
8	0x3e3ccd7f	0.18437766
9	0x3e70e524	0.2352491
10	0x3dda300c	0.106536955
11	0x3e0175c9	0.12642588
12	0x3e19f0c3	0.1503325
13	0x3e443a45	0.19162853
14	0x3e96feba	0.29491216
15	0x3eb0afab	0.34509024
16	0x3e4c06f6	0.1992453
17	0x3dfb146a	0.12259753
18	0x3ecb5883	0.39715967
19	0x3e0a8e13	0.1353076
20	0x3f43b85b	0.7645318
21	0x3dde076a	0.10841258
22	0x3ed53842	0.41644484
23	0x3dc7243f	0.0972371
24	0x3e19a302	0.15003589
25	0x3f2fa274	0.6860726
26	0x3e65845c	0.22413772
27	0x3f696a13	0.9117748
28	0x3e05ced4	0.1306718
29	0x3f0a32f1	0.5398398
30	0x3ea15c6e	0.3151583
31	0x3eebf6c1	0.46086696
32	0x3f6a6ef5	0.91575557
33	0x3d98dc82	0.074639335
34	0x3f08f6a7	0.5350136
35	0x3edfc353	0.43703708
36	0x3da0bcae	0.07848488
37	0x3e251f1b	0.16125147
38	0x3dcad67a	0.099041894
39	0x3e5ada0d	0.21372242
40	0x3f39ed11	0.7262736
41	0x3e3b66e8	0.18300974
42	0x3e019e2e	0.12657997
43	0x3de46eda	0.11153956
44	0x3e2f853b	0.17140667
45	0x3dc246ff	0.09486198
46	0x3e82c8f3	0.25543937
47	0x3f76a0b7	0.9633898
48	0x3eabf07f	0.3358192
49	0x3f7a7966	0.9784149
50	0x3f83569c	1.0260806
51	0x3e1413c3	0.14460663
52	0x3ef529df	0.47883508
53	0x3e05ab11	0.13053538
54	0x3dd3d67f	0.10343646
55	0x3dffe6bc	0.12495181
56	0x3f3a9fb5	0.72899944
57	0x3f828360	1.0196342
58	0x3f92b240	1.1460648
59	0x3f0fadc9	0.5612455
60	0x3de2da91	0.110768445
61	0x3e1953fc	0.14973444
62	0x3da55d04	0.08074382
63	0x3e189e7a	0.14904204

net.8.weight f4 [128, 64, 3, 3]
0	0x3d09c4ea	0.033635058
1	0x3a99185a	0.0011680231
2	0x3d1ff864	0.039055243
3	0x3d2fc0d9	0.042908523
4	0x3c8dcc5a	0.017309356
5	0xbc571793	-0.013128179
6	0xbc9608b2	-0.018314693
7	0xbc116c64	-0.00887594
8	0xbc6eae1f	-0.014567881
9	0x3c90dc13	0.017683065
10	0x3d76b474	0.060230687
11	0x3cc238dd	0.023708755
12	0xbc7628a3	-0.015024337
13	0x3d9fa842	0.077957645
14	0x3da7c898	0.08192557
15	0xbc503609	-0.0127081955
16	0x3c5072f2	0.012722718
17	0x3d405cd9	0.046963546
18	0xbc044bf5	-0.00807475
19	0xbd363c67	-0.044491198
20	0xbd0871d8	-0.033311695
21	0xbcd9f4bb	-0.026605954
22	0xbd90b142	-0.07065059
23	0xbd607ac5	-0.054804582
24	0xbd92e7ec	-0.07173142
25	0xbd4d2438	-0.05008337
26	0xbd92e6d5	-0.07172934
27	0xbd2c13ce	-0.042011075
28	0xbca59ba1	-0.020215811
29	0xbcfdeb27	-0.030995918
30	0xbc7a5d6a	-0.015281061
31	0x3b8034ea	0.003912558
32	0xbce3372f	-0.027736275
33	0x3c0b08e5	0.008486007
34	0xbc1bbad0	-0.009504989
35	0xbc195f43	-0.009361091
36	0xbc4bf63f	-0.012448846
37	0xbc31cbf9	-0.0108518535
38	0x3b07ac6d	0.002070214
39	0x3ad97840	0.0016591623
40	0x3b9719ec	0.0046112444
41	0xbc357cbb	-0.011077101
42	0xbd417464	-0.04723014
43	0x3c945033	0.018104648
44	0x3c0ee0fc	0.008720633
45	0x3c156a15	0.00911953
46	0xbd0cea4f	-0.03440314
47	0xbd5d8523	-0.054082047
48	0x3cafc3e4	0.021455713
49	0xbbd69272	-0.0065482194
50	0xbda6ba20	-0.08140969
51	0x3cf05015	0.029335061
52	0x3d423dc2	0.047422178
53	0xbd536636	-0.051611148
54	0x3c50c224	0.012741599
55	0xbbca2ef7	-0.0061701494
56	0xbd8ad9f7	-0.06779855
57	0x3ced6a75	0.028981427
58	0x3c1333fc	0.008984562
59	0xbd51234e	-0.05105906
60	0x3cfe05a2	0.031008545
61	0x3ce911c6	0.028450858
62	0xbda8f298	-0.08249396
63	0x3c3cf887	0.011533863
64	0x3d4495fd	0.047994602
65	0x3d8e84d3	0.06958928
66	0xbb1ab4a1	-0.0023606198
67	0x3c4bf350	0.012448147
68	0x3d885e48	0.06658608
69	0xbd7685d2	-0.060186215
70	0xbc38b605	-0.011273866
71	0x3da57510	0.080789685
72	0xbcc917f0	-0.024547547
73	0xbcd3cf48	-0.025855675
74	0x397ffbab	0.00024412449
75	0xbc2314a9	-0.009953656
76	0x3cae72c7	0.021294964
77	0x3cb1a956	0.021687191
78	0x3b7c5963	0.0038505427
79	0xbb0b5ff9	-0.002126692
80	0x3d049235	0.032365996
81	0xbd0a859e	-0.033818834
82	0x3d0655fd	0.03279685
83	0x3c2adf02	0.010429146
84	0xbd31610f	-0.043305453
85	0x3cf91184	0.03040386
86	0x3c2a5d36	0.0103982
87	0xbcd3701c	-0.025810294
88	0xbc6660c7	-0.014061159
89	0xbb79a3d7	-0.003809204
90	0xbc338352	-0.010956602
91	0xbcc80204	-0.024415024
92	0xbdb6990d	-0.08915911
93	0xbcd1f38a	-0.025628824
94	0x3c07a3c1	0.008278788
95	0xbd9432ca	-0.0723625
96	0x3c5b49df	0.013384311
97	0x3c0da819	0.008646035
98	0xbda49a52	-0.08037247
99	0x3aca325f	0.0015426389
100	0x3d07a789	0.03311876
101	0x3d3948b9	0.04523537
102	0xbd1e5086	-0.038651012
103	0xbc7444d3	-0.014908987
104	0xbcee9d54	-0.029127754
105	0x3ce39e67	0.027785493
106	0x3d2209ec	0.039560243
107	0x3d7a5a4e	0.061121278
108	0xbd08b9d8	-0.03338036
109	0xbce8d09f	-0.02841979
110	0x3c331df7	0.010932437
111	0xbbc5740e	-0.0060257977
112	0xbb9c594c	-0.004771387
113	0xbc3a5655	-0.011373122
114	0xbc3d3a25	-0.011549507
115	0xb7af1b30	-2.0874286e-05
116	0x3d19ea70	0.037577093
117	0xbd9741b5	-0.073855795
118	0x3cf3893f	0.02972853
119	0x3cc48bcf	0.023992447
120	0x3c6c3960	0.014417976
121	0x3d0a4ec4	0.033766523
122	0xb8a7915b	-7.990255e-05
123	0x3bd85355	0.006601731
124	0x3cb5baed	0.02218386
125	0x3d556553	0.052098583
126	0xbc98c938	-0.018650636
127	0xbbcdd2bb	-0.0062812245
128	0xbd44f9cf	-0.0480898
129	0x3c6b60fe	0.014366386
130	0xbc9d3e00	-0.019194603
131	0xbdd73c8a	-0.10509594
132	0x3c125684	0.00893176
133	0xbd170688	-0.036871463
134	0xbdc8708c	-0.097870916
135	0xbc86ed00	-0.016470432
136	0x3cbb8e03	0.022894865
137	0x3d316a22	0.043314107
138	0xbd45fd93	-0.04833753
139	0xbc9287d9	-0.017887043
140	0x3cf69044	0.030098088
141	0xbcecdbbc	-0.028913371
142	0xbb97537b	-0.004618106
143	0x3c962a3c	0.018330686
144	0x3cc247ef	0.023715941
145	0x3ae07bf6	0.0017126787
146	0x3c4760be	0.012169061
147	0xbd587fa9	-0.05285612
148	0x3ca33f6e	0.019927707
149	0xbd25c65a	-0.040472366
150	0x3b37bb2a	0.0028035142
151	0xbacb130e	-0.001549335
152	0xba7087dd	-0.00091755186
153	0xbbea9d9a	-0.007159901
154	0x3a866ae5	0.0010255246
155	0x3d740740	0.059577227
156	0xbc98910d	-0.018623853
157	0x3d882f45	0.06649641
158	0x3d1e3dae	0.03863304
159	0xbc4b20de	-0.012397973
160	0x3b8bc20b	0.004265075
161	0x3d97256a	0.07380183
162	0xbd10b604	-0.035329834
163	0xbb7eab8f	-0.003885958
164	0x3d8f92a3	0.070103906
165	0xbcb430c4	-0.02199591
166	0xbd0ba44e	-0.03409224
167	0x3d39af9f	0.0453335
168	0xbc86dbed	-0.01646229
169	0xbd788818	-0.060676664
170	0x3cbe2f00	0.02321577
171	0xbc8e87d1	-0.017398747
172	0x3ca784e2	0.020449106
173	0x3cb0bdfe	0.02157497
174	0x3d423a55	0.04741891
175	0xbb8bf588	-0.004271213
176	0x3cc8497c	0.024449103
177	0xbc5bf93f	-0.013426124
178	0xbb3fbc55	-0.0029256542
179	0x3c70a1c1	0.014687003
180	0xbd1a9075	-0.03773542
181	0x3b7f6509	0.0038970134
182	0x3c91232d	0.017716968
183	0x3b32631f	0.0027219725
184	0x3b679cbc	0.0035341224
185	0x3d17de50	0.037077248
186	0xbcc62dfa	-0.024191845
187	0xbc5e5951	-0.013571099
188	0xb9aeebd4	-0.00033363572
189	0x3bac3369	0.005255152
190	0xbc6f9c55	-0.014624675
191	0x3c96d295	0.01841096
192	0xbd2a4bdf	-0.041576263
193	0x3c408fb1	0.011753009
194	0x3a4db6e9	0.0007847385
195	0x3c4d9059	0.012546622
196	0x3c2c5904	0.01051927
197	0xbc222474	-0.009896386
198	0xbd936a89	-0.07198054
199	0x3c624076	0.013809314
200	0x3ca7badb	0.020474842
201	0x3c875cd9	0.016523765
202	0xbc4e381a	-0.012586618
203	0x3d06365a	0.032766677
204	0xbd90037a	-0.07031913
205	0x3cca16ea	0.02466913
206	0x3c99ef9a	0.018791009
207	0x3cedc483	0.029024368
208	0x3c339838	0.010961585
209	0xbca25631	-0.01981649
210	0xbcf4f683	-0.029902702
211	0x3c8dd5a7	0.017313791
212	0xbd0d5628	-0.034505993
213	0xbcb002df	-0.021485744
214	0xbd69fcb7	-0.057125773
215	0xbd15d468	-0.03657952
216	0xbd08188c	-0.033226535
217	0xbd1e45ab	-0.03864066
218	0xbafb0161	-0.0019150191
219	0x3c2e5c14	0.01064207
220	0x3c250667	0.010072327
221	0xbc5080d8	-0.012726031
222	0xbd4e5666	-0.050375365
223	0xbd79b70a	-0.060965575
224	0x3caa16a9	0.020762758
225	0x3b7d6b83	0.0038668818
226	0xbc8900dd	-0.016724044
227	0x3c1b15d9	0.009465658
228	0x3cf99604	0.03046704
229	0x3d08dcf0	0.033413827
230	0xbcb69505	-0.022287855
231	0xbcac6dae	-0.021048393
232	0xbd525489	-0.05135015
233	0xbcdc621b	-0.02690225
234	0xbadbb7b2	-0.001676312
235	0xbd1d165b	-0.038351398
236	0xbce4ac24	-0.027914114
237	0x3cd01dd0	0.02540484
238	0xbca5b7b4	-0.020229198
239	0xbcd87755	-0.02642409
240	0x3d416499	0.047215078
241	0x3cb31b40	0.02186358
242	0xbc765008	-0.015033729
243	0xbd2992d1	-0.04139978
244	0xbc83b767	-0.016078664
245	0xbd6d5bc6	-0.05794885
246	0x3d39fff6	0.04541012
247	0xbd2e4057	-0.042541828
248	0xbc4057d3	-0.011739689
249	0xbd07bda6	-0.033139847
250	0xbc9b7c8e	-0.01898029
251	0x3c6e7b21	0.014555723
252	0x3becad59	0.007222813
253	0x3b0d1d70	0.0021532439
254	0xbd902dfc	-0.07040021
255	0xbc6b6509	-0.01436735

net.8.bias f4 [128]
0	0x3c480003	0.012207034
1	0x3d1c2b3d	0.038127173
2	0x3c8370dc	0.016045026
3	0xbcb79211	-0.022408517
4	0x3cef6122	0.029221121
5	0x3d06de37	0.032926764
6	0x3d209f58	0.039214462
7	0x3d07bea1	0.033140782
8	0x3d08c13c	0.033387408
9	0x3d20ea92	0.039286204
10	0x3bc3184b	0.0059538237
11	0xbd11e4ca	-0.03561858
12	0xbc98e5aa	-0.0186642
13	0xbb3e7640	-0.0029062182
14	0x3cf7292e	0.030171003
15	0xbd17dff1	-0.0370788
16	0xbbdefef1	-0.0068052937
17	0xbc6a64f9	-0.0143063
18	0xbd19dc2b	-0.037563484
19	0xbcc85530	-0.024454683
20	0xbd1d36e8	-0.03838244
21	0xbc638ce5	-0.013888572
22	0x3c9467fd	0.018115992
23	0x3d1bce9e	0.038038842
24	0x3d0b0a28	0.033945233
25	0xbd00f7a2	-0.03148616
26	0x3c6ac10d	0.014328253
27	0x3c0a56aa	0.008443514
28	0xbc8e0cd2	-0.017340098
29	0x3cf4a65a	0.029864479
30	0xbc950d50	-0.018194824
31	0x3c926581	0.017870666
32	0x3c9baf7a	0.019004572
33	0x3c341784	0.010991935
34	0xbc0f1a54	-0.008734304
35	0x3ba9f828	0.0051870532
36	0x3c7f123f	0.015568315
37	0xbc555a59	-0.013022029
38	0xbcac3830	-0.021022886
39	0xbc3859b6	-0.0112518575
40	0x3c5152c2	0.012776079
41	0x3bef4275	0.0073016235
42	0x3cc6005b	0.024170091
43	0xbcb663a3	-0.022264307
44	0xba892efc	-0.0010466273
45	0x3c673bd3	0.014113384
46	0xbcde1f5e	-0.027114566
47	0x3d02c13e	0.03192257
48	0xbca080ac	-0.019592606
49	0x3cce0d10	0.025152713
50	0xbb68bb25	-0.0035511937
51	0x3bc2a6a1	0.005940274
52	0x3c8d0d06	0.017218124
53	0xbc39b28a	-0.011334071
54	0x3ce63e74	0.028105952
55	0x3ceee707	0.029162897
56	0xbc359ac9	-0.011084267
57	0xbcbc39a2	-0.0229767
58	0xbd01a8f7	-0.031655278
59	0xbcf31e52	-0.029677544
60	0x3b8a88ed	0.0042277486
61	0x3d02308b	0.031784575
62	0x3caaab83	0.020833736
63	0xbcf38f74	-0.02973149
64	0x3d36b028	0.04460159
65	0xbd28ddf4	-0.041227296
66	0xbcf682f7	-0.030091746
67	0x3c59dbdf	0.01329705
68	0x3cbdebeb	0.023183784
69	0x3c5d31f9	0.013500684
70	0xbcff9eab	-0.031203588
71	0xbb6865cc	-0.0035461066
72	0x3b995727	0.004679579
73	0x3d22d846	0.039757036
74	0xbcde8544	-0.027163155
75	0x3cdba608	0.026812568
76	0x3c3bc12d	0.011459631
77	0xbccd8195	-0.025086204
78	0xbd00199e	-0.03127443
79	0xbc4799fc	-0.012182709
80	0xbcd06614	-0.0254393
81	0xbd08d6c7	-0.033407953
82	0x3ab59234	0.0013852776
83	0x3d2433e4	0.04008855
84	0x3b2b9453	0.0026180937
85	0x3d1474b0	0.036244094
86	0xbcb5b197	-0.022179408
87	0x3d09479e	0.033515565
88	0xbbbf94cc	-0.0058465954
89	0x3d0ce316	0.034396254
90	0x3c6949c6	0.01423878
91	0xbc7a874c	-0.015291046
92	0xbca30e2a	-0.019904215
93	0xbcc4f225	-0.024041245
94	0xbc9e7faa	-0.019347984
95	0xbccc3cf8	-0.024931416
96	0x3bb7a56b	0.005604436
97	0x3c8178a8	0.015804604
98	0xbc39a844	-0.011331622
99	0x3c8f13e3	0.017465537
100	0x3cf65b35	0.030072788
101	0x3c1af12e	0.009456916
102	0x3ceecbb3	0.029149866
103	0xbd059e39	-0.032621596
104	0x3c875ce4	0.016523786
105	0x3b3910a1	0.0028238671
106	0x3d0ed3f6	0.03487011
107	0xbca22c4f	-0.019796519
108	0xbc47b090	-0.012188092
109	0xbc5a03aa	-0.013306538
110	0xbc40bbba	-0.0117635075
111	0x3d13a9d5	0.036050636
112	0xbb826ad1	-0.0039800187
113	0xbd294c16	-0.041332327
114	0xbd1a7b27	-0.037715103
115	0xbcf018f8	-0.029308781
116	0x3b7699e2	0.0037628342
117	0x3ccb61d7	0.024826927
118	0xbcd704b3	-0.026247358
119	0xbd29a1ae	-0.041413955
120	0xbd290308	-0.041262656
121	0xbbb90945	-0.005646857
122	0xbd25bd6c	-0.04046385
123	0xbc87a2c6	-0.016557109
124	0xbc998939	-0.01874219
125	0x3cc28a46	0.023747575
126	0xbd1330ab	-0.035935085
127	0xbd0ad0b7	-0.033890452

net.9.weight f4 [128]
0	0x3daf81b1	0.085696585
1	0x3f39b0d3	0.7253544
2	0x3f2e201a	0.68017733
3	0x3f573452	0.8406421
4	0x3f54faf6	0.83195436
5	0x3e240af1	0.16019799
6	0x3f43b436	0.76446855
7	0x3f0f500c	0.55981517
8	0x3d158248	0.0365012
9	0x3ec22ddd	0.37925616
10	0x3eb7e4e7	0.35916826
11	0x3df0613f	0.11737298
12	0x3f192b81	0.59832007
13	0x3f4e8749	0.8067518
14	0x3eee8b93	0.46590862
15	0x3e4dcfdc	0.20098823
16	0x3ec11ff0	0.3771968
17	0x3f43a1c5	0.76418716
18	0x3ea6c3d2	0.32571274
19	0x3f5eb71e	0.86998165
20	0x3ef813de	0.48452657
21	0x3f5057b6	0.81383836
22	0x3ee84edc	0.45372665
23	0x3e3e320a	0.18573776
24	0x3f50ff79	0.8163982
25	0x3def6410	0.11689007
26	0x3f14d0f6	0.5813135
27	0x3ef4290a	0.4768756
28	0x3f2516d3	0.6448795
29	0x3e81537c	0.25259006
30	0x3e2476dc	0.16060966
31	0x3dbedd03	0.093194984
32	0x3ee61d3f	0.44944188
33	0x3f1042cb	0.5635192
34	0x3f31af9e	0.69408596
35	0x3f528b54	0.8224385
36	0x3d868045	0.06567434
37	0x3f1c60fa	0.61085474
38	0x3e0e9ad8	0.13926256
39	0x3f66b840	0.90124893
40	0x3e064eaa	0.13115945
41	0x3ed94d2b	0.42441687
42	0x3e2c78f8	0.16843021
43	0x3e96a375	0.29421583
44	0x3e4fbf9e	0.2028794
45	0x3f19f923	0.6014578
46	0x3d55df68	0.05221501
47	0x3e3548d6	0.17703566
48	0x3e816c60	0.25277996
49	0x3eb8077d	0.35943213
50	0x3f73fb4a	0.9530531
51	0x3ef62a81	0.48079303
52	0x3f681135	0.90651256
53	0x3ed01805	0.40643325
54	0x3ecc62c4	0.39919102
55	0x3db3b291	0.08774293
56	0x3f173355	0.590627
57	0x3f13dacc	0.5775573
58	0x3df68f1d	0.120390154
59	0x3ea8b23d	0.32948485
60	0x3f774e54	0.96603894
61	0x3edcbc8b	0.43112597
62	0x3e55c4a5	0.20875795
63	0x3f513374	0.81719136
64	0x3f0d3b67	0.55168766
65	0x3ebb7a28	0.36616635
66	0x3e9ba395	0.3039824
67	0x3e96d87e	0.29462045
68	0x3dbc127f	0.09183215
69	0x3f06cebb	0.52659196
70	0x3f17548a	0.5911337
71	0x3ebc8a81	0.3682442
72	0x3ef02517	0.46903297
73	0x3f28ff8e	0.66014946
74	0x3f77dcd1	0.96821314
75	0x3dc89601	0.09794236
76	0x3ecb3b7b	0.39693817
77	0x3e702170	0.23450255
78	0x3eb3e127	0.35132715
79	0x3f327313	0.6970684
80	0x3f6651eb	0.89968747
81	0x3f614511	0.8799601
82	0x3f06dd2c	0.5268123
83	0x3f3e08c2	0.74232113
84	0x3e215bcf	0.15757678
85	0x3f34aff1	0.70580965
86	0x3f1ef4c8	0.62092257
87	0x3f43240f	0.76226896
88	0x3ef7223d	0.4826831
89	0x3e712e22	0.23552755
90	0x3f2da500	0.67829895
91	0x3ed3ba02	0.4135285
92	0x3e88d9bf	0.26728627
93	0x3f02b79e	0.5106143
94	0x3f1f4372	0.6221229
95	0x3dc0fa64	0.09422758
96	0x3ed2074e	0.41021198
97	0x3e8b69d4	0.27229178
98	0x3f11bd2c	0.5692928
99	0x3ea2b91d	0.31781855
100	0x3f30590b	0.6888587
101	0x3f52ca3d	0.8233984
102	0x3ebcd7e6	0.36883467
103	0x3da437db	0.08018466
104	0x3f33be6e	0.7021245
105	0x3e090bd0	0.13383412
106	0x3f287e1c	0.6581743
107	0x3eefccad	0.46835843
108	0x3f461b23	0.7738516
109	0x3e30599c	0.17221683
110	0x3f583447	0.8445477
111	0x3e10abb9	0.14128007
112	0x3f44f897	0.7694182
113	0x3ef09299	0.46986845
114	0x3f5a9daf	0.85396856
115	0x3e56fd82	0.20995143
116	0x3f4a1364	0.7893584
117	0x3e870f05	0.26378646
118	0x3e17fcfa	0.14842597
119	0x3e05ca85	0.13065536
120	0x3edf92e0	0.43666744
121	0x3f0d56f5	0.5521081
122	0x3f2e4806	0.6807865
123	0x3dc1d8fd	0.09465215
124	0x3f63d437	0.8899569
125	0x3f41ce47	0.7570538
126	0x3f0946ce	0.53623664
127	0x3e5e09cd	0.21683426

net.9.bias f4 [128]
0	0xbbb5c417	-0.0055470574
1	0xbdeb5627	-0.11491042
2	0xbd5ee620	-0.054418683
3	0xbd5c1fc3	-0.053741228
4	0xbd25c786	-0.040473484
5	0xbc74310c	-0.014904272
6	0xbc97f03a	-0.018547166
7	0x3cdc2227	0.026871754
8	0xbd07e40c	-0.033176467
9	0x3baf2c61	0.0053458665
10	0xbd564f71	-0.052321855
11	0xbd4cb754	-0.049979523
12	0xbda0cb37	-0.0785126
13	0x3ad1d9ea	0.0016010378
14	0xbcf41b31	-0.029798122
15	0xbcd3330d	-0.025781179
16	0xbcf8fea0	-0.030394852
17	0xbcc48f98	-0.023994252
18	0xbd0dd964	-0.034631148
19	0xbc77e06f	-0.015129193
20	0xbd01b349	-0.03166512
21	0xbd907142	-0.07052852
22	0xbd13f31f	-0.03612053
23	0xbd771e95	-0.0603319
24	0xbd3b88e7	-0.045784857
25	0x3c261405	0.010136609
26	0x3c3032d5	0.010754307
27	0xbd794ff5	-0.06086727
28	0x3d964e45	0.073391475
29	0xbcb98620	-0.022646964
30	0xbd249f60	-0.040191054
31	0xbd38b10f	-0.04509073
32	0x3d1951f7	0.037431683
33	0x3d0c5818	0.0342637
34	0xbd37125d	-0.044695247
35	0xbdc76059	-0.09735174
36	0xbd10f159	-0.035386417
37	0x3c46faa6	0.01214472
38	0xbd2386f5	-0.039923627
39	0xbd7bf1b2	-0.061509795
40	0xbd0b4a04	-0.034006134
41	0xbd2ce4d1	-0.042210404
42	0xbc27b91e	-0.0102370065
43	0x3bdbc35c	0.0067066383
44	0xbd3db7eb	-0.046317976
45	0xbc6d409e	-0.014480738
46	0xb9915e33	-0.0002772674
47	0xbd19ed37	-0.03757974
48	0xbcdf24e1	-0.027239265
49	0x3d1e2f35	0.03861924
50	0x3b6351be	0.0034686173
51	0xbcaa9c16	-0.02082638
52	0xbc1f38ad	-0.009718102
53	0xbd846f11	-0.06466497
54	0x3cc5df52	0.024154339
55	0xbd543028	-0.051803738
56	0xbd1865a4	-0.037206307
57	0xbda468b2	-0.080277815
58	0x3af4df94	0.0018682354
59	0xbd1a1615	-0.037618715
60	0xbb575d51	-0.0032862017
61	0xbcd90534	-0.026491739
62	0xbd94ff5e	-0.0727527
63	0x3d1d9d6a	0.0384802
64	0x3d2b8985	0.041879196
65	0xbc973bf4	-0.018461205
66	0xbd033573	-0.032033395
67	0xbd128a97	-0.0357767
68	0xbc96c791	-0.018405708
69	0xbca2e683	-0.019885307
70	0x3a10d640	0.000552509
71	0xbd78785e	-0.060661666
72	0xbd74abf5	-0.059734304
73	0x3d1808fc	0.037117943
74	0xbd3b1372	-0.04567284
75	0xbd54eb82	-0.05198241
76	0x3d0d5447	0.0345042
77	0x3cfa889e	0.030582722
78	0x3cfc5fc8	0.03080739
79	0x3c1df74b	0.009641479
80	0xbd50afa7	-0.050948765
81	0x3a8cce96	0.001074272
82	0xbd803fd1	-0.06262172
83	0xbd006457	-0.03134569
84	0x3c2b42c8	0.010452934
85	0xbd29b459	-0.04143176
86	0xbdac2adc	-0.08406612
87	0xbd63a9cc	-0.055581853
88	0xbdad19dd	-0.08452199
89	0xbd409b1a	-0.047022916
90	0xbd378392	-0.04480321
91	0xbb47cb25	-0.0030486074
92	0xbcb1827f	-0.02166867
93	0x3c5a9d67	0.013343192
94	0xbd6f50bb	-0.0584266
95	0x3ce4f3a3	0.027948206
96	0xbd2d72a5	-0.04234566
97	0xbd94bd97	-0.07262724
98	0xbd180ff8	-0.037124604
99	0xbd1ccaef	-0.03827947
100	0xbcd0818c	-0.025452398
101	0xbdb0aa06	-0.086261794
102	0x3d3fec4a	0.046856202
103	0xbd3a9675	-0.045553643
104	0xbd1ca745	-0.03824546
105	0xbd3437df	-0.043998595
106	0xbd87d748	-0.066328585
107	0xbd3c5d79	-0.04598758
108	0xbba14905	-0.0049220347
109	0xbd5de40c	-0.05417256
110	0xbd4188e4	-0.04724969
111	0xbce01365	-0.027352998
112	0xbd249e27	-0.04018989
113	0x3caacbb9	0.020849096
114	0xbe2e0751	-0.16994978
115	0xbccfc65d	-0.025363142
116	0xbc8e6335	-0.01738129
117	0xbd3b2161	-0.04568613
118	0x3c497030	0.012294814
119	0xbcb56804	-0.022144325
120	0xbd2ac65f	-0.041693088
121	0xbc1d75ad	-0.009610576
122	0xbd14fca7	-0.03637376
123	0xbcd28e07	-0.02570249
124	0xbd045be8	-0.03231421
125	0xbde0f076	-0.10983364
126	0xbd19b585	-0.037526626
127	0xbdc645f3	-0.096813105
