D_A.pth (torch_old, 401728 bytes, 21 tensors)

net.0.weight f4 [16, 3, 3, 3]
0	0xbd0928f9	-0.03348634
1	0xbe17677f	-0.14785574
2	0x3e483fcc	0.19555587
3	0x3baa9973	0.005206281
4	0xbdfa8422	-0.122322336
5	0xbddc249a	-0.10749169
6	0x3dac2b48	0.08406693
7	0x3e1bef1a	0.15227929
8	0x3ca3119c	0.019905858
9	0x3da99ee5	0.0828226
10	0xbdcab4e6	-0.09897785
11	0xbd8fa9e8	-0.07014829
12	0x3dc7e9db	0.09761401
13	0xbd11a176	-0.03555437
14	0xbda7cd33	-0.081934355
15	0xbdfce1e6	-0.12347774
16	0xbda75e31	-0.081722625
17	0x3dc9a4ee	0.09845911
18	0x3e11a196	0.14221796
19	0x3e40fa4d	0.18845482
20	0xbe00f34f	-0.12592815
21	0x3c76cd77	0.015063635
22	0x3e1064db	0.14100973
23	0xbd331894	-0.04372461
24	0xbdf40f4a	-0.11916979
25	0xbe1621e3	-0.14661364
26	0x3d9d1fd8	0.07672089
27	0x3e0ab9a8	0.13547385
28	0x3e0e869a	0.13918534
29	0x3d4c961b	0.04994784
30	0x3da9206f	0.08258139
31	0x3d236920	0.039895177
32	0xbe1f4253	-0.15552644
33	0xbe03a8d1	-0.12857367
34	0x3e03d3af	0.1287372
35	0x3d6237d3	0.05522902
36	0xbe07b911	-0.13254191
37	0xbcf8dfd5	-0.030380169
38	0x3e18ab43	0.14909081
39	0x3d5868ed	0.05283444
40	0x3d7a0fd5	0.061050255
41	0x3e39ca6b	0.18143623
42	0xbd90d536	-0.07071917
43	0xbcfcc858	-0.03085725
44	0x3de29c35	0.110649504
45	0x3dc3317f	0.09530925
46	0x3d666eb0	0.056257904
47	0x3e2ff51f	0.1718335
48	0x3e0d0785	0.137724
49	0xbdda40aa	-0.10656865
50	0x3d9cdbe5	0.07659129
51	0x3e30c6a2	0.17263272
52	0xbde3dc0f	-0.11125957
53	0xbd015985	-0.031579513
54	0x3af5bcad	0.0018748246
55	0xbda7dd29	-0.0819648
56	0x3da44e24	0.08022717
57	0x3d79739b	0.060901266
58	0xbbda85cc	-0.006668782
59	0x3d185f2f	0.03720015
60	0xbe357b08	-0.17722714
61	0xbdf96e8c	-0.12179288
62	0x3d2e8684	0.042608753
63	0x3cd26828	0.025684431
64	0xbe3d36a5	-0.18477876
65	0xbe3bd9b9	-0.18344773
66	0x3b08ad15	0.0020855118
67	0xbe151acb	-0.14561002
68	0xbdca1074	-0.098664194
69	0xbd2a330d	-0.041552592
70	0xbe2f9cab	-0.17149608
71	0xbd5ea1b3	-0.054353427
72	0x3d7d1cc6	0.06179502
73	0xbe31dda0	-0.173697
74	0xbb881c67	-0.0041537764
75	0x3dc511f5	0.09622566
76	0x3db46317	0.088079624
77	0x3d20da13	0.03927047
78	0xbe12f71e	-0.1435208
79	0xbe1459a7	-0.14487325
80	0x3e1ced57	0.15324913
81	0xbdd5726c	-0.10422215
82	0x3c8ab44f	0.016931681
83	0x3dfbb635	0.122906126
84	0x3dd89789	0.10575778
85	0xbe06ef5b	-0.13177244
86	0xbd2608e2	-0.040535815
87	0x3dcc1a09	0.09965903
88	0x3dc62eb4	0.09676877
89	0xbc668b0a	-0.014071235
90	0xbd52a047	-0.051422384
91	0xbdb05305	-0.08609585
92	0x3afda04e	0.0019350143
93	0x3d985e7a	0.07439895
94	0x3ce53e89	0.02798392
95	0xbe1e3613	-0.15450315
96	0x3e3cafa6	0.1842638
97	0xbd9cc6a1	-0.07655073
98	0xbe0a6cf8	-0.13518131
99	0x3dd5ce89	0.10439784
100	0x3e0577d6	0.13033995
101	0x3e3c3b4f	0.18382
102	0x3d18e989	0.03733209
103	0xbda6176d	-0.08109937
104	0xbe17a2ba	-0.14808169
105	0x3d1de996	0.038552843
106	0x3d6d09d1	0.05787069
107	0x3d6dcf11	0.058058802
108	0x3de198c5	0.110154666
109	0x3d9e00eb	0.07715019
110	0x3df3d3a0	0.11905599
111	0xbd61a3c7	-0.05508783
112	0x3dc874c4	0.09787896
113	0xbd31ba57	-0.0433906
114	0xbdf4f057	-0.11959904
115	0x3e1aaf17	0.15105854
116	0x3e0f481f	0.13992356
117	0xbcc0e05a	-0.02354448
118	0xbe306554	-0.17226154
119	0x3e217e5e	0.15770862
120	0x3caa8b65	0.020818422
121	0xbd963af6	-0.07335465
122	0x3e39def0	0.1815145
123	0x3d17c58a	0.037053622
124	0xbdaf0350	-0.08545554
125	0xbd1ccaae	-0.038279228
126	0x3df71a92	0.12065615
127	0xbe096cf4	-0.13420469
128	0x3cc59981	0.024121048
129	0xbe1a4d3f	-0.1506853
130	0x3e1f2e77	0.15545069
131	0x3dc0055e	0.09376024
132	0xbe2249a5	-0.15848406
133	0x3dd9d661	0.10636593
134	0x3e2f69ef	0.17130254
135	0x3dea96c5	0.11454538
136	0x3d87178e	0.065962896
137	0xbe35be16	-0.17748293
138	0x3c6fddbc	0.014640268
139	0x3d72db01	0.05929089
140	0x3dfa3f22	0.12219073
141	0x3dec496f	0.11537444
142	0x3de94ac6	0.11391215
143	0xbd5f00cf	-0.05444413
144	0x3e0c4b7d	0.13700671
145	0xbd7ca1f3	-0.061677884
146	0x3dad6ac1	0.08467627
147	0xbe35a2dd	-0.17737909
148	0xbd7f2f2c	-0.062300846
149	0xbdb74bd1	-0.08950008
150	0x3e21154f	0.15730785
151	0xbd53a51b	-0.05167113
152	0xbdf98b6f	-0.12184798
153	0xbb8f1f80	-0.0043677688
154	0x3d961e39	0.07329983
155	0x3e4072f4	0.18793851
156	0xbdea1c2e	-0.11431156
157	0x3d8b135a	0.067908004
158	0xbcb243f4	-0.021760918
159	0x3e0121ae	0.12610504
160	0xbe20cded	-0.15703554
161	0x3e2d5533	0.16927032
162	0xbd8cec35	-0.068809904
163	0x3dc621b2	0.096743956
164	0x3e0daae0	0.13834715
165	0x3dc43550	0.09580481
166	0x3e0a6672	0.13515642
167	0xbe329c49	-0.1744243
168	0xbddf75b9	-0.10911126
169	0x3deafb55	0.11473719
170	0x3e29f62e	0.16597816
171	0xbe1a0e53	-0.15044527
172	0x3dd36b36	0.10323183
173	0xbcd4d9ef	-0.025982825
174	0x3e386c20	0.18009996
175	0x3e2cd9c8	0.16879952
176	0xbd230829	-0.039802704
177	0x3d461fd5	0.0483702
178	0x3e03a923	0.1285749
179	0xbd5cdcbe	-0.053921454
180	0x3de09bf8	0.10967249
181	0xbddb6cfd	-0.10714147
182	0x3e225849	0.1585399
183	0x3e0e6f47	0.13909636
184	0xbd3a333a	-0.04545901
185	0xbcf46071	-0.029831143
186	0x3e08cf34	0.13360292
187	0x3e282032	0.16418532
188	0x3acd7670	0.0015675556
189	0x3e3543c8	0.17701638
190	0x3d47fabc	0.048823103
191	0x3dda78ce	0.10667573
192	0x3cff39f7	0.03115557
193	0xbba72b82	-0.005101622
194	0x3e1b799d	0.1518311
195	0xbe3c86b4	-0.1841076
196	0x3e24dd83	0.16100125
197	0xbde81106	-0.11331372
198	0x3dee5708	0.11637694
199	0x3cee3833	0.029079532
200	0xbcc1f2e8	-0.023675397
201	0xbde224fb	-0.1104221
202	0xb91256ed	-0.00013956027
203	0xbde6db87	-0.1127234
204	0xbddb1283	-0.1069689
205	0x3d1ed7a5	0.038779873
206	0xbe1be60c	-0.15224475
207	0xbd222475	-0.03958555
208	0x3d8767fa	0.06611629
209	0xbd23ce0d	-0.039991427
210	0xbc541283	-0.012943867
211	0x3dce6433	0.10077705
212	0xbcb8738b	-0.022516033
213	0x3d5916a0	0.053000093
214	0xbe20fc76	-0.15721306
215	0x3df27479	0.11838622
216	0xbe3726ef	-0.17885946
217	0xbc8620a0	-0.016372979
218	0xbc333f3f	-0.010940372
219	0xbd9a5061	-0.07534862
220	0x3e1620de	0.14660975
221	0x3d95269a	0.07282753
222	0xbdd16da9	-0.10225994
223	0x3d917efd	0.07104299
224	0x3e098451	0.13429381
225	0x3e130bde	0.14359996
226	0x3dc57d42	0.09643032
227	0xbd8e88aa	-0.0695966
228	0x3e1575a5	0.14595659
229	0x3e3d5a1e	0.18491408
230	0xbbdfbc5f	-0.0068278755
231	0xbe14e044	-0.14538676
232	0x3e0a2c61	0.13493492
233	0x3d65241b	0.055942636
234	0x3e06ec11	0.1317599
235	0x3e0f2982	0.13980678
236	0xbd8ad22f	-0.067783706
237	0xbd623bae	-0.055232696
238	0x3e05919d	0.13043828
239	0x3e3e933e	0.18610856
240	0xbe336366	-0.17518386
241	0xbda2a219	-0.07941074
242	0xbcc88785	-0.024478683
243	0xbe04c5de	-0.12966105
244	0xbe34f55a	-0.17671719
245	0xbe489c7a	-0.19590941
246	0x3a4428bd	0.0007482877
247	0xbdc219c8	-0.09477574
248	0x3cf802d3	0.030274784
249	0x3dfa466d	0.12220464
250	0x3de3651f	0.11103272
251	0xbc76c9f0	-0.015062794
252	0x3d8397bc	0.064254254
253	0xbd21b541	-0.039479498
254	0xbdbab0e1	-0.09115768
255	0xbd3b7d2b	-0.045773666

net.0.bias f4 [16]
0	0x3e49beba	0.19701663
1	0xbd80fda0	-0.06298375
2	0xbb652ddb	-0.003496996
3	0x3e44c124	0.19214302
4	0xbd998d7b	-0.074976884
5	0x3da4371b	0.08018323
6	0x3cffc247	0.031220568
7	0xbdf1263f	-0.11774873
8	0x3e1179ee	0.14206669
9	0xbdd51ce1	-0.10405899
10	0x3e4d968d	0.20076962
11	0xbdb42411	-0.087959416
12	0xbe304e90	-0.17217469
13	0xbdf9580f	-0.12174999
14	0xbe51bf9d	-0.20483251
15	0xbe39ff75	-0.18163855

net.2.weight f4 [32, 16, 3, 3]
0	0xbc899959	-0.016796755
1	0xbd59d00a	-0.053176917
2	0x3d09f8fb	0.033684712
3	0xbd75889d	-0.059944738
4	0x3d78eab8	0.06077072
5	0xbdbdfb32	-0.09276427
6	0x3cecd703	0.02891112
7	0x3d2a85f4	0.041631654
8	0x3d0c3f50	0.034240067
9	0x3b7fe9b4	0.003904921
10	0xbd2e9d00	-0.042630196
11	0x3c8af4c6	0.01696242
12	0x3c84ba12	0.016202006
13	0xbcdf3827	-0.027248455
14	0xbd42610e	-0.04745584
15	0xbcafc71e	-0.021457251
16	0xbd07214b	-0.032990735
17	0xbd0c5b5a	-0.034266807
18	0xbd82c28b	-0.063847624
19	0xbcb8754a	-0.022516865
20	0xbd469145	-0.048478384
21	0xbd6eec55	-0.058330853
22	0x3d5c9946	0.05385711
23	0xbd261245	-0.040544767
24	0xbaaf4fa7	-0.0013375179
25	0xbd81f9a9	-0.06346447
26	0x3d822c51	0.06356109
27	0xbd94351d	-0.07236693
28	0xbdbe124a	-0.09280832
29	0x3d36e45d	0.044651378
30	0xbc90c578	-0.017672285
31	0xbb9d63fc	-0.004803179
32	0xbc1571f3	-0.009121406
33	0xbd040457	-0.0322307
34	0x3d2348f4	0.039864495
35	0xbcf8da04	-0.030377395
36	0xbd8b2c6c	-0.06795582
37	0xbcd261fc	-0.025681488
38	0x3d823bb4	0.06359044
39	0xbd80ae62	-0.06283261
40	0x3d000bb8	0.031261176
41	0x3caa5342	0.020791654
42	0xbd055e3b	-0.03256057
43	0xbcb58e1c	-0.02216249
44	0x3d34c9ad	0.044137646
45	0x3cd6b228	0.026207998
46	0xbd6a5acc	-0.057215497
47	0x3d35335b	0.04423843
48	0xbda03946	-0.07823424
49	0x3d98c510	0.07459462
50	0xbccf0ab0	-0.02527365
51	0x3da06868	0.07832414
52	0x3d8625a2	0.06550147
53	0x3cfe0958	0.031010315
54	0xbb8a9ab8	-0.0042298697
55	0x3c97de7a	0.018538702
56	0xbd6ff424	-0.05858244
57	0xbd92e7a8	-0.07173091
58	0xbc3b4bfd	-0.011431691
59	0xbcdfeee7	-0.027335597
60	0xbd18e72c	-0.037329838
61	0xbcd7eb6e	-0.026357379
62	0x3d67199e	0.056420915
63	0x3d873a59	0.06602926
64	0x3d90863d	0.07056854
65	0x3c766223	0.015038046
66	0xbc438201	-0.011932851
67	0xbaa9b734	-0.0012948276
68	0xbc88cef7	-0.016700251
69	0x3d9e782a	0.07737763
70	0x3c0378b3	0.008024382
71	0xbd61c6e1	-0.055121306
72	0x3bbeb477	0.005819853
73	0xbc7ad38e	-0.015309228
74	0x3d5e587e	0.05428361
75	0xbadc5d7f	-0.0016812532
76	0xbc9ee13b	-0.019394508
77	0xbd5dda22	-0.054163106
78	0x3dbbb40a	0.09165199
79	0x3c184010	0.009292617
80	0x3d8faadc	0.07015011
81	0x3c54573f	0.012960254
82	0xbd17d361	-0.03706682
83	0x3d353447	0.04423931
84	0x3c47ccc9	0.012194821
85	0xbad65757	-0.0016352934
86	0x3b95db58	0.004573267
87	0x3c1bb3bd	0.009503302
88	0xbd1eafe0	-0.038741946
89	0xbd3189eb	-0.04334442
90	0x3d9e1452	0.077187195
91	0xbd7df5d1	-0.062002007
92	0xbd347094	-0.044052675
93	0xbda8fb20	-0.08251023
94	0xbd5abe90	-0.05340439
95	0x3d570f1a	0.052504636
96	0x3d8ef500	0.06980324
97	0x3d780967	0.06055584
98	0x3d9e6aa8	0.07735187
99	0x3d2197ed	0.03945153
100	0xbd695127	-0.05696216
101	0xbc96bd77	-0.01840089
102	0x3ccc639e	0.024949845
103	0x3ca43cd3	0.020048534
104	0xbd658218	-0.05603227
105	0xbd875e44	-0.066097766
106	0xbd9a4e69	-0.07534487
107	0xbd49d8e4	-0.04927911
108	0xbd4455ed	-0.047933508
109	0xbcb035eb	-0.021510085
110	0x3d29e7e7	0.041480925
111	0xbd932651	-0.07185043
112	0xbd95eb0d	-0.07320223
113	0x3c11fda6	0.008910572
114	0x3d131d6f	0.035916742
115	0xbca69f42	-0.020339612
116	0x3d07ce05	0.03315546
117	0xbd40c256	-0.047060333
118	0x3c084ff8	0.008319847
119	0xbc005861	-0.007833571
120	0x3c037262	0.008022876
121	0x3d9d7cf2	0.07689847
122	0x3d64d3ae	0.055865936
123	0xbd4ee9bc	-0.050515875
124	0x3c8ec31b	0.017427018
125	0xbc0de092	-0.008659499
126	0xbb187a83	-0.0023266382
127	0xbda6ae6d	-0.08138738
128	0x3b8242d2	0.0039752508
129	0x3ce85268	0.028359607
130	0x3d65ed99	0.056134794
131	0x3be1ee61	0.006894872
132	0xbd9347db	-0.0719144
133	0x3d990a1e	0.07472633
134	0x3c99bf21	0.018767895
135	0x3da0c99e	0.078509554
136	0x3d24741a	0.040149786
137	0x3d27fbaf	0.04101151
138	0xbc37953b	-0.011205013
139	0x3d6a8a80	0.05726099
140	0x3d5fc2b0	0.054629028
141	0xbd83e944	-0.06440976
142	0xbd2b1016	-0.041763388
143	0x3c96e763	0.01842088
144	0xbd1e1278	-0.038591832
145	0xbd2fcb9d	-0.04291879
146	0x3d04c7b5	0.032417018
147	0x3c8800c7	0.016601933
148	0xbd8355ea	-0.06412871
149	0xbd4b7394	-0.04967077
150	0x3c5bf15a	0.013424242
151	0x3d505a35	0.050867278
152	0xbd330f4b	-0.043715756
153	0xbd13bc33	-0.036068153
154	0xbd3f6c51	-0.046734158
155	0xbca43946	-0.020046841
156	0x3d3664e4	0.04452981
157	0xbd9d3d4c	-0.07677707
158	0x3bed0815	0.0072336295
159	0xbcdcb55b	-0.026941946
160	0xbdb6f61e	-0.08933662
161	0xbbf82bbd	-0.0075735734
162	0xbcbe9778	-0.023265585
163	0xbd5b5398	-0.053546518
164	0x3db21678	0.08695692
165	0xbc88a149	-0.01667847
166	0xbd7cf72e	-0.061759166
167	0x3d14abce	0.03629666
168	0xbd1364ef	-0.03598493
169	0x3d301bac	0.04299514
170	0x3d95f68b	0.07322415
171	0xbd8651cd	-0.06558571
172	0x3c5a3909	0.013319262
173	0xbb800afe	-0.0039075604
174	0xbd85adfb	-0.06527325
175	0x3ce360d0	0.027756125
176	0xbc160690	-0.009156838
177	0xbc4abb73	-0.012373793
178	0xbd967855	-0.0734717
179	0x3c8b474a	0.017001767
180	0xbb73c4fc	-0.003719627
181	0x3ca2eecb	0.019889256
182	0xbd0be13c	-0.034150347
183	0xbd444d81	-0.047925476
184	0x3d73b4f3	0.05949874
185	0xbda87adc	-0.082265586
186	0x3c87b03d	0.01656353
187	0x3cd015ad	0.02540096
188	0xbd1f5207	-0.038896587
189	0xbd8b09b1	-0.06788958
190	0xbd5445e8	-0.05182448
191	0x3c841aed	0.01612612
192	0x3b803c73	0.003913456
193	0x3c3cef0b	0.011531602
194	0xbcb791cf	-0.022408394
195	0x3d8fc1b2	0.07019366
196	0x3ccb566c	0.024821483
197	0xbc49cfa8	-0.0123175755
198	0x3d9fa81d	0.07795737
199	0xbda7113e	-0.081575856
200	0xbdad7ee6	-0.084714696
201	0xbd8a7810	-0.06761181
202	0xbc2c9e40	-0.010535777
203	0xbc9be96d	-0.019032205
204	0x3d6abfed	0.05731194
205	0xbd080701	-0.033209804
206	0xbd7ac77d	-0.061225403
207	0x3d9019bb	0.07036158
208	0xbb6e07f1	-0.0036320651
209	0xbcd140f8	-0.025543675
210	0x3bd8071f	0.006592646
211	0x3d8ac2eb	0.06775459
212	0x3d8420eb	0.06451591
213	0x3d8ad653	0.0677916
214	0xbda46e6b	-0.08028873
215	0xbcd141fd	-0.025544161
216	0x3cb36972	0.021900866
217	0x3c0b130f	0.008488431
218	0xbc1a0b88	-0.009402163
219	0xbdc65e9e	-0.096860155
220	0x3b0cb4cc	0.0021470068
221	0x3c5774e4	0.0131504275
222	0x3d0cd5a8	0.034383446
223	0x3d82ef32	0.06393279
224	0x3d4a67a4	0.049415246
225	0xbd8e2689	-0.06940944
226	0x3d591fbd	0.053008784
227	0x3c5202ce	0.0128180515
228	0x3d9ab970	0.07554901
229	0xbbe2c3fa	-0.006920335
230	0x3c9d334e	0.019189503
231	0x3d9ac902	0.075578704
232	0xbd364d19	-0.04450712
233	0x3cccf9f0	0.025021523
234	0xbcac7369	-0.021051126
235	0x3cd7d388	0.026345983
236	0x3d26cdc6	0.040723585
237	0xbd9cfcc8	-0.07665402
238	0xbda1543c	-0.078773946
239	0x3c856d14	0.016287364
240	0x3d8c3af8	0.06847185
241	0xbd3c23b6	-0.045932494
242	0x3d00bbc6	0.031429075
243	0x3d8bb5a2	0.06821753
244	0xbd94ab2f	-0.07259213
245	0x3d192f6c	0.03739874
246	0x3d801535	0.06254045
247	0x3c93a7f9	0.018024432
248	0xbd583dbe	-0.052793257
249	0x3c1fee18	0.009761356
250	0xbd64142a	-0.055683292
251	0x3aadaa4e	0.0013249607
252	0x3c8d3051	0.017234953
253	0x3d136de7	0.035993483
254	0xbd36b903	-0.044610035
255	0x3d350d10	0.04420191

net.2.bias f4 [32]
0	0x3cbf2013	0.023330724
1	0xbd9fdae9	-0.07805426
2	0xbc143b05	-0.0090472745
3	0x3c6912c0	0.014225662
4	0x3d8c1420	0.06839776
5	0x3c942c96	0.018087666
6	0xbcafd607	-0.02146436
7	0xbd9d4aa2	-0.07680251
8	0xbc386df6	-0.0112566855
9	0xbd5d7bcb	-0.054073136
10	0xbd75fe2a	-0.060056843
11	0xbd8cd625	-0.06876782
12	0xbd9733c4	-0.073829204
13	0xbc8399ea	-0.016064603
14	0xbd418222	-0.047243245
15	0xbacb3026	-0.001550202
16	0xbd786f7f	-0.060653206
17	0xbd223569	-0.039601717
18	0xbd95e914	-0.07319847
19	0x3d9388b2	0.07203807
20	0xbd9aae2c	-0.07552752
21	0xbd8d3d71	-0.06896485
22	0xbcd45a85	-0.02592207
23	0x3d6635d7	0.05620369
24	0xbd359588	-0.044332057
25	0x3c851161	0.016243638
26	0x3d8fc2a7	0.07019549
27	0xbd458fce	-0.048232846
28	0x3d8fe87c	0.07026765
29	0x3c80c10e	0.015717056
30	0x3cf12135	0.02943478
31	0x3d0001b1	0.031251613

net.3.weight f4 [32]
0	0x3ed265c3	0.41093263
1	0x3f0e21d5	0.55520374
2	0x3f1309b5	0.57436687
3	0x3e8a53ba	0.27017003
4	0x3f49a526	0.7876762
5	0x3f08e2a6	0.5347084
6	0x3f7ff3ef	0.9998159
7	0x3f34ed05	0.70674163
8	0x3e976fd9	0.2957752
9	0x3ec975ef	0.3934779
10	0x3f578484	0.8418658
11	0x3e382625	0.17983301
12	0x3f468c21	0.7755757
13	0x3e74ec7f	0.23918341
14	0x3eb0f1a5	0.3455936
15	0x3f0a35d3	0.5398838
16	0x3ebc41ee	0.3676905
17	0x3f63f7b5	0.89049846
18	0x3e1f0d9a	0.15532532
19	0x3f15404c	0.58301234
20	0x3ecf1465	0.40445247
21	0x3ecc8674	0.3994633
22	0x3f2b8282	0.66996014
23	0x3f53c1c0	0.82717514
24	0x3f57d582	0.8431016
25	0x3e0465b5	0.12929423
26	0x3db44106	0.08801465
27	0x3edc939e	0.43081373
28	0x3f05dd43	0.52290744
29	0x3edc1203	0.42982492
30	0x3f04c74a	0.5186659
31	0x3e9f34f3	0.31095085

net.3.bias f4 [32]
0	0x3bc29b65	0.0059389346
1	0x3a548a77	0.0008107791
2	0xbca2680b	-0.019825002
3	0x3b1c1c49	0.002382057
4	0xbc07b779	-0.008283489
5	0xbae8b0df	-0.0017752907
6	0xbbe621ff	-0.0070230956
7	0x3a58e952	0.00082745135
8	0xbbe1fbde	-0.00689648
9	0xbace3527	-0.0015732393
10	0x3b89525e	0.004190727
11	0xb9c8bc2f	-0.0003828718
12	0x3b5e944d	0.0033962906
13	0xbc61f7f8	-0.0137920305
14	0x3a84e806	0.0010139949
15	0xbc8b9bed	-0.017042125
16	0xbc93f9f1	-0.018063517
17	0xbcaa8664	-0.020816036
18	0x3c40b1c1	0.01176113
19	0x3bda2230	0.0066569075
20	0xbb45887d	-0.0030141168
21	0x3bbd222b	0.0057718954
22	0xbb26fd7c	-0.0025480678
23	0xbc74e5f7	-0.014947406
24	0xbc0d9a45	-0.008642738
25	0x3b1783e6	0.002311939
26	0x3c8644ff	0.016390322
27	0xbb48af87	-0.00306222
28	0xbc68f182	-0.014217736
29	0xbad896cd	-0.0016524434
30	0xbc9369ca	-0.01799478
31	0x3bc04f76	0.0058688475

net.3.running_mean f4 [32]
0	0xbcd14863	-0.025547212
1	0xbeb2d182	-0.34925467
2	0xbe5a440f	-0.21315025
3	0xbe1332b8	-0.14374816
4	0x3e2921a3	0.16516738
5	0xbe38b2d0	-0.18036962
6	0x3de83c16	0.113395855
7	0xbebb6a74	-0.36604655
8	0xbd9fcff8	-0.07803339
9	0xbe5fc940	-0.21854115
10	0x3eac19de	0.33613485
11	0xbd8159da	-0.06315966
12	0xbe5565c7	-0.20839606
13	0xbdbec986	-0.09315781
14	0xbdca78dc	-0.09886333
15	0xbdb21941	-0.08696223
16	0xbe4f2b3d	-0.20231338
17	0x3dd20c8e	0.10256301
18	0xbdd11d96	-0.10210721
19	0x3eca90ce	0.39563602
20	0xbe3580af	-0.1772487
21	0xbe7156df	-0.23568295
22	0x3e314ac5	0.17313679
23	0x3d77548b	0.06038336
24	0xbd53805c	-0.051636085
25	0x3f088b97	0.53338
26	0x3e1966a5	0.14980562
27	0xbe3fe4f0	-0.18739676
28	0x3d66fae2	0.056391604
29	0x3eb4cc78	0.35312247
30	0xbb8696d2	-0.0041073347
31	0x3e2ed747	0.1707431

net.3.running_var f4 [32]
0	0x3b1b1f0a	0.0023669624
1	0x3bbeaa84	0.005818667
2	0x3bbbdba3	0.00573297
3	0x3a84ce9e	0.0010132378
4	0x3ae71da8	0.001763274
5	0x3bb0fcda	0.005401236
6	0x3a890eb2	0.001045665
7	0x3bb00ef9	0.0053728786
8	0x3ae4936a	0.0017438952
9	0x3b899f42	0.004199893
10	0x3c0a063d	0.008424339
11	0x3af8d108	0.0018983195
12	0x3b214711	0.002460901
13	0x3b16cd00	0.0023010373
14	0x3aaf1265	0.0013356922
15	0x3a41d1ec	0.00073936465
16	0x3aed9c42	0.0018128233
17	0x3b999b2b	0.004687687
18	0x3ab6bd32	0.0013941883
19	0x3c12d74d	0.0089624645
20	0x3afbb7f6	0.0019204605
21	0x3b14ba12	0.0022693914
22	0x3b283866	0.0025668382
23	0x3af6c0d4	0.0018825778
24	0x3ad20355	0.0016022722
25	0x3c9737ce	0.018459227
26	0x3ab2728f	0.0013614463
27	0x3adb4f1a	0.0016731948
28	0x3afcf923	0.0019300323
29	0x3c0c2420	0.008553535
30	0x3a7a3e53	0.000954603
31	0x3ac79ff8	0.001523017

net.5.weight f4 [64, 32, 3, 3]
0	0x3ca5c5f6	0.020235997
1	0xbc4cbf68	-0.012496807
2	0x3d4f80ea	0.05066005
3	0x3b34b968	0.002757633
4	0xbd08e22b	-0.033418816
5	0xbce48e82	-0.027899984
6	0xbd6a18dd	-0.057152618
7	0xbd4cf1dc	-0.050035343
8	0x3c92206f	0.017837731
9	0xbcc23ad0	-0.023709685
10	0xbcda4d24	-0.026648112
11	0x3cb82f4b	0.022483489
12	0x3d37eb53	0.044902157
13	0xbbaca2a9	-0.005268414
14	0x3be650a4	0.007028656
15	0x3d324fe5	0.043533225
16	0xbd15b1d8	-0.03654656
17	0xbd3980cc	-0.045288846
18	0x3d2dfab9	0.042475436
19	0xbbc658e1	-0.0060530757
20	0x3b51a9a0	0.0031991974
21	0xbd15caa8	-0.03657022
22	0x3c653064	0.013988588
23	0xbc8d9f26	-0.017287802
24	0xbd2112b7	-0.03932449
25	0xbd733366	-0.05937519
26	0x3d65fc56	0.05614885
27	0x3d3fb7cd	0.046806145
28	0x3c9633de	0.01833528
29	0x3d1de7bd	0.03855108
30	0x3d00a374	0.03140588
31	0xbca51112	-0.020149741
32	0x3a028c76	0.0004980037
33	0xbcc1dd8d	-0.023665214
34	0xbd2b103f	-0.04176354
35	0xbd74ca9c	-0.059763536
36	0x3c3f0eb6	0.011661222
37	0x3d267662	0.040640242
38	0xbbf15c2d	-0.0073657245
39	0xba6113e1	-0.0008586031
40	0xba764b56	-0.0009395381
41	0xbc22c505	-0.009934668
42	0x3cefce71	0.029273244
43	0x3d38d847	0.045128133
44	0xbd0c1314	-0.03419788
45	0x3baf3286	0.005346599
46	0xbc55b637	-0.013043932
47	0x3c8c2c3c	0.017110936
48	0xbd721b03	-0.05910779
49	0xbd511a7f	-0.05105066
50	0x3cd89ac2	0.026440982
51	0xbd303709	-0.043021236
52	0x3c948956	0.018131893
53	0xbcaa3cf6	-0.020781022
54	0xbd461d26	-0.048367642
55	0xbd0a178a	-0.033713855
56	0x3cc20b47	0.023687018
57	0x3c0df57d	0.008664486
58	0x3ca72e05	0.020407686
59	0x3c9c78d3	0.019100582
60	0xbc09f7af	-0.008420869
61	0x3cafbc04	0.021451958
62	0xbd65a252	-0.056063004
63	0xbcd1e770	-0.025623053
64	0xbd301452	-0.04298813
65	0xbc0903af	-0.008362695
66	0xbd0ec493	-0.034855437
67	0x3cdf1eb2	0.027236316
68	0x3ccfaae6	0.025350045
69	0xbd472e71	-0.048628274
70	0x3bd5ff54	0.0065306816
71	0x3cfedb0e	0.031110313
72	0xbd2bf4a0	-0.04198134
73	0x3cf328b2	0.029682491
74	0xbc51e5cf	-0.012811138
75	0xbc47c4dc	-0.012192931
76	0x3d286eb4	0.0411212
77	0xbbc519f4	-0.0060150567
78	0x3a84b3fb	0.0010124439
79	0xbcbb95d1	-0.022898586
80	0x3b8bc1c9	0.0042650444
81	0x3d28a64f	0.04117423
82	0x3caf3c0c	0.021390937
83	0xbd124c5a	-0.035717346
84	0x3d37d091	0.04487664
85	0x3d547a3d	0.051874388
86	0x3cdcd0ec	0.02695509
87	0x3c71b378	0.014752261
88	0xba65496e	-0.00087465986
89	0x3d03b141	0.032151464
90	0xbd097fbe	-0.03356909
91	0xbd292ad4	-0.04130061
92	0x3bf696f7	0.0075253206
93	0x3be415a0	0.0069605857
94	0x3d31c1d5	0.043397743
95	0x3c4f2bf8	0.01264476
96	0xb871186f	-5.7481633e-05
97	0xbd8371f1	-0.06418217
98	0xbc32fd78	-0.0109246895
99	0xbd826094	-0.06366077
100	0xbc21be45	-0.009872024
101	0xbc74b4f9	-0.014935725
102	0xbd120ccd	-0.03565674
103	0xbbb6f7ae	-0.005583725
104	0x3c43b3d0	0.011944726
105	0xbc59ce77	-0.013293854
106	0x3b5214c4	0.0032055834
107	0xbd0f59a1	-0.034997586
108	0x3d00f40e	0.03148275
109	0x3d2104e0	0.03931129
110	0x3cc8d3c9	0.02451505
111	0x3c1df9cf	0.009642079
112	0x3c65a5db	0.014016594
113	0xbd4db7df	-0.05022418
114	0x3ccb3ac7	0.0248083
115	0xbd5b7bb8	-0.053584784
116	0x3cd6fa1d	0.02624231
117	0xbc807e16	-0.015685122
118	0xbcdecb00	-0.027196407
119	0xbc692d2b	-0.01423196
120	0xbd83c045	-0.06433157
121	0x3cc5b950	0.024136215
122	0x3c34d762	0.011037679
123	0x3d1dd658	0.038534492
124	0xbcd21c65	-0.025648305
125	0x3d197e56	0.037474
126	0x3c5c425d	0.013443557
127	0xbd0332c0	-0.03203082
128	0x3d87933f	0.06619882
129	0x3d430461	0.047611598
130	0xbd4b0a06	-0.049570106
131	0xbd2e2ef3	-0.042525243
132	0x3d48c5cd	0.049016763
133	0xbd5b6b79	-0.05356929
134	0xbcf032b9	-0.029321061
135	0x3d72a23b	0.059236746
136	0x3c9df6fb	0.019282809
137	0xbc0bbe38	-0.008529238
138	0x3be9f342	0.0071395943
139	0x3cb6b2c1	0.022302033
140	0xbd666546	-0.056248926
141	0x3cb3bb9e	0.021940049
142	0xbd462402	-0.048374183
143	0x3c419950	0.011816338
144	0xbbf7870f	-0.007553942
145	0xbb9e1245	-0.0048239552
146	0xbcd8e9e0	-0.026478708
147	0xbb338567	-0.0027392746
148	0x3c51273d	0.012765703
149	0xbd21301d	-0.039352525
150	0xbd270824	-0.040779248
151	0xbd874f45	-0.06606916
152	0xbc655f05	-0.013999705
153	0x3d149156	0.036271416
154	0xbd2dde02	-0.04244805
155	0x3d4af207	0.04954722
156	0x3c641394	0.013920683
157	0xba828d0f	-0.0009960252
158	0x3b12272f	0.0022301187
159	0xb946b68c	-0.00018950755
160	0x3d1369d8	0.035989612
161	0x3c830509	0.015993612
162	0x3cbce7b6	0.023059707
163	0xbc9183cc	-0.017763041
164	0x3b22059f	0.0024722589
165	0x3d3270e0	0.043564677
166	0xbd680a6e	-0.05665057
167	0xbcf0f848	-0.029415265
168	0xbc8e64dd	-0.01738208
169	0x3d177a08	0.036981612
170	0xbbf4c84d	-0.007470167
171	0xbc706a2e	-0.014673753
172	0x3c8a35d2	0.016871367
173	0xbd3ee516	-0.046605192
174	0x3cea4aa9	0.028600054
175	0x3cdef7af	0.027217714
176	0x3d1ba2ce	0.03799706
177	0xbd5faff1	-0.05461115
178	0xbd1ab669	-0.037771616
179	0xbc867be2	-0.016416494
180	0x3d17cd56	0.037061058
181	0xbd5cdaee	-0.053919725
182	0xbd4abf1d	-0.049498666
183	0xbc91274f	-0.01771894
184	0x3c8b9cc7	0.01704253
185	0x3b09f643	0.0021051324
186	0xbd220de5	-0.039564032
187	0x3d3d1ae1	0.04616821
188	0xbd83f05f	-0.064423315
189	0xbd449562	-0.047994025
190	0xbd6c8be5	-0.0577506
191	0x3ba71938	0.005099442
192	0xbcf7ebef	-0.03026387
193	0xbc6b7fd6	-0.01437374
194	0x3d19f499	0.037586782
195	0xbc833c40	-0.01601994
196	0xbd09851a	-0.0335742
197	0xbd69b74e	-0.05705958
198	0x3c674c64	0.014117334
199	0x3b1e5598	0.0024159905
200	0xbc4117a9	-0.011785426
201	0xbd824c2f	-0.06362187
202	0xbd6634a6	-0.056202553
203	0x3d38632e	0.04501646
204	0xbcb453ff	-0.022012709
205	0xbc4f17be	-0.012639938
206	0xbcf6a12d	-0.030106151
207	0x3a93c763	0.0011274632
208	0xbce038bd	-0.027370805
209	0x3d521183	0.05128623
210	0xbc5e97f5	-0.013586034
211	0x3d5ef116	0.054429136
212	0xbd6216ee	-0.05519765
213	0xbcc3c537	-0.02389775
214	0x3ca1fb4d	0.01977315
215	0x3d4ec829	0.050483856
216	0xbd4af4c1	-0.04954982
217	0x3d0d0cd3	0.03443606
218	0xbd457d71	-0.048215333
219	0xbd70acf7	-0.058758702
220	0xba48e533	-0.0007663548
221	0xbc0931c1	-0.008373679
222	0xbd03391a	-0.03203688
223	0xbb92d546	-0.0044809906
224	0xbd1039e1	-0.035211448
225	0xbd262d46	-0.04057052
226	0x3c81ea26	0.015858721
227	0xbbd5897e	-0.0065166345
228	0x3c0c09e1	0.008547277
229	0xbd4b384a	-0.04961423
230	0x3c97def1	0.018538924
231	0x3d0f951f	0.035054322
232	0x3cdeee70	0.027213305
233	0x3c739e80	0.014869332
234	0xbd4be507	-0.049778964
235	0xbd05767a	-0.03258369
236	0x3c6cc71d	0.014451769
237	0xbc86c72c	-0.016452394
238	0x3c16e71a	0.009210372
239	0x3d4892ba	0.048968054
240	0xbcb59db9	-0.022169935
241	0x3d55c2a1	0.052187566
242	0x3bbbaf21	0.005727664
243	0xbc47debf	-0.012199103
244	0xbd419b50	-0.04726726
245	0x3b441945	0.0029922288
246	0x3ca7f1d6	0.020501059
247	0xbd351fee	-0.044219904
248	0x3d04c76c	0.032416746
249	0xbd7e7725	-0.062125344
250	0x3c097bda	0.008391345
251	0x3d10da7f	0.035364624
252	0xbc92b3b9	-0.017907964
253	0x3c693525	0.014233862
254	0xbbfc65df	-0.0077025737
255	0xbd4ec1de	-0.050477855

net.5.bias f4 [64]
0	0xbce961ef	-0.028489081
1	0x3d304420	0.04303372
2	0x3d2afde1	0.041746024
3	0xbc4142b5	-0.011795689
4	0xbbd7eb08	-0.006589297
5	0xbc7ff879	-0.015623205
6	0xbc45a79d	-0.012063888
7	0xbd3c3a84	-0.045954242
8	0x3d2d8a5d	0.04236828
9	0xbcd06df6	-0.025443058
10	0x3d309d29	0.04311863
11	0x3cf79ff8	0.030227646
12	0xbd129d1f	-0.035794374
13	0x3cb71c03	0.022352224
14	0x3d07551b	0.033040147
15	0x3d5dc5f7	0.054143872
16	0xbd66bd67	-0.056332972
17	0xbd272d35	-0.040814597
18	0xbd39536c	-0.045245573
19	0xbce8ad74	-0.028403021
20	0xbd4baf05	-0.04972746
21	0xbc41c404	-0.011826519
22	0x3c9c56c0	0.019084334
23	0xbd4e1e29	-0.05032173
24	0xbcaa8917	-0.020817323
25	0x3b80962c	0.003924152
26	0xbd63a2fc	-0.055575356
27	0x3cf2c826	0.029636454
28	0x3ce1b8cf	0.027553944
29	0xbce0bf7f	-0.027435062
30	0xbca0733e	-0.019586202
31	0x3d0797e6	0.033103846
32	0xba4844f0	-0.0007639667
33	0x3d399759	0.045310352
34	0x3d09efeb	0.03367607
35	0x3b47a8df	0.0030465645
36	0xbd0c4a32	-0.034250446
37	0x3c89ce6f	0.016822068
38	0xbd1b746f	-0.037952837
39	0x3d5f6872	0.054542966
40	0xbd3b8005	-0.045776386
41	0x3cee1a81	0.029065372
42	0xbc77c2da	-0.01512214
43	0x3d56ac25	0.052410264
44	0xbd0f6eaf	-0.035017665
45	0xbb8353c8	-0.0040077902
46	0xbcc8a030	-0.024490446
47	0xbbe5b35c	-0.0070099067
48	0xbd0514f1	-0.032490674
49	0xbd3f61b3	-0.046724033
50	0x3bb5506e	0.0055332696
51	0x3d1134b4	0.035450652
52	0xbd550cf5	-0.05201431
53	0xbd484c08	-0.048900634
54	0xbb905ceb	-0.004405608
55	0x3d5ce491	0.053928915
56	0x3aae338f	0.0013290512
57	0x3be3fa0e	0.006957299
58	0xbd5b393b	-0.053521376
59	0x3d6c9b5b	0.057765346
60	0x3d112c3f	0.035442587
61	0xbd264549	-0.04059342
62	0x3d517a86	0.051142238
63	0xbd1b1d39	-0.037869666

net.6.weight f4 [64]
0	0x3f7d194e	0.98866737
1	0x3f606283	0.87650317
2	0x3f2e4165	0.68068534
3	0x3f4befcf	0.79662794
4	0x3f0b9b43	0.54533786
5	0x3f5a2a64	0.8522093
6	0x3ea96c84	0.33090603
7	0x3e10b7ab	0.14132564
8	0x3e1269a9	0.14298119
9	0x3f754b83	0.95818347
10	0x3eb4d242	0.35316664
11	0x3e9012f0	0.28139448
12	0x3f3b44bc	0.73151755
13	0x3e0a4d42	0.13506034
14	0x3f6acd3a	0.917194
15	0x3df24e43	0.118313335
16	0x3f5ba657	0.8580069
17	0x3e872693	0.26396617
18	0x3f4faa12	0.8111888
19	0x3f5231b7	0.8210711
20	0x3e887a55	0.26655832
21	0x3f706d27	0.93916553
22	0x3e96bbc0	0.29440117
23	0x3ed45867	0.41473696
24	0x3d95e138	0.07318348
25	0x3f3df941	0.74208456
26	0x3e777e76	0.24169335
27	0x3da83a3c	0.08214232
28	0x3e183d56	0.14867148
29	0x3de39879	0.11113066
30	0x3e26612f	0.1624801
31	0x3e393b3a	0.18089
32	0x3f7cdd87	0.98775524
33	0x3f479993	0.7796871
34	0x3ecbc944	0.3980199
35	0x3e8f7d24	0.28025162
36	0x3f040453	0.515691
37	0x3d297c8b	0.04137854
38	0x3ee32a4f	0.44368216
39	0x3d862e36	0.06551783
40	0x3f0f0f18	0.55882406
41	0x3e819713	0.25310573
42	0x3f73de57	0.9526114
43	0x3ece6704	0.4031297
44	0x3e8f2c4d	0.27963486
45	0x3f104d2c	0.56367755
46	0x3f521a7e	0.82071674
47	0x3d41859e	0.047246568
48	0x3ebd3518	0.3695457
49	0x3f1a1c7f	0.6019973
50	0x3f0105de	0.5039958
51	0x3dd9bd9b	0.106318675
52	0x3f0077b5	0.5018266
53	0x3ed0eadb	0.4080418
54	0x3f7da395	0.9907773
55	0x3f461892	0.7738124
56	0x3f3ac249	0.72952706
57	0x3e8eb80b	0.2787479
58	0x3e504f58	0.20342767
59	0x3f48f4f7	0.78498787
60	0x3f7056d1	0.9388247
61	0x3dec5c62	0.11541058
62	0x3dba43de	0.09094976
63	0x3eb8734a	0.3602546

net.6.bias f4 [64]
0	0xbc2908c7	-0.010317034
1	0xbcbeeb97	-0.023305697
2	0x3ab58ebd	0.0013851743
3	0xbb8f3b15	-0.004371057
4	0xbb1d2d64	-0.0023983354
5	0xbc815758	-0.015788719
6	0x3c3fd73a	0.011709029
7	0xbb05185f	-0.0020308716
8	0x39a3dae1	0.0003125286
9	0xbc928202	-0.017884258
10	0xbaae5961	-0.0013301783
11	0xbbd938be	-0.0066290786
12	0xbbd7ab4e	-0.0065817004
13	0xbc198f3d	-0.00937253
14	0xbc51d5a3	-0.012807283
15	0xbb06849c	-0.0020525819
16	0xbbae939f	-0.0053276564
17	0x3c4ab12c	0.012371343
18	0xbcc7f448	-0.024408475
19	0xbc87425b	-0.016511133
20	0xba72e9fb	-0.0009266433
21	0xbce25810	-0.027629882
22	0xbc00db54	-0.007864792
23	0xba60de3f	-0.0008578039
24	0x3b136498	0.0022490378
25	0xbcb60f31	-0.02222404
26	0xbb358b0d	-0.002770129
27	0x3adb435c	0.0016728449
28	0x3c02056a	0.007935861
29	0xbaeaf1ce	-0.0017924847
30	0x3c2410a3	0.010013732
31	0x3b89f533	0.004210138
32	0xbc1b4680	-0.009477258
33	0xbc46d3ff	-0.012135505
34	0xbba374d6	-0.004988293
35	0xbb0475ff	-0.0020211933
36	0xbc3d2149	-0.01154358
37	0x3cb89c34	0.022535421
38	0xbc1c7710	-0.009549871
39	0x3c083ee9	0.00831578
40	0xbbb786e0	-0.005600795
41	0x383cd9e8	4.5025634e-05
42	0xbce06ef8	-0.027396664
43	0xbc8cc7c3	-0.017185098
44	0x3bb058d9	0.005381685
45	0xbc5ea056	-0.013588032
46	0xbc041086	-0.00806058
47	0x3c0b328a	0.008495936
48	0xbc56fc18	-0.013121627
49	0xbca4cf91	-0.020118507
50	0xbc7b1012	-0.015323656
51	0x3bc63d5c	0.006049795
52	0xbc9420d8	-0.018082067
53	0xbba44ffb	-0.005014417
54	0xbc45d052	-0.012073593
55	0xbca53f4e	-0.020171788
56	0xbb8650b0	-0.004098974
57	0x3c5a0ff1	0.013309465
58	0x3b555130	0.0032549612
59	0xbcc0221c	-0.023453765
60	0xbc13f56f	-0.009030684
61	0x3c34515c	0.011005726
62	0x3c51d901	0.012808085
63	0xbc48fde8	-0.012267567

net.6.running_mean f4 [64]
0	0xbe4a29e4	-0.19742543
1	0x3e3ae9af	0.18253206
2	0xbeb7a6dd	-0.35869494
3	0x3d99779c	0.07493517
4	0x3c01683b	0.007898386
5	0x3e0e04d6	0.13869032
6	0xbe48bf2d	-0.19604178
7	0x3ce043ca	0.027376074
8	0x3def317f	0.116793625
9	0x3e3f555b	0.18684904
10	0x3e2ecff9	0.17071523
11	0x3e1fde44	0.15612131
12	0xbde15947	-0.110033564
13	0x3e5c8ce2	0.21538118
14	0xbd66d32a	-0.056353725
15	0x3e7be812	0.24600247
16	0xbe4b7c37	-0.19871603
17	0xbed4528e	-0.41469234
18	0x3dd3e7d9	0.10346956
19	0x3cdc7e59	0.026915716
20	0x3e3e0e6d	0.1856019
21	0x3e556de3	0.208427
22	0x3d8c9598	0.0686447
23	0xbe3203a4	-0.17384201
24	0x3e74eb02	0.23917773
25	0x3eab14c0	0.33414268
26	0xbcea27c2	-0.028583411
27	0x3e3cf005	0.18450935
28	0xbdd026b4	-0.10163632
29	0xb8dc34be	-0.000105002415
30	0xbedb4429	-0.4282544
31	0x3e3f39db	0.18674414
32	0x3d21ea4a	0.039530076
33	0x3d88ab2f	0.06673276
34	0xbe10cbb8	-0.14140213
35	0x3e310891	0.17288424
36	0x3e03f285	0.12885483
37	0xbd75eaa1	-0.060038213
38	0xbc99f0c6	-0.018791568
39	0x3e425577	0.18977915
40	0xbeea4dff	-0.4576263
41	0x3e1a4309	0.15064634
42	0x3e2c6a8a	0.16837516
43	0x3e16fc23	0.1474462
44	0xbe2285b9	-0.15871324
45	0x3e466ba8	0.19377005
46	0xbd8ebcb4	-0.06969586
47	0xbdccc8bf	-0.09999227
48	0x3e058592	0.13039234
49	0xbc7cb10d	-0.015423072
50	0x3e40f041	0.1884165
51	0x3eb4de49	0.3532584
52	0x3decefba	0.11569162
53	0x3e895a33	0.2682663
54	0xbd53e937	-0.051736083
55	0x3e922dc3	0.28550538
56	0xbe7e517c	-0.24835771
57	0xbed68086	-0.4189493
58	0xbd7e81ab	-0.06213538
59	0x3da1f187	0.07907396
60	0xbe8a39c1	-0.26997188
61	0xbd690a5d	-0.05689465
62	0x3e298c9d	0.16557546
63	0x3de8d8d6	0.11369483

net.6.running_var f4 [64]
0	0x3d0328fb	0.032021504
1	0x3d004051	0.031311337
2	0x3dcb0919	0.099138446
3	0x3d2b907f	0.04188585
4	0x3d94c2e1	0.07263733
5	0x3d356f02	0.04429532
6	0x3d9047bd	0.07044933
7	0x3d06cdc6	0.032911085
8	0x3ca561ed	0.020188296
9	0x3d8e65a8	0.06952983
10	0x3d835143	0.06411984
11	0x3d1e30f3	0.0386209
12	0x3d39392f	0.04522055
13	0x3cd9957f	0.026560543
14	0x3d424d9a	0.047437288
15	0x3cc0d0a5	0.02353699
16	0x3d8d5eec	0.069028705
17	0x3d856c9a	0.06514855
18	0x3d2018a1	0.039085988
19	0x3d2260c1	0.039643053
20	0x3cd76009	0.02629091
21	0x3d3348d9	0.043770645
22	0x3cb0886a	0.021549422
23	0x3d02ff0c	0.031981513
24	0x3cebbb9c	0.028775983
25	0x3d4db386	0.050220035
26	0x3d3ae130	0.04562491
27	0x3cd6100f	0.026130704
28	0x3cf61d01	0.030043127
29	0x3d44b896	0.048027597
30	0x3d9647b2	0.073378935
31	0x3c947624	0.01812274
32	0x3db3200e	0.08746348
33	0x3d0d86fd	0.034552563
34	0x3d804fc2	0.062652126
35	0x3d6f5f5e	0.05844056
36	0x3d245a97	0.040125456
37	0x3ce243cd	0.02762022
38	0x3cd34459	0.025789427
39	0x3c749078	0.014927022
40	0x3d8b6e1c	0.06808111
41	0x3ce1a94e	0.027546551
42	0x3cd99928	0.026562288
43	0x3cbc2e30	0.022971243
44	0x3c8210df	0.015877185
45	0x3cfd29d0	0.030903727
46	0x3df87f53	0.1213366
47	0x3cff6793	0.031177318
48	0x3d00c8d5	0.03144153
49	0x3ca8573e	0.020549413
50	0x3ccc93c9	0.024972813
51	0x3d50cb67	0.05097523
52	0x3d35c87d	0.044380654
53	0x3d5d1b79	0.053981278
54	0x3d048a6a	0.032358564
55	0x3ce06e4f	0.02739635
56	0x3d430b92	0.047618456
57	0x3ddf0e75	0.10891429
58	0x3d3bebfe	0.045879357
59	0x3d00fddc	0.0314921
60	0x3d953e63	0.0728729
61	0x3d4c526b	0.049883287
62	0x3ca4eb20	0.020131648
63	0x3d3767b5	0.044776637

net.8.weight f4 [128, 64, 3, 3]
0	0x3d182ced	0.03715222
1	0xbc54aa57	-0.012980065
2	0xbc48a812	-0.012247102
3	0xbb84d074	-0.00405317
4	0x3b8b13b4	0.004244292
5	0xbcfae664	-0.030627437
6	0x3d0e3e07	0.034727123
7	0xbc3f2e40	-0.011668742
8	0xbc8e38de	-0.0173611
9	0x3d32fb4b	0.043696683
10	0x3d0cb469	0.03435174
11	0x3c8e3485	0.017359028
12	0x3d21b396	0.039477907
13	0x3d132800	0.03592682
14	0xbcb26a86	-0.02177931
15	0x3b99e659	0.004696649
16	0x3c0fc8d4	0.0087759085
17	0xbcc4757a	-0.023981798
18	0xbcc71859	-0.024303602
19	0x3c7eb6bc	0.015546497
20	0x3d37d968	0.04488507
21	0x3d0b6559	0.0340322
22	0xbc8197e8	-0.015819505
23	0xbc955841	-0.01823056
24	0x3d2e1c66	0.04250755
25	0xbcd47e48	-0.025939122
26	0xbcaf1b64	-0.021375366
27	0xba64a17c	-0.0008721573
28	0xbc8ec415	-0.017427484
29	0xbd4c2930	-0.049843967
30	0x3cadc642	0.0212127
31	0xbc92929b	-0.017892173
32	0x3c5c6d50	0.0134537965
33	0x3c38bd12	0.011275547
34	0xbc8975e1	-0.016779842
35	0x3c5e0f5c	0.013553467
36	0xba3d2836	-0.000721577
37	0x3d0578db	0.03258596
38	0xbb906d33	-0.004407549
39	0x3c735a09	0.014853009
40	0xbd116479	-0.03549621
41	0x3cc2dc25	0.023786614
42	0xbd03cd25	-0.032178063
43	0x3bef083d	0.0072946833
44	0x3bbbc578	0.005730327
45	0x3bafe31d	0.00536765
46	0x3d07dcbd	0.033169497
47	0xbcfb80b1	-0.030701013
48	0xbcd1c470	-0.025606364
49	0xbbb10f4a	-0.005403434
50	0xbcee27c6	-0.0290717
51	0xbc1f792f	-0.009733482
52	0x3ce7234f	0.028215079
53	0xbcd3f922	-0.025875632
54	0xbce4f93e	-0.02795088
55	0x3d1e2a98	0.03861484
56	0xbbf2e777	-0.0074128467
57	0x3bdc8345	0.0067295157
58	0x39816358	0.00024678814
59	0xbcc4a808	-0.024005905
60	0xbcd60e56	-0.026129883
61	0xbc47bbb2	-0.012190746
62	0xbca1885f	-0.019718347
63	0xbbfd0840	-0.0077219307
64	0xbcf75156	-0.030190151
65	0x3d07fa36	0.033197604
66	0x3c47a3b8	0.01218503
67	0xbd1f1574	-0.03883882
68	0xbd0e8b89	-0.03480104
69	0xbd330539	-0.043706153
70	0x3cbe2718	0.023212
71	0xba954239	-0.0011387534
72	0xbd2214f8	-0.03957078
73	0x3bfd40a6	0.007728654
74	0xbd29cd8c	-0.04145579
75	0x3d1a34f5	0.03764816
76	0xbc89bf98	-0.016814992
77	0x3c9dc50c	0.019258998
78	0x3ce2650a	0.02763607
79	0xbcecd7e0	-0.028911531
80	0x3ba408da	0.005005938
81	0x3c091f56	0.0083692875
82	0xbc63f376	-0.013913026
83	0xbd078ae7	-0.033091452
84	0xbc7a3003	-0.015270236
85	0x3c38796e	0.01125942
86	0x3d054c6c	0.032543585
87	0x3cf493f4	0.029855706
88	0xbc22e67a	-0.009942645
89	0xbc90c27b	-0.01767086
90	0xbd0c16c3	-0.034201395
91	0xbc73fc95	-0.014891763
92	0xbabae53c	-0.0014258991
93	0xbb4ff6fc	-0.0031732908
94	0xbca5a54f	-0.020220427
95	0xbd12495e	-0.0357145
96	0x3cf85049	0.03031172
97	0xbb3bc7e7	-0.0028653087
98	0x3c1c2cc7	0.00953216
99	0x3af42b88	0.0018628696
100	0xba824594	-0.0009938949
101	0xbd4a104e	-0.049331956
102	0x3d03d6a1	0.032187108
103	0xbc14d15b	-0.009083117
104	0xbcbd961f	-0.023142872
105	0xbc45e0d9	-0.012077534
106	0x3afe6d5f	0.0019411257
107	0xbafb8010	-0.0019187946
108	0xbba42515	-0.0050093033
109	0xbd3068b7	-0.043068614
110	0xbd2f5f7f	-0.04281568
111	0xbbc829ca	-0.0061084973
112	0x3d0e4ff8	0.034744233
113	0xbd057f7d	-0.032592285
114	0x3cc48f92	0.02399424
115	0x3c0823b5	0.0083092945
116	0x3c226bfd	0.009913442
117	0x3c700bce	0.014651252
118	0x3cb58654	0.02215878
119	0x3c435c35	0.011923839
120	0x3cc527ae	0.024066772
121	0xba7561ee	-0.0009360601
122	0x3cd90177	0.026489956
123	0x3bed5b9e	0.0072435876
124	0xbd03b5a7	-0.03215566
125	0xbd20c4f5	-0.039250333
126	0xbca9aed8	-0.020713255
127	0x3c889215	0.01667122
128	0xbd12f16d	-0.035874773
129	0x3c659d53	0.01401456
130	0xbc4860c6	-0.012230104
131	0xbd216d55	-0.039410908
132	0xbcd07587	-0.025446666
133	0x3c2a447b	0.010392304
134	0xbcb426d3	-0.02199117
135	0x3d3f9e9c	0.04678212
136	0xbcb1766a	-0.02166291
137	0x3ce7bad5	0.02828733
138	0xbc11355c	-0.0088628195
139	0xbc78d4e1	-0.015187473
140	0xbc0ba5e4	-0.008523438
141	0xbb0e6054	-0.0021724897
142	0x3cdafc7f	0.026731728
143	0x3c26b87c	0.01017582
144	0xbcb06733	-0.021533584
145	0x3c2d12f6	0.010563603
146	0x3c1c2e00	0.009532452
147	0x3cbf271c	0.023334078
148	0x3c74a3e2	0.014931651
149	0xbcfcce16	-0.030859988
150	0xbd047ce3	-0.032345664
151	0xbcb2402a	-0.021759111
152	0xbc94ef5e	-0.018180545
153	0x3cb6d221	0.022316994
154	0x3d0e1b6f	0.03469413
155	0x3d28ea90	0.04123932
156	0x3bc786c2	0.0060890624
157	0x3d138e4d	0.03602438
158	0x3d348fb5	0.044082362
159	0x3d1500bd	0.036377657
160	0xbcbc3347	-0.02297367
161	0x3bccb5bc	0.0062472504
162	0x3cb8a9c3	0.022541886
163	0x3d191dc1	0.03738189
164	0xbc5f3b8d	-0.013625038
165	0x3c018816	0.007905981
166	0x3c93d9f6	0.018048268
167	0x3b03f8e1	0.0020137357
168	0x3a1bfb6f	0.0005950247
169	0xbc00d0c2	-0.007862272
170	0xbb9f3d42	-0.0048595974
171	0x3d2c5254	0.0420707
172	0x3c949dd6	0.018141668
173	0xbc5d63d6	-0.013512572
174	0xbcb3e2a7	-0.021958662
175	0x3c01533a	0.007893378
176	0xbd1e6c3d	-0.038677443
177	0xbcd4d104	-0.025978573
178	0x3bd2115a	0.00641076
179	0xbc8db352	-0.01729742
180	0x3cea81a8	0.028626278
181	0xbad56c26	-0.0016282841
182	0x3ca1f9e1	0.019772472
183	0xbaacaa32	-0.0013173281
184	0xbc2f98e6	-0.010717606
185	0x3cd66644	0.02617181
186	0xbca65bed	-0.020307506
187	0x3d00c02e	0.031433277
188	0xbcdeff97	-0.027221484
189	0x3c9c522b	0.01908215
190	0xbcd19b7a	-0.025586832
191	0xbd094aa2	-0.03351844
192	0x3cf4d57b	0.029886952
193	0x3c3c22ad	0.011482877
194	0x3d007564	0.031361952
195	0x3d31efc3	0.043441545
196	0xbbb75a8f	-0.005595512
197	0xbca536bb	-0.0201677
198	0x3cab24d1	0.020891579
199	0xbb95b07c	-0.0045681577
200	0x3c421e8c	0.011848103
201	0xbb85c3a4	-0.00408216
202	0xbd1ad8dd	-0.037804473
203	0xbd3baf56	-0.04582151
204	0x3ced8102	0.02899218
205	0xbc11a0ab	-0.008888404
206	0xbd090e8e	-0.033461146
207	0xbc6aa803	-0.014322284
208	0x3cf0780e	0.029354122
209	0x3d1c8653	0.03821404
210	0xbc3c81cd	-0.011505556
211	0x3c979b63	0.018506711
212	0xbd1f2f54	-0.038863495
213	0x3b93f142	0.004514844
214	0x3c90bb78	0.017667517
215	0x3cce7172	0.02520058
216	0x3cfaeba5	0.030629942
217	0xbbd4e5ac	-0.0064971056
218	0x3d191ef4	0.037383035
219	0xbd33f298	-0.043932527
220	0xbd487eb1	-0.048948947
221	0xb9d78013	-0.00041103418
222	0x3cb348de	0.021885332
223	0x3cf77284	0.030205972
224	0xbc8d5cf0	-0.01725623
225	0xbcabb368	-0.020959571
226	0x3c77851f	0.015107422
227	0xbb8c9897	-0.004290651
228	0x3d27baff	0.040949818
229	0x3ba38c11	0.0049910625
230	0xbd0dcdac	-0.034619972
231	0xbcb8fb77	-0.022580845
232	0xbbf11f23	-0.007358448
233	0x3d39fb90	0.045405924
234	0x3c99af42	0.018760327
235	0xbcbdc084	-0.023163088
236	0xbcc91879	-0.024547802
237	0xb9523377	-0.00020046333
238	0xbd37df30	-0.044890583
239	0xbcde23ce	-0.027116682
240	0x3c9acc84	0.018896349
241	0xbd2c5dd9	-0.042081688
242	0x3cc2820a	0.023743648
243	0xbd272678	-0.04080817
244	0x3cc5a423	0.024126118
245	0x3c9e70d3	0.019340908
246	0xbcc16b2e	-0.023610678
247	0xbbee088f	-0.007264204
248	0x3d12e8f7	0.035866704
249	0x3d19e79a	0.037574388
250	0xbcd4e9e4	-0.025990434
251	0x3cdef76a	0.027217586
252	0xbd21d261	-0.039507274
253	0xbd06355e	-0.03276574
254	0x3d2da2b5	0.042391498
255	0xbd0146e8	-0.031561762

net.8.bias f4 [128]
0	0xbd0fd98a	-0.03511957
1	0xbce43c59	-0.027860807
2	0xbce90934	-0.028446771
3	0x3c1d686d	0.009607417
4	0xbcc25236	-0.023720842
5	0xba3201bc	-0.00067904196
6	0xbbd3a4c6	-0.0064588515
7	0x3b9fd332	0.0048774714
8	0x3ae73884	0.0017640744
9	0xbd18378d	-0.037162352
10	0x3c26d687	0.010182983
11	0x3cc2df75	0.023788193
12	0xbce414a7	-0.027841879
13	0xbc99fa12	-0.018796
14	0x3ce20f46	0.027595174
15	0xbbfc2f98	-0.0076961033
16	0x3c1236db	0.008924211
17	0x3b5efb0d	0.003402415
18	0x3b640e4d	0.0034798563
19	0xbcb6fca2	-0.022337262
20	0x3cd26a27	0.025685383
21	0x3d0a478b	0.033759635
22	0xbc2f2250	-0.010689333
23	0x3b836177	0.0040094214
24	0xbc29d34b	-0.010365318
25	0x3cab012e	0.020874586
26	0x3cd01f61	0.025405588
27	0xbc8bf4d0	-0.01708451
28	0xba9ee12e	-0.0012121552
29	0x3c9d5378	0.01920484
30	0xbd00fa05	-0.031488437
31	0xbc9e64f1	-0.019335242
32	0x3bc9bb48	0.006156359
33	0xbc80f1b8	-0.01574026
34	0x3cdeb2df	0.027184902
35	0x3cd5a858	0.02608125
36	0xbcdff923	-0.027340477
37	0x3ca7afd3	0.020469582
38	0x3c73be42	0.014876904
39	0x3c8e9e82	0.017409567
40	0x3cb7e102	0.02244616
41	0x3c387d86	0.011260396
42	0x3b8cf230	0.004301332
43	0xbcf68e36	-0.030097108
44	0xbd18ea6f	-0.03733295
45	0x3d0d59c3	0.03450943
46	0xbcaa7dec	-0.020811997
47	0x3c8fd66b	0.017558297
48	0xbcbf94dd	-0.023386413
49	0x3cd5f14b	0.026116034
50	0xbca50be4	-0.020147271
51	0xbcfbbeb2	-0.030730579
52	0xbc355b92	-0.011069195
53	0xbd073b21	-0.033015374
54	0x3cde2146	0.027115475
55	0x3b88310d	0.004156238
56	0xbd09c685	-0.03363659
57	0x3ce10b00	0.027471066
58	0x3b8ef2ab	0.0043624244
59	0xbd0f098f	-0.034921225
60	0xbc3f899f	-0.011690526
61	0x3ce3b908	0.02779819
62	0xbcd063de	-0.025438245
63	0x3d15d316	0.03657826
64	0xbc3a077f	-0.011354326
65	0x3b75cf80	0.0037507713
66	0xbcfd7aa0	-0.030942261
67	0x3d02c1ad	0.031922985
68	0xbcc5fd84	-0.024168737
69	0xbcec958a	-0.0288799
70	0xbd003885	-0.0313039
71	0x3ce337a4	0.027736492
72	0x3847c421	4.7627957e-05
73	0xbbd8553e	-0.0066019585
74	0xbc6f2df4	-0.014598358
75	0x3c469fd7	0.01212307
76	0x3cccfb96	0.02502231
77	0xbc55df0f	-0.01305367
78	0x3cbc3b3b	0.022977462
79	0xbcee9af6	-0.029126626
80	0x3cc621de	0.024186071
81	0x3b8a04f8	0.004212018
82	0xbcc3702a	-0.023857195
83	0xbcfb821c	-0.03070169
84	0x3c6b7693	0.014371532
85	0xbd2a0919	-0.041512582
86	0x3d1b79f4	0.0379581
87	0x3d0c9cdc	0.03432928
88	0xbb20c166	-0.0024529337
89	0xbd189d3e	-0.037259333
90	0xbc614cde	-0.013751237
91	0x3d09544b	0.033527654
92	0xbcac2b24	-0.021016665
93	0x3c8fa7f6	0.017536145
94	0x3cc1a226	0.023636889
95	0x3bd623de	0.0065350374
96	0x3cce2f15	0.025168935
97	0x3ce4092a	0.027836401
98	0x3d0f39a2	0.034967072
99	0x3c77eb7a	0.015131826
100	0x3cf14e16	0.02945618
101	0xbd2bc5f5	-0.041936833
102	0x3d24b717	0.04021367
103	0xbc0453fc	-0.008076664
104	0xbb715b20	-0.0036827996
105	0xba9d36b9	-0.0011994458
106	0x3c9c22f4	0.019059636
107	0xbcc883ee	-0.024476971
108	0xbc8d8195	-0.017273704
109	0x3ac5e253	0.0015097357
110	0xbbdd14b1	-0.0067468514
111	0xbc4567d4	-0.01204868
112	0xbba5eb60	-0.0050634593
113	0x3d1d63d2	0.038425274
114	0x3a0c8e74	0.00053618033
115	0x3bf57e7b	0.0074918843
116	0xbd0232aa	-0.0317866
117	0xbc4f051a	-0.012635494
118	0x3c8c4502	0.01712275
119	0x3cabe810	0.02098468
120	0xbc59938a	-0.013279805
121	0x3cb8f02b	0.022575459
122	0xbbca5686	-0.006174865
123	0x3be51b7c	0.006991802
124	0xbc0ea5c4	-0.008706514
125	0x3c886711	0.016650708
126	0x3ceabe4c	0.028655194
127	0xbc0fd004	-0.008777622

net.9.weight f4 [128]
0	0x3f202c5d	0.62567693
1	0x3f3f0c5c	0.74628234
2	0x3f4c2be0	0.7975445
3	0x3ee253bb	0.44204506
4	0x3df08613	0.11744323
5	0x3d873433	0.06601753
6	0x3e32341a	0.17402688
7	0x3e954d49	0.29160526
8	0x3e7ba8c5	0.24576099
9	0x3f464ee4	0.7746413
10	0x3ec685d9	0.38773993
11	0x3f05870f	0.5215921
12	0x3f08ac6c	0.53388095
13	0x3f2aaef8	0.6667323
14	0x3ecef89f	0.40424058
15	0x3e94e185	0.29078308
16	0x3f601bb4	0.8754227
17	0x3eb9b67c	0.36272037
18	0x3f5aa87d	0.8541334
19	0x3e2f6ad3	0.17130594
20	0x3db2ea09	0.08736045
21	0x3f4fe22d	0.8120449
22	0x3e307756	0.17233023
23	0x3ee02617	0.4377906
24	0x3eb77b76	0.3583638
25	0x3f2bbe26	0.6708702
26	0x3e358913	0.17728071
27	0x3f220389	0.63286644
28	0x3f5cc2d6	0.86234796
29	0x3f709f3f	0.9399299
30	0x3f64947a	0.8928906
31	0x3ea89531	0.32926324
32	0x3eff3e42	0.49852186
33	0x3d9304a7	0.07178622
34	0x3e422b10	0.1896174
35	0x3f51d3b9	0.8196369
36	0x3f4bf9fc	0.7967832
37	0x3eaa595c	0.332713
38	0x3e57a481	0.21058847
39	0x3ec3cede	0.38243765
40	0x3f460431	0.77350146
41	0x3e1adfc6	0.15124425
42	0x3f316dcf	0.6930818
43	0x3eaa96a9	0.3331807
44	0x3eaacac6	0.3335783
45	0x3e08d1bf	0.13361262
46	0x3ecb6ed6	0.39733
47	0x3f6b91bc	0.9201925
48	0x3f6f7df9	0.93551594
49	0x3f2ac6e3	0.6670973
50	0x3e2079c0	0.15671444
51	0x3dcaee5b	0.09908744
52	0x3f466023	0.77490443
53	0x3f50d657	0.81577057
54	0x3e2bcadf	0.16776608
55	0x3f444ac3	0.7667658
56	0x3ec2a0df	0.3801336
57	0x3f542a19	0.82876736
58	0x3f282f32	0.65697014
59	0x3eaebd63	0.34128866
60	0x3cdc1730	0.026866525
61	0x3e836121	0.2566004
62	0x3d944603	0.07239916
63	0x3eddb419	0.43301466
64	0x3f60b1e7	0.8777146
65	0x3e31a5ba	0.17348376
66	0x3f4d4cde	0.80195415
67	0x3f057b5e	0.5214137
68	0x3f3019a3	0.6878912
69	0x3d6b9ff8	0.057525605
70	0x3f58e1de	0.84719646
71	0x3f0f8b09	0.56071526
72	0x3f6df5d5	0.92953235
73	0x3e0cf5e2	0.13765672
74	0x3d364749	0.044501577
75	0x3ee9ddd4	0.45677054
76	0x3f1d549a	0.61457217
77	0x3f374bc7	0.716
78	0x3e871d5f	0.26389596
79	0x3ec9421d	0.39308253
80	0x3e5bbc01	0.21458437
81	0x3e9585bf	0.29203603
82	0x3f166533	0.5874817
83	0x3e022a98	0.1271156
84	0x3f3c868a	0.7364279
85	0x3ef7faec	0.48433626
86	0x3f470aad	0.77750665
87	0x3f086775	0.5328286
88	0x3e128296	0.14307627
89	0x3f6d74f1	0.92756563
90	0x3f66b402	0.9011842
91	0x3f60ecd6	0.8786138
92	0x3e581047	0.2109996
93	0x3ee9f79f	0.45696732
94	0x3d3c333f	0.04594731
95	0x3c98b53f	0.018641112
96	0x3f602523	0.87556666
97	0x3edf7442	0.43643385
98	0x3ed0f97c	0.4081534
99	0x3e5973ef	0.21235631
100	0x3f1fdf83	0.62450427
101	0x3f744847	0.95422786
102	0x3edaa841	0.42706493
103	0x3ee14156	0.4399516
104	0x3f6b0dfe	0.91818225
105	0x3de835eb	0.11338409
106	0x3dbe662a	0.0929683
107	0x3f74177a	0.9534832
108	0x3e00da7b	0.12583344
109	0x3d1691a4	0.036759987
110	0x3df36044	0.118835956
111	0x3d15f5a5	0.036611218
112	0x3ed1cf61	0.4097853
113	0x3d9e7035	0.077362455
114	0x3f398b38	0.72478056
115	0x3e8abcb5	0.27097097
116	0x3e94f068	0.29089665
117	0x3f0f5297	0.559854
118	0x3e3d5a90	0.18491578
119	0x3e852ca0	0.2601061
120	0x3daba3d3	0.08380856
121	0x3e7aa06b	0.24475257
122	0x3f0af083	0.5427324
123	0x3ec243be	0.37942308
124	0x3f27f3b5	0.6560624
125	0x3f55dd3d	0.8354071
126	0x3f1a0691	0.6016627
127	0x3ea8ef49	0.3299506
