D_A.pth (torch_old, 401728 bytes, 21 tensors)

net.0.weight f4 [16, 3, 3, 3]
0	0xbd06f6cd	-0.03295021
1	0xbe174263	-0.14771418
2	0x3e47cf8b	0.19512765
3	0x3bd047f1	0.0063562323
4	0xbdf8a671	-0.12141121
5	0xbddb59fa	-0.10710521
6	0x3dad37cc	0.08457908
7	0x3e1c82c6	0.15284261
8	0x3ca6773a	0.020320524
9	0x3dab2fd3	0.08358731
10	0xbdc92f0b	-0.09823426
11	0xbd8df791	-0.06931985
12	0x3dc7d664	0.09757689
13	0xbd110579	-0.03540561
14	0xbda753c5	-0.08170275
15	0xbdfd7226	-0.12375288
16	0xbda71a27	-0.08159285
17	0x3dca7983	0.09886458
18	0x3e125b3e	0.14292619
19	0x3e410b68	0.18852007
20	0xbe00d4c6	-0.12581167
21	0x3c816ea0	0.01579982
22	0x3e10d762	0.14144662
23	0xbd315718	-0.04329595
24	0xbdf2aad2	-0.11848988
25	0xbe155528	-0.14583266
26	0x3d9f41a2	0.0777619
27	0x3e09c3d9	0.13453616
28	0x3e0d29ca	0.13785473
29	0x3d464214	0.04840286
30	0x3dabe2a8	0.083928406
31	0x3d2458ed	0.04012387
32	0xbe1f66f6	-0.1556662
33	0xbe01d9c2	-0.12680724
34	0x3e045a06	0.12924966
35	0x3d631e3f	0.055448767
36	0xbe063dde	-0.13109538
37	0xbceb0638	-0.028689489
38	0x3e194f73	0.14971714
39	0x3d5b2195	0.053498823
40	0x3d78e57a	0.06076572
41	0x3e37edc6	0.17961797
42	0xbd920277	-0.071293764
43	0xbd054bfa	-0.03254316
44	0x3ddc76d7	0.107648544
45	0x3dc232f7	0.09482377
46	0x3d660d11	0.056164805
47	0x3e2dfe6c	0.16991585
48	0x3e0d6ea1	0.13811733
49	0xbdda508a	-0.10659893
50	0x3d9764c0	0.073922634
51	0x3e31194e	0.17294809
52	0xbde2b3f2	-0.11069478
53	0xbd075709	-0.033041988
54	0xbb486144	-0.0030575553
55	0xbdadef8e	-0.08492957
56	0x3d9f0174	0.07763949
57	0x3d6216ee	0.05519765
58	0xbc35d2bf	-0.011097609
59	0x3d083098	0.033249468
60	0xbe3af8f3	-0.18259029
61	0xbe0108a8	-0.12600958
62	0x3d1e4bdc	0.038646564
63	0x3cb693ec	0.022287332
64	0xbe38633e	-0.18006608
65	0xbe3763ec	-0.17909211
66	0xba5c4043	-0.000840191
67	0xbe0e8bac	-0.13920468
68	0xbdbe6b99	-0.092978664
69	0xbd3465c2	-0.044042356
70	0xbe28ccaf	-0.1648433
71	0xbd47dd68	-0.048795134
72	0x3d6766fc	0.056494698
73	0xbe3395bb	-0.17537586
74	0xbc04908b	-0.008091102
75	0x3db8e9c4	0.09028962
76	0x3dafa8e9	0.08577139
77	0x3d0d2747	0.034461286
78	0xbe189869	-0.1490189
79	0xbe159e2c	-0.14611119
80	0x3e18272b	0.14858691
81	0xbdd648d7	-0.10463112
82	0x3c8ba1f2	0.017044995
83	0x3dfc0976	0.12306492
84	0x3dd6a0ea	0.10479911
85	0xbe07e6e4	-0.13271672
86	0xbd2afd19	-0.04174528
87	0x3dca84d8	0.09888619
88	0x3dc41983	0.095751785
89	0xbc7f83fb	-0.015595431
90	0xbd514d09	-0.051098857
91	0xbdae3b04	-0.0850735
92	0x3b81340c	0.003942972
93	0x3d9a09f4	0.0752143
94	0x3ceca864	0.028888889
95	0xbe1c8aa7	-0.15287267
96	0x3e3df16a	0.18549123
97	0xbd9a435a	-0.075323775
98	0xbe089a11	-0.13340022
99	0x3dd5538c	0.10416326
100	0x3e05d2f7	0.13068758
101	0x3e3cb652	0.18428925
102	0x3d1a8c0c	0.037731215
103	0xbda5daf5	-0.08098403
104	0xbe17e0f7	-0.14831911
105	0x3d20ead0	0.039286435
106	0x3d6e271f	0.058142778
107	0x3d6b61f0	0.057466447
108	0x3de4b898	0.11168021
109	0x3d9d16f1	0.07670391
110	0x3df58dc0	0.11989927
111	0xbd60c740	-0.05487752
112	0x3dc7e01a	0.09759541
113	0xbd2db467	-0.042408373
114	0xbdf2108c	-0.11819562
115	0x3e1b6605	0.15175636
116	0x3e10e48c	0.14149684
117	0xbcad4275	-0.021149853
118	0xbe309aca	-0.17246547
119	0x3e21feb6	0.15819821
120	0x3cbf1c58	0.023328945
121	0xbd9487ee	-0.07252489
122	0x3e3b2e6d	0.18279429
123	0x3d22dbff	0.039760586
124	0xbdacd0d2	-0.08438267
125	0xbd17ace8	-0.03703013
126	0x3dfa89e2	0.1223333
127	0xbe09ed4f	-0.13469432
128	0x3cc58f13	0.024116075
129	0xbe1b70c4	-0.15179735
130	0x3e1df0a3	0.15423827
131	0x3dbe736d	0.092993595
132	0xbe236826	-0.15957698
133	0x3dd7bc87	0.105340056
134	0x3e2ea96e	0.1705682
135	0x3de9c49b	0.11414453
136	0x3d8a85db	0.06763812
137	0xbe34c1d5	-0.17652066
138	0x3c573849	0.013135978
139	0x3d71f22d	0.059068847
140	0x3df84f2b	0.12124475
141	0x3deb5ec7	0.11492687
142	0x3de7a328	0.113104165
143	0xbd658369	-0.056033526
144	0x3e0e47a9	0.13894524
145	0xbd6eab80	-0.058269024
146	0x3db12ec7	0.086515
147	0xbe32d498	-0.1746391
148	0xbd7291c0	-0.05922103
149	0xbdb3f066	-0.08786087
150	0x3e243756	0.16036734
151	0xbd4c2086	-0.049835704
152	0xbdf88f76	-0.12136738
153	0xbb52085e	-0.0032048444
154	0x3d9be9cf	0.07612955
155	0x3e3fc34f	0.18726848
156	0xbde832b8	-0.11337799
157	0x3d8e6330	0.06952512
158	0xbcbda820	-0.023151457
159	0x3e049188	0.12946141
160	0xbe1ede96	-0.15514597
161	0x3e2bb9f5	0.16770156
162	0xbd9031b7	-0.07040732
163	0x3dc185f1	0.094493754
164	0x3e0c8f02	0.13726428
165	0x3dc7bc83	0.09752753
166	0x3e0adf10	0.13561654
167	0xbe33206d	-0.17492838
168	0xbddb45ad	-0.10706649
169	0x3decca51	0.11562026
170	0x3e29a8d7	0.16568314
171	0xbe16d6e9	-0.14730419
172	0x3dd91e48	0.10601479
173	0xbcafa232	-0.021439645
174	0x3e3b5495	0.18293984
175	0x3e2f1554	0.1709798
176	0xbd1ba088	-0.03799489
177	0x3d4fd1f5	0.05073734
178	0x3e062a40	0.13102055
179	0xbd5318ca	-0.051537313
180	0x3de24883	0.11048987
181	0xbdda87d2	-0.10670437
182	0x3e226dcb	0.15862195
183	0x3e1042e3	0.14088015
184	0xbd352e9d	-0.044233907
185	0xbcfa5d38	-0.030562028
186	0x3e098d06	0.13432702
187	0x3e294d6c	0.1653344
188	0x3ab41b1d	0.001374099
189	0x3e38b245	0.18036754
190	0x3d55a895	0.052162725
191	0x3de0ece9	0.10982687
192	0x3d0c03d8	0.034183353
193	0xbae3e170	-0.0017385911
194	0x3e1ec718	0.15505636
195	0xbe39d05b	-0.18145888
196	0x3e280db5	0.16411479
197	0xbde1b933	-0.11021652
198	0x3df63f2c	0.12023768
199	0x3d0820bf	0.033234354
200	0xbc9d9258	-0.019234821
201	0xbddb5c43	-0.10710957
202	0x3b79bec2	0.0038108085
203	0xbdde03c4	-0.10840562
204	0xbdd4c733	-0.10389557
205	0x3d2ec6cb	0.042670052
206	0xbe176221	-0.14783527
207	0xbd15628b	-0.03647093
208	0x3d8e63a1	0.069525965
209	0xbd164eb5	-0.036696155
210	0xbc2af5ce	-0.010434581
211	0x3dd51ffc	0.10406491
212	0xbc9ea9e0	-0.019368112
213	0x3d606665	0.05478515
214	0xbe1e0424	-0.15431267
215	0x3df807ec	0.12110886
216	0xbe366e92	-0.17815617
217	0xbc876d1a	-0.016531516
218	0xbc3d81a8	-0.011566557
219	0xbd9a3d24	-0.07531193
220	0x3e15d537	0.14632116
221	0x3d9463cf	0.072455995
222	0xbdd307e4	-0.103042394
223	0x3d8f5323	0.06998279
224	0x3e08c85a	0.13357678
225	0x3e138866	0.144075
226	0x3dc40490	0.09571183
227	0xbd915a06	-0.07097249
228	0x3e1563a2	0.14588788
229	0x3e3caa5e	0.18424365
230	0xbc0121d4	-0.0078816
231	0xbe14f679	-0.14547147
232	0x3e09a0e9	0.13440289
233	0x3d62cab9	0.055369113
234	0x3e080b42	0.13285545
235	0x3e0f95b0	0.14021945
236	0xbd8c33e5	-0.068458356
237	0xbd608528	-0.054814488
238	0x3e061542	0.13094047
239	0x3e3e53ba	0.18586627
240	0xbe32bdcb	-0.17455213
241	0xbda07b21	-0.07835985
242	0xbcc1e070	-0.02366659
243	0xbe05298e	-0.13004133
244	0xbe35b406	-0.17744455
245	0xbe49936a	-0.1968514
246	0x3aab7a96	0.0013082798
247	0xbdc1e767	-0.094679646
248	0x3ce79744	0.028270371
249	0x3dfd72e8	0.12375432
250	0x3de8f60a	0.11375053
251	0xbc751023	-0.014957461
252	0x3d82b5e4	0.06382349
253	0xbd1cd9f5	-0.038293798
254	0xbdb85153	-0.08999886
255	0xbd3cba7d	-0.046076287

net.0.bias f4 [16]
0	0x3e4ac038	0.19799888
1	0xbd80608a	-0.06268413
2	0xbc145445	-0.009053295
3	0x3e462245	0.1934901
4	0xbd8fa2f9	-0.070135064
5	0x3da786d4	0.08180013
6	0x3d07c4fc	0.033146843
7	0xbdeb91f8	-0.11502451
8	0x3e126a4b	0.1429836
9	0xbdd5be84	-0.104367286
10	0x3e4eabc8	0.20182717
11	0xbdb5aa6d	-0.08870397
12	0xbe2e163f	-0.17000674
13	0xbdf90a9b	-0.12160226
14	0xbe53c740	-0.20681477
15	0xbe3bd36e	-0.18342373

net.2.weight f4 [32, 16, 3, 3]
0	0xbc8c914a	-0.017159123
1	0xbd60edf7	-0.05491444
2	0x3d094774	0.03351541
3	0xbd73707f	-0.059433457
4	0x3d795a0e	0.0608769
5	0xbdba7f39	-0.09106297
6	0x3cecd398	0.02890949
7	0x3d2716f9	0.040793393
8	0x3d0db5f5	0.034597356
9	0x3b00c0b5	0.0019646112
10	0xbd319c6c	-0.043362066
11	0x3c81827c	0.01580929
12	0x3c815e09	0.01579191
13	0xbcdb6b36	-0.02678452
14	0xbd42bcd6	-0.04754337
15	0xbcb2a75e	-0.021808323
16	0xbd06ec65	-0.032940287
17	0xbd0eb0b7	-0.034836497
18	0xbd777bee	-0.060420923
19	0xbcbc3d97	-0.022978587
20	0xbd3e4da3	-0.04646076
21	0xbd657627	-0.056020882
22	0x3d59e68d	0.053198386
23	0xbd1d48aa	-0.038399376
24	0x39eaf753	0.0004481623
25	0xbd83219d	-0.064028956
26	0x3d861f20	0.065489054
27	0xbd9337f9	-0.0718841
28	0xbdc051b0	-0.09390581
29	0x3d345e48	0.044035226
30	0xbc86acec	-0.016439877
31	0xbba3f7a0	-0.0050038844
32	0xbc25c19f	-0.010116964
33	0xbcf93246	-0.03041948
34	0x3d1f0f77	0.038833108
35	0xbcff962d	-0.03119954
36	0xbd8ec291	-0.06970704
37	0xbcd787e5	-0.026309917
38	0x3d81925e	0.063267455
39	0xbd82f02e	-0.06393467
40	0x3cfb6d99	0.030691909
41	0x3caa6e5f	0.020804582
42	0xbd0b6c82	-0.034039028
43	0xbcbb7013	-0.02288059
44	0x3d342a24	0.0439855
45	0x3cd597cc	0.026073359
46	0xbd6959cc	-0.056970403
47	0x3d30edd9	0.04319558
48	0xbda392eb	-0.07987007
49	0x3d94c83f	0.072647564
50	0xbce80955	-0.028324762
51	0x3da2836e	0.079352245
52	0x3d873024	0.06600979
53	0x3cf5d0d2	0.0300068
54	0xbbbd100b	-0.0057697347
55	0x3c8fedf2	0.017569516
56	0xbd73f28f	-0.059557494
57	0xbd9303c0	-0.0717845
58	0xbc381ac5	-0.011236851
59	0xbce418b2	-0.027843807
60	0xbd189c18	-0.037258238
61	0xbcdafdd2	-0.02673236
62	0x3d631ef8	0.055449456
63	0x3d881b94	0.06645885
64	0x3d92eb97	0.071738414
65	0x3c892099	0.016739177
66	0xbc7608c4	-0.015016738
67	0xbb409c5d	-0.0029390075
68	0xbc8ffafe	-0.017575737
69	0x3da6d86b	0.08146747
70	0x3c5333ef	0.0128908
71	0xbd57534b	-0.05256967
72	0x3b51993e	0.0031982209
73	0xbc8c7e69	-0.01715012
74	0x3d5aa7bf	0.05338263
75	0xbb13da5c	-0.0022560572
76	0xbca08646	-0.019595277
77	0xbd5cfbaf	-0.05395096
78	0x3dbaab6a	0.09114726
79	0x3c171949	0.009222337
80	0x3d8f36dc	0.069928855
81	0x3c75394e	0.014967276
82	0xbd11e4ae	-0.035618477
83	0x3d3a9dff	0.045560833
84	0x3c5719bd	0.013128695
85	0xba21f9b7	-0.0006178873
86	0x3bb2df10	0.00545872
87	0x3c0f9867	0.008764363
88	0xbd1f16bc	-0.03884004
89	0xbd2ff011	-0.042953555
90	0x3d9bf87c	0.07615754
91	0xbd831008	-0.06399542
92	0xbd316f2e	-0.04331892
93	0xbdad772d	-0.084699966
94	0xbd693521	-0.056935433
95	0x3d4e646f	0.05038875
96	0x3d924453	0.07141938
97	0x3d77b106	0.060471557
98	0x3da1feea	0.07909949
99	0x3d20ac9e	0.03922712
100	0xbd6dc2d8	-0.058047146
101	0xbca57664	-0.020198055
102	0x3cd1301a	0.025535632
103	0x3c9f9aa7	0.019482924
104	0xbd6ac7fc	-0.057319626
105	0xbd84e823	-0.06489589
106	0xbd9c6318	-0.07636088
107	0xbd527df2	-0.051389642
108	0xbd3fb826	-0.046806477
109	0xbcaa85fb	-0.02081584
110	0x3d2e12da	0.042498447
111	0xbd937837	-0.072006635
112	0xbd977477	-0.07395261
113	0x3c092c68	0.008372404
114	0x3d126958	0.035744995
115	0xbcaa9142	-0.020821217
116	0x3d04e365	0.032443423
117	0xbd431d2e	-0.04763525
118	0x3bf4ed2b	0.0074745617
119	0xbc035166	-0.008015012
120	0x3bf7a958	0.007558029
121	0x3d9afe74	0.07568064
122	0x3d627dc7	0.055295732
123	0xbd4b6bef	-0.04966348
124	0x3c8d274c	0.017230652
125	0xbc0a83d7	-0.008454285
126	0x37e6e5e9	2.7525197e-05
127	0xbda0dbae	-0.078544006
128	0x3bbdef99	0.0057963845
129	0x3cff1aa7	0.031140639
130	0x3d704fb0	0.058669746
131	0x3c0fa181	0.008766533
132	0xbd8ea935	-0.069658674
133	0x3d9ca8bd	0.07649372
134	0x3ca3a946	0.019978177
135	0x3d9ecba8	0.07753688
136	0x3d1e8f4c	0.038710877
137	0x3d217217	0.039415445
138	0xbc41dfa2	-0.011833103
139	0x3d66a2fc	0.056307778
140	0x3d5a3cd6	0.053280674
141	0xbd816ba8	-0.06319362
142	0xbd2bbdac	-0.041928932
143	0x3c907997	0.017636104
144	0xbd22350c	-0.03960137
145	0xbd29aaec	-0.04142277
146	0x3cfaaac2	0.030599002
147	0x3c85806f	0.016296593
148	0xbd7e644c	-0.06210737
149	0xbd4fc233	-0.050722312
150	0x3c57c3c7	0.013169236
151	0x3d529f5d	0.051421512
152	0xbd3a0c5c	-0.045421943
153	0xbd068265	-0.032839198
154	0xbd436702	-0.047705658
155	0xbc8ea7a3	-0.01741392
156	0x3d3bd6da	0.045859195
157	0xbda1de5c	-0.0790374
158	0x3c04a42c	0.008095782
159	0xbcd12301	-0.025529386
160	0xbdb8f9ea	-0.09032042
161	0xbbb20e57	-0.0054338383
162	0xbce6336e	-0.028100695
163	0xbd5c8072	-0.053833432
164	0x3da8d59a	0.08243866
165	0xbca9875f	-0.020694433
166	0xbd801386	-0.06253724
167	0x3d017bb0	0.0316121
168	0xbd214380	-0.039371014
169	0x3d29dbf7	0.04146954
170	0x3d8cec1f	0.06880974
171	0xbd82af5c	-0.063811034
172	0x3c863d78	0.016386732
173	0xbbaf17c6	-0.00534341
174	0xbd7e864b	-0.06213979
175	0x3cf6f3fd	0.03014564
176	0xbc21812c	-0.009857457
177	0xbc2f4ce4	-0.0106994845
178	0xbd99b9f0	-0.07506168
179	0x3c858e49	0.016303198
180	0xba3d2d20	-0.0007216502
181	0x3c961361	0.018319787
182	0xbcf81f10	-0.03028825
183	0xbd442bda	-0.047893383
184	0x3d6dc576	0.05804964
185	0xbda25993	-0.07927241
186	0x3c881591	0.016611846
187	0x3cd02c4c	0.025411747
188	0xbd152290	-0.036409914
189	0xbd813545	-0.063089885
190	0xbd52a841	-0.05142999
191	0x3c7e4247	0.015518731
192	0x3c34191b	0.010992314
193	0x3c70797a	0.0146774
194	0xbcb29c25	-0.021802971
195	0x3d8d6358	0.06903714
196	0x3c9f7fb7	0.019470079
197	0xbc4d83e4	-0.012543652
198	0x3da7ffa8	0.082030594
199	0xbda4b7ff	-0.08042907
200	0xbdad2f7c	-0.084563226
201	0xbd88230e	-0.06647311
202	0xbc2e7689	-0.010648378
203	0xbc99de0a	-0.018782634
204	0x3d713397	0.05888709
205	0xbd03e1d1	-0.032197777
206	0xbd76b522	-0.060231335
207	0x3d8d2046	0.06890921
208	0xbba93923	-0.005164282
209	0xbcdbd26b	-0.026833734
210	0x3af3acd2	0.0018590933
211	0x3d8511ba	0.06497522
212	0x3d7ec05c	0.062195167
213	0x3d7b65b8	0.061376303
214	0xbdace5a7	-0.0844224
215	0xbce78a9e	-0.02826434
216	0x3cc114bf	0.023569463
217	0x3bd8e79a	0.006619406
218	0xbc23ca6c	-0.009996992
219	0xbdca7bdf	-0.09886908
220	0x3b715c52	0.0036828709
221	0x3c59bc15	0.013289471
222	0x3d0772dc	0.033068523
223	0x3d87f9db	0.06639453
224	0x3d4af3f1	0.049549047
225	0xbd9bf652	-0.07615341
226	0x3d50aa28	0.050943524
227	0x3c429f4b	0.011878799
228	0x3d9b9b90	0.075980306
229	0xbb89f6f8	-0.004210349
230	0x3ca3ce27	0.019995762
231	0x3d9983d2	0.07495846
232	0xbd3952a1	-0.045244817
233	0x3cc7ebe6	0.024404477
234	0xbca8cdc2	-0.020605925
235	0x3cd84562	0.026400272
236	0x3d1efa3a	0.038812853
237	0xbd9c2212	-0.07623686
238	0xbda2698a	-0.07930286
239	0x3c6de9ad	0.014521045
240	0x3d8c01d7	0.068362884
241	0xbd4595aa	-0.048238434
242	0x3cf3a812	0.029743228
243	0x3d904f0c	0.07046327
244	0xbd8e2435	-0.069405
245	0x3d1bf892	0.038078852
246	0x3d852563	0.065012716
247	0x3ca7002a	0.02038582
248	0xbd57424b	-0.052553456
249	0x3c3b90fa	0.011448139
250	0xbd5aefd3	-0.05345137
251	0x3b87aaf6	0.004140253
252	0x3c80990c	0.015697978
253	0x3d14a567	0.036290552
254	0xbd3909c1	-0.045175318
255	0x3d3d6f94	0.046248987

net.2.bias f4 [32]
0	0x3cbdfe4b	0.023192545
1	0xbda027c6	-0.07820086
2	0xbc18d150	-0.009327248
3	0x3c678964	0.014131878
4	0x3d8af05b	0.067841254
5	0x3c92bde3	0.01791281
6	0xbcb11457	-0.021616144
7	0xbd9d8240	-0.07690859
8	0xbc3d2de3	-0.011546585
9	0xbd5eda77	-0.054407563
10	0xbd76c560	-0.060246825
11	0xbd8d2cc7	-0.06893306
12	0xbd96f921	-0.07371736
13	0xbc82ec7f	-0.01598191
14	0xbd420ce0	-0.04737556
15	0xbaf4787c	-0.001865163
16	0xbd78f2f5	-0.060778577
17	0xbd234741	-0.039862875
18	0xbd960e9e	-0.07327007
19	0x3d935e39	0.07195706
20	0xbd9bb237	-0.07602351
21	0xbd8cead0	-0.068807244
22	0xbcd4c895	-0.025974551
23	0x3d663709	0.05620483
24	0xbd3406b7	-0.043951716
25	0x3c84ee62	0.016226951
26	0x3d8fbf12	0.07018866
27	0xbd476c98	-0.048687547
28	0x3d8ff9cb	0.07030066
29	0x3c802874	0.01564429
30	0x3cf24dd7	0.029578133
31	0x3cfec388	0.031099096

net.3.weight f4 [32]
0	0x3ed23d40	0.41062355
1	0x3f0e2bc3	0.55535525
2	0x3f1330fb	0.57496613
3	0x3e8bb3eb	0.27285704
4	0x3f4936a8	0.78599024
5	0x3f0926bf	0.53574747
6	0x3f7fd5d1	0.9993563
7	0x3f34d64c	0.7063949
8	0x3e982726	0.29717368
9	0x3eca49f0	0.39509535
10	0x3f57651f	0.84138674
11	0x3e3bc058	0.18335092
12	0x3f46d488	0.77668047
13	0x3e75d70a	0.24007812
14	0x3eb137f1	0.34612992
15	0x3f09b737	0.5379519
16	0x3ebc5128	0.36780667
17	0x3f62e627	0.88632435
18	0x3e2073e5	0.1566921
19	0x3f14b6b3	0.58091277
20	0x3ed09498	0.40738368
21	0x3ecd14d8	0.40054965
22	0x3f2b616c	0.6694553
23	0x3f532026	0.8247093
24	0x3f572bfa	0.8405148
25	0x3e049c13	0.12950163
26	0x3dba6051	0.09100402
27	0x3edd8dc2	0.43272215
28	0x3f058aeb	0.52165097
29	0x3edc5fe4	0.4304191
30	0x3f041505	0.51594573
31	0x3e9f2ba0	0.3108797

net.3.bias f4 [32]
0	0x3bbae1db	0.0057031936
1	0xba879c27	-0.001034622
2	0xbcc8b5f3	-0.024500823
3	0x3b078c80	0.002068311
4	0xbbf8c265	-0.007591533
5	0xbb217f5c	-0.0024642562
6	0xbbd790e4	-0.0065785516
7	0xba55c7f6	-0.00081551017
8	0xbc10fd45	-0.008849447
9	0xbabbcac5	-0.0014327398
10	0x3ba26239	0.0049555567
11	0x3a0162d3	0.00049356854
12	0x3b71786f	0.0036845466
13	0xbc715196	-0.014728924
14	0x3b0a340c	0.0021088151
15	0xbca3289f	-0.01991683
16	0xbca46bb5	-0.02007089
17	0xbcbf3de2	-0.023344938
18	0x3c4a152c	0.012334149
19	0x3c011522	0.007878574
20	0xbb77e676	-0.0037826574
21	0x3bd4118e	0.0064718192
22	0xbb42a6f1	-0.0029701556
23	0xbc5db860	-0.013532728
24	0xbc0b16bc	-0.008489307
25	0x3b3dc159	0.0028954356
26	0x3c9bc52b	0.019014915
27	0xbb7c5873	-0.0038504868
28	0xbc56c089	-0.013107427
29	0xba4c5680	-0.0007794872
30	0xbcad6963	-0.021168416
31	0x3bd9e312	0.0066493833

net.3.running_mean f4 [32]
0	0xbd417bf5	-0.047237355
1	0xbeafa5e2	-0.34306246
2	0xbe4b82d5	-0.19874127
3	0xbe142bbf	-0.14469813
4	0x3e67d0f0	0.22638297
5	0xbe1dac49	-0.15397753
6	0x3df465e4	0.119334966
7	0xbec63739	-0.38714007
8	0xbd933f81	-0.07189847
9	0xbe3cd76b	-0.1844155
10	0x3ea362d7	0.31911346
11	0xbd8d9e17	-0.06914919
12	0xbe533d2b	-0.20628802
13	0xbdd92e94	-0.10604587
14	0xbdc14021	-0.0943606
15	0xbdd15cbf	-0.10222768
16	0xbe4cfb29	-0.20017685
17	0x3e181503	0.14851765
18	0xbdc26e94	-0.09493747
19	0x3ed6d27e	0.41957468
20	0xbe3ec8ed	-0.18631335
21	0xbe60b57a	-0.21944228
22	0x3e359a5c	0.17734665
23	0x3d9238fc	0.07139775
24	0xbd4746cb	-0.048651498
25	0x3f075762	0.5286771
26	0x3dfe26ab	0.12409719
27	0xbe35835b	-0.1772589
28	0x3d897217	0.06711214
29	0x3ec2066c	0.37895525
30	0xbb59c029	-0.0033226109
31	0x3e34a358	0.17640436

net.3.running_var f4 [32]
0	0x3b412c7d	0.002947598
1	0x3bd826ad	0.0065964074
2	0x3bd2b756	0.0064305468
3	0x3a92aa07	0.0011189588
4	0x3b6f008a	0.0036468827
5	0x3ba633d7	0.0050720978
6	0x3a990b36	0.0011676315
7	0x3be9d545	0.0071360194
8	0x3b03c13e	0.0020104195
9	0x3b7a1f39	0.0038165583
10	0x3c0b66c0	0.008508384
11	0x3b01c414	0.001980071
12	0x3b31ecf3	0.002714929
13	0x3b2cee35	0.00263871
14	0x3ada570e	0.0016658024
15	0x3a679067	0.00088334683
16	0x3b00b1a8	0.0019637141
17	0x3bd5029c	0.006500555
18	0x3abed707	0.0014559933
19	0x3c536096	0.012901446
20	0x3b1360a9	0.0022488034
21	0x3ae68cb2	0.0017589538
22	0x3b2f3f84	0.002674074
23	0x3b3820ea	0.002809579
24	0x3ad340a7	0.001611729
25	0x3caf12c9	0.021371262
26	0x3abfacd2	0.0014623648
27	0x3ae8ba99	0.0017755806
28	0x3b291d92	0.0025804979
29	0x3c3979b1	0.011320517
30	0x3aadd0ee	0.0013261118
31	0x3ae30eaa	0.0017323096

net.5.weight f4 [64, 32, 3, 3]
0	0x3c95ac4b	0.018270632
1	0xbc74bc56	-0.014937481
2	0x3d5488b5	0.051888186
3	0x3aef6518	0.0018264381
4	0xbd11c197	-0.035585012
5	0xbcd97c75	-0.026548604
6	0xbd6935a8	-0.056935936
7	0xbd52d25a	-0.051470138
8	0x3c9c2274	0.019059397
9	0xbcc78693	-0.024356162
10	0xbce2135d	-0.027597124
11	0x3cb88a15	0.02252678
12	0x3d342d73	0.043988656
13	0xbbeb46cf	-0.007180072
14	0x3be349dd	0.0069362954
15	0x3d326d22	0.04356111
16	0xbd17b44a	-0.03703717
17	0xbd3a092c	-0.045418903
18	0x3d2a48fd	0.041573513
19	0xbc12cc1e	-0.008959798
20	0x3b48ce6f	0.0030640622
21	0xbd102b8d	-0.035197783
22	0x3c55d83f	0.013052045
23	0xbc88fbf3	-0.016721701
24	0xbd185322	-0.037188657
25	0xbd721af1	-0.059107725
26	0x3d68b3ab	0.05681197
27	0x3d53f971	0.051751558
28	0x3ca8ec95	0.020620624
29	0x3d24e16a	0.040254034
30	0x3d10d12d	0.035355736
31	0xbca9c712	-0.020724807
32	0x3a7d9008	0.00096726464
33	0xbc9dae37	-0.019248111
34	0xbd258754	-0.040412262
35	0xbd70f25d	-0.058824886
36	0x3c365e3f	0.011130868
37	0x3d2992c8	0.041399747
38	0xbbbb1594	-0.0057093594
39	0xbb0b9f0a	-0.0021304511
40	0x39d319f8	0.00040264404
41	0xbc0fb783	-0.00877178
42	0x3ce2778c	0.027644895
43	0x3d3e427d	0.046450127
44	0xbd06de30	-0.03292674
45	0x3b85f0b4	0.004087532
46	0xbc5344cc	-0.01289482
47	0x3c8bcfb1	0.017066808
48	0xbd7555d7	-0.059896316
49	0xbd4f0999	-0.050546262
50	0x3cd7e289	0.026353138
51	0xbd3045b5	-0.043035228
52	0x3c956cab	0.018240293
53	0xbcabcd3f	-0.020971892
54	0xbd4d8432	-0.0501749
55	0xbd1595e6	-0.036519907
56	0x3ca9b48b	0.020715972
57	0x3c0c073a	0.008546645
58	0x3c9afffe	0.018920895
59	0x3c95a462	0.01826686
60	0xbc0e9a04	-0.008703712
61	0x3caf7b8d	0.021421218
62	0xbd61aeaf	-0.055098232
63	0xbcd60444	-0.02612508
64	0xbd3486e5	-0.044073958
65	0xbc0440d0	-0.008072093
66	0xbd0e93cd	-0.034808923
67	0x3cd13da9	0.025542097
68	0x3cd29649	0.025706427
69	0xbd43744a	-0.047718324
70	0x3bd4a6c6	0.0064896075
71	0x3d00f6e9	0.031485472
72	0xbd2bf813	-0.04198463
73	0x3cdaca70	0.026707858
74	0xbc4b809a	-0.012420798
75	0xbc265401	-0.010151864
76	0x3d1ba16a	0.037995733
77	0xbbac562d	-0.0052592964
78	0x3b1a47e6	0.002354139
79	0xbcc1242d	-0.02357682
80	0x3ba64075	0.005073602
81	0x3d201de8	0.03909102
82	0x3c928f4d	0.017890597
83	0xbd121422	-0.03566373
84	0x3d39a401	0.045322422
85	0x3d4a9414	0.049457625
86	0x3ce04dee	0.02738091
87	0x3c864a02	0.016392712
88	0xbaf75349	-0.0018869425
89	0x3d06559a	0.03279648
90	0xbd05391d	-0.03252517
91	0xbd28213e	-0.041047327
92	0x3c08b18a	0.00834311
93	0x3bf16afe	0.007367491
94	0x3d30c648	0.043157846
95	0x3c5e4f5e	0.013568727
96	0x38308cc2	4.209276e-05
97	0xbd83c6f5	-0.064344324
98	0xbc3296d5	-0.010900219
99	0xbd7274c0	-0.059193373
100	0xbc25b475	-0.010113825
101	0xbc77e936	-0.015131285
102	0xbd05f117	-0.032700624
103	0xbbf986c2	-0.0076149413
104	0x3c3f1860	0.011663526
105	0xbc17c80c	-0.0092640035
106	0x3ab65c69	0.0013913038
107	0xbd0fddb6	-0.03512355
108	0x3cf1ff06	0.02954055
109	0x3d0fe2ed	0.035128523
110	0x3ccc8711	0.024966748
111	0x3c153fcb	0.009109448
112	0x3c3766a7	0.011193908
113	0xbd4b9e73	-0.049711656
114	0x3cce984f	0.02521911
115	0xbd62eb26	-0.055400036
116	0x3cdb9489	0.026804226
117	0xbc7e1153	-0.01550706
118	0xbcd94db0	-0.026526302
119	0xbc6f7256	-0.014614662
120	0xbd82dd74	-0.06389895
121	0x3ccb4819	0.024814652
122	0x3c299502	0.010350468
123	0x3d22231e	0.03958427
124	0xbccecb16	-0.025243323
125	0x3d155859	0.036461208
126	0x3c4bcef3	0.012439477
127	0xbd0590e2	-0.032608874
128	0x3d892315	0.066961445
129	0x3d440729	0.04785839
130	0xbd492eb5	-0.04911681
131	0xbd25525b	-0.040361743
132	0x3d4d7281	0.050158028
133	0xbd50436f	-0.05084556
134	0xbcdba2f0	-0.026811093
135	0x3d70bdc8	0.05877474
136	0x3c958125	0.018250057
137	0xbc0cb325	-0.008587633
138	0x3bd080f0	0.006363027
139	0x3c9c3278	0.019067034
140	0xbd668e89	-0.056288276
141	0x3ca80cba	0.020513881
142	0xbd429067	-0.047500994
143	0x3c3e0c84	0.011599664
144	0xbbeffed2	-0.007324078
145	0xbae85a00	-0.0017727017
146	0xbce8f5a2	-0.02843744
147	0xbb4b7dc3	-0.0031050302
148	0x3c71e075	0.014762987
149	0xbd29f95b	-0.04149757
150	0xbd23103d	-0.039810408
151	0xbd834fd3	-0.0641171
152	0xbc862a6f	-0.016377656
153	0x3d16c874	0.03681226
154	0xbd29e763	-0.041480433
155	0x3d47f08d	0.04881339
156	0x3c69a778	0.014261119
157	0xb8962a63	-7.1604525e-05
158	0x3af09fe0	0.0018358193
159	0x3a0734b0	0.00051576924
160	0x3d1232e5	0.035693068
161	0x3c791aa9	0.01520411
162	0x3cad70fc	0.02117204
163	0xbc938ca5	-0.0180114
164	0x3acd2025	0.0015649839
165	0x3d2a1152	0.041520424
166	0xbd6c1039	-0.05763266
167	0xbcf9025c	-0.030396633
168	0xbc928aae	-0.017888393
169	0x3d178a66	0.03699722
170	0xbc072d1e	-0.008250503
171	0xbc694bac	-0.014239233
172	0x3c8c4eac	0.017127357
173	0xbd376610	-0.04477507
174	0x3cea7015	0.028617898
175	0x3cdfce73	0.027320122
176	0x3d210f99	0.039321516
177	0xbd6095b3	-0.054830264
178	0xbd1c114d	-0.038102437
179	0xbc7b0dcd	-0.015323115
180	0x3d152d78	0.036420316
181	0xbd520c0a	-0.051281013
182	0xbd5d52c9	-0.05403403
183	0xbc9b4a06	-0.018956196
184	0x3c9b447b	0.018953552
185	0xbb25dcea	-0.0025308677
186	0xbd2667d7	-0.040626373
187	0x3d410489	0.047123466
188	0xbd8d3159	-0.06894178
189	0xbd45f588	-0.04832986
190	0xbd6ebb16	-0.058283888
191	0x3b1e386b	0.0024142514
192	0xbd00d7a8	-0.031455666
193	0xbc869fc1	-0.016433598
194	0x3d0e26eb	0.034705084
195	0xbc85cbbc	-0.0163325
196	0xbd0bf452	-0.03416855
197	0xbd74b596	-0.059743486
198	0x3c54142a	0.012944261
199	0x3b17e516	0.0023177317
200	0xbc2de194	-0.010612864
201	0xbd82e713	-0.0639173
202	0xbd6635be	-0.056203596
203	0x3d3fb095	0.04679926
204	0xbcb7af33	-0.022422409
205	0xbc4e5bd7	-0.0125951385
206	0xbced89ad	-0.028996313
207	0x3b57e197	0.0032940859
208	0xbce0f11b	-0.027458718
209	0x3d46e4f2	0.048558183
210	0xbc4ba8f0	-0.012430415
211	0x3d549c9f	0.051907178
212	0xbd6d6510	-0.05795771
213	0xbcb2a6a3	-0.021807974
214	0x3c92f307	0.01793815
215	0x3d41f9ae	0.047357254
216	0xbd4a2980	-0.049355984
217	0x3d0c6b5b	0.03428207
218	0xbd429726	-0.047507428
219	0xbd70809a	-0.058716394
220	0xba06c1fb	-0.00051405997
221	0xbc038138	-0.008026414
222	0xbd020288	-0.031740695
223	0xbb937467	-0.00449996
224	0xbd0dfa51	-0.03466255
225	0xbd24cc37	-0.040233817
226	0x3c828683	0.01593328
227	0xbbab9f07	-0.0052374634
228	0x3c0e62a1	0.008690507
229	0xbd4a86f5	-0.04944511
230	0x3ca273de	0.01983064
231	0x3d0eeada	0.03489194
232	0x3cdc1e6c	0.026869975
233	0x3c7b03c6	0.015320724
234	0xbd45d3eb	-0.048297804
235	0xbd06596d	-0.032800127
236	0x3c92d8a0	0.01792556
237	0xbc806adc	-0.015675955
238	0x3c08d154	0.008350689
239	0x3d5623e7	0.052280333
240	0xbcb05a80	-0.021527529
241	0x3d52e705	0.05148985
242	0x3c0ea08d	0.0087052705
243	0xbc47421c	-0.012161758
244	0xbd48b844	-0.049003854
245	0x3bbea4d6	0.00581799
246	0x3ca89291	0.0205777
247	0xbd3d338d	-0.04619174
248	0x3d0ec7cc	0.03485851
249	0xbd7ee95e	-0.062234275
250	0x3bd3f8b0	0.006468855
251	0x3d198227	0.03747764
252	0xbc805616	-0.015666049
253	0x3c610ed1	0.013736443
254	0xbc1a09a9	-0.009401717
255	0xbd45b02b	-0.04826371

net.5.bias f4 [64]
0	0xbce9ae5f	-0.02852553
1	0x3d30e7be	0.043189757
2	0x3d2a090a	0.041512527
3	0xbc4195ff	-0.011815547
4	0xbbd785b8	-0.00657722
5	0xbc8041ac	-0.015656315
6	0xbc46adf4	-0.012126435
7	0xbd3c3709	-0.045950923
8	0x3d2dc316	0.042422377
9	0xbcd036df	-0.02541679
10	0x3d30a05d	0.043121684
11	0x3cf7b876	0.030239325
12	0xbd12a5d9	-0.035802696
13	0x3cb77448	0.022394314
14	0x3d078373	0.033084344
15	0x3d5e2325	0.054232735
16	0xbd66f5ce	-0.05638676
17	0xbd27c01e	-0.0409547
18	0xbd38cac1	-0.045115236
19	0xbce7cff7	-0.028297408
20	0xbd4bc9f2	-0.049753137
21	0xbc428c6c	-0.0118742995
22	0x3c9c2538	0.019060716
23	0xbd4da267	-0.050203707
24	0xbcaa44c6	-0.020784747
25	0x3b800c12	0.003907689
26	0xbd638afe	-0.055552475
27	0x3cf3796d	0.029720986
28	0x3ce13b2a	0.027494032
29	0xbce0cb0f	-0.027440576
30	0xbca104b4	-0.019655563
31	0x3d088310	0.033328116
32	0xba3dd1c5	-0.0007241036
33	0x3d39d9d7	0.045373764
34	0x3d09be55	0.03362878
35	0x3b486567	0.0030578019
36	0xbd0c7347	-0.034289625
37	0x3c89b8f8	0.016811833
38	0xbd1b460e	-0.037908606
39	0x3d5fbb92	0.05462224
40	0xbd3db4b8	-0.046314925
41	0x3cee2234	0.029069044
42	0xbc790ae0	-0.015200347
43	0x3d579662	0.05263365
44	0xbd0f74e2	-0.035023578
45	0xbb809dad	-0.0039250464
46	0xbcc8ce28	-0.024512365
47	0xbbe609b9	-0.007020202
48	0xbd04d158	-0.03242621
49	0xbd3ed3fc	-0.046588883
50	0x3bb7af45	0.0056056106
51	0x3d114b69	0.035472307
52	0xbd54e361	-0.051974658
53	0xbd487519	-0.048939798
54	0xbb8e9455	-0.0043511786
55	0x3d5de767	0.05417576
56	0x3a98b612	0.0011650941
57	0x3bdfb10d	0.006826526
58	0xbd5b4a74	-0.0535378
59	0x3d6ce4ec	0.057835504
60	0x3d107ca5	0.03527512
61	0xbd2654bd	-0.040608156
62	0x3d51af97	0.051192846
63	0xbd1b1ec3	-0.037871134

net.6.weight f4 [64]
0	0x3f7d56d8	0.9896064
1	0x3f601d45	0.8754466
2	0x3f2e8102	0.681656
3	0x3f4bb646	0.79575
4	0x3f0b9bd8	0.54534674
5	0x3f593f5c	0.84862304
6	0x3eaa3e32	0.33250576
7	0x3e103edf	0.14086483
8	0x3e15d625	0.14632471
9	0x3f75480c	0.9581306
10	0x3eb440f1	0.35205796
11	0x3e8ff853	0.28119144
12	0x3f3b4bb2	0.73162377
13	0x3e0ac607	0.13552104
14	0x3f6a8e13	0.9162304
15	0x3df4ec41	0.11959124
16	0x3f5ba6b7	0.8580126
17	0x3e878ecc	0.26476133
18	0x3f4f61e1	0.81008726
19	0x3f51c4c1	0.8194085
20	0x3e882881	0.26593402
21	0x3f700259	0.9375358
22	0x3e95f6f6	0.2928998
23	0x3ed3af9a	0.4134491
24	0x3d98aab8	0.07454437
25	0x3f3d96cd	0.7405823
26	0x3e7a0453	0.24415712
27	0x3dad6c02	0.084678665
28	0x3e1a10aa	0.1504542
29	0x3de57e28	0.11205703
30	0x3e2af996	0.16696772
31	0x3e3c145a	0.18367139
32	0x3f7c5eeb	0.98582333
33	0x3f46c4b2	0.77643883
34	0x3ecbe729	0.398248
35	0x3e8f3ec2	0.27977568
36	0x3f04780c	0.51745677
37	0x3d33f0f7	0.043930974
38	0x3ee2fc00	0.44332886
39	0x3d903bc0	0.070426464
40	0x3f0fe44e	0.5620774
41	0x3e810a90	0.2520337
42	0x3f730daf	0.94942755
43	0x3eced9ec	0.40400636
44	0x3e8f48e0	0.27985287
45	0x3f1050aa	0.56373084
46	0x3f520576	0.8203958
47	0x3d4db167	0.050218012
48	0x3ebcc84e	0.3687157
49	0x3f19db7a	0.6010052
50	0x3f013f03	0.50486773
51	0x3ddd3b8e	0.10802375
52	0x3f003493	0.5008022
53	0x3ed0ae9a	0.4075821
54	0x3f7d9b08	0.99064684
55	0x3f463c41	0.7743569
56	0x3f3aeb85	0.73015624
57	0x3e8f1125	0.27942768
58	0x3e526840	0.2054758
59	0x3f48c093	0.78418845
60	0x3f70936e	0.9397496
61	0x3dee6ee5	0.11642245
62	0x3dc42fd0	0.09579432
63	0x3eb859f1	0.3600612

net.6.bias f4 [64]
0	0xbc3bf2cd	-0.011471462
1	0xbce69cda	-0.028150965
2	0x3ad30514	0.0016099536
3	0xbb88fba8	-0.0041803904
4	0xbb6f417a	-0.0036507533
5	0xbc8f97bc	-0.017528407
6	0x3c66d9f4	0.01409005
7	0xbb790bde	-0.0038001458
8	0xb9fcf363	-0.00048246523
9	0xbc9d18ee	-0.019176926
10	0xbb077ddb	-0.002067438
11	0xbc120a01	-0.008913518
12	0xbbea974b	-0.007159149
13	0xbc176bc3	-0.009242001
14	0xbc59528a	-0.013264308
15	0xbb2f46e5	-0.0026745137
16	0xbbaf0285	-0.0053408765
17	0x3c5b3618	0.013379596
18	0xbce837c6	-0.028346907
19	0xbc9d23b1	-0.019182058
20	0xbb5bcec0	-0.003353998
21	0xbcf56ca7	-0.029959036
22	0xbbda225a	-0.006656927
23	0xba97665c	-0.0011550891
24	0x3a1e9d5c	0.000605067
25	0xbccf12cf	-0.025277523
26	0xbb97d836	-0.0046339286
27	0xb923759c	-0.00015588704
28	0x3c0944da	0.008378232
29	0x393b734f	0.00017876666
30	0x3c3a74c2	0.011380376
31	0x3b01385d	0.0019717433
32	0xbc366891	-0.011133329
33	0xbc74d6a2	-0.014943751
34	0xbb9a5476	-0.0047097756
35	0xbb5f7080	-0.0034094155
36	0xbc21b62c	-0.009870093
37	0x3ccfbfc5	0.025359998
38	0xbc3fb341	-0.011700452
39	0x3c149271	0.0090681175
40	0xbbc350d5	-0.0059605637
41	0xbae3651d	-0.001734886
42	0xbd03e6b8	-0.032202452
43	0xbcb7a17c	-0.022415869
44	0x3bc18d0a	0.0059067057
45	0xbc870fe4	-0.01648707
46	0xbc139e0b	-0.009009848
47	0x3c1e44bc	0.009659942
48	0xbc7e6b84	-0.015528563
49	0xbccb8504	-0.0248437
50	0xbc97816c	-0.01849433
51	0x3bdf136a	0.0068077343
52	0xbcab53b0	-0.020913929
53	0xbb80d024	-0.0039310623
54	0xbc552820	-0.013010055
55	0xbcb57de6	-0.02215476
56	0xbb65fd21	-0.0035093504
57	0x3c68ce47	0.014209337
58	0x3ba46846	0.005017313
59	0xbce7ba25	-0.028287003
60	0xbc1ee447	-0.00969798
61	0x3c40c1d4	0.011764962
62	0x3c681434	0.014164973
63	0xbc51212b	-0.0127642555

net.6.running_mean f4 [64]
0	0xbe52314b	-0.20526616
1	0x3e3b53e1	0.18293716
2	0xbebefdb8	-0.37302947
3	0x3db616ae	0.088910446
4	0x3c044211	0.008072392
5	0x3e1ba1cd	0.15198441
6	0xbe6fef99	-0.23431243
7	0x3d5f69df	0.054544326
8	0x3e0e179a	0.13876191
9	0x3e3e19e4	0.18564564
10	0x3e39a72b	0.18130176
11	0x3e2ecfb2	0.17071417
12	0xbdfaf37e	-0.12253474
13	0x3e74c111	0.23901774
14	0xbd76e64b	-0.06027822
15	0x3e7b4980	0.24539757
16	0xbe587e17	-0.2114185
17	0xbee68e1a	-0.4503029
18	0x3dbd5bd8	0.092460334
19	0x3cfd47b7	0.030917985
20	0x3e4f9101	0.20270158
21	0x3e75675c	0.2396521
22	0x3d86c4be	0.06580494
23	0xbe6055bb	-0.21907704
24	0x3e77fba1	0.24217083
25	0x3eb45bad	0.35226193
26	0xbc367ef1	-0.011138664
27	0x3e40e3f3	0.18836956
28	0xbe00b81c	-0.12570232
29	0xbc4ccfeb	-0.012500743
30	0xbec9d0d0	-0.39417124
31	0x3e44089c	0.19143909
32	0x3d051fca	0.03250102
33	0x3d6db227	0.058031227
34	0xbe3169b7	-0.17325483
35	0x3e35ef94	0.17767173
36	0x3deb8d9c	0.11501619
37	0xbd498515	-0.049199183
38	0xbad72737	-0.0016414885
39	0x3e44640b	0.19178788
40	0xbee989d4	-0.45612967
41	0x3e2900d7	0.16504227
42	0x3e35cc02	0.17753604
43	0x3e0c216a	0.13684621
44	0xbe2ebcf9	-0.17064275
45	0x3e4e5c4f	0.201524
46	0xbda9025a	-0.08252402
47	0xbdf21052	-0.11819519
48	0x3e31394b	0.17307012
49	0xbbe4b2a5	-0.006979304
50	0x3e396484	0.1810475
51	0x3ebaad7f	0.36460492
52	0x3dec016f	0.11523711
53	0x3e9858ad	0.29755154
54	0xbd437e18	-0.047727674
55	0x3e8d7978	0.27631736
56	0xbe89ceb1	-0.26915506
57	0xbee66e82	-0.45006186
58	0xbd83fd49	-0.06444795
59	0x3d65b528	0.056080967
60	0xbe931a15	-0.28730837
61	0xbd3199ba	-0.043359496
62	0x3e280869	0.16409458
63	0x3de31c4a	0.1108938

net.6.running_var f4 [64]
0	0x3d00ffd2	0.03149397
1	0x3ccbe428	0.024889067
2	0x3dcbe179	0.09955115
3	0x3d43c1cb	0.047792237
4	0x3d95cb1d	0.073141314
5	0x3d40493e	0.04694485
6	0x3d8cd0b4	0.068757445
7	0x3d0c0702	0.03418637
8	0x3c8cce31	0.017188163
9	0x3d8424f1	0.064523585
10	0x3d848d72	0.06472291
11	0x3d19595f	0.037438747
12	0x3d402686	0.04691174
13	0x3cc95ffc	0.024581902
14	0x3d426abb	0.047465067
15	0x3ca956f1	0.02067134
16	0x3d864048	0.065552294
17	0x3d810610	0.062999845
18	0x3d2e903e	0.04261803
19	0x3d1541bd	0.036439646
20	0x3cd07823	0.02544791
21	0x3d37a2d5	0.044833023
22	0x3c9b0a33	0.018925762
23	0x3d0c28ae	0.034218483
24	0x3cdf7dda	0.02728169
25	0x3d501ce6	0.05080881
26	0x3d1200af	0.035645183
27	0x3cb6e1ac	0.022324406
28	0x3cfe24e9	0.03102346
29	0x3d315e0d	0.043302584
30	0x3d6559f8	0.055994004
31	0x3c8edde2	0.017439786
32	0x3dd03639	0.10166592
33	0x3d039179	0.032121155
34	0x3d8dcdbb	0.069240056
35	0x3d631e26	0.055448674
36	0x3d148c0f	0.036266383
37	0x3ce1a0ca	0.02754249
38	0x3cf8b452	0.03035942
39	0x3c62ab06	0.0138347205
40	0x3d62f183	0.055406105
41	0x3cdef1ab	0.027214846
42	0x3cdd9f98	0.02705364
43	0x3cb0a9e2	0.021565381
44	0x3c54e0d7	0.012993059
45	0x3d034ff5	0.032058675
46	0x3e002082	0.12512401
47	0x3d0673b6	0.032825194
48	0x3cfd4ad9	0.03091948
49	0x3c89b0ab	0.016807875
50	0x3cc4e1cc	0.02403345
51	0x3d36879d	0.044562925
52	0x3d515c92	0.051113673
53	0x3d5cd815	0.05391701
54	0x3d0b4fe1	0.034011725
55	0x3cc8fec8	0.024535552
56	0x3d3c9e98	0.046049684
57	0x3df1007b	0.1176767
58	0x3d16607b	0.036713105
59	0x3d0903a0	0.033450723
60	0x3d981cfb	0.074274026
61	0x3d4be609	0.049779925
62	0x3c9a9b44	0.018872865
63	0x3d277655	0.040884335

net.8.weight f4 [128, 64, 3, 3]
0	0x3d137c42	0.036007173
1	0xbc3d7807	-0.011564261
2	0xbc4c94f9	-0.01248669
3	0xbb99b56f	-0.004690818
4	0x3bcb09bf	0.00619623
5	0xbcffb042	-0.031211976
6	0x3d06ad34	0.032880023
7	0xbc2012a0	-0.009770066
8	0xbc85f510	-0.016352206
9	0x3d37ac2b	0.044841927
10	0x3d09f4af	0.033680614
11	0x3c752091	0.014961378
12	0x3d2372a9	0.03990427
13	0x3d106ec8	0.0352619
14	0xbcba3a58	-0.022732899
15	0x3ba4e623	0.0050323172
16	0x3c0acbeb	0.008471469
17	0xbcca06af	-0.02466139
18	0xbcbce948	-0.023060456
19	0x3c8493f7	0.016183836
20	0x3d38684a	0.045021333
21	0x3d0e2c34	0.034710124
22	0xbc82eaef	-0.015981166
23	0xbc95d61a	-0.018290568
24	0x3d2e660e	0.042577796
25	0xbccad9cf	-0.024762062
26	0xbca9df1c	-0.02073627
27	0xbada0463	-0.0016633387
28	0xbc82ffba	-0.01599108
29	0xbd4d5fa9	-0.050140057
30	0x3ca9554f	0.020670561
31	0xbc8dc5b7	-0.017306192
32	0x3c597356	0.013272127
33	0x3c393f1d	0.011306551
34	0xbc75e513	-0.015008229
35	0x3c6708da	0.0141012315
36	0xb9b928ad	-0.00035316256
37	0x3d08c952	0.03339512
38	0xbb9737a9	-0.0046147895
39	0x3c54319d	0.012951282
40	0xbd109f77	-0.035308328
41	0x3cb45799	0.022014426
42	0xbd01f967	-0.03173199
43	0x3bdc966e	0.0067318
44	0x3b93f48c	0.0045152362
45	0x3ba2808e	0.0049591726
46	0x3d0bf0b5	0.034165103
47	0xbcf2d0c7	-0.029640568
48	0xbcd54e24	-0.026038237
49	0xbba2ed38	-0.0049721263
50	0xbcede6ba	-0.029040683
51	0xbc3bc136	-0.011459639
52	0x3ceae705	0.028674612
53	0xbcd62171	-0.026138993
54	0xbcdb99df	-0.02680677
55	0x3d1ef2ef	0.0388059
56	0xbbcfde75	-0.0063436576
57	0x3c178f19	0.009250426
58	0xb8df4996	-0.00010647175
59	0xbcadac0b	-0.0212002
60	0xbccf50f2	-0.025307152
61	0xbc4debb5	-0.012568404
62	0xbca300f1	-0.01989791
63	0xbc076186	-0.0082629975
64	0xbcff0104	-0.031128414
65	0x3d06326e	0.032762937
66	0x3c526edd	0.012843815
67	0xbd1f6160	-0.038911223
68	0xbd0b7360	-0.034045577
69	0xbd33d637	-0.043905463
70	0x3cb49776	0.022044878
71	0xbae73822	-0.001764063
72	0xbd2739cf	-0.040826615
73	0x3c033ae5	0.008009647
74	0xbd2e3d8a	-0.042539157
75	0x3d1569ca	0.03647784
76	0xbc84b2b6	-0.016198497
77	0x3c904fd9	0.0176162
78	0x3cccaa96	0.024983685
79	0xbcea81e7	-0.028626395
80	0x3b598251	0.0033189247
81	0x3bffe6b5	0.007809485
82	0xbc6b79e4	-0.014372323
83	0xbd073a99	-0.033014867
84	0xbc8764c5	-0.016527543
85	0x3c2a2e73	0.010387051
86	0x3d000d9f	0.03126299
87	0x3ce6197a	0.02808832
88	0xbc3711f1	-0.011173711
89	0xbc949f05	-0.018142233
90	0xbd0a79b0	-0.033807456
91	0xbc5f674b	-0.013635467
92	0xbaaa3ef1	-0.0012988729
93	0xbb9645c4	-0.0045859534
94	0xbca09838	-0.019603834
95	0xbd16ff94	-0.036864832
96	0x3cf9dbf8	0.030500397
97	0xbaca88fa	-0.0015452199
98	0x3c14965c	0.009069052
99	0x3ab1b756	0.0013558667
100	0xba1b0aa6	-0.00059143675
101	0xbd497c7e	-0.04919099
102	0x3cfd3d40	0.030912995
103	0xbc277023	-0.010219607
104	0xbcc7d3a3	-0.024392908
105	0xbc398fbb	-0.011325772
106	0x3b3cbd5d	0.0028799393
107	0xba60ab9a	-0.00085704925
108	0xbb86bae1	-0.004111633
109	0xbd30e480	-0.043186665
110	0xbd31a93f	-0.043374296
111	0xbba65671	-0.0050762226
112	0x3d0cc9a8	0.034372002
113	0xbd0b88be	-0.034065954
114	0x3cda7bd5	0.026670376
115	0x3c0edb5a	0.00871929
116	0x3c2405b6	0.010011127
117	0x3c602602	0.013680937
118	0x3ca8dc6c	0.020612918
119	0x3c256799	0.0100955
120	0x3cb87ed8	0.022521421
121	0xbb42fab1	-0.0029751475
122	0x3cc9e87f	0.024646996
123	0x3bb33ffe	0.005470275
124	0xbd096da8	-0.033551842
125	0xbd237d2f	-0.039914306
126	0xbcada474	-0.021196581
127	0x3c84a576	0.01619218
128	0xbd17ac5a	-0.0370296
129	0x3c5f6945	0.013635938
130	0xbc49cd0e	-0.012316955
131	0xbd2439c1	-0.04009414
132	0xbcc3afd9	-0.023887562
133	0x3c2e0d45	0.010623281
134	0xbcae124c	-0.021248959
135	0x3d3bd47b	0.045856934
136	0xbcb814e8	-0.022470906
137	0x3cd6dc71	0.026228162
138	0xbc1b8cf3	-0.009494054
139	0xbc84cfbf	-0.016212342
140	0xbc1b7a72	-0.009489642
141	0xbb1d338c	-0.0023987023
142	0x3cd9e182	0.026596788
143	0x3c230866	0.009950733
144	0xbcab5e2e	-0.020918932
145	0x3c2e10dc	0.010624137
146	0x3c1f1e47	0.0097118085
147	0x3cc4873b	0.023990264
148	0x3c7e6f8f	0.015529527
149	0xbcf6da85	-0.030133495
150	0xbd01c82f	-0.03168505
151	0xbcb145e6	-0.021639775
152	0xbc8e4ace	-0.017369654
153	0x3cbd466d	0.02310487
154	0x3d134019	0.0359498
155	0x3d28b44c	0.04118757
156	0x3bedaa22	0.0072529474
157	0x3d18375d	0.037162174
158	0x3d341081	0.04396105
159	0x3d15beaa	0.036558785
160	0xbcb23b45	-0.021756778
161	0x3bc105dc	0.005890591
162	0x3cbb50eb	0.022865733
163	0x3d1c319a	0.03813324
164	0xbc533b1f	-0.012892514
165	0x3c079e3f	0.008277475
166	0x3c948d95	0.018133918
167	0x3b0e3ee5	0.0021704969
168	0x3a85cec9	0.0010208722
169	0xbbf25ff4	-0.0073966924
170	0xbb940920	-0.0045176893
171	0x3d3256eb	0.043539923
172	0x3c998529	0.018740254
173	0xbc66b6ca	-0.014081666
174	0xbcae5d38	-0.021284685
175	0x3c018227	0.007904566
176	0xbd2162a4	-0.03940071
177	0xbcc7a426	-0.024370264
178	0x3bd2aaca	0.006429051
179	0xbc8df299	-0.017327594
180	0x3ce98797	0.028507037
181	0xbab1301e	-0.0013518368
182	0x3ca8b500	0.02059412
183	0xba9d0cdd	-0.0011981983
184	0xbc299958	-0.010351501
185	0x3cd6bb5b	0.026212385
186	0xbcaeaa83	-0.02132154
187	0x3cfcedc8	0.030875102
188	0xbcde437b	-0.027131787
189	0x3ca37720	0.019954264
190	0xbcd4758b	-0.025934955
191	0xbd078e4d	-0.033094693
192	0x3cf7c40c	0.03024485
193	0x3c381420	0.011235267
194	0x3d013b42	0.031550653
195	0x3d34ce9a	0.044142343
196	0xbbb4d684	-0.0055187363
197	0xbca40ef1	-0.020026656
198	0x3ca67295	0.020318309
199	0xbb9b3f88	-0.004737798
200	0x3c4498f8	0.011999361
201	0xbb77719c	-0.0037756925
202	0xbd1d1691	-0.0383516
203	0xbd39e350	-0.045382798
204	0x3ced3c24	0.028959341
205	0xbc16f18a	-0.009212861
206	0xbd095236	-0.033525668
207	0xbc78f906	-0.015196091
208	0x3cf2c546	0.029635083
209	0x3d192966	0.037392996
210	0xbc598798	-0.013276957
211	0x3c9f54cb	0.019449612
212	0xbd2115df	-0.0393275
213	0x3b78588a	0.003789457
214	0x3c8f0afd	0.017461294
215	0x3cc47160	0.023979843
216	0x3cf912ce	0.030404475
217	0xbbfbcc3d	-0.007684259
218	0x3d1c018e	0.03808742
219	0xbd34e63a	-0.044164874
220	0xbd516b13	-0.051127505
221	0xb9cfdb32	-0.0003964543
222	0x3cb8cfe4	0.022560067
223	0x3ce90fe4	0.02844996
224	0xbc8b4de9	-0.017004924
225	0xbcaa19d0	-0.020764261
226	0x3c82efdd	0.015983516
227	0xbb9e8c39	-0.004838493
228	0x3d25cd5e	0.040479057
229	0x3bd70a40	0.006562501
230	0xbd0c445d	-0.034244884
231	0xbcb3b5ed	-0.021937335
232	0xbbae8d82	-0.0053269276
233	0x3d3affb7	0.045654025
234	0x3c9cc8e8	0.019138768
235	0xbcbe2797	-0.023212237
236	0xbccb6d17	-0.024832292
237	0x3a030d2f	0.0004999218
238	0xbd377f38	-0.04479906
239	0xbcdcde32	-0.02696142
240	0x3c9f234f	0.019426016
241	0xbd2dc47a	-0.042423703
242	0x3cc1b0da	0.0236439
243	0xbd285c21	-0.041103486
244	0x3cca39ad	0.024685705
245	0x3c97ebc9	0.018545048
246	0xbccb6a6f	-0.024831025
247	0xbbec5145	-0.0072118365
248	0x3d0ee256	0.03488382
249	0x3d1c5f23	0.038176667
250	0xbccf804a	-0.025329728
251	0x3ce2cd6e	0.027685847
252	0xbd252770	-0.040320814
253	0xbd051a9b	-0.032496076
254	0x3d31684b	0.043312352
255	0xbd0309df	-0.031991836

net.8.bias f4 [128]
0	0xbd0fe897	-0.035133924
1	0xbce431e3	-0.02785582
2	0xbce91c50	-0.028455883
3	0x3c1d6a29	0.00960783
4	0xbcc2471a	-0.023715544
5	0xba314aa2	-0.00067631353
6	0xbbd3add6	-0.006459932
7	0x3b9e148f	0.004824228
8	0x3ae91ae7	0.0017784507
9	0xbd185b77	-0.037196603
10	0x3c26bbf1	0.010176645
11	0x3cc2e3f9	0.023790346
12	0xbce3c1b5	-0.027802328
13	0xbc99ea38	-0.018788442
14	0x3ce1ad81	0.027548553
15	0xbbfc5407	-0.0077004465
16	0x3c121a9a	0.008917475
17	0x3b5fdc23	0.0034158311
18	0x3b630d2e	0.0034645307
19	0xbcb6f864	-0.022335239
20	0x3cd246c3	0.025668507
21	0x3d0a786f	0.03380626
22	0xbc2f95cb	-0.010716866
23	0x3b842e36	0.004033829
24	0xbc2a0dc8	-0.010379262
25	0x3cab106e	0.020881858
26	0x3ccfde01	0.025374414
27	0xbc8d7f61	-0.017272653
28	0xba9a8277	-0.0011788149
29	0x3c9d4a07	0.019200338
30	0xbd00edad	-0.031476665
31	0xbc9e2e24	-0.019309111
32	0x3bc8714c	0.0061170217
33	0xbc813407	-0.015771879
34	0x3cdeaf86	0.027183305
35	0x3cd63624	0.026148863
36	0xbce09890	-0.027416497
37	0x3ca7398d	0.020413185
38	0x3c73d912	0.014883297
39	0x3c8ea626	0.01741321
40	0x3cb79d1f	0.022413788
41	0x3c38659c	0.011254694
42	0x3b8dd49e	0.0043283245
43	0xbcf64ebc	-0.03006684
44	0xbd190c74	-0.03736539
45	0x3d0d5409	0.03450397
46	0xbcaa6aad	-0.02080282
47	0x3c8fe163	0.017563527
48	0xbcbf9e82	-0.023391012
49	0x3cd5e0bb	0.026108136
50	0xbca51338	-0.020150766
51	0xbcfbdeef	-0.030745951
52	0xbc36087c	-0.011110421
53	0xbd071ab9	-0.03298447
54	0x3cddef9e	0.027091797
55	0x3b883ee4	0.004157888
56	0xbd09c4c9	-0.033634935
57	0x3ce16d4c	0.027517937
58	0x3b8ebc8a	0.0043559717
59	0xbd0f1d7b	-0.034940224
60	0xbc3f8fda	-0.011692012
61	0x3ce3bfc8	0.02780141
62	0xbcd06a85	-0.025441417
63	0x3d15c2d8	0.03656277
64	0xbc3ad6f5	-0.011403789
65	0x3b75ecd8	0.0037525203
66	0xbcfe7b80	-0.031064749
67	0x3d02a7e6	0.0318984
68	0xbcc60983	-0.024174457
69	0xbcec96a0	-0.028880417
70	0xbd0019db	-0.031274658
71	0x3ce350d1	0.027748497
72	0x37b8d3b8	2.2033099e-05
73	0xbbd89ca3	-0.0066104694
74	0xbc6f4b17	-0.014605305
75	0x3c468bad	0.012118262
76	0x3cccf14d	0.025017405
77	0xbc565644	-0.013082091
78	0x3cbc3141	0.022972705
79	0xbcee974a	-0.029124875
80	0x3cc63990	0.02419737
81	0x3b89cf56	0.0042056246
82	0xbcc38d09	-0.023870962
83	0xbcfba2c7	-0.030717267
84	0x3c6adc19	0.014334702
85	0xbd2a12d8	-0.041521877
86	0x3d1b4bae	0.03791397
87	0x3d0cc41e	0.03436672
88	0xbb21655b	-0.0024627063
89	0xbd18921d	-0.03724872
90	0xbc61e8f3	-0.01378845
91	0x3d0927a0	0.033485055
92	0xbcac17db	-0.021007469
93	0x3c8ef6c7	0.017451657
94	0x3cc1a521	0.02363831
95	0x3bd61728	0.006533522
96	0x3ccde423	0.025133198
97	0x3ce3f938	0.027828798
98	0x3d0f1137	0.034928527
99	0x3c780af8	0.015139334
100	0x3cf131b7	0.029442651
101	0xbd2bcb33	-0.041941833
102	0x3d24b19a	0.040208437
103	0xbc0599a7	-0.008154309
104	0xbb7358d8	-0.0037131812
105	0xba9fe214	-0.0012198114
106	0x3c9bfef3	0.019042468
107	0xbcc86aba	-0.024464954
108	0xbc8d8137	-0.017273529
109	0x3ac53089	0.0015044372
110	0xbbdd0ccd	-0.0067459107
111	0xbc456ae3	-0.01204941
112	0xbba652ed	-0.0050758035
113	0x3d1d60cb	0.038422387
114	0x39fe901c	0.00048554025
115	0x3bf599cc	0.0074951407
116	0xbd0236c3	-0.031790506
117	0xbc4f0e36	-0.0126376655
118	0x3c8c3db9	0.017119275
119	0x3cabe94c	0.020985268
120	0xbc5984bc	-0.013276275
121	0x3cb8e76e	0.022571292
122	0xbbcafd94	-0.0061947796
123	0x3be52844	0.0069933254
124	0xbc0f709b	-0.008754875
125	0x3c887819	0.01665883
126	0x3cea9635	0.028636077
127	0xbc0fc8a8	-0.0087758675

net.9.weight f4 [128]
0	0x3f204615	0.62606937
1	0x3f3f9675	0.74838954
2	0x3f4c75f7	0.798675
3	0x3ee297be	0.44256395
4	0x3df24afb	0.11830708
5	0x3d8a9cbd	0.06768177
6	0x3e33630a	0.17518249
7	0x3e963207	0.29335043
8	0x3e7d85a7	0.24758016
9	0x3f468d9b	0.7755982
10	0x3ec73e9d	0.38914958
11	0x3f05bbd1	0.5223971
12	0x3f08bf9a	0.5341736
13	0x3f2ac04d	0.6669968
14	0x3ecf95aa	0.40543872
15	0x3e951b35	0.2912232
16	0x3f603bab	0.87591046
17	0x3eba39fb	0.3637236
18	0x3f5adaea	0.85490286
19	0x3e300c27	0.17192136
20	0x3db68662	0.0891235
21	0x3f5013aa	0.81280005
22	0x3e313aad	0.1730754
23	0x3ee0cc5d	0.43905917
24	0x3eb7ee05	0.35923782
25	0x3f2cdfde	0.67529094
26	0x3e36fed3	0.17870645
27	0x3f225fce	0.63427436
28	0x3f5cee1b	0.8630082
29	0x3f70d2b3	0.940715
30	0x3f64bc0e	0.8934945
31	0x3ea926d2	0.3303743
32	0x3effa022	0.4992686
33	0x3d961f6c	0.07330212
34	0x3e42be8d	0.19018002
35	0x3f5204b5	0.8203843
36	0x3f4c3d3a	0.79780924
37	0x3eaae46d	0.333774
38	0x3e58d8e6	0.2117649
39	0x3ec49a62	0.38399035
40	0x3f460b4d	0.77360994
41	0x3e1c6640	0.1527338
42	0x3f31a153	0.69386786
43	0x3eaaf6c9	0.33391407
44	0x3eab0653	0.33403262
45	0x3e0a0c63	0.13481288
46	0x3ecc2c38	0.39877486
47	0x3f6badb6	0.92061937
48	0x3f6fc9e0	0.9366741
49	0x3f2ac9c0	0.66714096
50	0x3e20eea4	0.15716034
51	0x3dccffdc	0.10009739
52	0x3f466011	0.77490336
53	0x3f50fc4a	0.8163496
54	0x3e2ef74c	0.17086524
55	0x3f45002b	0.7695338
56	0x3ec2d52e	0.38053268
57	0x3f543d49	0.82906014
58	0x3f285177	0.65749305
59	0x3eaf3393	0.34219036
60	0x3ce42bfa	0.027853
61	0x3e846e4a	0.25865394
62	0x3d9603cd	0.07324944
63	0x3ede4897	0.43414757
64	0x3f60e134	0.8784363
65	0x3e3259bb	0.17417042
66	0x3f4da0ca	0.8032347
67	0x3f058a53	0.5216419
68	0x3f305026	0.68872297
69	0x3d6de82f	0.058082756
70	0x3f59d21d	0.8508623
71	0x3f0fd670	0.5618658
72	0x3f6e1356	0.92998254
73	0x3e0de220	0.13855791
74	0x3d3bd80b	0.04586033
75	0x3eea675d	0.45781985
76	0x3f1d8932	0.6153747
77	0x3f375c2c	0.7162502
78	0x3e879c43	0.26486406
79	0x3ec9b680	0.3939705
80	0x3e5ebdf4	0.21752149
81	0x3e95b1f5	0.29237333
82	0x3f16dde3	0.5893232
83	0x3e03d2ff	0.12873457
84	0x3f3ca738	0.73692656
85	0x3ef85beb	0.48507628
86	0x3f473fd5	0.77831775
87	0x3f08a7c4	0.5338099
88	0x3e12f229	0.1435019
89	0x3f6d9c3b	0.92816514
90	0x3f66dbfe	0.9017943
91	0x3f61195a	0.8792931
92	0x3e59e6c8	0.21279442
93	0x3eea2bb4	0.45736468
94	0x3d4584da	0.0482224
95	0x3c9ed3c3	0.019388085
96	0x3f604916	0.8761152
97	0x3edff32d	0.43740216
98	0x3ed13408	0.4086001
99	0x3e5a699d	0.21329351
100	0x3f1fd5d0	0.62435627
101	0x3f7453d3	0.95440406
102	0x3edb8068	0.42871404
103	0x3ee1acaa	0.44077045
104	0x3f6b578d	0.91930467
105	0x3dead699	0.114667125
106	0x3dc1d0cc	0.09463653
107	0x3f744d73	0.9543068
108	0x3e0209d0	0.12699056
109	0x3d19d695	0.037558157
110	0x3df534c2	0.119729534
111	0x3d179818	0.037010282
112	0x3ed25dde	0.4108724
113	0x3da840b6	0.08215468
114	0x3f39c132	0.7256042
115	0x3e8b38aa	0.2719167
116	0x3e95a523	0.29227552
117	0x3f0f9913	0.5609295
118	0x3e3f2065	0.18664701
119	0x3e859ab1	0.26094583
120	0x3daea965	0.08528403
121	0x3e7c8843	0.24661355
122	0x3f0b497f	0.5440902
123	0x3ec3006c	0.3808626
124	0x3f282b7c	0.6569135
125	0x3f560a1a	0.83609164
126	0x3f1a244e	0.60211647
127	0x3ea9b88e	0.33148617
