D_A.pth (torch_old, 401728 bytes, 21 tensors)

net.0.weight f4 [16, 3, 3, 3]
00000000: ded8 05bd 5939 17be f507 473e 6f67 f33b
00000010: f473 f6bd 8e6c dabd 6c5a ac3d ad89 1c3e
00000020: 195a a73c 4932 ac3d e95b c8bd 7828 8ebd
00000030: 71a1 c73d 94b8 10bd dd5d a8bd a592 febd
00000040: d30e a7bd beec c93d bb87 123e c8af 403e
00000050: 1b4e 01be 2439 7e3c dd80 103e 4bcc 33bd
00000060: c453 f1bd b808 14be d626 a23d d55e 063e
00000070: 5a51 0a3e d5d8 423d 9842 ac3d eba0 203d
00000080: e4ac 1ebe 1638 03be 101d 013e 9048 5c3d
00000090: a240 04be f53d d3bc a6ac 1b3e 595b 5f3d
000000a0: 306a 793d a7ad 363e 3027 91bd afed 04bd
000000b0: 9880 da3d 132c be3d d5b6 683d 94dd 2b3e
000000c0: ce64 0c3e ffa7 dabd 0f55 8e3d 0588 303e
000000d0: f815 debd 3b21 0cbd 1983 87bb 6522 adbd
000000e0: b909 a33d 78ef 563d 43b6 47bc 4ecf 0a3d
000000f0: efd0 3cbe b125 01be 4b00 223d 75e5 b73c
00000100: dfa5 35be e043 35be 3c15 2fba 1ba4 0abe
00000110: 6e2c b8bd 196b 2cbd d65a 22be 36ce 33bd
00000120: 3989 5e3d 8d61 33be 367b f1bb 6479 b23d
00000130: 2d5d ae3d 3105 0b3d 2f4f 1bbe f282 15be
00000140: 7e92 163e 57b2 d8bd 9aae 8a3c e64d fd3d
00000150: e1a6 d23d e599 09be 03d5 30bd 9ea6 c83d
00000160: cf02 c23d e54f 8abc c781 4fbd 0a6e abbd
00000170: 58b6 c83b 5c63 9c3d 99da f43c ae1d 1bbe
00000180: eb24 3f3e 8346 98bd a573 07be f401 d33d
00000190: 4f31 063e 8932 3d3e 3c05 1d3d 198b a4bd
000001a0: 50f9 17be d578 203d 7441 6d3d 6694 643d
000001b0: be8a ec3d b8fc 9c3d 4a84 f63d e371 58bd
000001c0: 7fcc c83d deb7 2abd f5f7 ebbd da04 1d3e
000001d0: bf14 123e 3185 90bc 3a52 30be 910e 233e
000001e0: c3ef d53c 8df3 90bd b352 3d3e 4b6f 363d
000001f0: 0eb5 a6bd eddb 0cbd f876 023e b317 0abe
00000200: c7b3 c33c 7147 19be 9a8c 1d3e 9458 bd3d
00000210: 3363 23be e779 d53d 0808 2d3e ccbe e03d
00000220: 0e0e 8b3d caf3 31be 6fb2 1b3c 3429 6e3d
00000230: bdc2 f93d 07ec e63d 911e e43d afc5 66bd
00000240: 8705 0f3e 92b9 5ebd 3e59 b53d 6b3d 31be
00000250: 7de8 66bd f3d3 b1bd 9f38 283e 05f1 42bd
00000260: c0cf f7bd e1e9 a1bb 507d a53d 78ed 403e
00000270: e6c2 ebbd 1069 933d e7c0 c4bc 6760 073e
00000280: 6fb6 1bbe f4bf 2a3e 5187 99bd cc0e ba3d
00000290: 117b 0a3e 7cee c73d 643b 0a3e 9bd5 35be
000002a0: e361 dcbd 4cfa e93d 6b7a 253e 27e9 13be
000002b0: b288 e13d 1041 6bbc 23a1 3e3e 0457 323e
000002c0: 2ecf 10bd f2a3 583d 6964 093e 919b 48bd
000002d0: ff8c e13d a928 d8bd d35d 1f3e df24 123e
000002e0: 9090 2cbd 2d4a 0dbd 6fd6 093e 9e01 2b3e
000002f0: ac4c 11bb 1015 3b3e daaf 5c3d ad38 e33d
00000300: 7801 163d b4de 003a 8385 203e b7c3 37be
00000310: 39fc 293e 9988 debd fa8d fa3d bcf9 0e3d
00000320: 16ed 8fbc 0a16 d8bd e4be af3b 94b9 dabd
00000330: 7558 d2bd c108 343d 04dc 15be 9ea7 0bbd
00000340: f5ee 913d 63a2 10bd b7b3 0fbc 8233 d83d
00000350: 7623 95bc 2f47 663d fc7d 1cbe 394e fa3d
00000360: e362 34be 239b 84bc 6881 56bc 0370 97bd
00000370: b5aa 163e 2d98 933d 942f d2bd ad8e 8f3d
00000380: da5c 083e c5c1 143e 6e41 c33d e455 94bd
00000390: 84f5 153e 75c6 3c3e b46f 08bc 89a3 14be
000003a0: edb5 093e aa1a 633d eb52 0a3e 3f71 103e
000003b0: 995d 8ebd 2c9e 5bbd 865d 073e 534d 3e3e
000003c0: 0a43 31be c117 9cbd 3533 b5bc 2a17 06be
000003d0: 14f9 35be 0733 48be bde6 ab3a 5955 c0bd
000003e0: e3c4 ef3c 1bfb fd3d cb52 ed3d 1c31 5cbc
000003f0: 61dd 803d 711c 1abd 1389 b5bd 1b89 40bd
-0.032677524 -0.1476797 0.19436629 0.0074281017 -0.12033835 -0.106652364 0.08415684 0.15286894
0.020428704 0.08408029 -0.097831555 -0.069413126 0.097475894 -0.035332277 -0.08221028 -0.12430314
-0.08157124 0.09859608 0.1430959 0.18817055 -0.12627451 0.015516553 0.14111657 -0.043896
-0.11783555 -0.14456451 0.079175636 0.13122113 0.13507596 0.04757007 0.08411139 0.039215963
-0.1549564 -0.12814364 0.12608743 0.05378014 -0.1291528 -0.02578638 0.15202579 0.054530475
0.060892284 0.1783968 -0.070875525 -0.032453235 0.106690586 0.0928575 0.056814987 0.16783744
0.13710329 -0.10676574 0.069498174 0.17239387 -0.10844034 -0.03421138 -0.004135501 -0.08453826
0.07960839 0.05247447 -0.012189451 0.033889107 -0.18439077 -0.12612034 0.03955106 0.02244828
-0.17739056 -0.17701674 -0.00066788844 -0.13539164 -0.08992849 -0.042094324 -0.15854964 -0.04389783
0.054330084 -0.17517681 -0.007369424 0.0871456 0.085138656 0.033940498 -0.15166925 -0.14600733
0.1470432 -0.105808906 0.01692896 0.123683736 0.10285736 -0.13437612 -0.043171894 0.09797405
0.09473192 -0.0168838 -0.050660875 -0.08370598 0.0061252527 0.07636139 0.029889392 -0.1514804
0.18666427 -0.07435324 -0.13227709 0.10303107 0.13104747 0.18476309 0.03833507 -0.08034343
-0.14841199 0.039177734 0.05792375 0.055805586 0.115499005 0.0766539 0.12036951 -0.052842986
0.098046295 -0.041679256 -0.115219034 0.15333882 0.14265727 -0.017641636 -0.17218867 0.15923525
0.026115304 -0.070777036 0.18488578 0.04453973 -0.08140002 -0.034389425 0.12740695 -0.13485603
0.023889435 -0.14968659 0.15385666 0.092454106 -0.1595581 0.10423642 0.16897595 0.109738916
0.0678979 -0.17378154 0.009502991 0.058144763 0.121953465 0.112754874 0.111386426 -0.05634087
0.13966952 -0.054376192 0.08854912 -0.17308585 -0.05637406 -0.08683004 0.16427849 -0.047593135
-0.12100172 -0.0049412106 0.08080542 0.18840587 -0.11511783 0.071977735 -0.024017764 0.13220368
-0.15206312 0.16674787 -0.07496513 0.090848535 0.13523509 0.09762284 0.13499218 -0.17757265
-0.10760858 0.114246935 0.1615998 -0.1444441 0.11012401 -0.014358774 0.18616156 0.17416006
-0.035353832 0.052890725 0.1341721 -0.048976485 0.11013221 -0.1055463 0.15563135 0.14271878
-0.042130053 -0.034494568 0.13460706 0.16699836 -0.0022170944 0.18269753 0.053878643 0.110947944
0.036622494 0.0004915998 0.1567593 -0.17945753 0.16600122 -0.10865898 0.12234111 0.034906134
-0.017569106 -0.105510786 0.005363332 -0.106799275 -0.10270778 0.04395366 -0.1463471 -0.0340954
0.071256556 -0.035311114 -0.008770875 0.10556699 -0.018205386 0.05622023 -0.15282434 0.12221951
-0.17615847 -0.016187256 -0.013092376 -0.073944114 0.14713557 0.072067596 -0.10262981 0.07009635
0.1331667 0.14527042 0.09533964 -0.07242945 0.14644438 0.1843508 -0.008327413 -0.14515509
0.13448305 0.05544535 0.13508193 0.141057 -0.06951446 -0.05361764 0.1321927 0.18584184
-0.1731073 -0.07621718 -0.022119144 -0.13094774 -0.17770797 -0.19550715 0.001311503 -0.09391279
0.029268688 0.1240141 0.11588057 -0.013439443 0.06292225 -0.03762478 -0.088640355 -0.047005754

net.0.bias f4 [16]
00000000: d2e6 4b3e 2b31 78bd 453d 49bc 6a96 473e
00000010: 8ab0 88bd 1aec aa3d 82fe 0e3d f927 e9bd
00000020: 6580 133e 709d d8bd bf87 4f3e c28e b7bd
00000030: 1033 2abe 04ed f9bd 7806 55be a072 3ebe
0.1991227 -0.060593765 -0.012282674 0.19490972 -0.06674297 0.08345814 0.034910686 -0.11384577
0.14404447 -0.10576904 0.20266627 -0.08962776 -0.16621041 -0.1220341 -0.20803249 -0.18598413

net.2.weight f4 [32, 16, 3, 3]
00000000: af2e 91bc 8da5 69bd 8a12 013d ce62 6ebd
00000010: c0ec 7a3d 3963 b6bd 9f52 f13c f849 233d
00000020: 9f3c 103d 8306 8eba fd42 37bd bc4e 6e3c
00000030: 8f9c 593c 1325 dbbc 81b1 44bd 38e8 bdbc
00000040: fe40 05bd 5a72 11bd 2a23 70bd 1696 bcbc
00000050: bb0f 3abd d946 65bd 38bb 543d 4ace 19bd
00000060: 2144 34b7 2123 86bd 63b5 873d 2322 93bd
00000070: 9972 c3bd e1ae 333d fda1 89bc 0273 b3bb
00000080: 5764 2cbc 8f7b ecbc 56bc 1f3d af9e febc
00000090: fe3b 96bd 5bf4 d4bc 1e25 793d aeeb 88bd
000000a0: d187 fb3c 9327 983c f48d 12bd 039d b6bc
000000b0: 2963 2b3d a759 b93c 0056 6abd 6b5a 2b3d
000000c0: f73d abbd daa5 923d 6678 febc 8033 9f3d
000000d0: d299 893d dca9 e83c 46e7 febb 0f8b 893c
000000e0: 67fa 78bd 4801 96bd 303b 37bc e7da edbc
000000f0: 0665 16bd 5515 d5bc 9cc5 5e3d ea5a 873d
00000100: b0e2 983d e686 943c a0a1 89bc 9cc4 1abb
00000110: 4d55 8bbc d259 ae3d 646d 9a3c e9b5 4dbd
00000120: 845f 7b3a 2a8e 8abc 9626 513d 71ac cfba
00000130: 6fc2 8fbc 61e0 62bd 19a5 bb3d 5481 273c
00000140: 4f1a 8b3d 1739 923c 61d7 0fbd 39bb 453d
00000150: 0aef 823c 8be6 a339 050e 053c cdfd f03b
00000160: c4c0 26bd ca27 28bd e47a 9a3d 3897 87bd
00000170: 57fb 24bd a078 b0bd 87fe 78bd 1a56 4d3d
00000180: 002b 963d 7d6c 793d 00ff a73d fa2e 223d
00000190: aa89 74bd c631 b1bc b8b9 ce3c 6a4b 8e3c
000001a0: 96a5 73bd 088c 80bd c79c 9cbd 1bb8 5bbd
000001b0: a4cf 3dbd 4b31 b1bc 9710 383d fafc 95bd
000001c0: 504a 9abd d9e9 153c 50af 083d ac50 babc
000001d0: afab 023d d407 47bd cd02 f13b 2735 1cbc
000001e0: cde8 cb3b 886e 983d 74a4 583d e231 48bd
000001f0: 0799 8f3c ca6e 2bbc fc25 663b 098c 96bd
00000200: fef3 063c bdf1 093d ea14 7e3d 9b5c 2e3c
00000210: 1379 8abd 4921 a23d 100e aa3c d8ba 9b3d
00000220: ab97 113d ad96 213d 84fd 65bc b787 593d
00000230: 85a6 583d be7d 81bd 9f9c 31bd 533e 923c
00000240: 47a8 21bd b501 21bd 7c86 ef3c 2bce 623c
00000250: bf6f 7ebd 3d7b 56bd 7022 583c 5174 4d3d
00000260: 28d1 40bd ef1c fbbc dbf0 3cbd 963f 6bbc
00000270: 5608 3b3d 97f7 9fbd 088e 213c 2d21 d4bc
00000280: 05f4 b3bd e1ac e0ba 534f 08bd 4395 65bd
00000290: 66c3 a93d fac7 c5bc d30e 84bd 3e68 ff3c
000002a0: 3725 2bbd 47bf 1d3d aa5c 883d 9b63 84bd
000002b0: 5f4e 983c 328d ecbb 88ef 78bd 42c4 ee3c
000002c0: 1678 32bc 6643 38bc 7325 a9bd 69fd 813c
000002d0: 58f4 e23b a553 943c 0964 c4bc ed0f 34bd
000002e0: 7a48 743d 3338 94bd 9d1e a63c 846a ec3c
000002f0: 415c fcbc cdc0 7ebd 5cb3 3bbd a313 713c
00000300: 6aa6 743c 03d7 bc3c bb40 a9bc 8ca9 843d
00000310: 41ff a13c ba86 37bc 31ca b43d 7707 a3bd
00000320: 556d aebd 927a 81bd af06 2cbc e075 93bc
00000330: 9fec 7c3d 86d0 febc c5e1 6fbd 58b0 983d
00000340: 4025 efbb d620 e7bc cff7 ac3b 037d 843d
00000350: a4d3 7e3d ccce 813d fcd0 b0bd 864f e6bc
00000360: 450a 1e3d 03e3 0d3b cf7f 1abc e5c2 b8bd
00000370: 1ae6 573a 1133 633c 0b86 213d f91d 8b3d
00000380: dc8c 4f3d 12d6 b1bd a14c 4f3d 861c 333c
00000390: 6723 8d3d 2eb9 67bb 3a7a 9d3c aa3a 913d
000003a0: ab82 3dbd aeab b93c 6355 9bbc 7fdd d23c
000003b0: e49a 123d 2a4b 94bd f6da a1bd f5d9 4a3c
000003c0: d0dd 913d bb22 54bd 7636 e23c a422 943d
000003d0: 62b6 8abd e436 153d c08a 8b3d 0dcf ab3c
000003e0: 8b50 5dbd 2864 503c d64b 5bbd a7e6 e23b
000003f0: 4a2d 3c3c 0ee9 273d 54c5 3dbd b770 413d
-0.017722456 -0.057042647 0.03151182 -0.058199696 0.06126094 -0.08905644 0.029458342 0.039865464
0.035214063 -0.0010835681 -0.04474162 0.014545139 0.013281955 -0.026751077 -0.048020843 -0.02318202
-0.032532685 -0.035509445 -0.058627285 -0.023020785 -0.045425158 -0.05597577 0.05193636 -0.03755025
-1.0744699e-05 -0.06549669 0.06626394 -0.071842454 -0.09543342 0.04386795 -0.016800875 -0.0054763565
-0.01052197 -0.028867511 0.03899797 -0.031081526 -0.07335661 -0.025995424 0.060826413 -0.06685577
0.03070441 0.018573558 -0.03577991 -0.022291666 0.041842613 0.022625757 -0.057210922 0.041834276
-0.08361428 0.0716054 -0.03106327 0.07773495 0.06718792 0.028401308 -0.007779035 0.016789941
-0.060785677 -0.07324463 -0.011183545 -0.029035045 -0.036717437 -0.026011148 0.054387674 0.06609137
0.07465112 0.01813073 -0.016800702 -0.0023615723 -0.017008448 0.085132256 0.01885099 -0.05022231
0.0009589123 -0.016913492 0.05106219 -0.0015844238 -0.017548768 -0.055389766 0.09162349 0.010223705
0.06792127 0.017849488 -0.03511751 0.048274253 0.015983123 0.0003126155 0.008121018 0.007354474
-0.04071118 -0.04105357 0.07542971 -0.066206396 -0.04027876 -0.086167574 -0.06078961 0.05013094
0.0733242 0.060894478 0.08202934 0.03959558 -0.0597016 -0.02163018 0.025235042 0.017369945
-0.059484087 -0.06276709 -0.076470904 -0.053642374 -0.0463406 -0.02162995 0.044937696 -0.07323642
-0.07533705 0.009149992 0.033370316 -0.022743545 0.03190201 -0.04859145 0.00735507 -0.009534157
0.0062228204 0.07442957 0.05289121 -0.048875697 0.017529024 -0.010463426 0.0035117855 -0.07350928
0.008236883 0.033677805 0.062031664 0.010642196 -0.06761374 0.07916505 0.020758659 0.07603997
0.035545032 0.039450336 -0.014037494 0.053107943 0.05289318 -0.063228115 -0.043362256 0.017851984
-0.039467122 -0.03930827 0.029238932 0.0138431 -0.062118288 -0.052363623 0.013191804 0.050159756
-0.047074467 -0.030653445 -0.046128135 -0.014358422 0.045662247 -0.07810896 0.009860523 -0.025894726
-0.087867774 -0.0017141366 -0.033278774 -0.05605055 0.082892224 -0.024143208 -0.0644814 0.031177636
-0.041783538 0.038512494 0.06658299 -0.06464311 0.018592058 -0.00721898 -0.06077531 0.029146317
-0.0108928885 -0.011246538 -0.08259096 0.015867906 0.0069261007 0.018106291 -0.023973482 -0.0439605
0.05963943 -0.07237282 0.02027827 0.028859384 -0.030805709 -0.062195588 -0.045825347 0.014714154
0.014932254 0.023051744 -0.020660749 0.06477651 0.019775035 -0.011201555 0.088276275 -0.07960408
-0.08516947 -0.063222066 -0.01049964 -0.018000543 0.061749097 -0.031105291 -0.05856492 0.0745551
-0.0072981417 -0.0282139 0.0052785645 0.064691566 0.062213555 0.063382715 -0.086336106 -0.028114092
0.038584013 0.0021650202 -0.009429886 -0.09021548 0.0008235887 0.013867156 0.039434474 0.06792826
0.050671443 -0.08683409 0.05061019 0.0109320935 0.06891518 -0.0035358178 0.019223321 0.070912674
-0.046267193 0.022664871 -0.018961614 0.025740383 0.035792246 -0.07240899 -0.079030916 0.012381067
0.071223855 -0.051790934 0.02761386 0.0723317 -0.06773068 0.0364293 0.06813574 0.020972753
-0.05403189 0.012719192 -0.05353912 0.0069244686 0.011485407 0.040993743 -0.046330765 0.047226634

net.2.bias f4 [32]
00000000: c2b4 be3c 42af a0bd 3c23 1abc b1d6 613c
00000010: 3109 8a3d c49d 903c 6bbd b1bc 66c0 9dbd
00000020: 27ba 3ebc a2b5 60bd f133 76bd d100 8ebd
00000030: 4274 96bd 5afa 81bc 2be2 41bd 7bf8 10bb
00000040: cb45 7abd 07f3 24bd d983 96bd 1b2b 933d
00000050: be61 9bbd b2d5 8cbd 0aff d7bc 32f0 653d
00000060: a6d1 31bd 3454 843c 5c38 903d 9891 48bd
00000070: 35a5 8f3d 67eb 7a3c 7531 f43c 81c4 fb3c
0.023279551 -0.07845928 -0.009407815 0.013784097 0.06740034 0.017653354 -0.021696767 -0.07702713
-0.011641062 -0.05486072 -0.06010813 -0.069337495 -0.07346393 -0.015866447 -0.04733483 -0.0022120762
-0.061101716 -0.04027083 -0.07349367 0.07185956 -0.07587002 -0.06876697 -0.02636673 0.05613727
-0.043412827 0.016153432 0.07042 -0.048966974 0.070139326 0.015314913 0.02980874 0.030733349

net.3.weight f4 [32]
00000000: f449 d13e 1237 0e3f 7ef5 123f b705 8d3e
00000010: 13ac 483f a787 093f 03df 7f3f ddb5 343f
00000020: bcfb 963e ebdd cb3e 16e7 573f da7d 413e
00000030: 3cf9 463f 226c 763e 9834 b13e 10c6 093f
00000040: 1f8c bc3e f001 623f e7ea 203e 9c1d 143f
00000050: 4759 d03e 4367 cd3e 3528 2b3f 55f3 513f
00000060: ddab 563f c5f2 043e dd69 c13d 3f4a de3e
00000070: 162e 053f ecc3 db3e 92c1 043f bcd8 9e3e
0.40876734 0.5555278 0.5740584 0.27543423 0.78387564 0.53722614 0.99949664 0.7059
0.29488933 0.39817747 0.84336984 0.18895665 0.7772405 0.24064687 0.34610438 0.53817844
0.36825654 0.88284206 0.15714608 0.5785768 0.40693113 0.40117845 0.66858226 0.8201192
0.8385599 0.12983234 0.0944402 0.4341602 0.52023447 0.42922914 0.51857865 0.3102473

net.3.bias f4 [32]
00000000: fad3 993b c3e3 c4ba 626d ffbc 9689 2c3b
00000010: 166a e9bb 1232 5cbb 91b0 f0bb 5ee9 9bbb
00000020: 8a18 08bc bf29 15bb 1653 cc3b 84f7 633a
00000030: 0ee6 423b df4b 82bc 877b 443b 8433 74bc
00000040: a582 abbc 4a23 d6bc 2700 783c 123b 2a3c
00000050: a791 f6bb e6a2 eb3b 3376 80bb 4750 52bc
00000060: 57dc 24bc 61a6 7b3b bc0b ae3c cc62 b4bb
00000070: f5ff 1dbc 254b 09ba 6328 b8bc 8b80 033c
0.004694459 -0.0015021492 -0.031180087 0.0026327125 -0.007123242 -0.003359918 -0.007345267 -0.004758044
-0.008306632 -0.0022760478 0.0062354906 0.00086962455 0.0029739174 -0.015905319 0.0029980855 -0.01490486
-0.02093632 -0.026139874 0.015136755 0.01039006 -0.0075246873 0.00719105 -0.0039203404 -0.012836522
-0.010062299 0.003839873 0.02124583 -0.0055049416 -0.009643544 -0.00052373327 -0.022480195 0.0080262525

net.3.running_mean f4 [32]
00000000: eebb 8ebd 61c6 98be 433c 3fbe 18ed 0fbe
00000010: 1adb 583e 514d b9bd 2f57 fa3d a87c bdbe
00000020: 0c35 20bd 1f1a f2bd eb33 943e 7587 79bd
00000030: 5c38 57be 826f f4bd 921c 00be bee1 d7bd
00000040: dcf1 4cbe 2775 243e 14d6 b4bd 2606 df3e
00000050: 788c 27be 0b64 59be d9c7 333e 6998 483d
00000060: 3930 6bbd 4edd 0b3f 1762 ea3d 2b1b 2dbe
00000070: c053 893d 4e5a be3e 22cb fc3b 30fe 253e
-0.069694385 -0.2983885 -0.18675332 -0.14055288 0.2117733 -0.0904795 0.1222366 -0.37009168
-0.03911309 -0.118213885 0.2894586 -0.060920198 -0.21017593 -0.11935331 -0.12510899 -0.10541104
-0.20014137 0.16060315 -0.08829895 0.43559378 -0.16362178 -0.2122957 0.17556705 0.048973475
-0.057419036 0.5463456 0.114444904 -0.16904895 0.06705427 0.37178272 0.007714645 0.16210246

net.3.running_var f4 [32]
00000000: 9f71 5a3b eab1 8f3b c6c4 c13b 8704 8a3a
00000010: 4c7b 5d3b 107b 213b 548d a23a a4b5 c03b
00000020: ed5a 373b 0157 db3a c545 f13b c542 c93a
00000030: 9eb1 2f3b 1557 423b fc60 fc3a 0bad 6b3a
00000040: fc6e d03a 34f7 c43b 7273 aa3a 8066 663c
00000050: b671 3d3b df14 ae3a 09b1 243b e346 243b
00000060: d2a0 c93a 8382 b63c 8edf a13a 0204 ca3a
00000070: 509d 293b 532d 283c cdf7 b13a da92 b63a
0.0033331884 0.0043852227 0.00591335 0.0010529914 0.0033795414 0.0024640001 0.0012401738 0.0058810282
0.002797778 0.0016734303 0.0073630535 0.0015354982 0.002680875 0.0029653956 0.0019254978 0.0008990324
0.0015902217 0.006010914 0.0013004376 0.014062524 0.0028906888 0.0013281367 0.0025129935 0.0025066666
0.0015383011 0.02227903 0.001234995 0.0015412571 0.002588112 0.010264712 0.0013577879 0.0013929263

net.5.weight f4 [64, 32, 3, 3]
00000000: aae8 7f3c 53e2 80bc 7161 553d 9b3b ac39
00000010: 7cc0 14bd e02b d7bc 1889 63bd c89a 4ebd
00000020: 6126 9f3c 9f98 c3bc 7e7a e2bc 6201 b73c
00000030: 4c67 333d e3f3 13bc 703e d73b 3ad6 3a3d
00000040: 4ea5 11bd f2d9 39bd 2878 2d3d cdf6 40bc
00000050: bd46 133b 63cc 00bd 2a14 513c 4eb9 87bc
00000060: e23b 07bd cf73 6dbd 347d 6a3d b8c5 643d
00000070: 1db4 a83c 39a3 223d 2588 213d 962f bebc
00000080: 7f36 45b9 3d28 56bc 66fb 1abd a758 6fbd
00000090: f815 4a3c 2d33 293d 9adf 8abb 7027 efba
000000a0: f817 3639 728a f8bb 36f8 e33c 2263 403d
000000b0: b5ff febc a688 693b 4559 48bc 7452 8b3c
000000c0: bdd2 77bd 67e1 4abd 95cc d63c 1a67 29bd
000000d0: ff67 a03c 3434 acbc 4a99 45bd 9d27 1dbd
000000e0: b046 a13c 8d6f 3f3c 1925 8c3c 5ab2 923c
000000f0: db2c efbb 3cdb a33c 5e4f 5dbd b132 d3bc
00000100: 3c3f 37bd d55f 04bc f7ee 08bd 7852 c23c
00000110: 8fa2 d23c 5054 38bd 82ca f93b 5bba 013d
00000120: 7263 2dbd 02be d83c 6282 41bc 667e 46bc
00000130: 53b0 143d c94b a9bb 0a61 063a 3d6a bcbc
00000140: 66b9 b73b c200 183d 93f8 763c 832c 14bd
00000150: 8978 3e3d e713 423d d7df dd3c 9ea6 8f3c
00000160: decb 62bb ce87 053d cb88 00bd a46a 24bd
00000170: ed02 223c cf37 013c 1ed6 313d 03b2 803c
00000180: 8070 6a39 3150 82bd f44a 1dbc 97a1 59bd
00000190: a5c0 23bc b18b 74bc d260 eabc cca7 24bc
000001a0: 36f8 3e3c 18d2 5bbb 6bf4 1538 ebb2 0dbd
000001b0: 6698 d83c d5db 083d fe08 d73c f783 ef3b
000001c0: 4258 413c c40b 46bd 7538 d33c 8c54 5abd
000001d0: be53 e73c 865a 4cbc aa6b d4bc 3326 71bc
000001e0: ba9c 75bd ebf0 c43c 2b1b 1b3c 8a0d 343d
000001f0: 3c31 bdbc f556 173d a8d9 5b3c 1055 08bd
00000200: 9439 843d 05a9 4f3d 5cf3 4bbd e58f 2abd
00000210: b4d3 573d 2ae7 48bd 0b36 e5bc 56cf 663d
00000220: 2438 893c ce8a 0bbc f855 4f3b d11b 793c
00000230: ca2c 66bd 8887 973c c4e3 3cbd c6ff 403c
00000240: eb46 b1bb 11ff 49b8 72d9 03bd be6b e0ba
00000250: eb63 6b3c fba9 3bbd 8183 13bd d659 7dbd
00000260: b757 a0bc 255e 163d 0d13 27bd b297 473d
00000270: 15ed 5e3c e937 6a3a 1ccd 163b c086 7d39
00000280: 1f9c 113d 8263 743c 6c0f 9d3c 0d1c 96bc
00000290: 0deb 79b9 ace8 203d 0931 73bd bd45 04bd
000002a0: 1084 8abc 35bb 1c3d 469a 1ebc 4392 5fbc
000002b0: 98fd 943c 7a44 2fbd 4644 ec3c 8854 e83c
000002c0: 2503 283d 2750 5fbd e22c 19bd ece9 61bc
000002d0: dd5a 133d 3637 54bd 5e39 6abd a7a4 a3bc
000002e0: 18d7 8c3c 056a c4bb 1956 20bd 8e46 3d3d
000002f0: 928e 92bd b57b 44bd 80f3 71bd f97c 373a
00000300: 1a23 05bd d44b a7bc ace5 053d 9495 68bc
00000310: 1b29 06bd 3f52 7abd b8f3 533c d283 823b
00000320: 2656 fbbb f5d7 77bd 3e03 59bd cfc3 513d
00000330: 2f1d a4bc f954 24bc a893 d3bc 6d50 a03b
00000340: 9165 e8bc d73b 453d de3f 3fbc 6eae 433d
00000350: e545 6ebd 9a79 a7bc b77f 753c 1652 3e3d
00000360: 155a 45bd 065a 0d3d 0e5c 48bd 36a3 6ebd
00000370: 2e78 6639 7b88 23bc 686c f5bc c11e 85bb
00000380: bd5e 13bd 390e 24bd 22e0 8a3c 777a 62bb
00000390: 3a14 0f3c c3b0 44bd 0643 b33c db06 0e3d
000003a0: 9634 e43c b850 883c 23eb 43bd 6f3c 02bd
000003b0: abbf af3c 4539 84bc d87b 1d3c b002 643d
000003c0: 60ec adbc 8b24 5a3d 1fea 423c 0ff8 2dbc
000003d0: 176f 48bd 789c 073c a701 b33c 49ce 44bd
000003e0: feb0 143d 5695 73bd bc55 ed3b fa2d 223d
000003f0: 7240 73bc 788e 5a3c e4fe 28bc d089 44bd
0.015619436 -0.01573292 0.05209488 0.00032850806 -0.03631638 -0.026266038 -0.055550665 -0.05044058
0.01942748 -0.023876486 -0.0276463 0.022339527 0.043799683 -0.009030315 0.0065687224 0.04561446
-0.035558037 -0.045373864 0.042350918 -0.011777592 0.0022472583 -0.03144492 0.012761155 -0.016567852
-0.033016093 -0.05797177 0.05724831 0.05585262 0.020593697 0.039706443 0.03943648 -0.02321605
-0.00018807685 -0.013071117 -0.03783741 -0.058434155 0.012334339 0.04130857 -0.004238081 -0.0018246006
0.00017365802 -0.0075848633 0.027828317 0.04696954 -0.03112779 0.0035634427 -0.012228315 0.01700709
-0.06050371 -0.049531367 0.0262206 -0.04135809 0.01958084 -0.021020986 -0.04824189 -0.038367856
0.019687027 0.011684311 0.017107533 0.01790731 -0.0072990484 0.020002 -0.05403077 -0.025781007
-0.04473804 -0.008079489 -0.03343102 0.023720965 0.02571228 -0.04500228 0.0076230178 0.031671863
-0.042331167 0.02645779 -0.011810871 -0.012115097 0.03630097 -0.005166505 0.0005126154 -0.022999877
0.005606818 0.037110098 0.015073913 -0.036175262 0.04650167 0.04738226 0.027084274 0.017535504
-0.0034606378 0.032600217 -0.031380456 -0.040140763 0.009888393 0.007886841 0.04341709 0.015709883
0.00022357889 -0.063629515 -0.00960039 -0.05313262 -0.0099946605 -0.014925883 -0.02861062 -0.0100497715
0.011655858 -0.0033541974 3.5752e-05 -0.034594458 0.026439857 0.033412773 0.026249405 0.0073094326
0.011800827 -0.048351064 0.025783757 -0.053303286 0.028238174 -0.012472754 -0.025930244 -0.01471858
-0.05996392 0.02404066 0.009466927 0.043958224 -0.023094766 0.036948163 0.0134185925 -0.033284247
0.06456295 0.0506983 -0.049792632 -0.041641135 0.05269213 -0.04904858 -0.027979871 0.056350075
0.016750403 -0.00851698 0.0031636935 0.015204386 -0.056195058 0.018497244 -0.04611565 0.011779731
-0.0054100654 -4.8159684e-05 -0.032189794 -0.0017121953 0.014367084 -0.045816403 -0.036014084 -0.061853252
-0.019573076 0.036710877 -0.040789653 0.048728652 0.013606329 0.0008934723 0.0023010438 0.00024178158
0.03554928 0.014916303 0.019172393 -0.018323923 -0.00023834054 0.039284393 -0.059372935 -0.03229307
-0.016908675 0.038264472 -0.009680336 -0.013645711 0.01818733 -0.042789914 0.028841149 0.02836062
0.041018624 -0.0545198 -0.03739632 -0.0137886815 0.035975326 -0.051810466 -0.057183616 -0.019975973
0.017192408 -0.005994084 -0.03914461 0.046209864 -0.071560994 -0.04796954 -0.05907011 0.00069995184
-0.03250418 -0.0204219 0.032689735 -0.014195818 -0.032754045 -0.061113592 0.012936525 0.0039829994
-0.007670182 -0.060508687 -0.052981608 0.05121213 -0.020033447 -0.010030025 -0.025827244 0.0048924
-0.028368743 0.04815277 -0.011672942 0.04777377 -0.058172125 -0.020443726 0.014984063 0.046465002
-0.048181612 0.03450968 -0.048915915 -0.05826112 0.0002197928 -0.00998127 -0.029958919 -0.004062504
-0.03597902 -0.040052626 0.016952578 -0.0034557858 0.00873285 -0.048020136 0.021882545 0.034674507
0.027857106 0.016640052 -0.047831666 -0.031795915 0.0214537 -0.01614059 0.009612046 0.055666625
-0.021230876 0.053257506 0.011896639 -0.010618224 -0.04893407 0.008277051 0.021851374 -0.04804829
0.036301605 -0.05946859 0.0072428863 0.039594628 -0.014846908 0.013339631 -0.010314677 -0.04798299

net.5.bias f4 [64]
00000000: 3a9d eabc b368 313d 9017 293d c1d1 40bc
00000010: eceb d4bb 1f36 80bc 9986 47bc 452e 3cbd
00000020: 1c5c 2e3d 25af cebc 55a4 303d dfc7 f73c
00000030: d706 13bd 449b b83c 625f 073d d4bf 5e3d
00000040: 0532 67bd 266e 28bd 8ea7 37bd ff86 e6bc
00000050: 9e6d 4bbd f00b 42bc be68 9c3c ecc1 4cbd
00000060: e366 a9bc 07c0 823b 0468 63bd 94ae f43c
00000070: cd4a e03c 54ef e0bc 4010 a2bc c2d8 093d
00000080: 2b94 37ba 264b 3a3d 4a4a 093d 38e3 483b
00000090: e4a7 0cbd 88a8 893c 2600 1bbd ca49 603d
000000a0: 2a60 40bd 4f30 ee3c 23a6 79bc b240 593d
000000b0: b54d 10bd d1c5 77bb 78d0 c8bc 896a e6bb
000000c0: 9e55 04bd 0edc 3dbd 099a bd3b 1277 113d
000000d0: ccb0 54bd 10be 48bd 50c5 8cbb de95 603d
000000e0: 9ac8 8e3a 1e9f db3b ed42 5bbd 6a56 6d3d
000000f0: d1fc 0e3d 3c65 26bd 0300 523d caf3 1abd
-0.028639425 0.04331274 0.041282237 -0.011768759 -0.0064978506 -0.015650807 -0.012178087 -0.045942564
0.04256831 -0.02523 0.04312547 0.030246673 -0.035895195 0.022534974 0.03304995 0.05438216
-0.056444187 -0.04112067 -0.044837527 -0.028140543 -0.049665086 -0.011843666 0.019092914 -0.049989626
-0.020678943 0.0039901766 -0.05551912 0.029868402 0.027379418 -0.02745787 -0.01978314 0.033653982
-0.0007002975 0.045481823 0.033518113 0.003065301 -0.0343398 0.016803995 -0.03784194 0.05475787
-0.04696671 0.02907577 -0.015237364 0.053040214 -0.035230357 -0.0037807117 -0.024513468 -0.007031743
-0.032308213 -0.04635244 0.0057861847 0.035513945 -0.05192642 -0.049009383 -0.0042959824 0.054830424
0.0010893524 0.006702318 -0.053530622 0.05794374 0.034909073 -0.04062389 0.051269542 -0.03783015

net.6.weight f4 [64]
00000000: 36d2 7d3f 0a8f 5f3f 548e 2e3f b8b4 4b3f
00000010: ad65 0b3f c2c5 583f 66fd aa3e d09b 103e
00000020: 0cdd 193e 5465 753f c60b b33e 65b9 8f3e
00000030: c693 3b3f da9a 0d3e f4a3 6a3f 6a4e f83d
00000040: ac78 5b3f db10 883e c80e 4f3f 6821 513f
00000050: 8acf 883e f597 6f3f 40ce 953e 2905 d33e
00000060: 4033 9e3d 815f 3d3f 3885 7c3e 8d82 b23d
00000070: 45d4 1d3e f4bd e93d 743e 313e cda0 3e3e
00000080: 70ea 7b3f 39f4 453f 0466 cc3e c97d 8e3e
00000090: 476f 043f 1d51 363d 1582 e23e d888 9a3d
000000a0: ea7a 103f ed26 813e 022e 723f 094a cf3e
000000b0: 920a 903e 0527 103f 1fed 513f 38ad 573d
000000c0: 487d bc3e 4623 193f 1f05 013f 5da9 e23d
000000d0: 5a26 003f c95b d03e 2276 7d3f 268a 463f
000000e0: e4ca 3a3f b16b 8f3e 8131 533e 1469 483f
000000f0: 55de 703f 4ad1 ef3d bcfb ce3d 0fbe b73e
0.9914888 0.87327635 0.68185925 0.7957263 0.5445202 0.84676754 0.33396453 0.14121938
0.15025729 0.9585774 0.3496992 0.28071132 0.7327236 0.13828602 0.9165642 0.12124331
0.85731006 0.2657536 0.8088193 0.816916 0.2672084 0.93591243 0.2925892 0.41214874
0.07724619 0.7397385 0.24660194 0.08716307 0.15413006 0.11413184 0.1730898 0.18616028
0.984046 0.7732578 0.39921582 0.2783034 0.51732296 0.04451095 0.4423987 0.07545632
0.5643755 0.2522501 0.9460145 0.40486172 0.28133065 0.5630954 0.82002443 0.05265543
0.36814332 0.5981945 0.5039844 0.1106746 0.5005852 0.40695027 0.9900838 0.7755455
0.72965837 0.2801185 0.20624353 0.78285336 0.9408925 0.117098406 0.10106608 0.3588719

net.6.bias f4 [64]
00000000: f0fe 50bc ce0d 0cbd 8eea f73a 54e4 acbb
00000010: 3546 edbb 0425 9cbc 2bc0 703c a929 96bb
00000020: 1f72 a7ba 8380 b8bc 4ce1 73bb 592a 3ebc
00000030: 5369 f4bb 66d4 0abc 939d 54bc b6b5 7fbb
00000040: cd26 a4bb b7fd 6e3c 3ba7 09bd dea6 aebc
00000050: 7624 0bbc c184 05bd 1296 ecbb b1df 53bb
00000060: 469e a8ba c6c9 ebbc 0745 d6bb 8b2e 33bb
00000070: 1aa4 263c 0807 f73a 2b19 583c cd66 08bb
00000080: ad47 49bc c8fb 93bc 9ee3 94bb 74ec e0bb
00000090: 1d13 0fbc 4e74 e33c 2464 62bc 3d2e 0e3c
000000a0: c047 d9bb 96b9 16bb 7e3b 19bd 37e5 edbc
000000b0: 1379 ac3b 1316 a1bc 8585 24bc dc4c 383c
000000c0: d397 91bc ff38 04bd d4b3 bcbc e4ac f83b
000000d0: dffd c9bc 3deb 3ebb dbf6 66bc 3a75 cebc
000000e0: 9e27 5cbb f8a0 793c b806 633b 629b 05bd
000000f0: 8083 31bc a2d8 543c 690b 823c a19c 89bc
-0.012756094 -0.034192853 0.0018914507 -0.0052762423 -0.0072410353 -0.01906062 0.014694254 -0.004582603
-0.00127751 -0.022522217 -0.0037213145 -0.011606776 -0.0074588447 -0.008473491 -0.012977022 -0.003901822
-0.005009508 0.0145868575 -0.03360675 -0.021319803 -0.00849258 -0.032597307 -0.007220038 -0.0032329375
-0.0012864552 -0.028782737 -0.0065389904 -0.0027340974 0.010170961 0.00188467 0.013189594 -0.0020813227
-0.012285155 -0.018064395 -0.0045437356 -0.006864125 -0.008732584 0.02776542 -0.013817821 0.008678016
-0.0066308677 -0.0022998801 -0.03741025 -0.029039962 0.0052634566 -0.019663846 -0.010041599 0.011248793
-0.01777259 -0.03228092 -0.023034967 0.0075889695 -0.024657188 -0.0029131912 -0.014096941 -0.025202382
-0.003359295 0.015236132 0.0034641456 -0.032618888 -0.010834575 0.012991102 0.015874581 -0.01679832

net.6.running_mean f4 [64]
00000000: d03e 45be 0bbc 523e 9640 c5be b16b d43d
00000010: 3e4f 813c a28f 373e 8805 81be 8b5b cb3d
00000020: cc55 103e f8de 2f3e abde 2a3e 80fc 373e
00000030: fecf ffbd 6896 5e3e 3a57 2cbd b50b 7c3e
00000040: a91c 68be 7bae f8be 9953 ab3d 9b61 333d
00000050: 6897 583e 9a68 823e efb8 bb3d cd96 87be
00000060: 041e 6d3e 86a4 b23e 7596 0f3c 06fd 4e3e
00000070: 08cf 0cbe 9bad 4ebd 0d0f b5be ca4e 473e
00000080: 9316 333d 5c5e 623d e85c 41be ed32 403e
00000090: 4855 e83d e3e7 cbbc 47f2 a239 07d2 433e
000000a0: b3a9 e7be 7102 3a3e fef9 373e 63d2 b73d
000000b0: 85f1 16be d747 453e 85f6 d9bd b89f 08be
000000c0: 3889 643e cf4e 27bc 4feb 353e c08c b53e
000000d0: b36c db3d 7cb6 973e a043 6cbd 4c3e 753e
000000e0: a8a0 9fbe 943c f0be 0205 66bd 51e8 033d
000000f0: 38af 9ebe a1fa a5bc 00e7 383e b2d8 a73d
-0.19262242 0.20579545 -0.38525838 0.10372103 0.015784856 0.17925885 -0.25199533 0.0992957
0.14095229 0.171749 0.16686504 0.17967415 -0.12490843 0.21737063 -0.042075373 0.24613841
-0.22667183 -0.48570618 0.08365554 0.043794256 0.21151507 0.2547043 0.09166133 -0.2648224
0.23155981 0.34891146 0.008763899 0.20213708 -0.13750851 -0.05045853 -0.35363045 0.1946365
0.0437227 0.05526577 -0.18883097 0.18769427 0.11344391 -0.024890846 0.00031079559 0.19123088
-0.45246658 0.18164994 0.17966458 0.08975675 -0.1474057 0.19265686 -0.10642723 -0.13342178
0.2231797 -0.0102116605 0.17765544 0.35458946 0.10714092 0.29631412 -0.05768168 0.23949546
-0.31177258 -0.46921217 -0.05615712 0.032203976 -0.30993056 -0.02026111 0.1805687 0.08195628

net.6.running_var f4 [64]
00000000: 2944 fc3c 366b c03c 6883 ee3d 65a6 643d
00000010: 1a12 973d 4df9 633d 1f5f 993d b5b4 1c3d
00000020: 4e15 813c 32ff 8b3d e389 843d cfbd 1f3d
00000030: 54fc 383d 61e6 a43c 4c49 553d b213 903c
00000040: 985a 843d 259d 983d 9aea 033d f5c6 103d
00000050: cd66 eb3c 9f0c 453d 84bd 9b3c a614 213d
00000060: fbd0 d63c 0a74 643d ec36 243d 9bb4 c73c
00000070: a883 113d a7f0 113d 1bb1 513d ff32 813c
00000080: 9a21 df3d fc69 f93c 6771 9a3d d927 5d3d
00000090: 9702 ff3c d855 eb3c 2943 dd3c b573 4c3c
000000a0: aeb8 633d 366c e23c 885d d03c 28ea b93c
000000b0: 7641 313c 430f 223d 38a3 003e 27dd 243d
000000c0: 4fbe ee3c ec3f 8d3c 345e ad3c 6360 303d
000000d0: 19b3 463d 0ea7 7c3d 5a10 123d 26a0 b03c
000000e0: 41a8 4d3d 694e 083e 01a7 fe3c c299 1c3d
000000f0: 384e ba3d e307 463d c1b4 953c 620e 223d
0.03079422 0.023488622 0.116461575 0.05582275 0.073764995 0.055657674 0.07488846 0.038258273
0.01575723 0.06835784 0.06471612 0.038999375 0.045162514 0.020129384 0.052071854 0.017587516
0.06462592 0.07451848 0.032206155 0.03534599 0.028735543 0.04810774 0.019011267 0.039326333
0.026222697 0.055774726 0.04009144 0.024378112 0.035525948 0.035629895 0.05119429 0.015771387
0.10895081 0.030446045 0.07541161 0.05399308 0.031129165 0.028727457 0.027009564 0.012478759
0.055596046 0.02763949 0.025435224 0.022694662 0.01081883 0.039565336 0.12562263 0.04024997
0.02914348 0.017242394 0.021163084 0.04306067 0.048510645 0.061682753 0.035660125 0.02156074
0.050209288 0.13311161 0.031085493 0.038232572 0.0909695 0.048347365 0.018274667 0.039564498

net.8.weight f4 [128, 64, 3, 3]
00000000: 59bf 0b3d 59b7 1ebc a86d 56bc 0f86 96bb
00000010: dcdb 283c 408a f8bc b373 f73c ead9 01bc
00000020: 7335 74bc 910e 383d 5127 043d dc92 363c
00000030: ad9c 1f3d 38e1 043d f294 d2bc 759b 9d3b
00000040: ceee f03b 07b8 d4bc df11 b2bc ac2b 923c
00000050: 07bb 363d 8a1a 113d 154c 7cbc f9bf 97bc
00000060: 506c 2e3d 63be b6bc 67c1 a6bc 9731 59bb
00000070: 0c50 73bc 0f7a 4cbd 5379 993c 78ed 8ebc
00000080: ca02 483c 104b 1d3c cd8e 63bc 94c1 643c
00000090: 802d fbba e918 073d 8fb4 bdbb a312 3d3c
000000a0: 64b2 0fbd 6eb3 ab3c 2a51 02bd a012 cd3b
000000b0: 7313 803b efee 993b 2b06 103d 034c e8bc
000000c0: 7273 e4bc e93e b2bb af12 fabc 7c2a 5abc
000000d0: bc34 f13c 1750 dabc 20f8 dcbc ae23 1b3d
000000e0: d52f c5bb c193 513c 0014 9539 a4d7 85bc
000000f0: 895a c6bc 7af1 4cbc ce21 9ebc ad0f 09bc
00000100: eeec 00bd 5239 063d ab95 5d3c 6501 22bd
00000110: b87d 0abd 7cf3 2ebd 46c5 ba3c 9f75 9fba
00000120: 50ce 1abd 48ae ff3b bbb7 31bd 0ff2 1c3d
00000130: 1af0 7fbc 6674 883c bedd d43c b48b ebbc
00000140: 7d96 f23a 70b8 e03b d35d 67bc b1a4 04bd
00000150: fb27 90bc 96e5 273c b920 fb3c 7014 d43c
00000160: 006f 44bc 257d 97bc 3db0 09bd 96d9 61bc
00000170: f5f6 e8ba 87bd 9bbb 5ef2 9bbc 7ad7 19bd
00000180: 75fc 003d ba84 8e39 8f52 1d3c ed49 13b9
00000190: 43a1 9aba 46c1 4ebd d5c6 f23c 0947 34bc
000001a0: 0c71 d1bc 60cb 32bc c4d8 603b 8aee b0b7
000001b0: 6036 97bb 77b6 35bd bea2 39bd ceda 86bb
000001c0: 2674 073d 7205 16bd af4f f63c 1259 113c
000001d0: 7ca1 353c 52ab 833c 3014 9e3c b9d7 063c
000001e0: 9a71 c43c 5bce c0bb 41f7 b53c 6eed dc3b
000001f0: 1966 10bd 6471 27bd 4707 b7bc 83fb 7f3c
00000200: 33a5 1ebd 5d2b 373c 8ac1 4fbc 9a40 2bbd
00000210: df1a c0bc 6b0a 2d3c 6d00 adbc e095 363d
00000220: 95c2 c4bc 40ee c23c cf03 17bc 5bff 85bc
00000230: fb54 1fbc 574d d1ba c1f8 e53c b4cf 413c
00000240: 419c aabc 0407 1f3c 85f0 0e3c a7fa c53c
00000250: 15f7 743c fea6 f8bc 8f8a 01bd 1af1 bbbc
00000260: 928d 8cbc 759a c53c 39ab 193d 44a4 293d
00000270: 0eec 063c 8c8a 1c3d 5ce1 333d 4839 173d
00000280: 2606 a3bc 930c be3b 17c6 b63c 1f9f 1b3d
00000290: c7ad 4cbc 1d29 023c 2efb 8b3c 6c97 c33a
000002a0: 5d90 ce3a 963c e8bb d035 7abb 6cf4 2b3d
000002b0: 735b 9c3c 0471 7abc 3598 b6bc 9f50 013c
000002c0: ad05 24bd 273e cfbc 8e69 d13b d956 8ebc
000002d0: b49f e23c 011d 23ba 4ed2 b83c efbe f4ba
000002e0: b298 1dbc f140 db3c 5460 bebc 89a0 fe3c
000002f0: 5be8 dabc 2d02 a33c 84cf d6bc e353 03bd
00000300: 7610 f03c 3c66 2f3c 7ce2 003d 4897 333d
00000310: 4c43 bdbb a360 a4bc 06b2 9d3c 9120 adbb
00000320: 317a 323c 02b6 6abb 6bad 1ebd 9d05 39bd
00000330: 7a46 f93c 7e3b 07bc da48 03bd 4cef 63bc
00000340: 02c7 f13c 5a08 1f3d 529d 56bc dcc4 993c
00000350: 988a 18bd d027 ab3b adac 863c d617 ce3c
00000360: ed70 fa3c 16f5 09bc 2e45 203d 2786 34bd
00000370: b4da 5ebd 794b 4bb9 a137 c33c 4c93 e03c
00000380: 095d 7dbc fd1b adbc 45f9 833c 364d d7bb
00000390: 0893 253d 7968 0e3c 89f0 0abd 8880 abbc
000003a0: 7f52 05bb b443 3b3d 70c0 993c 8366 babc
000003b0: ca0c d5bc ded2 643a 437d 34bd 2de4 debc
000003c0: 8510 a43c b966 29bd 629e c03c ebda 2dbd
000003d0: 110d c63c 3141 913c e5ba d7bc 82c3 f6bb
000003e0: aef7 0d3d 7711 1e3d 9e74 c9bc 4edc ec3c
000003f0: f4f4 2ebd 592c 12bd a949 293d 5c54 07bd
0.03411803 -0.009687268 -0.0130876675 -0.0045936177 0.010306325 -0.03033936 0.030206537 -0.00792549
-0.014905321 0.044935767 0.032264058 0.011143412 0.038967777 0.032441348 -0.025705788 0.0048097917
0.0073526865 -0.025966657 -0.021737037 0.01784309 0.044611957 0.0354257 -0.015398999 -0.018524157
0.042583764 -0.02230758 -0.020355893 -0.003314113 -0.014850628 -0.04992109 0.01873461 -0.017447218
0.012207696 0.009600416 -0.013889027 0.013962168 -0.001916334 0.03298274 -0.0057893465 0.011540088
-0.035082236 0.020959582 -0.031815685 0.006258324 0.0039085685 0.0046976726 0.035162132 -0.028356558
-0.02788708 -0.0054396284 -0.030526487 -0.013315793 0.029444091 -0.026649518 -0.026973784 0.037875824
-0.006017665 0.012791575 0.00028434396 -0.016338177 -0.024213092 -0.012508744 -0.019303229 -0.008365554
-0.031475954 0.03276951 0.013524453 -0.03955211 -0.0338113 -0.042712674 0.022799145 -0.0012165791
-0.03779441 0.0078027584 -0.04338811 0.038316783 -0.0156212095 0.016657066 0.025984641 -0.02875314
0.0018507984 0.006857924 -0.0141214905 -0.032383624 -0.01759719 0.010247609 0.030655252 0.025888652
-0.011989355 -0.01849229 -0.03361534 -0.013784787 -0.0017773794 -0.004752818 -0.019036468 -0.03755901
0.03149076 0.0002718324 0.009602203 -0.00014046552 -0.0011797327 -0.05047729 0.029635826 -0.011003264
-0.0255666 -0.010912746 0.003430889 -2.1091913e-05 -0.0046146363 -0.044363465 -0.04532122 -0.004115439
0.033069752 -0.036626287 0.030067293 0.008871334 0.011085864 0.016072903 0.019296736 0.008230143
0.02397995 -0.0058839745 0.022212626 0.006742171 -0.035253618 -0.040879622 -0.022342337 0.01562393
-0.038731765 0.011179772 -0.012680421 -0.041809656 -0.023450313 0.010561566 -0.021118367 0.044576526
-0.024018565 0.023795247 -0.009217217 -0.016357115 -0.009724851 -0.0015968484 0.028072717 0.011829305
-0.02082646 0.0097062625 0.0087243365 0.024167372 0.014951487 -0.030353066 -0.03162628 -0.022942115
-0.01715735 0.024121502 0.037516806 0.04141642 0.008234991 0.038218066 0.04391609 0.036919862
-0.019900393 0.005799839 0.022311253 0.037993547 -0.012492604 0.0079443725 0.017087545 0.0014922447
0.0015759576 -0.0070873005 -0.0038179047 0.041981146 0.019086575 -0.015285734 -0.022289375 0.007892757
-0.040044475 -0.025298191 0.006390757 -0.017375397 0.027664043 -0.00062222785 0.022561219 -0.0018672625
-0.009618925 0.026764365 -0.023239292 0.031082409 -0.026722124 0.019898498 -0.026221998 -0.032062422
0.029304724 0.010705527 0.031465992 0.043845445 -0.0057758447 -0.020065611 0.019249927 -0.0052834232
0.0108933905 -0.0035814052 -0.038739603 -0.04517137 0.030429114 -0.00825393 -0.0320519 -0.013912033
0.02951384 0.038826324 -0.0130990315 0.018770628 -0.03724155 0.005223252 0.01643976 0.02515785
0.030571425 -0.008420249 0.039128475 -0.04407325 -0.05440779 -0.00019387704 0.023830237 0.027413987
-0.015464076 -0.02113151 0.016110072 -0.0065704836 0.040423423 0.0086919 -0.0339208 -0.020935312
-0.002034336 0.045718864 0.01876852 -0.02275396 -0.026007075 0.00087289314 -0.04406477 -0.027208412
0.020027408 -0.04135773 0.023513023 -0.042445105 0.024176152 0.017731281 -0.026334235 -0.0075306306
0.034660034 0.038590875 -0.02459174 0.028913643 -0.042714074 -0.035686824 0.041330013 -0.033039436

net.8.bias f4 [128]
00000000: 08d7 0fbd 0e36 e4bc 8b26 e9bc d76c 1d3c
00000010: 495b c2bc 5339 2fba 4784 d3bb 0005 9a3b
00000020: a953 e93a 3de1 18bd 4b5a 263c a3cb c23c
00000030: aa56 e4bc db76 9abc dd68 e23c 7bd3 fcbb
00000040: 2edd 113c 92f9 603b c3bd 623b 08f0 b6bc
00000050: 7cec d13c 027b 0a3d e74f 30bc 7dc3 853b
00000060: 510d 2abc 2b15 ab3c 6aec ce3c 8af2 8ebc
00000070: 357d 9fba c3d2 9c3c 1b44 01bd 7534 9ebc
00000080: 7e83 c83b 468b 81bc ce85 de3c 56dd d53c
00000090: f550 e1bc b862 a63c 33d1 733c edb2 8e3c
000000a0: 01e0 b63c 10e8 383c 468c 8d3b cd6d f6bc
000000b0: 5d44 19bd 355f 0d3d 3581 aabc 5a74 8f3c
000000c0: 6361 bfbc f8ca d53c 9b29 a5bc 241d fcbc
000000d0: ee62 34bc 2354 07bd c4df dd3c 8588 883b
000000e0: 20f7 09bd be7a e13c 5010 8f3b 871f 0fbd
000000f0: 9f99 3fbc fbb1 e33c 44af d0bc daea 153d
00000100: d3db 3bbc 4d40 763b 91a5 00bd 0382 023d
00000110: fef1 c5bc 539c ecbc f1ef ffbc 94a9 e33c
00000120: 0873 01b9 38b9 d8bb a694 6fbc b4a1 463c
00000130: b1e6 cc3c 8ff5 56bc a408 bc3c 4d14 efbc
00000140: a753 c63c 64e4 893b e6e3 c3bc ddf5 fbbc
00000150: 3e38 693c 4831 2abd 8b3b 1b3d 9bf5 0c3d
00000160: 12d6 23bb 3a83 18bd 2000 63bc d22c 093d
00000170: fd0b acbc c259 8e3c 639c c13c 3112 d63b
00000180: 1616 ce3c 44f0 e33c b52b 0f3d a3ff 773c
00000190: 84ea f13c a5db 2bbd 0ec0 243d 1a7d 06bc
000001a0: 4ba0 71bb dd74 a1ba a6c2 9b3c 980c c8bc
000001b0: 0441 8dbc de88 c43a 2d49 ddbb cf61 45bc
000001c0: 17e3 a5bb b85f 1d3d 2506 e939 7be6 f33b
000001d0: 1d34 02bd 0b18 4fbc 8f16 8c3c dbd6 ab3c
000001e0: c25b 59bc e5bc b83c b906 cbbb ae5d e53b
000001f0: 337d 10bc d584 883c 35e4 ea3c 2be3 10bc
-0.03511718 -0.027857807 -0.028460762 0.009608469 -0.023725169 -0.0006684262 -0.0064549777 0.004700303
0.0017801422 -0.03732418 0.010153363 0.023778742 -0.027873356 -0.018855503 0.027637893 -0.00771564
0.008902831 0.0034328443 0.003459797 -0.022331253 0.02562546 0.033808716 -0.010761238 0.004082142
-0.010379151 0.020884117 0.025259215 -0.017449636 -0.0012168052 0.019143468 -0.03155909 -0.019312123
0.0061191907 -0.015813481 0.027163412 0.026106518 -0.027504424 0.020310745 0.01488142 0.017419303
0.02232361 0.011285797 0.0043197004 -0.030081654 -0.037418712 0.034514625 -0.020813564 0.017511535
-0.023361867 0.02609776 -0.02016144 -0.030775614 -0.011009915 -0.033039223 0.027084239 0.004166665
-0.033682942 0.027524348 0.0043659583 -0.034942176 -0.011694341 0.027794829 -0.025474198 0.036600925
-0.011465984 0.0037574947 -0.031407896 0.03186227 -0.024163242 -0.028883135 -0.031242343 0.027790822
-0.00012345251 -0.0066138767 -0.014622843 0.012123514 0.025012346 -0.013120069 0.022953339 -0.029184485
0.02420981 0.0042081345 -0.023912381 -0.030756885 0.014234601 -0.041550905 0.03789858 0.034413915
-0.0024999422 -0.037234522 -0.01385501 0.03349001 -0.02100181 0.017376784 0.023634141 0.0065329303
0.025157016 0.027824529 0.03495379 0.015136632 0.029530771 -0.041957516 0.04022222 -0.0082085375
-0.0036869224 -0.0012318153 0.019013714 -0.024420068 -0.017242916 0.0014994403 -0.006753108 -0.012047245
-0.0050624716 0.038421363 0.000444458 0.007443247 -0.03178798 -0.01264001 0.0171006 0.020976475
-0.013266506 0.02255101 -0.0061958698 0.006999693 -0.008818912 0.016664902 0.02867327 -0.008843224

net.9.weight f4 [128]
00000000: 0467 203f 690e 403f 39ad 4c3f 7d33 e33e
00000010: 55d4 f43d 0aa8 8e3d 255c 353e ede4 963e
00000020: 18a8 7e3e 0acd 463f 55d6 c73e 64dc 053f
00000030: 0ad9 083f 0de1 2a3f ac0b d03e 472d 953e
00000040: f64e 603f 14d2 ba3e 4ae4 5a3f 0f89 313e
00000050: 6e6c ba3d f22d 503f 6c2a 333e 5973 e13e
00000060: 7f9e b83e c8b7 2d3f 48c3 383e 1e9d 223f
00000070: 320e 5d3f e7fc 703f d7db 643f 40d7 a93e
00000080: 4427 003f 0f46 983d c5b2 433e 4e56 523f
00000090: 3271 4c3f 1a77 ab3e b2d7 593e 8075 c53e
000000a0: 561a 463f 8e88 1d3e 85c6 313f 576d ab3e
000000b0: 1638 ab3e 3966 0b3e 72a6 cc3e 96dd 6b3f
000000c0: 5300 703f ceea 2a3f 368c 213e f5a7 cf3d
000000d0: 117e 463f 6d40 513f 6e51 313e 7197 453f
000000e0: 3238 c33e 8844 543f cf86 283f ccd7 af3e
000000f0: 91c7 eb3c cc76 853e 9593 983d eae2 de3e
00000100: fb0c 613f 9c12 333e aeec 4d3f dd9d 053f
00000110: 9ab9 303f e510 713d ea89 5a3f fa22 103f
00000120: 104d 6e3f a4ae 0e3e 613d 423d a32f eb3e
00000130: debd 1d3f 4180 373f 7206 883e 5269 ca3e
00000140: 8325 603e 4b18 963e b965 173f d1f6 053e
00000150: 7cd3 3c3f a078 f83e 5976 473f b2ee 083f
00000160: 0bd5 133e 03b9 6d3f 861a 673f 632b 613f
00000170: 16b0 5b3e 9b98 ea3e 6b65 503d d23b a73c
00000180: ba5b 603f 3465 e03e fcd7 d13e fb28 5b3e
00000190: 0fe7 1f3f 414b 743f a42f dc3e 3505 e23e
000001a0: 118e 6b3f 0243 ee3d ed95 c53d b555 743f
000001b0: 802c 033e 80fe 1f3d 7954 f83d 4b04 1a3d
000001c0: cfe1 d23e 2b38 b23d 50eb 393f df09 8c3e
000001d0: 342c 963e 3214 103f 9003 423e dd4c 863e
000001e0: 74b7 b13d 2970 7e3e 6d70 0b3f cdcc c33e
000001f0: 0955 283f b031 563f 285e 1a3f 2983 aa3e
0.6265719 0.7502199 0.79951817 0.4437522 0.119545616 0.06965645 0.17710932 0.29471532
0.2486881 0.77656615 0.3903071 0.52289414 0.53456175 0.6674965 0.40633905 0.29136106
0.87620485 0.36488402 0.8550459 0.1733744 0.091027126 0.81320107 0.17496651 0.44033316
0.36058423 0.6785855 0.18043244 0.6352099 0.86349785 0.941359 0.8939795 0.33172035
0.50059915 0.074352376 0.19111164 0.8216294 0.7986022 0.33489305 0.21273687 0.38566208
0.77383935 0.15384123 0.6944354 0.33481857 0.33441228 0.13613214 0.39970738 0.9213499
0.93750495 0.66764534 0.15776142 0.10139457 0.7753611 0.8173893 0.17316219 0.77184206
0.3812881 0.8291707 0.658307 0.34344327 0.028781684 0.26067197 0.07450024 0.43532497
0.8791043 0.17487568 0.8043927 0.52194005 0.69033206 0.058854003 0.8536669 0.5630337
0.9308634 0.13933808 0.047421817 0.4593478 0.6161784 0.71680075 0.26567417 0.39533478
0.2188931 0.2931541 0.5913959 0.13082434 0.737602 0.4852953 0.7791496 0.5348922
0.14436738 0.9286043 0.90274847 0.8795683 0.2145389 0.45819554 0.05087797 0.020414267
0.87639964 0.43827212 0.40985096 0.21402352 0.6246194 0.9542733 0.43005097 0.44144598
0.9201365 0.116338745 0.09647737 0.9544328 0.12809944 0.03906107 0.12125487 0.03760175
0.41187903 0.087021194 0.72624683 0.2735128 0.293306 0.56280816 0.18946671 0.26230517
0.08677569 0.24847473 0.54468423 0.38242188 0.65754753 0.8366957 0.6029992 0.33303192

net.9.bias f4 [128]
00000000: 8ce0 24ba 7de1 34bc 59b7 4c3b 353c 633b
00000010: b7c8 573b 0614 493b 70e0 153b 8839 d83b
00000020: 7022 ba3b e7c3 cd3b a815 d4ba 8508 69bb
00000030: 7a1a 65bc c635 5ebc a878 243c a958 883b
00000040: acca 0d3b efd2 abba 8c08 11bc c31c 033c
00000050: 95ba 013c df83 753b 2f41 82bc 9853 bcbb
00000060: 7e05 223b fc5f b0bb 3e84 1a3c 2a58 86bb
00000070: d169 bfbb 38b8 fe3a 1375 b1bb 3df9 83b7
00000080: 8a8f bcb9 44a7 193c e7ee bebb 9c28 f9bb
00000090: 7dec e63b d761 8e3b 60b6 edba b404 093b
000000a0: 336c c63b da62 3e3b 47b4 02bc 278c 18bc
000000b0: ae14 bb3b fb53 a23b f577 21bb 383c 32bc
000000c0: 568f d9bb fc52 093c d958 e1bb 9c4f 50bb
000000d0: 05b8 15bc fc61 08bc 8dcb 13bb 0b1a 1c39
000000e0: 2977 8b3b 2546 dbbb 4a37 b53b 2d0a a6bb
000000f0: 4fd2 2dbc b633 0ebb 23bd dfbb 2a03 153c
00000100: 4de4 5c3b 89b8 5abb 9ebe 033b cb09 10bc
00000110: a838 c1ba 416e 97bb df72 a13a 012e c13b
00000120: eceb 28bc a8cc c73b e28f fc3a 804d edbb
00000130: 5f00 3f3b 97c5 2cbc bd40 49bb 5cd6 06bb
00000140: ba3c 963b d7a6 e93b c599 0637 54c8 23bc
00000150: ccb7 ffbb 4237 20ba c07a 3dbb fe7a c43b
00000160: 9b93 41bb e523 573b cfd2 c33b e5b8 9a3b
00000170: a84c 973b 2b28 6bbc 4bfd 603b 3ea2 59bb
00000180: acff 45ba ffb1 49bb a984 2fbc 65fb 5abc
00000190: 1762 333c dd9a b93b 9d8d f0bb e682 4b3b
000001a0: b7fe 813b 6421 fdbb c2be e63a 0247 c53b
000001b0: 79a6 563b b536 30bb e231 0e3b 00ec 63bb
000001c0: d01d 423b 27ed 8b3b 580c a3b9 1bfe b2ba
000001d0: 4eb1 b33b 4990 db38 0365 a13b 0d03 34bc
000001e0: 093e 99ba 59fe c23a b62d a6ba 292d d038
000001f0: b75b f93b b7e9 783b 4b66 273b a57f 923b
-0.00062895636 -0.011040089 0.0031237213 0.0034673337 0.0032926032 0.00306821 0.002286937 0.006598655
0.005680375 0.006279457 -0.001618077 -0.0035558057 -0.013983363 -0.013562625 0.010038532 0.0041609597
0.0021635694 -0.0013109128 -0.008852135 0.008002463 0.00791802 0.0037462635 -0.015900223 -0.00574727
0.0024722512 -0.005382536 0.009430943 -0.0040998654 -0.0058414717 0.0019433564 -0.0054155677 -1.5732478e-05
-0.000359651 0.009378258 -0.005826819 -0.007603718 0.0070472346 0.0043451595 -0.0018136017 0.0020907344
0.006055379 0.002905062 -0.007977552 -0.009310759 0.0057092523 0.004953859 -0.002463815 -0.010878615
-0.0066394014 0.008381601 -0.0068770465 -0.0031785732 -0.009138112 -0.008324143 -0.0022551746 0.00014887021
0.0042561484 -0.0066917115 0.0055302726 -0.005067131 -0.0106092235 -0.0021698303 -0.006827967 0.009094993
0.0033705414 -0.0033374152 0.002010263 -0.008791397 -0.0014741616 -0.0046212976 0.001231756 0.0058953767
-0.010310154 0.006097395 0.0019268955 -0.0072419047 0.0029144508 -0.010545156 -0.0030708753 -0.0020574545
0.004584876 0.0071304846 8.022825e-06 -0.009996492 -0.0078038927 -0.00061117497 -0.0028912276 0.005996107
-0.0029537443 0.0032827791 0.005976058 0.004721748 0.0046172924 -0.0143528385 0.0034330662 -0.0033208276
-0.00075530517 -0.003077626 -0.010712781 -0.013365601 0.010948679 0.005664213 -0.0073411004 0.0031053363
0.003967132 -0.0077249277 0.0017604458 0.0060204277 0.0032753034 -0.0026888077 0.0021697213 -0.0034778118
0.002961982 0.004270214 -0.0003109898 -0.0013656052 0.005483783 0.00010469609 0.0049253716 -0.0109870555
-0.0011691462 0.0014876827 -0.0012678418 9.9266246e-05 0.00760981 0.0037981102 0.002554315 0.004470783

net.9.running_mean f4 [128]
00000000: fb94 dbbc 2aa9 c4bd 44d7 c3bc 0cbb 653d
00000010: 7636 ca3d 74c0 d53d bb68 b73d fe98 91be
00000020: 989e 703e 434e d3be 2359 6bbe ab5d fd3d
00000030: fe42 84be 9b30 01be a187 1c3e 66d5 163e
00000040: 6555 0c3e bd8f 533e 780c 973e 33c6 953e
00000050: 0c6a 6cbe cc5f b8bd 9365 59be 96dd 7abd
00000060: 418d 863d 0e29 963d 878f 84bd d19e 91be
00000070: 0a6d d83e 38ce 3c3b 503a a3bc 27fe 783c
00000080: 0d1f 4dbc b5fd 91be 66ee 14be 4993 a6bd
00000090: b25c 4f3c f2a3 4dbd b4ad 1bbb 51e8 8b3e
000000a0: fd40 6ebd 0964 133d f03a 643d 5e2c 253d
000000b0: 5f92 a33d 8f35 5abd daf0 043e fce0 39be
000000c0: 224d 1abd 6fc1 573e 5d3a 57be 429f 8fbe
000000d0: 1fa4 a0be a54b 95be 72f2 53be 09db 9abb
000000e0: 0f07 ecbd cc90 673d 3129 9b3d a299 32bd
000000f0: 9483 7c3b c3f8 ec3d 4e21 61be d64d 303e
00000100: 0b44 363d af01 113e af9a cfbe 4033 17bd
00000110: db6a 3a3c c8fb 47bd f566 55bd eeb2 303e
00000120: a8e1 82bd ae6b 183d 4095 abbd d25f f0bd
00000130: 6312 32be 89dc 3cbd a032 983e adea 9fbe
00000140: 725a 703e 75a0 903d fad3 c7bd 5671 a9be
00000150: 1afd 8ebd d3bd 0ebd 0892 0c3e a90f 413e
00000160: d49f 40be 63b3 943d be39 01be 068f 573d
00000170: 8cc3 873c 04ba 0ebe c3bd ac3b c802 2fbc
00000180: c62b a43e 54d8 bcbd 2cd3 8dbe b2d2 953d
00000190: 337b 8f3e 27be 92bb 0c04 13be 6d32 39be
000001a0: 3d5d b53d b3ad 94be 294e 65bd b2ff f93c
000001b0: 632c 073e 1f3f 88bd 7073 37be f33c 0cbe
000001c0: 3c82 0bbd de3e 06be b026 a33c 7a62 ca3d
000001d0: 101f 18be 8c81 53bd a20e 95bd 0e6c 52be
000001e0: f6cc 2c3e 0970 db3d 8303 ac39 fabf 1f3e
000001f0: 1db1 cdbd f99b 7e3d 6467 97bd eaf8 19bd
-0.026804438 -0.09602578 -0.023906358 0.056086585 0.09873669 0.10437098 0.089555226 -0.28437036
0.23497999 -0.41270646 -0.22983222 0.12371381 -0.2583236 -0.12616198 0.15286113 0.14729843
0.1370445 0.206603 0.295017 0.29252777 -0.23087329 -0.09002647 -0.21230154 -0.061246477
0.06569911 0.07332049 -0.06472688 -0.2844148 0.4227069 0.002880944 -0.019925267 0.015197313
-0.01251961 -0.28513876 -0.14544067 -0.08133561 0.012656378 -0.05020518 -0.0023754658 0.2732568
-0.058167446 0.035984073 0.05572027 0.040325515 0.079869024 -0.053273734 0.12982503 -0.18152231
-0.037671216 0.21069883 -0.21018358 -0.28051192 -0.31375214 -0.29159275 -0.20697954 -0.004725818
-0.11524784 0.056534573 0.07576216 -0.043603547 0.0038530575 0.11570885 -0.21985361 0.17217192
0.044498485 0.14160798 -0.40547702 -0.03691411 0.011378015 -0.0488241 -0.05210014 0.17255756
-0.06390697 0.037212066 -0.083780766 -0.11737026 -0.17389826 -0.046108756 0.29726124 -0.3123373
0.23472002 0.07061855 -0.09757228 -0.3309428 -0.06981869 -0.034849 0.13727582 0.1885363
-0.1881097 0.07260778 -0.12619683 0.052626632 0.016572736 -0.13938147 0.005271645 -0.010681815
0.32064646 -0.09220949 -0.27700174 0.073155776 0.2802368 -0.0044782343 -0.14357013 -0.18085642
0.088556744 -0.29038772 -0.055982742 0.030517433 0.13200526 -0.066526644 -0.1791513 -0.13695125
-0.034059748 -0.1310992 0.019915909 0.09882064 -0.148556 -0.051637217 -0.072781816 -0.20549032
0.16875061 0.107147284 0.00032809013 0.15600577 -0.10043547 0.062160466 -0.07392767 -0.0375909
