D_B.pth (torch_old, 401728 bytes, 21 tensors)

net.0.weight f4 [16, 3, 3, 3]
000000 4c 85 1d 3e 50 2c 1c be 20 68 82 3c 12 fd 46 3d
       0.1538288 -0.15251279 0.015918791 0.04858119
000010 54 11 2d 3e f0 aa 65 bd 21 d2 a5 3d 8c 45 fe bc
       0.16901141 -0.05607122 0.080967195 -0.031039022
000020 b4 75 c0 3d a6 e1 0d be 15 25 a9 bd e3 05 20 3e
       0.0939745 -0.1385561 -0.08259026 0.15627246
000030 36 90 e0 bd bd 02 b7 bd 54 c5 a7 bc 62 5c ff bd
       -0.10965006 -0.08936069 -0.020479836 -0.124687925
000040 ff 57 23 bc 2a d3 7f 3d 92 31 2b 3e 92 66 cd 3d
       -0.00996971 0.06245724 0.16718128 0.10029329
000050 78 3b 3a be 6d 64 90 bd e5 2e 20 3e ef 50 6d 3d
       -0.18186748 -0.07050405 0.15642889 0.057938512
000060 1c de 1f bd 7d 66 e2 bd 5f 88 6a 3d d9 23 6b bd
       -0.03903018 -0.11054704 0.05725896 -0.057407234
000070 5b ba 37 3e cb 02 d9 3c 85 ea f9 bd ef 68 06 3e
       0.17942183 0.02649059 -0.12202934 0.13125966
000080 ce 26 3a be 83 d1 13 be d6 17 df 3d 2b ea 26 3e
       -0.18178865 -0.14435391 0.10893218 0.16300265
000090 64 86 4d 3d 2b 13 f4 3d 91 8b cf bd e9 66 75 3d
       0.050176993 0.119177185 -0.10134042 0.059912596
0000a0 b2 40 08 3e f4 6c c3 3d bd 7a 92 3d ba 47 12 3e
       0.1330593 0.095422655 0.07152317 0.14285174
0000b0 6d 60 7c bd 7a a0 a5 bc e0 2a 29 3e 9f 57 0f be
       -0.061615396 -0.020218123 0.16520262 -0.13998269
0000c0 1f 1e 80 bd a2 ea 96 ba 93 be 40 3e 8f 25 35 3d
       -0.06255745 -0.0011514018 0.18822698 0.04422527
0000d0 59 0d 62 3d fe 6b 0d bd e1 86 a6 3d f7 5f 17 be
       0.05518851 -0.034526818 0.08131195 -0.14782701
0000e0 35 9b 31 bd 8c 4f 91 bd a1 e1 1e 3e ca d1 19 3e
       -0.043360908 -0.070952505 0.15515758 0.15021434
0000f0 51 ab de 3d 02 6a 80 3d 9e 39 2c 3e aa 10 a2 bd
       0.1087252 0.062702194 0.16818854 -0.07913335
000100 83 6c f0 3d 27 8c 3e 3e c5 6a 1e bd e1 2c c3 3d
       0.11739447 0.18608151 -0.038676042 0.09530044
000110 b0 3f d6 3d 58 88 b6 3d 83 65 e0 3d 16 11 5f bc
       0.10461366 0.08912724 0.10956862 -0.013614913
000120 a5 8a 10 3d 2f 02 30 3e eb 60 1c 3d f3 ea de bc
       0.03528847 0.17188333 0.038178366 -0.027211642
000130 f8 ac b2 bd 74 f9 e8 bd fd 23 9d 3d 6f df 90 3d
       -0.087243974 -0.113757044 0.0767288 0.070738666
000140 77 2a cf 3c 03 99 db bd 9d cb d5 3d ad 07 46 3e
       0.025288804 -0.10722544 0.10439227 0.19338866
000150 ce 8b 41 3e 4a de 8d 3d a8 73 37 be 53 1e f9 3d
       0.18900988 0.06927164 -0.17915213 0.12163987
000160 0a 90 32 be d7 1a cc bd 7a 9c 11 3e d7 7a a0 bc
       -0.17437759 -0.09966057 0.14219847 -0.019589825
000170 87 a7 75 bd 59 13 1d be 73 15 2d 3e 9a 06 14 3e
       -0.05997422 -0.15339412 0.16902713 0.14455643
000180 40 f1 16 3c 8e 61 42 bd e7 bf 1c be e4 bf e7 bc
       0.009212792 -0.047456317 -0.1530758 -0.028289743
000190 10 2b 08 3e 95 15 11 be ab 14 01 bd 09 bc 81 bd
       0.13297677 -0.14168389 -0.03151385 -0.06334693
0001a0 0b c9 19 3e 1b e4 18 be d2 44 e7 ba 27 08 a5 3d
       0.15018098 -0.14930765 -0.0017644411 0.080581956
0001b0 f0 c2 12 bd 12 84 2d bd 53 32 11 3e 39 45 d9 bd
       -0.035830438 -0.04236228 0.14179353 -0.10608906
0001c0 73 45 19 3e 69 ae 64 3d 75 a6 22 3e ea a5 19 3e
       0.14967899 0.055830393 0.15883811 0.15004697
0001d0 2b 29 0a 3e 2a 70 f6 3c 43 dc 3a be c1 b7 28 be
       0.13492267 0.03008278 -0.18248086 -0.16476347
0001e0 47 e9 30 3d f7 85 f3 3d 69 eb 46 bd 15 d7 33 bb
       0.04319122 0.11890786 -0.04856435 -0.0027441431
0001f0 1c aa e9 bd be 1d 15 3e 78 85 34 bd 1c b0 02 3e
       -0.11409399 0.14562127 -0.0440726 0.12762493
000200 14 52 8c bd 67 5c 79 3d 2e 17 14 3e b4 dd d4 3d
       -0.06851593 0.060879137 0.14461967 0.10393849
000210 aa 3f 90 3d 19 b7 8f bd 1d d4 cb 3d 25 0c fc ba
       0.07043393 -0.07017345 0.09952567 -0.0019229694
000220 af ad b5 bd d0 8c a1 bd 54 34 19 3d 3b 25 06 3e
       -0.08871018 -0.07888186 0.03740342 0.1310014
000230 78 48 a8 bd 44 26 d5 bd 63 59 8f 3c 83 15 32 bd
       -0.08216947 -0.10407689 0.017498678 -0.043477546
000240 08 da 1c 3e 05 6f ca 3d 94 7e 3f bd 36 23 24 3e
       0.15317547 0.098844565 -0.046751574 0.16029057
000250 93 90 f8 bd 45 a3 b7 bd ab 59 96 bd 5c ad df bc
       -0.1213695 -0.08966688 -0.073413216 -0.027304344
000260 3b c4 37 3e a2 33 0b 3d 63 1e 88 3d f4 3b 9a bd
       0.1794595 0.033984788 0.06646421 -0.075309664
000270 1d f7 da b9 94 07 b1 3b 8a 1d 09 3d 9c 3b d9 bc
       -0.00041764314 0.0054025147 0.033475436 -0.026517682
000280 ff 5c 1d 3e 59 d9 9f 3d 03 a7 3a 3e ff b5 f8 3d
       0.15367506 0.07805128 0.18227772 0.12144088
000290 10 e1 31 bd a8 7b 3c 3e 22 1e e7 3c fa cf 97 bd
       -0.043427527 0.18406546 0.02821261 -0.07412715
0002a0 8e 5e fc bd 3b 83 0d 3e 9f 1e 91 bd dd d4 24 bd
       -0.123227224 0.13819592 -0.07085919 -0.040242065
0002b0 81 9e 35 be f5 f2 d4 bd be 4f 80 3d 62 c1 2c bd
       -0.17736246 -0.10397903 0.062652096 -0.04217661
0002c0 2f 76 57 3d c2 b8 05 3c 04 86 db bd d4 29 e3 bc
       0.052602943 0.0081617255 -0.10718921 -0.027729906
0002d0 6e 19 56 3d 37 4d 66 bd 1d 80 00 be 05 da d7 bd
       0.052270345 -0.05622598 -0.12548871 -0.10539631
0002e0 6a a0 3f 3e a6 da bc 3d df ae b1 bd 74 35 5f bd
       0.18713537 0.092213914 -0.08675932 -0.054494336
0002f0 44 32 60 bd 4a d5 2c 3e 2c ad 14 3d bd 3d 2a 3d
       -0.054735437 0.16878238 0.036297962 0.041562784
000300 7c 9c 27 bd 0b bd 0c bd cb fe b0 3d 76 86 80 bb
       -0.04092072 -0.034359973 0.08642348 -0.003922279
000310 f0 15 92 bd ca 99 ee 3d f4 02 11 bd d2 fc 39 be
       -0.071330905 0.11650427 -0.035403207 -0.1816285
000320 a7 ed 8d bd 5a 1d a4 3d 90 e3 e9 3d 40 26 01 be
       -0.06930094 0.08013411 0.11420357 -0.12612247
000330 ed 0b 1e 3e 2e 77 11 bd bb 19 d6 bd e7 a8 01 be
       0.15434237 -0.03551405 -0.104541264 -0.12662087
000340 20 64 41 be bf 7d b2 bd 0b bf 2c 3c d8 28 80 bd
       -0.18885851 -0.087153904 0.010543595 -0.0625779
000350 ae 29 e3 3a 06 5e b4 bc 06 0b 0b bd 85 6f 97 bc
       0.0017331147 -0.02201749 -0.03394606 -0.018485794
000360 cd ef 6b 3b e7 1f 4c 3d 74 3b bd bd 57 38 82 3d
       0.0036001087 0.049835112 -0.092398554 0.06358402
000370 a6 4f c3 bd 3c 3b 3b be 75 2f f3 bd 69 47 42 be
       -0.09536676 -0.18284315 -0.11874286 -0.18972553
000380 76 55 1f 3e c3 33 44 3d 4b 51 e8 bd 10 f4 45 bd
       0.15559945 0.047900926 -0.113436304 -0.04832846
000390 dd a7 3e 3d a1 ac 42 3e 7b dd 59 3d 6a 01 b1 bd
       0.046546806 0.19011165 0.053189736 -0.08642848
0003a0 d7 3e 9a 3d 8f 8c 44 3e 26 28 12 be de c2 bf 3d
       0.07531517 0.19194244 -0.14273128 0.0936334
0003b0 38 13 fb bd 89 14 3b bd 53 f1 df bc a7 e3 20 3e
       -0.12259525 -0.04567388 -0.027336752 0.15711842
0003c0 d9 40 4e 3d f7 ca 0d be 31 5d 05 3e 25 7e 3e be
       0.050354812 -0.13846956 0.13023831 -0.18602808
0003d0 5b 1c 34 bd d5 48 1d bd 15 f9 1c be da ad ec 3d
       -0.043972354 -0.038399536 -0.15329392 0.11556597
0003e0 17 ab fd bd 0e cb 27 bd 89 79 21 be ba b8 08 be
       -0.123861484 -0.040965132 -0.15769018 -0.13351718
0003f0 b4 32 0c bd 3f a2 8d 3d f8 df 0b 3d c5 6a b4 3d
       -0.03422804 0.069157116 0.03414914 0.08809427

net.0.bias f4 [16]
000000 b1 70 43 3e a9 49 2c 3d f6 02 75 3d 47 16 af bb
       0.19085957 0.042062435 0.059817277 -0.005343232
000010 4a 8f 6b bc 01 75 c5 3d a7 05 a2 bc 87 10 76 3d
       -0.0143774245 0.09641457 -0.019778086 0.060074355
000020 a9 d3 1e 3e b8 7f c3 3d 24 c6 90 bd a8 93 4d 3e
       0.1551043 0.09545845 -0.07069042 0.20075858
000030 f6 72 5f bd b0 c5 80 3d 4e 36 c4 3d 06 be 47 be
       -0.054552995 0.06287706 0.0958067 -0.19506082

net.2.weight f4 [32, 16, 3, 3]
000000 32 10 b9 3c c6 1e 52 bd f5 71 91 3d 83 11 95 3c
       0.02259073 -0.05129888 0.07101814 0.018196827
000010 c0 05 9e bd 29 82 b9 3b 8e 2c 92 3d 7b 21 66 3d
       -0.077159405 0.0056612683 0.071374044 0.056184273
000020 b2 99 9b 3d 65 5f a1 3d 27 f3 f5 bc 58 c9 c4 3c
       0.075976744 0.07879523 -0.03002317 0.02402179
000030 3c 10 92 bd 9a da b9 bd 3b c4 67 3d 53 8a 42 3d
       -0.07132003 -0.09074898 0.056583624 0.047495198
000040 99 f0 90 bd 5c c9 37 3d 63 4b 4f 3b ba 00 ea bb
       -0.0707714 0.044869766 0.0031630627 -0.0071412
000050 df ab 62 bd e0 8e 10 bd cb 9e 43 bd 25 20 3a bd
       -0.05533969 -0.035292506 -0.04775886 -0.04544081
000060 28 d1 a9 bc 78 ce 52 3d eb f9 95 3d e2 9b 48 bd
       -0.020729616 0.051466435 0.07323059 -0.048976786
000070 d8 4d 16 3d 7d 08 36 3c 48 07 94 bd 00 c3 c0 3c
       0.03669533 0.011110422 -0.07227951 0.023530483
000080 83 7b fb bc dd 7c c5 bc cf c1 68 bc b3 14 63 3d
       -0.030698543 -0.024107391 -0.014206364 0.055439662
000090 a2 b2 86 bd ce c4 9e bd 16 b2 f8 bc 8b 50 94 bd
       -0.0657704 -0.07752381 -0.030358355 -0.07241925
0000a0 61 12 18 bd fd 01 4f 3b 3e 95 52 bd e4 f7 89 3d
       -0.037126902 0.0031586878 -0.05141186 0.067367345
0000b0 19 3f 80 3d 0e 94 af 3c 17 de 98 bd f2 8d 90 bb
       0.06262035 0.021432903 -0.07464235 -0.0044114524
0000c0 d1 eb 56 3d 28 e1 cf 3c 3c e6 cd bc 67 47 48 3c
       0.052470986 0.025375918 -0.025134198 0.012224055
0000d0 99 c1 52 bd 76 b7 a1 3d d7 5d 1f 3d 13 97 8f 3d
       -0.05145416 0.078963205 0.038907852 0.07011237
0000e0 73 d4 a7 bc ee 7b 81 bd 72 72 15 bd 5b aa 0f bd
       -0.020487046 -0.06322466 -0.036486097 -0.035074573
0000f0 56 d2 a9 3d 68 cb 49 3d 55 1d ed b9 a6 46 93 bc
       0.082920715 0.04926625 -0.00045226017 -0.017978024
000100 12 04 0b 3d e2 08 4c 3d 6d 7f 1f bc 70 f5 b4 3d
       0.03393943 0.04981316 -0.0097349705 0.08835876
000110 4b 53 91 3c 44 e7 50 bd 8e 4d 4a bd be 67 88 bd
       0.017739912 -0.051001802 -0.04939037 -0.06660412
000120 93 c1 27 3c 32 b8 9c 3d 6b 25 ce 3d 13 7c 57 bd
       0.010239023 0.0765232 0.10065731 -0.05260856
000130 da 32 f0 3c 46 ba bc 3d 36 76 22 bc d0 60 5b bd
       0.029321123 0.09215216 -0.009915879 -0.053559124
000140 e6 be 87 bd b4 11 7a bd 8f 28 36 3d a2 f6 39 bd
       -0.06628208 -0.06105204 0.044472273 -0.045401223
000150 45 cb 70 bd 2a d9 a7 3d 36 8b 94 3d 75 69 62 3d
       -0.058787603 0.08195718 0.07253115 0.055276353
000160 0e 34 85 bc 3c 81 34 bd 11 4a 64 bc 7f 37 66 3c
       -0.016260173 -0.04406856 -0.013933674 0.014051317
000170 bf 85 5b bd a0 62 3e 3d fd bb 80 3d 84 d4 49 3d
       -0.053594347 0.046480775 0.06285856 0.049274936
000180 0a bc 96 bd 04 2d ba bc b8 80 93 bd 29 ed 62 bd
       -0.07360084 -0.022726543 -0.072022855 -0.055401955
000190 51 89 9d bd 0f a3 50 bd 14 92 73 bd a3 f5 a0 3b
       -0.07692207 -0.050936755 -0.059465483 0.0049120947
0001a0 5e 22 e0 3b 8e f1 77 3d b2 07 dc bc 2f 60 38 bc
       0.0068400344 0.0605331 -0.026859138 -0.011253401
0001b0 ae ce 2c 3d b5 58 9e bc 24 30 2e bd 11 a3 d0 3c
       0.042189293 -0.019329408 -0.04252638 0.025468381
0001c0 1a c1 ff bb ce 33 50 bd ba 89 a2 bc a0 94 33 bd
       -0.007805002 -0.050830655 -0.019841064 -0.04384291
0001d0 ec 19 81 bd 87 01 24 3d 78 28 b5 bd ee f8 b9 bc
       -0.06303772 0.04004052 -0.088456094 -0.022701707
0001e0 25 e5 a0 bc 9a 1e ce bc 78 2c 58 bd 8b 98 d8 bc
       -0.019640515 -0.025161076 -0.052776784 -0.026439926
0001f0 36 ed bc 3c 62 2e a2 ba bd b2 30 3d 2f c1 22 3c
       0.02306233 -0.0012373442 0.043139208 0.009933754
000200 76 bc 64 3b c4 1a c2 3d 39 f2 43 3d e3 68 9b bc
       0.003490237 0.094777614 0.047838423 -0.018970912
000210 48 b7 70 bd cb 4b 84 3d 6b 0d 2a 3c 87 e1 95 bd
       -0.05876854 0.06459769 0.010379176 -0.073184066
000220 dc d0 a6 bd 29 3a 72 3d 46 dd 41 3d 9b c2 89 3d
       -0.081453055 0.059137497 0.047330163 0.06726571
000230 dd 84 53 bd f0 c4 b3 bd 2d 4d e8 bc 64 25 c8 3c
       -0.05164038 -0.08777797 -0.028357113 0.024431892
000240 a6 50 33 bd 4f 9d af bd b9 04 f6 3b 25 cb c4 3c
       -0.043778084 -0.08574926 0.007507887 0.024022648
000250 89 86 4b bd c8 dd a2 bd fb 76 22 3d 23 1f 47 3c
       -0.04968885 -0.07952458 0.03966425 0.01215342
000260 7b de 55 bd 9d 5e 2f bd 1b 84 a6 bd 20 8b fc 3c
       -0.052214127 -0.04281484 -0.08130666 0.030828059
000270 99 d6 29 3d 5f f0 91 bd 6e 79 ad bd 90 57 d3 3c
       0.041464422 -0.07125925 -0.084704265 0.025798589
000280 bd c7 dd 3c 7c 73 e0 3c c4 45 db bc 7b 18 37 3d
       0.027072782 0.027398817 -0.026766665 0.04470108
000290 46 ed 4e bc 14 b5 e3 bc d5 dd 7d bd 63 3d 66 bd
       -0.012629813 -0.027796306 -0.061979134 -0.056210887
0002a0 29 40 0e bc 23 d6 44 3a 3d 50 80 3d 44 3e 49 bd
       -0.008682289 0.00075087155 0.06265304 -0.049131647
0002b0 65 1d 83 3b 83 01 82 ba f2 0d fc 3a b8 0c 9b bd
       0.004001307 -0.0009918663 0.001923023 -0.07570785
0002c0 db af 9b bd d0 38 75 3d 7b d0 f1 3c 83 80 00 bc
       -0.07601901 0.059868634 0.029518357 -0.00784314
0002d0 90 a7 49 3d 23 28 a1 bc b1 e9 52 3d 03 91 72 3d
       0.049232066 -0.019672459 0.051492397 0.059220325
0002e0 5a bf a2 3d 35 d8 ba 3c 01 c1 0c bd 65 d0 97 bd
       0.07946654 0.022808174 -0.03436375 -0.07412795
0002f0 e8 4e 97 3d 90 c6 22 bc 0f a9 cf 3c 77 e0 61 3c
       0.07388097 -0.009935036 0.025349168 0.013786427
000300 30 ef fa 3c 06 e3 56 bd 2e 21 d6 3b ff 6e c0 bc
       0.030631632 -0.0524626 0.006534717 -0.023490427
000310 b1 b7 ae 3c 62 cb 30 bc 25 51 ee bc e4 a3 57 bd
       0.021327825 -0.010790678 -0.029091427 -0.052646533
000320 02 b5 82 3c f2 66 97 3b 54 fe 51 bd 5e e7 b5 bc
       0.015955452 0.0046204263 -0.051267937 -0.022205051
000330 92 4c 90 3c 05 fd 4f 3c f7 dc 87 3d 4d 61 ba bb
       0.017614637 0.012694602 0.066339426 -0.0056878687
000340 25 c1 43 39 2c e7 5b bd 93 17 01 bd 34 01 8e bd
       0.00018668601 -0.05368726 -0.031516623 -0.06933823
000350 4b 1e 30 3d 0b 32 0b bd 96 5e 33 3d 0b 42 9f bd
       0.04299764 -0.03398327 0.043791376 -0.077762686
000360 10 d1 b5 bd e6 fd c7 3b 33 1d 6e bd 3b 3b 85 3d
       -0.08877766 0.006103265 -0.058133315 0.06505438
000370 69 8e d5 bd b2 a3 5b bc e7 1f 6d 3d c2 c8 98 3c
       -0.10427553 -0.013405727 0.057891753 0.018650416
000380 2d f3 c1 3c 7e 4e b8 3d 9c a1 53 3d ee dc 98 3d
       0.023675526 0.08999346 0.051667795 0.07464014
000390 68 1e 5b 3c 59 dc d5 3c 32 1b 3a bd 9c 9c db 3c
       0.013373949 0.026106047 -0.04543609 0.026808076
0003a0 01 88 96 3d d2 8b 55 3d 03 41 3f bd 5e 4e e3 3c
       0.073501594 0.052135296 -0.04669286 0.02774733
0003b0 4b ee cd 3b 5a 6c 4b 3d 19 1c 5b bb 14 7a d4 3c
       0.0062845103 0.04966388 -0.0033433496 0.025937118
0003c0 1d 58 55 bd b3 fa 90 3c 6b 75 75 bd f3 5a ae bd
       -0.052085984 0.017697668 -0.05992643 -0.08513441
0003d0 b7 3b 23 3d 4b 67 bc bb 6a 7a c4 3a 48 13 f4 bc
       0.03985187 -0.005749618 0.0014990096 -0.02979435
0003e0 68 51 02 3d 8a e4 99 3d 9b 16 79 3c e7 92 9c bd
       0.031815916 0.075142935 0.0152031435 -0.07645207
0003f0 8f 14 89 bc 29 98 ed bc 92 8c ad 3d 55 a9 46 3d
       -0.016733436 -0.02900322 0.08474077 0.04850133

net.2.bias f4 [32]
000000 43 44 c3 3c 90 71 63 bd 2a 95 d4 bc da 17 20 3d
       0.02383626 -0.055528224 -0.025950033 0.039085247
000010 6a c3 96 bd ae f9 02 bd 58 51 7d 3d f8 37 7f bd
       -0.07361491 -0.031976394 0.061845154 -0.062309235
000020 aa a4 bc 3c a8 4e 81 3d c6 63 d5 bc 88 97 96 bd
       0.023027737 0.063138306 -0.026048552 -0.07353121
000030 33 6c 71 bd 4a 26 96 3d 6f a0 84 bd f2 db 4b 3d
       -0.058941077 0.07331522 -0.06475913 0.049770303
000040 3b da cd bc 58 b5 5c bd fc ec aa bc c7 48 3a 3d
       -0.025128474 -0.05388388 -0.020864956 0.045479562
000050 e8 04 db bc 80 2a a4 3d f8 5c b1 bc e6 44 07 3d
       -0.026735738 0.08015919 -0.021650776 0.03302469
000060 8d 91 82 3d e6 76 a1 3d 27 c5 84 3d 9a 2c 1a 3c
       0.06375418 0.07884006 0.06482916 0.009410048
000070 97 33 86 bc ee 71 51 bd e7 cf 33 3d 11 93 95 bd
       -0.016382022 -0.051134042 0.043899443 -0.07303441

net.3.weight f4 [32]
000000 11 3e f0 3d eb d5 cb 3d 70 36 e8 3e 75 c9 6b 3f
       0.11730588 0.09952911 0.45354033 0.92104274
000010 27 e9 0b 3f 05 fa 62 3f 3b 1c 5f 3f 86 76 60 3e
       0.5465264 0.8866275 0.8715245 0.21920213
000020 74 5f 67 3e 34 70 7c 3f f9 e8 37 3f 0b f8 25 3f
       0.22595006 0.9860871 0.71839863 0.6483161
000030 87 0a 21 3f 77 76 64 3f d1 f5 6f 3f e9 87 4c 3f
       0.6290669 0.89243263 0.9373446 0.7989488
000040 bd ec d9 3e 88 8e 1c 3f 64 be 34 3f f1 5f 4f 3f
       0.4256343 0.61154985 0.70603013 0.8100577
000050 db 79 6c 3f bc 37 64 3e 79 1a d4 3e 49 f1 f6 3e
       0.92373437 0.22286886 0.41426447 0.4823096
000060 0c 5f 27 3d 27 16 2f 3f 24 9a 21 3f 33 c1 9b 3e
       0.04086213 0.68393177 0.63125825 0.30420837
000070 e9 01 f2 3c a8 17 55 3f d1 23 4f 3e e7 09 20 3f
       0.029541926 0.8323922 0.20228507 0.6251511

net.3.bias f4 [32]
000000 08 df c7 bb 8c 22 8c 3c a1 e3 01 bc 30 cc df bb
       -0.0060995854 0.017106317 -0.007927806 -0.006829761
000010 8e 36 01 3c f6 30 de bb 95 08 9c bb 8b c4 1a 3c
       0.007886542 -0.006780739 -0.0047617652 0.009446274
000020 67 f4 08 3c cb fd a1 bc ce 28 3a bb 7b a6 d5 ba
       0.008359051 -0.019774338 -0.002840567 -0.0016300225
000030 11 fd b2 39 a2 3a 0f bc 53 44 50 bc 3a dc 23 bc
       0.00034139355 -0.0087420065 -0.012711602 -0.010001237
000040 9c aa a1 3a 2f 1f 86 bc 5f 63 e3 ba 57 3b 75 bc
       0.0012334171 -0.016372291 -0.001734834 -0.014967761
000050 eb 10 8d bc a7 ba bb 3b 10 26 9c 3a 5d da b4 3b
       -0.017219981 0.005729038 0.0011913199 0.005519195
000060 02 28 c1 3b 54 be 3f bc 1c ac 24 bb f1 2e ea 3a
       0.005894662 -0.011703093 -0.0025127 0.0017866773
000070 d8 e4 ba 3b 74 08 ab b9 3a 2a a7 bb a4 27 7d bc
       0.00570355 -0.0003262196 -0.0051014693 -0.015451346

net.3.running_mean f4 [32]
000000 47 36 94 be 1c 81 f4 bd f5 ae 74 be 50 7c ed bd
       -0.2894766 -0.11938688 -0.23894866 -0.11595976
000010 6e 38 01 3e 69 2d 38 3e 30 31 37 3e 8b 27 c3 3c
       0.12619182 0.17986073 0.17889857 0.023822566
000020 f7 7b b9 3d 68 b2 d6 be d7 38 14 bc 82 5b dd be
       0.090568475 -0.41932988 -0.009046755 -0.43233877
000030 bd 54 81 bd 9c 6b 42 3d f8 e5 58 3e a5 d2 ae bd
       -0.06314991 0.047465906 0.21181476 -0.08536271
000040 17 f5 2a 3e 2f c9 2b be 15 6f c6 3d bb 68 c8 be
       0.16695057 -0.16775964 0.09689156 -0.39142403
000050 4d 08 7b be 53 38 06 3e 42 91 48 3e 3d 86 fc 3c
       -0.24514885 0.13107423 0.19586661 0.030825729
000060 bf c7 66 3b ab a7 2e be 9b c0 2b 3e e0 00 ea bd
       0.0035214273 -0.17056148 0.16772692 -0.11425948
000070 66 93 a5 bd b9 fd 3c 3e e7 d5 1b be 2f e4 e5 bd
       -0.08084755 0.18456163 -0.15218316 -0.11225163

net.3.running_var f4 [32]
000000 53 60 4e 3c 55 37 ad 39 a7 fb 75 3b 4f ac 0f 3b
       0.012596208 0.00033038357 0.003753403 0.0021922772
000010 51 d1 88 3b fa 30 64 3b 5b 69 c3 3a 9d cc fa 39
       0.004175343 0.0034819231 0.0014908718 0.00047836165
000020 e3 73 81 3a d6 97 73 3c 22 70 ec 3a 1f a7 3c 3c
       0.0009876456 0.0148677435 0.0018038789 0.011514454
000030 a3 ff 4e 3a 16 c3 a0 3a 67 92 b2 3b 67 bd 7e 3a
       0.0007896369 0.0012265171 0.0054495814 0.0009717554
000040 0c 85 59 3b 85 a8 12 3b 74 ac 41 3b 9d a7 4a 3c
       0.0033190874 0.0022378277 0.0029552253 0.012369064
000050 b9 23 74 3b fc cb e6 39 12 04 8e 3b fd e3 4a 3a
       0.0037252738 0.00044021 0.0043339813 0.00077396614
000060 91 2c 96 3a ee ba fe 3b d6 ea c4 3a a9 3a 28 3b
       0.0011457374 0.0077737486 0.00150236 0.002566973
000070 39 50 4c 3a ac ee 8a 3b 1e 6e 8e 3b bc e2 4b 3a
       0.00077939365 0.0042398777 0.004346623 0.00077776215

net.5.weight f4 [64, 32, 3, 3]
000000 7e ea 24 bc 31 78 17 bb 52 71 35 3c 49 b4 0d bc
       -0.010065673 -0.002311241 0.011074381 -0.00864894
000010 82 cb ec 3b 2f 49 06 3d 9f 25 b9 bc d0 1a 94 3c
       0.0072264085 0.032784637 -0.022600947 0.018079191
000020 16 e8 78 bd 64 50 b7 3c 7c fc f3 3b 58 94 14 3d
       -0.06076821 0.0223772 0.00744587 0.036274284
000030 62 c9 4f 3d 83 d6 bf bc b2 c1 48 3d 58 ef 0a bd
       0.050729163 -0.023417717 0.049012847 -0.033919662
000040 41 79 2c bd 63 2f 65 bd 63 71 b0 bc 5a 90 1e bc
       -0.042107824 -0.055953395 -0.021538442 -0.009677971
000050 c0 bf 28 bc 91 f4 c4 3b 5b 18 73 3b 2f af 35 bc
       -0.010299623 0.0060106 0.0037093374 -0.01108913
000060 6e d6 b1 3b 93 9c 4a 3d 8b c6 d3 bb 99 f1 99 3c
       0.0054271733 0.049465727 -0.006462877 0.01879196
000070 f6 39 86 3c 97 e8 36 bd a6 a9 a4 3b fc 04 d3 bc
       0.01638506 -0.04465541 0.0050251065 -0.025759213
000080 1f a3 e6 3c 7d e6 73 bb d9 ec 41 bd 87 82 d5 3c
       0.028153954 -0.003721624 -0.047345016 0.026063217
000090 f4 4c 39 bd 43 97 27 3c 1e 58 e5 bc c4 18 b5 bc
       -0.045239404 0.010228935 -0.02799612 -0.022106536
0000a0 d3 27 1d 3c 6b 50 64 3d 4f ea 0b 3d 40 08 5e bc
       0.009592014 0.055740755 0.034159 -0.013551772
0000b0 ea dd 31 bd f2 d5 1a bd d2 9e a0 3b c4 62 14 3d
       -0.043424524 -0.03780169 0.0049017454 0.036227003
0000c0 6a 9a 4d 3d fd 1e ee bb 91 eb e8 3c 84 57 07 bc
       0.05019609 -0.0072668777 0.02843264 -0.008260611
0000d0 bd 59 f0 3c 9e aa 66 bc e5 9f ec 3c 31 b8 bc bb
       0.029339666 -0.014078764 0.028884837 -0.005759262
0000e0 87 8b 3f 3d 4b 70 d4 3c 44 5f 27 3d 14 eb 20 3d
       0.046763923 0.025932452 0.040862337 0.039286688
0000f0 ad a3 2d bc ae ba 8b 3c 5d b6 3e bd 66 84 17 3d
       -0.010598105 0.01705679 -0.046560634 0.0369915
000100 72 06 47 bc 17 bc 87 bc dd d9 3a 3d 5b 56 4a 3d
       -0.012147533 -0.01656918 0.045617927 0.04939876
000110 e3 ca fe 3c 71 ef 3c 3d fb d6 fd 3c 72 c1 4d bd
       0.031102603 0.046126787 0.0309863 -0.050233312
000120 3e 50 e1 3c bb 1d 2e 3c 14 1d ad bb 00 1c 55 3d
       0.027504083 0.0106272055 -0.0052830074 0.052028656
000130 35 96 0b bb a0 ec 84 bb 43 5c 0d 3d 58 0f 92 3c
       -0.0021299247 -0.004056528 0.034511816 0.017829582
000140 98 78 3c 3d 19 ed 75 3d d9 f7 49 3d 05 46 3f bc
       0.046013445 0.060040567 0.04930863 -0.011674409
000150 e4 ab 93 3c ca 5b e4 bc 3e a9 03 ba 82 ea 62 ba
       0.0180263 -0.0278758 -0.00050224725 -0.000865616
000160 17 67 20 3d 0b 73 a0 3c 31 b5 b0 3a b6 19 d0 bc
       0.039160814 0.019586107 0.0013481734 -0.025402885
000170 e8 98 51 bd d9 33 55 3d ed cf 08 bd 3e a9 b3 3b
       -0.051171213 0.0520514 -0.03340142 0.0054828217
000180 09 43 0a bd 51 14 c5 bc 15 7c 15 bd 55 1a e7 3b
       -0.033755336 -0.02405754 -0.036495287 0.0070526996
000190 1f 7d 2c bd e2 7f c1 3c ab 07 36 3d a8 04 29 3d
       -0.042111512 0.02362055 0.044440906 0.041264206
0001a0 e7 b0 85 3b 99 8e 44 3d 5a a6 6c 3c ca 96 dd bc
       0.0040799263 0.047987554 0.014443958 -0.02704944
0001b0 84 b9 04 3d 02 68 8b bc de 3b 04 bd 19 9b 16 bd
       0.032403484 -0.017017368 -0.032283656 -0.036769006
0001c0 16 cb fc bc 2f 18 1d 3c 2e 1e 24 bd 20 5f 50 3c
       -0.030858558 0.009588285 -0.040067844 0.012717992
0001d0 15 6c 95 bc 9f 98 66 bc 62 8c 51 3c c2 4d 75 3b
       -0.018240014 -0.014074474 0.0127898175 0.003743038
0001e0 b3 a7 19 bc a5 40 6e 3d 9b 93 90 bc 53 36 a8 ba
       -0.0093783615 0.05816712 -0.017648509 -0.0012833573
0001f0 d8 a2 09 bc 2f 3a 28 bd 93 ca 78 bd d2 6e 1b bb
       -0.008400641 -0.041071113 -0.060740065 -0.0023717177
000200 7d 1e 39 bd cc bf 70 bd 67 62 6d bc 83 aa 0f bd
       -0.04519509 -0.05877666 -0.014488793 -0.035074722
000210 2e 36 0c 3d 3f e3 f7 3c ea 0d 25 bd 55 27 b0 bc
       0.034231357 0.030259727 -0.040296473 -0.02150313
000220 5b c8 cb bb a4 7e 17 3d 7e cd e1 bc ad 75 b0 bc
       -0.0062189526 0.03698601 -0.027563807 -0.021540487
000230 22 78 12 bd d8 f4 23 bd a7 27 0e bd 3f bf 37 3c
       -0.0357591 -0.040028423 -0.034705784 0.01121503
000240 c3 27 86 bd 33 c7 6e bd a7 e3 a0 bd 94 80 af 3c
       -0.06550553 -0.05829544 -0.07855921 0.021423616
000250 32 f6 5e bd d5 8d 89 bc f5 b6 6e 3d 87 f0 3e 3d
       -0.05443401 -0.016791264 0.05827995 0.046616104
000260 70 e3 a2 3a e4 2a 49 bc ea cf 75 3d ed 38 d4 bc
       0.0012427401 -0.012278292 0.060012735 -0.02590605
000270 c4 17 8e 3c 6b 28 c9 3b 04 ab 1b 3d 3b 3c 61 bd
       0.017345317 0.0061388514 0.03800489 -0.05498908
000280 51 64 14 3d 07 3b 3c 3d 99 b2 1c bd 1d 78 a7 bc
       0.03622848 0.04595473 -0.03825626 -0.020443017
000290 92 62 74 bd 9b 0f 41 bd e0 55 5a 3d 1e 89 0f 3d
       -0.059664316 -0.047134023 0.053304553 0.035042875
0002a0 62 72 03 3d e9 f5 08 bd fd 17 50 bd fe 0a 8e bb
       0.032091506 -0.033437643 -0.050804127 -0.0043348065
0002b0 66 33 80 3d 1c 77 0b 3d 44 5d 32 3d f5 db 31 3d
       0.062598035 0.03404914 0.043545976 0.043422658
0002c0 a9 1e 54 bd 84 20 52 bd 1a 2a 66 bb 0d 09 c0 bb
       -0.051787052 -0.05130054 -0.003512031 -0.005860454
0002d0 39 79 5b 3d b9 47 3d 3d 76 29 b6 3c 96 b9 8e bc
       0.053582404 0.04621098 0.022236567 -0.017422479
0002e0 7b b5 04 3b e3 d7 1f 3d f0 40 7c 3c a9 26 a6 3c
       0.0020249772 0.039024245 0.015396342 0.020282106
0002f0 e8 3c 1f 3d 2e c2 9f 39 a6 8d 74 bd f3 f3 bd bc
       0.038876444 0.00030471518 -0.0597054 -0.023187613
000300 ce 1d 7c bc c3 2d 10 bd 2d 60 2c bd ec 1b b8 bc
       -0.015387965 -0.03519989 -0.042083908 -0.022474252
000310 25 c2 26 bb 3f 40 7b bc 29 c0 bd bc 36 0b 3f bd
       -0.002544531 -0.015335142 -0.023162918 -0.04664155
000320 2c 10 e0 bc f2 a9 8c bc df 74 26 bd 5a 67 fa bc
       -0.027351461 -0.01717088 -0.0406388 -0.03056686
000330 45 75 d1 bc 09 d1 be 3c 6b 1b cd 3b 86 c9 9c 3a
       -0.025568614 0.023293035 0.006259372 0.0011961914
000340 fd 56 1b 3d 61 2b 04 bd 6f 1c 8c 3c fb 01 b7 3c
       0.037924755 -0.03226793 0.017103402 0.022339812
000350 1d 42 6f bd 74 ae d2 bb 42 c2 01 bd 27 ed 91 3c
       -0.05841266 -0.006429488 -0.0316794 0.017813278
000360 cf 73 52 bd 3b c9 6c 3d c9 06 42 3d da ff eb bc
       -0.051379975 0.057809096 0.047369752 -0.028808523
000370 c7 f2 3e 3d f8 a0 04 bb 8e cd 70 3d 24 99 0d bd
       0.04661825 -0.0020237546 0.058789782 -0.034569874
000380 83 c3 24 bd 5f 44 26 3d d8 0d fb bc 4e a1 d1 3c
       -0.040225517 0.040592548 -0.03064625 0.025589611
000390 d2 e7 f7 bc 61 cd 2e bc e5 15 cb 3c bd ea 04 bd
       -0.030261908 -0.010669083 0.024790714 -0.032450426
0003a0 80 93 86 bc 1b 96 75 3c 03 c1 c8 3c 6c 69 e6 bb
       -0.016427755 0.014989401 0.024506098 -0.0070316102
0003b0 6e 5c 2f 3b 82 ca 7d bd 71 33 60 bb e6 80 3c 3c
       0.0026757973 -0.061960705 -0.003421035 0.011505341
0003c0 b9 94 81 39 66 94 b9 bc e9 90 9e bc 20 22 71 bc
       0.00024715604 -0.02265377 -0.019356208 -0.014717609
0003d0 e2 95 59 3d a5 2a 41 bd 7a 33 d0 3c c4 e8 8a bc
       0.053121455 -0.04715981 0.025415171 -0.016956694
0003e0 9d f6 bf bc ab 2e 42 bd 5c c1 00 bd a5 ad 69 bd
       -0.023433024 -0.047407787 -0.031434402 -0.057050366
0003f0 cf 72 f5 bc 63 cf 78 3d 0d a1 0d bd 64 e7 dd 3c
       -0.029961972 0.060744654 -0.034577418 0.027087875

net.5.bias f4 [64]
000000 64 3e 6a 3d dc 8a 25 bc 75 13 f2 3c 9c 67 da bc
       0.057188407 -0.010103907 0.029550293 -0.026660733
000010 01 90 ed bc 7e b3 40 ba 09 82 d0 3c 7f cc 0c 3d
       -0.02899933 -0.0007350965 0.02545263 0.03437471
000020 dd 4b c3 3c ed 6d 3a 3d 20 ff 55 bc bf 76 4b 3d
       0.023839885 0.04551499 -0.013061315 0.049673792
000030 92 1b 12 3d 53 6d be bc 77 fa 10 bb 96 3b ca bb
       0.035670824 -0.02324549 -0.0022121945 -0.006171654
000040 a3 df 68 3c 60 9a 68 bd 6e ff 54 3d 9a 10 17 3d
       0.014213475 -0.05678785 0.05200141 0.036881067
000050 e7 ab 3b bb ca 53 47 3c 23 60 01 bd f9 bc 3d bd
       -0.0028636397 0.012165973 -0.031585824 -0.046322796
000060 72 10 34 bd a3 16 fe bc 97 18 8a 3c 26 e7 7c 3a
       -0.043960996 -0.031016653 0.016857428 0.0009647481
000070 c2 fb 4d 3d 24 e1 6b 3d 87 27 dd 3b 8b 31 6b 3d
       0.050288923 0.057587758 0.006749097 0.057420295
000080 b4 9a 04 bd 94 b5 be 3b 2e 57 de 3c f5 b9 a8 3c
       -0.0323741 0.0058199856 0.02714118 0.020596484
000090 69 70 ed 3c ca 2a aa bc a6 9b bb bb c7 b6 2f bd
       0.028984265 -0.020772357 -0.005725342 -0.04289892
0000a0 98 d7 83 bc 54 d2 f2 3b 65 23 16 bd 24 b8 58 bd
       -0.016094014 0.007410327 -0.03665485 -0.052909985
0000b0 4e 17 4d 3d 5b b4 65 bd 94 bc 0b bc b3 a2 c7 bc
       0.050071053 -0.056080204 -0.008528847 -0.024369573
0000c0 0c bc 79 bc 09 9d 61 bc 6c fa bb bc e2 4c f6 bc
       -0.015242588 -0.01377035 -0.022946559 -0.030065957
0000d0 39 c1 5b 3d bf 06 02 bd 95 9c 3d bd ef 28 2e 3c
       0.05365107 -0.031744715 -0.046291906 0.0106298765
0000e0 64 c7 6f 3b 44 8b a8 bc 42 35 9e bb 8d c8 0d 3d
       0.0036587352 -0.02057422 -0.004828126 0.03461509
0000f0 81 a6 05 bd f4 bc 90 3a a9 2c aa bb 42 e3 41 bd
       -0.032629494 0.001104264 -0.005193312 -0.04733587

net.6.weight f4 [64]
000000 df 7d 63 3f 74 34 31 3e 6f ef cb 3e d1 c3 52 3f
       0.8886394 0.17305166 0.3983111 0.8233004
000010 28 7c 4a 3f cc 90 28 3f c9 ff a8 3e c2 6e e6 3e
       0.790957 0.6584594 0.3300765 0.45006377
000020 3d 3e e1 3e b3 02 3d 3f 52 ae 39 3f 43 9f 93 3d
       0.43992797 0.73832244 0.72531617 0.07208111
000030 7e 06 c4 3e 67 a8 5c 3e 7a cd e3 3d 31 5b ae 3e
       0.38286203 0.21548615 0.11123176 0.3405395
000040 0d 80 8e 3e b9 90 1d 3f aa e0 26 3f 45 27 02 3f
       0.2783207 0.61548954 0.6518656 0.5084117
000050 e5 f5 34 3e d0 8d 4e 3f 02 39 cf 3e 71 13 bd 3e
       0.17671926 0.8068514 0.4047318 0.36928895
000060 b2 28 68 3f 33 c9 f7 3e f1 12 c9 3e 80 78 5c 3f
       0.90687096 0.4839569 0.39272264 0.8612137
000070 e3 9c 36 3f c2 de d4 3e 73 2a 5e 3f fc 4d 38 3e
       0.7133314 0.415762 0.8678352 0.17998499
000080 0d 42 06 3f fa 78 4d 3f 4e 03 25 3f 2e 6c 77 3f
       0.52444535 0.8026272 0.6445817 0.96649444
000090 a7 aa 67 3f 1a 80 4e 3f 2a f0 69 3f 4e 12 14 3e
       0.9049477 0.8066422 0.91382086 0.14460108
0000a0 e8 92 a2 3e 9e 88 2b 3f d9 1f d9 3e d8 83 37 3f
       0.31752706 0.67005336 0.4240711 0.7168555
0000b0 38 b3 30 3f 91 cb fa 3e 63 e0 71 3f e8 95 29 3f
       0.69023466 0.48983434 0.9448301 0.66244364
0000c0 01 8d 11 3f 02 2a c1 3e 9e 0b 3f 3e 99 64 53 3f
       0.5685578 0.37727362 0.18656775 0.82575375
0000d0 ac f4 9d 3c 54 54 cc 3e 4f 68 81 3e c2 b6 2b 3f
       0.019281708 0.39908087 0.25274894 0.6707574
0000e0 8c 6b d8 3e 0f 8d a4 3d 74 1f c0 3e 42 33 b9 3e
       0.42269552 0.08034717 0.37523997 0.3617192
0000f0 f0 50 47 3e 07 f0 26 3f b8 40 26 3e 23 e0 db 3e
       0.19464469 0.6521 0.16235626 0.4294444

net.6.bias f4 [64]
000000 0e 84 4a bc 68 fb d0 3b 40 df fd 3a 4f c5 53 bc
       -0.012360586 0.006377626 0.0019368902 -0.01292546
000010 bb fa 4c bc ad fe c9 bc 5a c9 f4 bb e6 b6 fb 3b
       -0.012510951 -0.024657572 -0.007470292 0.0076817153
000020 e1 2c 96 bc b7 d3 34 bc 3f d3 d4 bc d2 46 8c 3c
       -0.018331947 -0.011036805 -0.025979636 0.017123614
000030 6d 46 f7 3b 83 5c 67 3b 11 cc f6 3b bf 4d 0f bc
       0.007546237 0.0035302944 0.007531651 -0.008746563
000040 b1 ee 50 39 fa 36 28 bc bf c4 ed bb e5 28 d1 bb
       0.00019925345 -0.010267014 -0.00725612 -0.006383049
000050 5c 2f 4d 3a 01 0e 49 3b 25 e1 52 bc bf a3 98 3a
       0.00078271865 0.0030678513 -0.012871061 0.001164548
000060 56 4a e0 bb f0 d7 e7 ba 5d bd 70 bc 67 2c 88 bc
       -0.006844799 -0.0017688256 -0.014693585 -0.016622735
000070 3b a7 41 bb fa 29 42 bc dc a8 0f bc f3 9f 8b bb
       -0.002954914 -0.011850828 -0.008768287 -0.004261011
000080 d0 1c 4b bc 33 36 8b bc 33 44 6e bc c0 4e 81 bc
       -0.012397006 -0.016993618 -0.014542627 -0.015784621
000090 b1 eb 9a bc 89 aa c3 bb 04 9c a0 bc cb 60 83 bb
       -0.018911215 -0.005971257 -0.019605644 -0.0040093414
0000a0 39 ec 85 3b f1 27 99 bc cd b8 01 bd 7e 77 0e bc
       0.004086998 -0.018695803 -0.03167038 -0.008695481
0000b0 ca 6e 44 3a 8c 6f e0 bb 00 26 a9 bc 22 ec 5a bc
       0.00074933155 -0.006849235 -0.020648003 -0.0133619625
0000c0 05 4e 29 bb fd 33 9e bc 95 7e fa 3b 8f f6 24 bc
       -0.0025833857 -0.0193119 0.0076444843 -0.01006855
0000d0 04 7c 0c 3c 13 a6 5e bb d4 cd 54 3c 3d de 8a bc
       0.0085744895 -0.00339735 0.012988526 -0.016951675
0000e0 42 35 12 bc 42 0c dc 37 f9 43 d4 3b 84 cf 19 bc
       -0.00892383 2.6231752e-05 0.0064778295 -0.0093878545
0000f0 ef 64 01 bc fa 98 c4 bb 8e e2 a5 bb fa 13 9c 3b
       -0.0078976 -0.0059996815 -0.005062408 0.0047631236

net.6.running_mean f4 [64]
000000 a5 45 51 3d c1 71 87 be 0a 2a db bd 6d dc 31 be
       0.05109181 -0.26453975 -0.10701378 -0.17369242
000010 c0 8f 9d bd a2 63 21 3e eb 5a ef 3d fc 83 97 be
       -0.07693434 0.15760663 0.11687263 -0.29592884
000020 01 27 8d 3e db 11 35 3e 7e 13 05 3e 83 37 b0 3e
       0.2756882 0.17682593 0.12995717 0.34417352
000030 9e aa df 3d 93 6b bf 3d e5 0a 8a 3d 40 47 48 3e
       0.109212145 0.0934669 0.06740359 0.1955843
000040 dd bc 95 bd 32 5d 53 bd b6 0e 59 be ea ef 9a bd
       -0.073114134 -0.05160255 -0.21197018 -0.07565291
000050 7c 54 56 bd 10 63 f6 be 21 5b 7d 3d 87 75 79 bd
       -0.052326664 -0.48122454 0.061854485 -0.0609031
000060 da 2f 46 be 4f 05 85 3d 5d 86 ae 3d 3d 53 82 3e
       -0.19354191 0.06495153 0.085217215 0.2545413
000070 f0 6d bd be 47 42 88 3e df fd dd bc f4 07 68 3e
       -0.36997938 0.26613066 -0.027098594 0.22659284
000080 5a 21 7e 3d 8b ce c5 bc b1 84 f9 3d 22 d4 31 3e
       0.062043525 -0.024146339 0.12183512 0.17366078
000090 ff ed 47 3b 93 a5 46 be 74 82 88 3d d8 0d 3c 3e
       0.0030506847 -0.19399099 0.06665507 0.18364656
0000a0 14 0a a2 3d 36 9b ab 3e d4 6d 81 3d 87 88 62 be
       0.079120785 0.33516854 0.06319776 -0.22122394
0000b0 ca c0 bc 3c 4e 88 91 bd b4 cf b0 3d 7d 95 a1 bd
       0.023041148 -0.07106076 0.08633366 -0.07889841
0000c0 90 16 6a be a8 ff 9e 3d 60 56 8e 3e 60 d0 b7 3d
       -0.2286017 0.07763606 0.27800274 0.08975291
0000d0 c1 30 89 be db 96 73 3e 92 95 7f be 0c 85 ab 3d
       -0.2679501 0.23788016 -0.249594 0.08374986
0000e0 3c c6 2c bc 70 b9 af 3d 16 9c 3f be 71 20 26 3d
       -0.01054531 0.08580291 -0.18711886 0.040558282
0000f0 c5 36 c3 3d 6f 31 a0 be b6 b0 c5 3d 22 69 c6 be
       0.09531931 -0.31287715 0.096528456 -0.38752085

net.6.running_var f4 [64]
000000 a1 df 16 3e 28 7b 4b 3d 58 18 01 3d b7 fe 95 3d
       0.14733745 0.049677998 0.031517357 0.073239736
000010 e7 1c 1b 3d c0 e4 10 3d da e9 a1 3c 43 6d 98 3d
       0.03786936 0.035374403 0.01976483 0.07442715
000020 33 43 10 3d d0 55 06 3d 3b 5c 01 3d b9 57 f5 3c
       0.035220336 0.03279668 0.0315821 0.029949056
000030 82 a6 14 3e f3 f6 df 3c ec 09 b8 3c 8e 1c 48 3d
       0.14516643 0.027339434 0.022465669 0.048855357
000040 75 39 cd 3c ac 98 3b 3d 1d 6f 74 3d f4 36 44 3d
       0.025051812 0.045799896 0.05967628 0.04790397
000050 d5 84 8f 3d 0c 82 25 3e cd 58 bb 3c 8f 6c 75 3d
       0.070077576 0.1616289 0.022869492 0.059917983
000060 df 28 9f 3d e5 64 f1 3c dd d3 5f 3c 32 0c ff 3c
       0.077714674 0.029467056 0.013661352 0.031133745
000070 1d 3c bb 3d f0 44 76 3d eb 1c 3b 3d c3 ab 81 3c
       0.09142325 0.060124338 0.045681875 0.015828973
000080 3d f5 2e 3d 91 72 b8 3d 49 04 9f 3d 08 e4 48 3d
       0.042714346 0.09006227 0.07764489 0.049045593
000090 4c 74 bc 3d 58 e6 a9 3d 96 9d b2 3d 42 1b 0d 3d
       0.09201869 0.08295888 0.087214634 0.034449823
0000a0 df 7c f6 3c a1 d3 7b 3d 6c 34 0d 3d 27 74 0d 3d
       0.03008884 0.061481122 0.03447382 0.0345346
0000b0 ba ca 70 3d 80 e1 d9 3c 4b e8 4f 3d 58 f9 f4 3c
       0.058787085 0.026596785 0.05075864 0.029904053
0000c0 4e 70 aa 3d 50 15 34 3d ce 71 42 3d a6 3b e5 3c
       0.08322202 0.043965638 0.047471814 0.027982544
0000d0 39 89 bf 3d 28 e9 d1 3c 65 13 aa 3d e5 46 46 3d
       0.09352345 0.025623873 0.083044805 0.048407454
0000e0 09 16 b2 3c 11 23 a3 3c c0 f6 47 3d 84 b0 0c 3d
       0.021739023 0.019914182 0.048819304 0.034348026
0000f0 37 2e d9 3c 9b 70 4c 3d 2d 24 1c 3d 6f 40 17 3e
       0.026511295 0.049912076 0.038120437 0.14770673

net.8.weight f4 [128, 64, 3, 3]
000000 59 27 a4 3c d2 db f6 bc 48 b0 10 bd 76 58 df 3c
       0.020038294 -0.030134115 -0.035324365 0.027263861
000010 0e ff f3 3b da fc 7b bc 0b 33 1d bd d7 ee bd bc
       0.0074461764 -0.015380109 -0.038378756 -0.023185177
000020 af 41 b8 3c 29 b3 e7 bc da 60 95 3b 80 08 8b bc
       0.022492258 -0.028283672 0.0045586647 -0.016971827
000030 7f 60 34 bd cc 81 bb bc b4 54 98 3c 81 92 11 3d
       -0.04403734 -0.02288904 0.018595077 0.035540108
000040 07 b9 05 bd 11 ae ff 3c 4f 1b d6 3c 90 f2 e1 3c
       -0.03264716 0.031210931 0.026136069 0.027581483
000050 e7 04 ef bc 04 8e 0e bc 87 b3 f0 3c 1a af 23 bd
       -0.029177142 -0.008700851 0.02938248 -0.03996191
000060 e7 cb 8f 3c 7e e6 4b 3c f1 28 20 bd 37 08 1c bd
       0.017553283 0.01244509 -0.039101545 -0.03809377
000070 a2 bc 0f 3b 90 fc 0f 3b 71 d2 99 3c 5d 23 99 3b
       0.0021932502 0.0021970607 0.018777104 0.004673405
000080 78 dc da 3c e3 74 56 3c b9 cb e9 bc c0 05 24 bd
       0.026716456 0.013089391 -0.028539525 -0.040044546
000090 e8 e9 3c 3c 9c 33 9e bc 82 a1 8f bc 2f ea d5 bc
       0.011530377 -0.019311719 -0.017533068 -0.026112644
0000a0 29 9d 9e bb 66 6a 18 bc 1f ee 32 bc ff d4 2c 3c
       -0.0048405123 -0.009302711 -0.01092103 0.010548829
0000b0 d6 07 1e 3d 4f b3 a9 b9 db 87 17 3c ea e2 17 bb
       0.03858169 -0.00032367787 0.009248699 -0.0023176023
0000c0 b2 85 d4 bb 32 c0 de 3c 52 00 ad 3c b1 6c 24 bd
       -0.0064856643 0.027191255 0.021118317 -0.04014272
0000d0 f3 24 50 bd 89 bf 1a 3b be 7b 33 bd 76 c3 20 bc
       -0.050816488 0.00236127 -0.04381918 -0.0098122265
0000e0 55 45 28 bd c3 84 ce 3a d9 d1 12 3d 60 df 03 3d
       -0.041081745 0.0015756119 0.035844658 0.03219545
0000f0 45 86 eb bc 4c 20 23 3d c8 c6 9a bc ea 34 12 bd
       -0.028750548 0.039825723 -0.018893614 -0.035694994
000100 85 6c e7 bc e4 3c 78 bc ec b4 7b bb 60 f5 96 3c
       -0.028249988 -0.015151236 -0.0038407398 0.01842755
000110 b9 86 0e 3d a0 03 97 3c 39 05 c0 bc ad ed dd bc
       0.03479645 0.018434346 -0.02343999 -0.027090872
000120 03 a5 c8 bc ab 13 09 3c c6 d1 2b bc e2 1d b2 3c
       -0.024492746 0.008366506 -0.010487026 0.021742765
000130 fa 84 89 3c ea 8e 16 3d 9b ae 4e bd 8b e1 f1 3c
       0.016787041 0.036757387 -0.050459486 0.029526493
000140 7f 3b 21 3d 31 e9 34 bc 3e 39 00 bd b6 b4 a8 bb
       0.03936338 -0.011041925 -0.03130459 -0.0051484955
000150 c4 64 56 bc a5 90 16 bc 8c ef 56 3c 64 13 a8 bc
       -0.013085548 -0.009189759 0.013118636 -0.020517059
000160 cc 76 ec 3b ad 11 c2 3b 32 8c d9 3c 6e 89 3d bd
       0.00721631 0.0059225173 0.026556108 -0.04627364
000170 15 9d cd bc 98 0a 74 3c 72 5b 5f 3c 9b 14 ec 3b
       -0.025099317 0.014895104 0.013632642 0.007204605
000180 87 06 9f 3c db ea b9 3c 4b 52 0d bd 6b fc 97 3c
       0.019412292 0.022694996 -0.03450231 0.01855298
000190 f1 e3 18 bd 62 67 2a bd a4 a2 33 bd 31 e7 89 3c
       -0.037326757 -0.0416025 -0.043856278 0.016833873
0001a0 ac 9a 10 bc bd 1d 34 bd f1 51 36 3c 6b b6 34 bd
       -0.008825939 -0.043973673 0.011127935 -0.04411928
0001b0 1e 2c 89 bc f7 0f dc 3c 71 b6 d4 3c c3 ee 70 3c
       -0.01674467 0.026863081 0.025965901 0.014705363
0001c0 a7 4a cb bc 22 95 4e bc bf 61 7c 3c aa cd 1d bb
       -0.02481587 -0.012608798 0.015404164 -0.0024078884
0001d0 66 f2 ee 3b 02 f1 d2 3c a6 22 2b 3c 2e 0e 19 3d
       0.0072920797 0.025749687 0.010445273 0.03736704
0001e0 41 6b 97 3c 29 c9 d3 3c 2c 21 23 3c 4f 56 10 3d
       0.01848376 0.025852757 0.009956639 0.03523856
0001f0 80 32 83 3c b2 e0 0b 3d 7b 86 6e bc 71 d6 59 bc
       0.016015291 0.034149833 -0.01455843 -0.013295756
000200 af 28 9a bc 2a 44 f8 3c cf e4 a2 3b 2a 06 b7 bc
       -0.018818228 0.03030594 0.0049711238 -0.022341806
000210 70 7a 95 3c 1b 4d 89 3c 9b 2f 10 3d eb d4 10 bd
       0.01824686 0.0167604 0.03520165 -0.035359304
000220 db e3 2e bd bc b6 5d 3c 75 2b 83 bb 05 5f 02 3c
       -0.04269777 0.013532337 -0.004002983 0.007957225
000230 78 52 18 ba af 2f 20 bd ac 67 1b bc 4b 61 20 bd
       -0.00058106286 -0.039107975 -0.0094851665 -0.039155286
000240 f5 0f 75 3c 6b 48 10 3d 54 96 f8 3c eb a3 6d bc
       0.014957418 0.035225313 0.03034512 -0.014504413
000250 d6 2f a1 bc 6a 67 fe bc 75 a2 cb bb 62 a9 21 3d
       -0.01967613 -0.031055171 -0.0062144347 0.039468177
000260 02 54 8a bb 3a f3 31 bd 70 82 d5 3c 49 64 1c bb
       -0.0042214403 -0.04344485 0.026063174 -0.0023863486
000270 e9 66 ff bc f3 c5 e6 3b 25 0a 0b 3d e0 41 1c bd
       -0.031177001 0.0070426404 0.03394522 -0.03814876
000280 08 0d 5b 3c a6 66 c6 bc 2d cf af bc cf f4 a8 bc
       0.013369806 -0.024218868 -0.021461094 -0.020624546
000290 3c 80 26 3c 7c 38 d1 bc 2e 81 12 bc e3 09 c2 3c
       0.010162409 -0.02553963 -0.008941932 0.023686355
0002a0 00 3d db bb a4 bb bd 3c 0e 45 6f bc eb 4c e8 bb
       -0.0066906214 0.023160763 -0.014603866 -0.0070892475
0002b0 64 7e 1d bd 9f d7 26 bd 4e 55 68 bc 89 23 28 bd
       -0.038450614 -0.040732976 -0.0141804945 -0.041049514
0002c0 36 a8 b8 bc 3f b4 ea 39 ef 96 0a 3d df c8 53 bc
       -0.022541147 0.00044766252 0.033835348 -0.012926309
0002d0 e0 80 1a 3d 61 d1 4a bd ac 8a 11 3c 28 f3 a6 3a
       0.03772056 -0.049516086 0.00888316 0.0012737261
0002e0 1b 0b 3a bd fd a4 a8 bc 15 98 3a 3d 6c da 1a bd
       -0.045420747 -0.020586485 0.045555193 -0.03780596
0002f0 e3 45 a5 ba ce 82 16 3c 24 7c 01 bd a4 d9 70 bc
       -0.0012609329 0.00918646 -0.03161253 -0.014700327
000300 7c eb b5 bc ff cc c2 3b 7d 4c ba 3c 2a ea 58 3b
       -0.022207014 0.0059448476 0.02274155 0.0033098557
000310 16 86 c0 3c a3 73 1f 3c 99 43 6d bd 87 8f 18 bd
       0.023501437 0.00973216 -0.057925794 -0.037246253
000320 d6 23 ef 3c 89 a9 22 3c e9 46 78 bc 48 0b 3b 3d
       0.029191893 0.009928116 -0.015153625 0.045665056
000330 fa 95 da bb 47 62 76 bc 7d b0 20 3d 44 3c a5 3c
       -0.0066707106 -0.01503808 0.039230812 0.020170338
000340 24 36 16 bd ff 23 25 bd 8e 1d 20 3c 50 4b d6 3b
       -0.036672726 -0.04031753 0.009772671 0.0065397397
000350 4a 9b fa bc f3 82 19 ba 42 2b 54 3c d7 0f b9 3c
       -0.030591626 -0.0005856 0.012949767 0.02259056
000360 62 16 69 bc 61 89 ec 3c 82 68 af bc 7e 5c 1c bc
       -0.014226528 0.028874101 -0.021412138 -0.009543536
000370 81 8c 3d bd 47 24 08 bc 4b f7 24 bd 52 98 de 3c
       -0.046276573 -0.00830943 -0.0402749 0.027172241
000380 f1 e6 6a bc cd 89 ad 3b 74 6d 73 bb 66 a4 19 bc
       -0.014337287 0.005295968 -0.0037144097 -0.009377575
000390 e2 65 1e 3d 7d a1 3c bd 72 44 13 3d a8 13 5d b8
       0.03867138 -0.046052445 0.035953946 -5.2708812e-05
0003a0 04 e2 93 3a f2 6f 53 3c d0 96 84 bc 63 eb be 3c
       0.0011282568 0.012905108 -0.016185194 0.0233056
0003b0 3a 5a 2e bc f4 38 e8 3c 95 62 55 3c d5 ae b2 3b
       -0.010641629 0.02834747 0.013023992 0.0054529705
0003c0 0f c0 78 3c 66 3e 6e bc eb f6 67 39 58 56 86 3c
       0.015182509 -0.014541244 0.00022121861 0.016398594
0003d0 ed c7 03 3d 7a 62 1c 3d 3b 6d 13 3d c2 1a 0b bd
       0.032173086 0.038179852 0.035992842 -0.033961065
0003e0 e2 7b 87 3c 4b 3b 96 3c 04 2e 78 bb 12 17 0f bd
       0.016538564 0.01833882 -0.0037869224 -0.03493411
0003f0 aa 7f 12 bd 01 22 01 bd e5 a8 94 3b b1 5e 96 3b
       -0.03576628 -0.03152657 0.0045367354 0.004588925

net.8.bias f4 [128]
000000 b2 4a 39 bc f0 67 4f bc ce 67 09 3c 8f e7 9a 3c
       -0.011309313 -0.012659058 0.008386565 0.018909244
000010 78 50 12 bd 58 ec b8 3b e7 99 d9 bc 7d 8a af bc
       -0.035721272 0.0056434087 -0.026562644 -0.021428341
000020 a1 7a 39 bc 88 08 19 bd 46 ac fb 3b 26 7e 1b bd
       -0.011320741 -0.03736165 0.0076804487 -0.0379621
000030 f9 ee 7b bc d5 14 08 bd 09 2a 86 3c 04 39 c7 3a
       -0.0153768 -0.033222992 0.016377466 0.0015199487
000040 6e 5e 83 bc 80 d1 a0 3c 9a 50 f9 3c ef 3f bf bc
       -0.016036239 0.019631147 0.030433942 -0.023345916
000050 1c ab 15 bd 51 f3 15 3c f5 e0 d1 3c 87 30 35 3c
       -0.036540136 0.009152249 0.025619963 0.011058933
000060 c0 59 0a 3d 46 7e 29 bd 4b 81 0a 3d b1 16 b2 bb
       0.033777 -0.04138019 0.03381471 -0.005434834
000070 d7 12 7d bc 0b 3d 43 3c 84 a7 01 3d fc 1d a9 bc
       -0.015446386 0.011916409 0.031653896 -0.02064418
000080 9e 14 2a bd be 28 44 3c 65 ed 2e 3c cb 31 81 3b
       -0.04152357 0.011972604 0.010676716 0.0039427034
000090 bd 17 54 3c a0 08 9e 3c 96 46 14 3c 9f c4 bd 3c
       0.012945113 0.019291222 0.009050032 0.023165045
0000a0 0c 13 53 3c dc b5 89 bb 35 8f be bc 65 69 15 bd
       0.012882959 -0.0042025875 -0.023261646 -0.036477465
0000b0 0b 52 f9 3b 42 7c 19 bd 9d 80 d2 3c 60 c7 27 3d
       0.0076086572 -0.037472017 0.025696093 0.040961623
0000c0 1b 3b 03 3d 0a 99 7e 3c 4f 6f f7 3c 30 a3 21 3d
       0.03203879 0.015539417 0.030204443 0.03946227
0000d0 17 4a f9 3c c1 99 2f bc 55 06 b3 3c de a1 04 bc
       0.030430837 -0.01071781 0.021853605 -0.008095233
0000e0 22 ba 0a bd 43 a8 63 3c de 89 1a bc 3e 84 ca bb
       -0.033868916 0.013895097 -0.009432284 -0.0061803153
0000f0 61 e4 d1 bb 27 01 2f bc fc 55 99 bc 48 2f 13 3d
       -0.0064053987 -0.010681427 -0.018717758 0.035933763
000100 de f6 e4 3c fe 5b fd bb af 0d 16 bd f3 51 e4 bc
       0.027949747 -0.0077319136 -0.036634143 -0.027871108
000110 c1 21 25 bd 12 be 83 bc 24 6c 6e 3c c3 b8 90 bb
       -0.040315393 -0.016081844 0.01455215 -0.0044165566
000120 f9 89 04 3d 4b b2 1e 3d 13 14 b2 bc d9 95 22 bd
       0.032358143 0.038744252 -0.021738088 -0.039693687
000130 d3 39 a6 3b 98 f5 91 bc 8a 93 cf bc a6 15 d5 bc
       0.005072811 -0.017817304 -0.025338907 -0.0260113
000140 fe 58 c5 3c 1b 48 90 bc e2 1b 12 bd 14 1d 31 3c
       0.024090286 -0.017612508 -0.035671122 0.010810155
000150 99 2a 93 3c 3c 2e a8 3c 60 2a 11 3c 6a af 0f bc
       0.017964648 0.020529859 0.008860201 -0.008769849
000160 89 9e 77 bc cd 69 dc 3c 11 49 8a bc 4e f1 19 bc
       -0.015113481 0.026905918 -0.016880544 -0.00939591
000170 a9 c8 75 bc d7 32 91 bc af 1e 07 3d 19 9e 28 bd
       -0.015001454 -0.017724438 0.032988247 -0.0411664
000180 70 51 98 bc 97 41 10 3d 1b 51 26 3d d5 3f 7b 3c
       -0.01859352 0.0352188 0.040604692 0.015335043
000190 35 67 3e 3c db fc 0c bd 2f 81 ab bc 96 fe 9a bc
       0.011621286 -0.03442083 -0.020935623 -0.018920224
0001a0 28 56 ba bc 4f 26 af bc f0 d8 ef bc 32 1f 1b bd
       -0.02274616 -0.021380572 -0.029278249 -0.037871547
0001b0 03 c3 e7 3c 37 33 26 bb df dd 96 bc 3e 61 b4 3c
       0.028291231 -0.0025360116 -0.018416343 0.022019025
0001c0 7a 8f 30 3c 24 a8 11 3d f0 f1 2a 3d 8f ba 74 bc
       0.010776395 0.035560742 0.041734636 -0.014937057
0001d0 ec 7b eb bc 3f 24 90 bb 5f 3f df bb 91 4d e7 bb
       -0.028745614 -0.004398852 -0.0068129743 -0.007058807
0001e0 3e 02 9a bb ff ba c8 ba 18 36 93 bc 18 9d 95 3c
       -0.0046999743 -0.0015314518 -0.01797013 0.018263385
0001f0 64 65 8b bc 25 85 d3 bc 95 3d 00 3d ea 2a ff bc
       -0.01701612 -0.025820324 0.03130873 -0.031148393

net.9.weight f4 [128]
000000 42 77 99 3c 61 f3 98 3e 20 07 72 3f ec b4 be 3e
       0.018733624 0.29873183 0.9454212 0.37247407
000010 84 e4 a5 3e bf a9 59 3f 25 1a 5f 3f e5 f0 45 3f
       0.32400906 0.85024637 0.8714927 0.773207
000020 04 84 41 3f 35 36 36 3d 69 77 4d 3f 71 29 3a 3f
       0.75592065 0.04448529 0.8026033 0.72719485
000030 8e 74 e8 3e a0 56 e7 3e 69 40 b3 3e 3c 80 d5 3e
       0.45401424 0.45183277 0.3501008 0.41699398
000040 a2 f5 f4 3e 60 36 4f 3e d0 30 57 3f 29 70 d0 3e
       0.47843653 0.20235586 0.84058857 0.4071057
000050 a5 4a 80 3f fa ff 22 3f 1f 6b 23 3e 27 ad c6 3e
       1.002278 0.6367184 0.15958832 0.3880398
000060 50 2b aa 3d af a1 00 3e a7 fb 39 3f 7d bf e3 3e
       0.083090425 0.12561677 0.72649616 0.4448203
000070 14 84 08 3e 1e a9 2e 3e ca 64 fa 3e 14 14 53 3f
       0.13331634 0.170567 0.4890502 0.8245251
000080 ca 68 9b 3e 8b a9 b1 3e b5 ae ec 3c 05 77 35 3e
       0.30353385 0.34699664 0.0288919 0.17721184
000090 38 90 d1 3e 23 08 17 3f bb 5e 6c 3e 45 24 e1 3e
       0.40930343 0.5899679 0.23083012 0.43972984
0000a0 b4 9a 67 3f 6e 3e 1a 3f 8e 5d 78 3d fc 7b 4e 3f
       0.90470433 0.6025151 0.060636096 0.80657935
0000b0 ef 2d b1 3e d2 27 bb 3e d0 87 31 3f 8b 0e 3b 3e
       0.34605357 0.36553818 0.6934786 0.18267266
0000c0 c9 b1 8c 3e 1a cf 3d 3f 51 3f ee 3d e8 7c 61 3f
       0.2747939 0.74144137 0.116331704 0.88081217
0000d0 89 a4 21 3f b1 e3 50 3d 6c fc 0c 3e 2b 58 b5 3e
       0.63141686 0.050998393 0.13768166 0.3541883
0000e0 71 b8 07 3e 57 dd 26 3f e1 d2 66 3f 62 a5 4f 3e
       0.13253953 0.6518149 0.90165526 0.20277932
0000f0 29 e7 c6 3c 35 d8 22 3f 0a 79 14 3f bf 25 1a 3f
       0.024280148 0.63611156 0.5799719 0.60213846
000100 af 3f 16 3e 41 d1 39 3f fb 69 08 3e 28 2c 96 3e
       0.14672731 0.7258492 0.13321678 0.29330564
000110 a9 84 e7 3e ef 74 1f 3f 20 e3 70 3f 43 98 4c 3e
       0.452184 0.622878 0.94096565 0.19979958
000120 7e 93 e2 3e a2 8f 2f 3f 94 c0 c4 3e 06 36 3d 3f
       0.44253153 0.6857854 0.38428175 0.7391056
000130 0d c7 62 3e 96 de bb 3e dc 32 94 3e 43 2e d5 3d
       0.22146244 0.36693257 0.28945053 0.10409214
000140 60 3d 34 3d 00 7a 67 3f f8 42 a8 3e 31 1b 23 3e
       0.044003844 0.9042053 0.32863593 0.15928341
000150 45 18 85 3d 53 78 f5 3e b5 31 fe 3d eb df 31 3f
       0.0649877 0.47943363 0.124118246 0.69482297
000160 94 aa cc 3e cb 25 3e 3e 0a 5d 78 3f 7e 8a 8c 3e
       0.3997389 0.18569104 0.97016966 0.2744941
000170 e8 d7 ff 3e c6 27 bd 3e a5 93 1f 3f 1e 79 84 3e
       0.4996941 0.36944407 0.6233466 0.25873655
000180 8d f9 23 3f 57 50 64 3f 4f 78 28 3f 83 d9 b2 3e
       0.6405266 0.8918509 0.65808576 0.34931573
000190 a5 2f 27 3f b0 5e 80 3f 90 cd de 3e 46 5f 85 3e
       0.65307075 1.0028896 0.43516207 0.2604925
0001a0 93 aa 5e 3f 6e 56 14 3f fd 93 ad 3d c2 68 e4 3e
       0.86979026 0.5794438 0.08475492 0.44611174
0001b0 51 74 e3 3e 81 74 e2 3c 38 e0 5e 3f d3 5b 2e 3f
       0.4442468 0.027643444 0.8706088 0.6810886
0001c0 51 22 32 3f a5 2f 95 3e 9a cb 80 3f c9 2d 61 3f
       0.6958361 0.29137912 1.0062134 0.8796049
0001d0 d5 20 99 3e 0b 0d 95 3e 18 ae 34 3e c7 aa 7c 3f
       0.2990786 0.29111513 0.17644536 0.98698086
0001e0 42 dd 54 3e d9 e7 2a 3f 9a 6c 6f 3f aa ab 1e 3f
       0.20787528 0.6676002 0.9352509 0.6198069
0001f0 52 31 de 3e ba 93 c2 3e ec af a6 3c 95 58 cd 3e
       0.43397003 0.3800333 0.020347558 0.40106645
