D_B.pth (torch_old, 401728 bytes, 21 tensors)

net.0.weight f4 [16, 3, 3, 3]
0.14932747 -0.15149607 0.013272125 0.044570483 0.17068523 -0.05257972 0.07623285 -0.035810377
0.08900085 -0.14456135 -0.08822099 0.1510228 -0.11386089 -0.091670945 -0.019469785 -0.13025768
-0.023586797 0.056130096 0.17153731 0.104761414 -0.17376633 -0.06868304 0.15651119 0.0632011
-0.032524545 -0.108798206 0.06510757 -0.071449935 0.17041917 0.023807477 -0.13562451 0.13340376
-0.17024735 -0.13927388 0.11376731 0.16530241 0.056711942 0.12269434 -0.097635314 0.05954821
0.11757049 0.08787183 0.08073542 0.123675935 -0.055906717 -0.040916905 0.13379978 -0.13028435
-0.061865 0.001572199 0.21344362 0.039152987 0.044538498 -0.013373499 0.088332295 -0.14508903
-0.04306065 -0.06469794 0.15480785 0.14636382 0.11280694 0.061704036 0.16612116 -0.079625584
0.1070789 0.18120328 -0.037674706 0.084404655 0.09340405 0.08417037 0.09725282 -0.018800557
0.028964149 0.16348045 0.03615807 -0.025164519 -0.08395256 -0.111374505 0.074751854 0.069213934
0.02565449 -0.09269024 0.11879397 0.20165302 0.19421063 0.077827506 -0.17392205 0.13439071
-0.16812384 -0.10392352 0.13246724 -0.018843234 -0.045476567 -0.16146202 0.16382566 0.147436
0.0098190345 -0.058233067 -0.14932199 -0.051133342 0.11944652 -0.12692483 -0.05727789 -0.07783759
0.15570647 -0.16264041 -0.015013465 0.0824 -0.02826312 -0.03863053 0.14255759 -0.10582645
0.1421528 0.049142275 0.15846969 0.14227736 0.12498766 0.033250898 -0.17229979 -0.16331576
0.03999867 0.12086863 -0.051107958 -0.00424897 -0.11299371 0.13841853 -0.04411793 0.122434445
-0.07910084 0.058961283 0.1380088 0.095629446 0.07028631 -0.07282232 0.09055862 -0.0057181376
-0.09787591 -0.08881177 0.033880748 0.12577033 -0.08892831 -0.11453197 0.012770554 -0.050287135
0.14437082 0.085208826 -0.05736934 0.15987822 -0.11814312 -0.089203075 -0.08327355 -0.0290267
0.17476428 0.053860918 0.07366708 -0.06741955 0.011401098 0.0106666675 0.039890673 -0.018924084
0.16471961 0.094731085 0.18065439 0.116935045 -0.049731247 0.19622312 0.038872752 -0.059655357
-0.114795856 0.14437613 -0.061779886 -0.034413423 -0.17532334 -0.10791064 0.07036088 -0.038430266
0.053342775 0.020935973 -0.10049109 -0.016458416 0.041315537 -0.06986423 -0.14090694 -0.09248958
0.19577831 0.09736149 -0.08138739 -0.05047459 -0.04962055 0.17874782 0.04066075 0.046969924
-0.030606521 -0.030963562 0.089096926 0.0014299587 -0.07030187 0.11934826 -0.014911982 -0.16236034
-0.04841007 0.09205877 0.122727685 -0.115495026 0.16708899 -0.023553526 -0.08982306 -0.11336308
-0.1784792 -0.08580816 0.022133676 -0.0568491 -0.001457436 -0.021450846 -0.036131192 -0.026110752
0.005409958 0.052875448 -0.08845596 0.05405729 -0.09995018 -0.18267778 -0.119170524 -0.18577296
0.1620941 0.05383813 -0.104324825 -0.050274104 0.040216044 0.18738632 0.04098834 -0.090168126
0.07645073 0.1898161 -0.14125569 0.091195635 -0.1318896 -0.051657576 -0.030832129 0.14544973
0.040010754 -0.1388126 0.13054197 -0.18284118 -0.041405592 -0.036733244 -0.15379715 0.11633161
-0.1241583 -0.044183403 -0.16007252 -0.13342705 -0.030272564 0.07312251 0.03810114 0.0901462
00000000: 4de9 183e c921 1bbe 5473 593c 8a8f 363d
00000010: 1cc8 2e3e d55d 57bd f81f 9c3d e7ad 12bd
00000020: 1446 b63d e407 14be 35ad b4bd b9a5 1a3e
00000030: e62f e9bd fabd bbbd 197f 9fbc 4562 05be
00000040: 1939 c1bc ace8 653d 7aa7 2f3e 278d d63d
00000050: cdef 31be b2a9 8cbd 7844 203e 946f 813d
00000060: 7538 05bd 98d1 debd 1e57 853d 5854 92bd
00000070: 5d82 2e3e e607 c33c 27e1 0abe ff9a 083e
00000080: 5255 2ebe d09d 0ebe d6fe e83d 0945 293e
00000090: c84a 683d 2c47 fb3d 06f5 c7bd d3e8 733d
000000a0: ccc8 f03d 25f6 b33d 9d58 a53d cf49 fd3d
000000b0: 71fe 64bd 7c98 27bd cf02 093e 4369 05be
000000c0: 2766 7dbd 3f12 ce3a f790 5a3e e25e 203d
000000d0: 006e 363d 851c 5bbc 90e7 b43d 3892 14be
000000e0: 5d60 30bd 5b80 84bd f385 1e3e 66e0 153e
000000f0: 5307 e73d 5fbd 7c3d aa1b 2a3e bd12 a3bd
00000100: 2f4c db3d 5a8d 393e cb50 1abd 59dc ac3d
00000110: 9f4a bf3d 8461 ac3d 7d2c c73d a003 9abc
00000120: 3946 ed3c 6b67 273e 7c1a 143d d225 cebc
00000130: 52ef abbd 5118 e4bd 8017 993d 09c0 8d3d
00000140: 5d29 d23c 61d4 bdbd 414a f33d 217e 4e3e
00000150: 27df 463e 0764 9f3d 9f18 32be b89d 093e
00000160: a828 2cbe dbd5 d4bd 7ea5 073e 205d 9abc
00000170: a345 3abd 4d56 25be eac1 273e 76f9 163e
00000180: 04e0 203c cc85 6ebd dde7 18be 3271 51bd
00000190: 61a0 f43d 95f8 01be 399c 6abd 5069 9fbd
000001a0: 8471 1f3e 358b 26be 09fb 75bc 55c1 a83d
000001b0: 0f88 e7bc 0c3b 1ebd 9efa 113e 8abb d8bd
000001c0: 8190 113e 6949 493d e145 223e 28b1 113e
000001d0: 88f9 ff3d 1832 083d 5b6f 30be 3f3c 27be
000001e0: a5d5 233d f989 f73d 9456 51bd f23a 8bbb
000001f0: 3f69 e7bd 96bd 0d3e 01b5 34bd e9be fa3d
00000200: 9fff a1bd 6381 713d 2e52 0d3e 5fd9 c33d
00000210: 45f2 8f3d de23 95bd cc76 b93d 375f bbbb
00000220: 2a73 c8bd f2e2 b5bd 8ac6 0a3d f0c9 003e
00000230: 0c20 b6bd bd8f eabd 963b 513c e2f9 4dbd
00000240: f2d5 133e f781 ae3d 1dfc 6abd 1eb7 233e
00000250: 05f5 f1bd 1ab0 b6bd 538b aabd 67c9 edbc
00000260: 68f5 323e 449d 5c3d c4de 963d 4313 8abd
00000270: accb 3a3c 3fc3 2e3c 6764 233d ae06 9bbc
00000280: 42ac 283e 5f02 c23d 77fd 383e a47b ef3d
00000290: feb2 4bbd b7ee 483e 0939 1f3d 2d59 74bd
000002a0: 171a ebbd 56d7 133e e80c 7dbd 17f5 0cbd
000002b0: f687 33be 4100 ddbd 5d19 903d 0e69 1dbd
000002c0: f47d 5a3d eb81 ab3c 46ce cdbd cdd3 86bc
000002d0: 7b3a 293d fa14 8fbd e949 10be 2d6b bdbd
000002e0: 1c7a 483e 7665 c73d 6fae a6bd 72be 4ebd
000002f0: eb3e 4bbd ab09 373e e38b 263d 8963 403d
00000300: 87ba fabc 4ca7 fdbc 7378 b63d 746d bb3a
00000310: 6dfa 8fbd dc6c f43d 6351 74bc ca41 26be
00000320: a349 46bd 4f89 bc3d a758 fb3d a888 ecbd
00000330: 6019 2b3e 53f3 c0bc 27f5 b7bd e72a e8bd
00000340: 40c3 36be 30bc afbd af51 b53c 9ada 68bd
00000350: 7007 bfba afb9 afbc 4dfe 13bd 37e6 d5bc
00000360: 0446 b13b ed93 583d 6628 b5bd 2d6b 5d3d
00000370: aeb2 ccbd e20f 3bbe ad0f f4bd 443b 3ebe
00000380: fffb 253e 5f85 5c3d 41a8 d5bd 38ec 4dbd
00000390: 94b9 243d 33e2 3f3e 64e3 273d 11aa b8bd
000003a0: 3392 9c3d 275f 423e 55a5 10be c7c4 ba3d
000003b0: 110e 07be e596 53bd a993 fcbc c6f0 143e
000003c0: 51e2 233d e424 0ebe cbac 053e b83a 3bbe
000003d0: e998 29bd 9975 16bd 007d 1dbe 443f ee3d
000003e0: b546 febd a8f9 34bd 0dea 23be 1aa1 08be
000003f0: 2bfe f7bc 41c1 953d f10f 1c3d 929e b83d

net.0.bias f4 [16]
0.205382 0.048364438 0.07255495 0.018962061 -0.023905717 0.10405092 -0.014954502 0.077349514
0.17011906 0.10998816 -0.07550045 0.20441926 -0.036700845 0.075085096 0.11587785 -0.20765941
00000000: a94f 523e ca19 463d b197 943d 5356 9b3c
00000010: ecd5 c3bc a618 d53d ba03 75bc 6c69 9e3d
00000020: b133 2e3e 7941 e13d fb9f 9abd 4853 513e
00000030: a053 16bd 37c6 993d 5e51 ed3d aba4 54be

net.2.weight f4 [32, 16, 3, 3]
0.011912872 -0.068235405 0.07739236 -0.0007993117 -0.084082715 -0.0018720723 0.043363456 0.023032963
0.04879701 0.10085703 -0.023179045 0.0316181 -0.045276146 -0.07529603 0.06544004 0.073010154
-0.061453875 0.052943792 0.015237356 0.007645734 -0.047177985 -0.021985937 -0.042898677 -0.03720466
-0.005354306 0.0633056 0.08164004 -0.057633936 0.02183848 0.02228349 -0.075068474 0.012777329
-0.028657995 0.014162891 0.0076790755 0.08328866 -0.042542595 -0.052997988 -0.018778836 -0.054064184
-0.019293822 0.017873159 -0.054627433 0.06353093 0.060887855 0.025623597 -0.09202428 0.008427112
0.031230973 0.027262757 -0.020153958 0.017070558 -0.066611044 0.08538911 0.014173033 0.032384783
-0.023591409 -0.10931297 -0.036628045 -0.04135063 0.054065485 0.026514484 -0.002702506 -0.026567448
0.017911319 0.039355434 -0.019042242 0.08416361 0.019712266 -0.05334036 -0.04661694 -0.054442775
0.022668738 0.054398414 0.101057164 -0.059235808 0.03178766 0.079334795 0.010195528 -0.06595485
-0.059533603 -0.05954458 0.050452933 -0.032902062 -0.044134684 0.08470723 0.090307854 0.057664987
-0.009774517 -0.042848196 -0.0010836984 0.033319537 -0.04770257 0.0767839 0.07608792 0.06375525
-0.07124985 -0.016068337 -0.07089436 -0.055652287 -0.07873667 -0.049701415 -0.04722221 0.013327741
0.014677461 0.07153341 -0.02011202 -0.005655449 0.042556264 0.024451666 0.0049201683 0.025056183
0.037542313 -0.031082707 -0.05880862 -0.057804763 -0.081161365 0.043377582 -0.08607638 -0.007113363
-0.008987463 -0.008057449 -0.033303734 -0.010056083 0.034147363 0.017225107 0.020032547 0.00096508436
-0.009063288 0.095957465 0.016745945 -0.022868201 -0.10563373 0.055624947 -0.0046549444 -0.08095532
-0.09237532 0.061931554 0.037356116 0.05758994 -0.06689001 -0.0799246 -0.017304536 0.052143916
-0.04484885 -0.080416985 -0.00069282856 0.018327197 -0.06882778 -0.07881287 0.023439588 0.0150376195
0.017969364 -0.03570022 -0.078173496 0.029984493 0.038514804 -0.073479004 -0.07188317 0.018087268
0.023087503 0.04097682 -0.02748815 0.04095961 -0.011817186 -0.024820458 -0.05781454 -0.050548498
-0.01310021 -0.003996843 0.06710683 -0.01766083 0.028715463 -0.050598387 -0.009142806 -0.011417712
-0.04562021 0.052413847 0.00677118 0.05075812 0.048997786 -0.018250067 0.050932422 0.048078205
0.07591578 0.02076709 -0.040894613 -0.07226229 0.0967352 -0.022783162 0.021424 0.019491458
0.028964972 -0.07289213 0.007014178 -0.044726226 0.0196687 -0.025008995 0.021220248 0.021353526
0.06987761 0.004031428 -0.059752375 0.008732277 0.026880803 0.019865507 0.07508952 0.017054185
0.03151748 -0.00774684 -0.016271876 -0.03614596 0.06388143 -0.013425743 0.05810708 -0.0807061
-0.09739635 0.0045241024 -0.022283753 0.05264584 -0.11715782 0.0018366001 0.0065493723 -0.0083529055
0.026059678 0.09484967 0.050221767 0.108559735 0.016783293 0.019820176 -0.041930504 0.05061666
0.07427618 0.051308036 -0.040089402 0.023025187 0.004862204 0.03789317 -0.005899768 0.027409634
-0.06814175 0.011882961 -0.05130535 -0.07774868 0.044527143 -0.0031761094 -0.007616661 -0.04353416
0.029124571 0.07122919 0.009668447 -0.06595726 0.016867664 -0.091014765 0.07003666 0.034551397
00000000: 352e 433c 01bf 8bbd e37f 9e3d e688 51ba
00000010: 8f33 acbd 5360 f5ba e19d 313d a0af bc3c
00000020: 60df 473d 218e ce3d fbe1 bdbc fb81 013d
00000030: 7b73 39bd ce34 9abd 6d05 863d 5986 953d
00000040: 0fb7 7bbd 97db 583d 1aa6 793c 1189 fa3b
00000050: b43d 41bd da1b b4bc 86b6 2fbd ea63 18bd
00000060: 2d73 afbb 5ea6 813d e532 a73d 9011 6cbd
00000070: 9de6 b23c de8b b63c 80bd 99bd 0158 513c
00000080: 2cc4 eabc 780b 683c c1a0 fb3b 3f93 aa3d
00000090: 2541 2ebd 6b14 59bd 13d6 99bc 6872 5dbd
000000a0: 140e 9ebc bb6a 923c 04c1 5fbd 811c 823d
000000b0: 8b65 793d 94e8 d13c 3a77 bcbd df11 0a3c
000000c0: 19d8 ff3c 2556 df3c ea19 a5bc 8ed7 8b3c
000000d0: 5f6b 88bd 7ce0 ae3d 0236 683c e8a5 043d
000000e0: c542 c1bc 7adf dfbd 4a07 16bd 475f 29bd
000000f0: c573 5d3d e734 d93c 871c 31bb faa3 d9bc
00000100: c2ba 923c 2a33 213d 7afe 9bbc f95d ac3d
00000110: 9e7b a13c 6c7b 5abd 68f1 3ebd 63ff 5ebd
00000120: cab3 b93c dfd0 5e3d 0ff7 ce3d 3fa1 72bd
00000130: c733 023d 487a a23d 250b 273c 5613 87bd
00000140: 82d9 73bd 04e5 73bd bca7 4e3d 50c4 06bd
00000150: 92c6 34bd fc7a ad3d 53f3 b83d 1f32 6c3d
00000160: 4c25 20bc 9781 2fbd e20a 8eba 117a 083d
00000170: c563 43bd e140 9d3d fcd3 9b3d 1d92 823d
00000180: 71eb 91bd bfa1 83bc 1031 91bd a7f3 63bd
00000190: b140 a1bd b693 4bbd 136c 41bd 995c 5a3c
000001a0: bc79 703c 1c80 923d f7c1 a4bc 5851 b9bb
000001b0: 7a4f 2e3d dc4e c83c 5d39 a13b a042 cd3c
000001c0: f8c5 193d 29a1 febc 4fe1 70bd b0c4 6cbd
000001d0: ee37 a6bd b1ac 313d d048 b0bd 3717 e9bb
000001e0: 2740 13bc 6403 04bc 7f69 08bd 45c2 24bc
000001f0: 1bde 0b3d ab1b 8d3c 4c1b a43c b7fd 7c3a
00000200: 2f7e 14bc 5985 c43d cb2e 893c 1856 bbbc
00000210: 7f56 d8bd fcd6 633d 8188 98bb e7cb a5bd
00000220: 462f bdbd f1ab 7d3d ba02 193d 6ee3 6b3d
00000230: a1fd 88bd 82af a3bd 3ec2 8dbc dc94 553d
00000240: 6eb3 37bd a9b1 a4bd f09e 35ba eb22 963c
00000250: 94f5 8cbd a468 a1bd 6104 c03c 5960 763c
00000260: 7d34 933c 653a 12bd 6d19 a0bd 0aa2 f53c
00000270: b3c1 1d3d 297c 96bd 7c37 93bd c02b 943c
00000280: 0122 bd3c 4fd7 273d d42e e1bc 44c5 273d
00000290: df9c 41bc 4654 cbbc f0ce 6cbd f10b 4fbd
000002a0: 43a2 56bc f3f7 82bb 4e6f 893d 72ad 90bc
000002b0: b13c eb3c 4140 4fbd b5cb 15bc 5b11 3bbc
000002c0: 42dc 3abd e7af 563d c6e0 dd3b bfe7 4f3d
000002d0: e7b1 483d 2a81 95bc 849e 503d a7ed 443d
000002e0: bc79 9b3d bf1f aa3c 1c81 27bd 40fe 93bd
000002f0: 1b1d c63d c1a3 babc 6281 af3c 8dac 9f3c
00000300: f347 ed3c 7848 95bd 31d7 e53b d932 37bd
00000310: 4120 a13c aadf ccbc 16d6 ad3c 97ed ae3c
00000320: fe1b 8f3d 121a 843b e8be 74bd d311 0f3c
00000330: 2135 dc3c fdbc a23c 89c8 993d 38b5 8b3c
00000340: 7918 013d 34d9 fdbb 994c 85bc c90d 14bd
00000350: 44d4 823d a6f7 5bbc b101 6e3d 3d49 a5bd
00000360: bd77 c7bd ec3e 943b 6b8c b6bc 2aa3 573d
00000370: 70f0 efbd 13ba f03a 1e9c d63b a0da 08bc
00000380: 1b7b d53c 8b40 c23d 57b5 4d3d 9154 de3d
00000390: 1e7d 893c ec5d a23c 52bf 2bbd 6a53 4f3d
000003a0: 1c1e 983d 6028 523d c934 24bd 519f bc3c
000003b0: 2053 9f3b de35 1b3d d752 c1bb 2b8a e03c
000003c0: e78d 8bbd c0b0 423c 8f25 52bd b33a 9fbd
000003d0: 1862 363d 4626 50bb 2f95 f9bb e050 32bd
000003e0: a796 ee3c 9ce0 913d 6868 1e3c 9a14 87bd
000003f0: 0e2e 8a3c f365 babd 616f 8f3d c485 0d3d

net.2.bias f4 [32]
0.023332193 -0.055125263 -0.028334145 0.03911507 -0.07465099 -0.034624763 0.060811892 -0.06419887
0.026461875 0.06379067 -0.031245293 -0.07293449 -0.057676654 0.072805874 -0.065240934 0.04999376
-0.025246343 -0.053516258 -0.022688325 0.046614576 -0.027130786 0.08150175 -0.022523006 0.03449476
0.06360914 0.07779127 0.06336697 0.008862135 -0.020621004 -0.051677067 0.042230032 -0.07338339
00000000: 2823 bf3c 07cb 61bd 021d e8bc 2037 203d
00000010: 9ee2 98bd b2d2 0dbd e415 793d b27a 83bd
00000020: 93c6 d83c afa4 823d 21f6 ffbc ae5e 95bd
00000030: 5b3e 6cbd 3f1b 953d 0a9d 85bd 42c6 4c3d
00000040: 6bd1 cebc dd33 5bbd dedc b9bc edee 3e3d
00000050: 6241 debc 64ea a63d 2b82 b8bc 614a 0d3d
00000060: 8245 823d 0851 9f3d 8bc6 813d 7d32 113c
00000070: 61ed a8bc 55ab 53bd 66f9 2c3d 084a 96bd

net.3.weight f4 [32]
0.13078362 0.12094494 0.4564371 0.9160789 0.545143 0.8786048 0.8641415 0.24520686
0.2352976 0.9832327 0.7254733 0.64859253 0.62543935 0.9009699 0.9368703 0.78988206
0.43255293 0.60487056 0.69354534 0.80473995 0.92054754 0.22981592 0.41716406 0.49327826
0.08124518 0.6861325 0.62829566 0.31138876 0.08747726 0.8296137 0.21778473 0.6227032
00000000: 24ec 053e fbb1 f73d 20b2 e93e 2684 6a3f
00000010: 7e8e 0b3f 3fec 603f 6138 5d3f 8217 7b3e
00000020: dbf1 703e 23b5 7b3f 9eb8 393f 290a 263f
00000030: cb1c 203f f7a5 663f bbd6 6f3f b635 4a3f
00000040: 9477 dd3e ccd8 1a3f 308c 313f 7003 4e3f
00000050: 01a9 6b3f dd54 6b3e 8796 d53e f88e fc3e
00000060: df63 a63d 61a6 2f3f fcd7 203f 596e 9f3e
00000070: 4727 b33d 9061 543f f602 5f3e 7a69 1f3f

net.3.bias f4 [32]
0.0047218525 0.05273485 0.0058085946 -0.009137532 0.00983803 -0.00010523792 0.012180474 0.029674456
0.0032516448 -0.015713358 -0.013922589 -0.0035744603 0.008128395 -0.018885825 -0.0122358445 -0.031855457
0.0013386696 -0.0182138 0.0038640893 -0.016028328 -0.033096023 0.008670133 0.0080054775 0.013387025
0.022937905 -0.011473712 0.0024788736 0.00033332934 0.021090863 0.008643571 0.004564718 -0.041754115
00000000: c5b9 9a3b 8000 583d 0656 be3b 96b5 15bc
00000010: b02f 213c 2eb3 dcb8 9c90 473c d817 f33c
00000020: 8c19 553b 4db9 80bc 921b 64bc 7e41 6abb
00000030: f62c 053c 72b6 9abc da78 48bc de7a 02bd
00000040: 4c76 af3a 1b35 95bc a93c 7d3b d74d 83bc
00000050: b28f 07bd 2c0d 0e3c 6829 033c 4155 5b3c
00000060: 46e8 bb3c 3cfc 3bbc 9974 223b b5c2 ae39
00000070: bfc6 ac3c c49d 0d3c a193 953b 5d06 2bbd

net.3.running_mean f4 [32]
-0.017992772 -0.12352649 -0.13227986 -0.15694568 0.1734167 0.1929829 0.11601803 -0.01756747
0.0065331794 -0.43209237 -0.03935834 -0.42949116 -0.116066396 0.045431085 0.1904956 -0.1307751
0.038388193 -0.07465901 -0.009267968 -0.28953853 -0.2538593 0.16031396 0.15222904 0.0057150386
0.017897127 -0.15255177 0.14191537 -0.0014439217 -0.06400905 0.36097267 -0.04935924 -0.13628037
00000000: 9465 93bc 75fb fcbd 5f74 07be 5eb6 20be
00000010: 2694 313e 4f9d 453e dc9a ed3d a8e9 8fbc
00000020: 4814 d63b 363b ddbe 3636 21bd 44e6 dbbe
00000030: 38b4 edbd f215 3a3d 4711 433e e8e9 05be
00000040: f03c 1d3d d3e6 98bd add8 17bc 653e 94be
00000050: d9f9 81be 5829 243e eee1 1b3e 3845 bb3b
00000060: ff9c 923c 8836 1cbe 4352 113e f941 bdba
00000070: 2d17 83bd 69d1 b83e ea2c 4abd 158d 0bbe

net.3.running_var f4 [32]
0.0019464486 0.0011633566 0.0015569135 0.003534212 0.0054223486 0.0033967027 0.0021403981 0.00050083373
0.0005335954 0.023726711 0.0022555108 0.014510086 0.0012199471 0.002955574 0.0093826335 0.0009571321
0.002481468 0.0015598099 0.0015355699 0.008014895 0.0063585164 0.00085747807 0.006308874 0.0006654681
0.00071832596 0.010886544 0.0011170674 0.0025075867 0.00071267976 0.018275961 0.0015364335 0.00025081032
00000000: fa1f ff3a c57b 983a 5911 cc3a 3d9e 673b
00000010: f5ad b13b 379b 5e3b ec45 0c3b 624a 033a
00000020: fbe0 0b3a 855e c23c 31d1 133b b6bb 6d3c
00000030: a2e6 9f3a 4eb2 413b 9eb9 193c 0ce8 7a3a
00000040: 20a0 223b 8972 cc3a 2d45 c93a e850 033c
00000050: 1a5b d03b 61c8 603a acba ce3b cf72 2e3a
00000060: 0a4e 3c3a 7a5d 323c 906a 923a 5356 243b
00000070: 21d3 3a3a 78b7 953c 2762 c93a 317f 8339

net.5.weight f4 [64, 32, 3, 3]
-0.0020501313 0.0043737725 0.017690469 -0.016168421 -0.0029406205 0.034549925 -0.028709432 0.01245092
-0.05978186 0.027096383 0.00041147397 0.022129443 0.076564856 -0.007485975 0.03976551 -0.012428743
-0.028037628 -0.05522172 -0.023397753 -0.015808545 -0.007958579 0.0058198543 0.0004126244 -0.007716725
0.016822863 0.059519447 0.0069671916 0.018791204 0.0069433833 -0.041994654 0.009472435 -0.016947586
0.02989797 0.00454315 -0.046413668 0.03021798 -0.06023679 -0.0004789935 -0.041384224 -0.024298644
0.007757381 0.058819417 0.02256017 -0.010724329 -0.04050733 -0.04987823 -0.006510071 0.025185553
0.033053435 -0.026159199 0.014605645 -0.018711332 0.021165626 -0.021573737 0.018147955 -0.01865871
0.041594703 0.028857298 0.033890244 0.03743237 -0.009863841 0.008802782 -0.036164086 0.043713592
-0.011700908 -0.021205759 0.0555018 0.030371001 0.012847347 0.04051246 0.019559877 -0.06254428
0.037536245 0.025521105 0.013844611 0.06977539 0.0179916 0.007262856 0.04752723 0.03840131
0.04750719 0.054009847 0.036411125 -0.011089884 0.0147134485 -0.036443092 0.001829006 0.0049874214
0.039338443 0.02690946 0.010625695 -0.019100819 -0.03609548 0.061150283 -0.026760293 0.021458512
-0.017658634 -0.016813193 -0.016341927 0.0006195482 -0.048526138 0.024573177 0.034381878 0.030299773
0.0013680857 0.0445523 0.008389445 -0.02461364 0.039039392 -0.018975941 -0.021683374 -0.030528884
-0.045030355 0.020347934 -0.0327315 0.012873489 -0.01066652 0.0015007535 0.016494632 0.010510276
0.006301981 0.06717087 -0.009316048 0.010217633 -0.0071769836 -0.03160221 -0.08586583 -0.03371338
-0.07179366 -0.07579124 -0.03890932 -0.051671106 0.02093101 0.016250078 -0.04714944 -0.010804862
0.0041105296 0.04268498 -0.016899293 -0.0029906898 -0.031740252 -0.027407786 -0.0073438706 0.017661704
-0.090833806 -0.09864543 -0.12096561 -0.011830871 -0.091210485 -0.048685532 0.03589816 0.010710101
-0.020641726 -0.00068282563 0.06117557 -0.016980186 0.025006225 0.01825872 0.033589713 -0.035773516
0.040611655 0.04882578 -0.019194625 -0.010001619 -0.043525323 -0.035506982 0.05185848 0.047556058
0.040973153 -0.022940062 -0.037451595 -0.0032999425 0.053690154 0.037700847 0.045472365 0.039246775
-0.045995254 -0.038595304 0.0027671978 0.0045088697 0.047395717 0.038267452 0.02836413 -0.020132266
-0.009541772 0.03892908 0.0105036935 0.012961956 0.04492083 0.011592687 -0.050824985 0.0017798803
-0.02881372 -0.045380764 -0.05182093 -0.015916402 -0.005132803 -0.0089599695 -0.017501904 -0.055385858
-0.038341917 -0.017144214 -0.04367252 -0.034311425 -0.027029904 0.005345763 -0.005310569 0.0099557005
0.045189817 -0.01905313 0.052394174 0.0286582 -0.022687031 0.006019551 -0.027335323 0.03499225
-0.06631967 0.065101825 0.05128778 -0.052950807 0.035267778 -0.013083246 0.027953878 -0.060673565
-0.062453367 0.032663442 -0.041443273 0.020074865 -0.033052325 -0.018853253 0.020299213 -0.025935287
-0.015040797 0.015366491 0.014823776 -0.017724646 -0.006050991 -0.055430315 -0.015029179 0.016747141
0.009172353 -0.013099242 -0.0052776495 -0.0070143216 0.062418763 -0.03548385 0.014120744 -0.019412994
-0.018758185 -0.030120369 -0.01459578 -0.04956568 -0.017290974 0.07153014 -0.014563598 0.024130877
00000000: 7f5b 06bb dd51 8f3b 9aeb 903c a373 84bc
00000010: 6db7 40bb 3984 0d3d 0b30 ebbc f2fe 4b3c
00000020: d3dd 74bd 3cf9 dd3c 1abb d739 ce48 b53c
00000030: 09ce 9c3d e94c f5bb 29e1 223d eda1 4bbc
00000040: 2baf e5bc 2c30 62bd a5ac bfbc ec80 81bc
00000050: b364 02bc 7ab4 be3b 8255 d839 95dc fcbb
00000060: 1ad0 893c aaca 733d 0a4d e43b 03f0 993c
00000070: 5285 e33b 9602 2cbd 4632 1b3c aad5 8abc
00000080: 96ec f43c b4de 943b 421c 3ebd b28b f73c
00000090: daba 76bd 6b21 fbb9 8182 29bd f30d c7bc
000000a0: a131 fe3b a1ec 703d 1bd0 b83c 19b5 2fbc
000000b0: 04eb 25bd 1d4d 4cbd 6f52 d5bb ef51 ce3c
000000c0: 0a63 073d d14b d6bc 844c 6f3c 8248 99bc
000000d0: 8963 ad3c 68bb b0bc 05ab 943c 27da 98bc
000000e0: 355f 2a3d 2466 ec3c 7fd0 0a3d af52 193d
000000f0: f39b 21bc 8b39 103c cb20 14bd 060d 333d
00000100: 2ab5 3fbc b3b7 adbc db55 633d 9bcc f83c
00000110: ae7d 523c 65f0 253d 093c a03c 3717 80bd
00000120: 9bbf 193d a311 d13c 82d4 623c 66e6 8e3d
00000130: 1f63 933c 40fd ed3b eaab 423d b14a 1d3d
00000140: e696 423d 6e39 5d3d d523 153d 58b2 35bc
00000150: ad10 713c 5a45 15bd 42bb ef3a 866d a33b
00000160: 5921 213d 3a71 dc3c 6517 2e3c 5279 9cbc
00000170: dbd8 13bd b878 7a3d 6738 dbbc c3c9 af3c
00000180: d7a8 90bc d2bb 89bc 81df 85bc 2d69 223a
00000190: 58c3 46bd b04d c93c 03d4 0c3d 3b37 f83c
000001a0: 5751 b33a 797c 363d e273 093c 8ba2 c9bc
000001b0: c5e7 1f3d 6f73 9bbc 55a1 b1bc b617 fabc
000001c0: c071 38bd b6b0 a63c 7711 06bd 54eb 523c
000001d0: a1c2 2ebc eeb4 c43a c01f 873c 4b33 2c3c
000001e0: d980 ce3b e290 893d 56a2 18bc dc67 273c
000001f0: e72c ebbb 5271 01bd 6dda afbd 0b17 0abd
00000200: 8e08 93bd 7038 9bbd 615f 1fbd 15a5 53bd
00000210: 8277 ab3c e21e 853c c51f 41bd e006 31bc
00000220: 9fb1 863b 72d6 2e3d 6370 8abc 73ff 43bb
00000230: 1102 02bd 4b86 e0bc daa4 f0bb 47af 903c
00000240: 1307 babd 9d06 cabd d1bc f7bd 45d6 41bc
00000250: 90cc babd 7b6a 47bd f309 133d 6b79 2f3c
00000260: d618 a9bc a7ff 32ba 3c93 7a3d 081a 8bbc
00000270: dbd9 cc3c 5093 953c 5e95 093d 4087 12bd
00000280: 6858 263d 8bfd 473d 0c3e 9dbc d5dd 23bc
00000290: 9c47 32bd c56f 11bd 8f69 543d 24ca 423d
000002a0: 77d3 273d ccec bbbc d866 19bd d943 58bb
000002b0: 35ea 5b3d 346c 1a3d 3b41 3a3d 3ac1 203d
000002c0: 8565 3cbd 1c16 1ebd e059 353b 24bf 933b
000002d0: 0322 423d 55be 1c3d e45b e83c 6cec a4bc
000002e0: 1855 1cbc 1974 1f3d af17 2c3c 625e 543c
000002f0: e7fe 373d 41ef 3d3c dc2d 50bd df4a e93a
00000300: c00a ecbc 2ee1 39bd 2f42 54bd 1d63 82bc
00000310: 1331 a8bb d6cc 12bc 2760 8fbc 48dc 62bd
00000320: 6a0c 1dbd 0672 8cbc f5e1 32bd 238a 0cbd
00000330: d16d ddbc 832b af3b 4804 aebb 3c1d 233c
00000340: f518 393d 4f15 9cbc 469b 563d 9ac4 ea3c
00000350: 27da b9bc a73f c53b 54ee dfbc 0954 0f3d
00000360: 9bd2 87bd 1b54 853d 2313 523d f2e2 58bd
00000370: f274 103d 1c5b 56bc 88ff e43c d884 78bd
00000380: 1acf 7fbd 1aca 053d 6cc0 29bd 0b74 a43c
00000390: e061 07bd 2372 9abc 894a a63c 3d76 d4bc
000003a0: ad6d 76bc bcc3 7b3c 6cdf 723c 4733 91bc
000003b0: 6447 c6bb e60a 63bd f23c 76bc 4d31 893c
000003c0: a347 163c 349e 56bc 22f0 acbb 65d8 e5bb
000003d0: d1aa 7f3d 8357 11bd b15a 673c 0008 9fbc
000003e0: c4aa 99bc febe f6bc 2323 6fbc 6205 4bbd
000003f0: cda5 8dbc 657e 923d 289c 6ebc 1eae c53c

net.5.bias f4 [64]
0.057624377 -0.011045844 0.028652316 -0.026663462 -0.029402161 0.0015544952 0.024682403 0.0334558
0.025259472 0.044792138 -0.011408995 0.053172205 0.035650503 -0.019602196 -0.0016629909 -0.0021487495
0.015771892 -0.056674145 0.052611023 0.038684737 -0.003703721 0.012758294 -0.031007178 -0.046989527
-0.045043025 -0.03022632 0.021831507 0.0018795523 0.04436042 0.05783211 0.008508399 0.063939646
-0.03189606 0.0062577776 0.027235337 0.021691708 0.030195897 -0.020829888 -0.0052071293 -0.042522017
-0.01635019 0.011333129 -0.035924036 -0.05194439 0.05135167 -0.057176292 -0.007638165 -0.024339033
-0.015628034 -0.013331321 -0.021163847 -0.02519175 0.053446975 -0.029272342 -0.047047943 0.01204361
0.0043529207 -0.018161673 -0.0064510796 0.03455104 -0.03164681 -0.0026843878 -0.0051598097 -0.04768702
00000000: 8a07 6c3d a1f9 34bc 43b8 ea3c 556d dabc
00000010: cddc f0bc 34c0 cb3a c032 ca3c f308 093d
00000020: f4ec ce3c f677 373d cbec 3abc 19cb 593d
00000030: 4306 123d c994 a0bc b7f8 d9ba 09d2 0cbb
00000040: 0e34 813c 2623 68bd a87e 573d e373 1e3d
00000050: 21ba 72bb 2a08 513c c402 febc 1778 40bd
00000060: 097f 38bd 309d f7bc fdd7 b23c 4f5b f63a
00000070: 46b3 353d 5de1 6c3d d066 0b3c caf2 823d
00000080: 71a5 02bd 0b0e cd3b a41c df3c cfb2 b13c
00000090: 635d f73c 71a3 aabc 91a0 aabb 912b 2ebd
000000a0: d5f0 85bc 97ae 393c 1525 13bd a4c3 54bd
000000b0: 2156 523d b031 6abd 9249 fabb a762 c7bc
000000c0: 5d06 80bc 9d6b 5abc ce5f adbc ee5e cebc
000000d0: 37eb 5a3d 8dcc efbc 58b5 40bd 9052 453c
000000e0: f2a2 8e3b cac7 94bc 9463 d3bb 6485 0d3d
000000f0: 16a0 01bd 8eec 2fbb 9f13 a9bb 7753 43bd

net.6.weight f4 [64]
0.8740894 0.19376029 0.4031298 0.8190994 0.7913917 0.6484126 0.3385644 0.45673752
0.43077698 0.72630316 0.71691316 0.094092004 0.37762216 0.23826706 0.1320645 0.34606022
0.29570904 0.6054139 0.63901764 0.50531965 0.19248043 0.7956593 0.39179084 0.37559006
0.90838045 0.48332682 0.4243743 0.8480832 0.7187247 0.40870512 0.84151685 0.20938843
0.51153153 0.7823966 0.6355815 0.9540348 0.89197636 0.8015667 0.89335877 0.15342861
0.332832 0.66722447 0.40733433 0.7188808 0.68145025 0.48845643 0.93291485 0.68346256
0.57362014 0.3773868 0.20201214 0.8232201 0.05535725 0.41255075 0.26211387 0.66246784
0.42052135 0.11176066 0.39881426 0.37067202 0.21625428 0.65487576 0.17120808 0.4302961
00000000: 53c4 5f3f 1969 463e 0767 ce3e 80b0 513f
00000010: a598 4a3f 5efe 253f 5058 ad3e 80d9 e93e
00000020: cd8e dc3e 01ef 393f 9f87 373f 4fb3 c03d
00000030: b157 c13e 48fc 733e eb3b 073e ce2e b13e
00000040: 2d67 973e 68fc 1a3f a996 233f a15c 013f
00000050: 9719 453e 54b0 4b3f cf98 c83e 574d c03e
00000060: 9f8b 683f 9d76 f73e 9747 d93e fb1b 593f
00000070: 58fe 373f cc41 d13e a66d 573f ec69 563e
00000080: bbf3 023f 254b 483f 78b5 223f a03b 743f
00000090: 9058 643f 7a33 4d3f 29b3 643f 641c 1d3e
000000a0: f568 aa3e 39cf 2a3f 208e d03e 9208 383f
000000b0: 8673 2e3f f616 fa3e 82d3 6e3f 67f7 2e3f
000000c0: c5d8 123f d838 c13e 45dc 4e3e 8dbe 523f
000000d0: 49be 623d da39 d33e ca33 863e 7e97 293f
000000e0: 934e d73e c6e2 e43d 6231 cc3e b9c8 bd3e
000000f0: c371 5d3e f0a5 273f 2c51 2f3e c54f dc3e

net.6.bias f4 [64]
-0.01891247 0.0017544157 -0.008855109 -0.019592883 -0.065787055 -0.06357106 -0.0010246139 0.018838817
-0.0318272 -0.019077796 -0.054535065 0.04676494 0.009601607 -0.0048420117 0.013359017 -0.043413106
-0.00077158224 -0.010482552 -0.030396 -0.033571754 0.01726289 0.0043742303 -0.029934965 0.010916769
-0.020133961 -0.026387073 -0.038468968 -0.04198279 -0.015166705 -0.03092765 -0.01766363 0.0040447675
-0.034343414 -0.024155473 -0.023252169 -0.05466808 -0.040134408 -0.014654412 -0.056974243 -0.009061012
0.011815261 -0.0489424 -0.063199624 -0.032681037 -0.0073351804 -0.02408251 -0.042314447 -0.032875575
-0.00593325 -0.037448216 -0.0038035663 -0.037006546 0.019108195 -0.017026896 0.02364923 -0.0431018
-0.045924257 -0.0019868223 0.020825261 -0.008267721 -0.02628757 -0.020692786 0.00066573295 0.0055409884
00000000: 53ee 9abc 6cf4 e53a 0515 11bc 4181 a0bc
00000010: 5dbb 86bd 8b31 82bd 564c 86ba dd53 9a3c
00000020: 3d5d 02bd 0a49 9cbc 2960 5fbd 988c 3f3d
00000030: 0f50 1d3c bda9 9ebb c7df 5a3c f1d1 31bd
00000040: 0244 4aba 03bf 2bbc 0801 f9bc 8982 09bd
00000050: e76a 8d3c b455 8f3b 2c3a f5bc 3fdc 323c
00000060: faef a4bc b429 d8bc a391 1dbd 25f6 2bbd
00000070: c57d 78bc fc5b fdbc 51b3 90bc f889 843b
00000080: aeab 0cbd b3e1 c5bc 557b bebc a3eb 5fbd
00000090: fa63 24bd 0f19 70bc d35d 69bd a474 14bc
000000a0: cc94 413c d377 48bd ce6e 81bd 8ddc 05bd
000000b0: f45b f0bb af48 c5bc ea51 2dbd 8aa8 06bd
000000c0: b56b c2bb 4d63 19bd 4145 79bb 2d94 17bd
000000d0: ca88 9c3c fd7b 8bbc 08bc c13c 838b 30bd
000000e0: 131b 3cbd 5935 02bb bd99 aa3c 5675 07bc
000000f0: 0859 d7bc eb83 a9bc 9584 2e3a 2e91 b53b

net.6.running_mean f4 [64]
0.03383216 0.009558029 -0.20729989 -0.27044177 -0.23186974 0.18516621 0.23664804 -0.36909184
0.32681495 0.13179465 0.13337253 0.28399593 0.088825144 0.22841264 0.0617909 0.051413536
0.044254716 -0.018546797 -0.35649163 -0.078452915 -0.1645815 -0.49978176 0.037533414 -0.13167828
-0.36157984 -0.104451954 0.08123771 0.3031033 -0.23941168 0.2963052 -0.058629826 0.22931111
0.07918013 -0.07923213 0.0109985545 0.222745 -0.11394335 -0.314248 0.07676106 0.09861769
0.045277763 0.37105757 0.06319645 -0.21183327 -0.08254871 -0.16493154 0.17132348 -0.120938584
-0.22192422 0.06546745 0.17978226 0.09975761 -0.072123736 0.21736135 -0.14949153 0.053355537
0.0053654164 0.17056713 -0.1564186 -0.07955915 0.16060665 -0.38392538 0.12120225 -0.48796806
00000000: 9793 0a3d 4799 1c3c 6c46 54be 5877 8abe
00000010: 436f 6dbe 369c 3d3e dd53 723e 9bf9 bcbe
00000020: 4a54 a73e 2df5 063e cf92 083e ea67 913e
00000030: f5e9 b53d 01e5 693e 7418 7d3d 0097 523d
00000040: 6f44 353d 74ef 97bc 1286 b6be ecab a0bd
00000050: 0e88 28be 65e3 ffbe a3bc 193d acd6 06be
00000060: fe20 b9be e8ea d5bd f55f a63d 5b30 9b3e
00000070: 5628 75be 51b5 973e d425 70bd 88d0 6a3e
00000080: 3129 a23d 7444 a2bd 4833 343c 4417 643e
00000090: 225b e9bd 1de5 a0be e734 9d3d 12f8 c93d
000000a0: 2d75 393d 42fb bd3e 246d 813d d2ea 58be
000000b0: 4c0f a9bd d0e3 28be 6c6f 2f3e a6ae f7bd
000000c0: 1a40 63be cc13 863d d718 383e b84d cc3d
000000d0: 9cb5 93bd f993 5e3e 4f14 19be 568b 5a3d
000000e0: 60d0 af3b 26a9 2e3e 332c 20be e8ef a2bd
000000f0: 1276 243e de91 c4be e338 f83d f3d6 f9be

net.6.running_var f4 [64]
0.33015215 0.0324377 0.04783459 0.14005782 0.08078649 0.03376807 0.013309879 0.09262462
0.04900456 0.029356068 0.047345318 0.019615017 0.09902121 0.02026745 0.019939156 0.02536286
0.016000075 0.06563118 0.16169919 0.0754054 0.08299213 0.24283113 0.029274764 0.13977858
0.10193485 0.042235963 0.016211908 0.07743532 0.20947525 0.05021849 0.10124455 0.019931752
0.07946646 0.15361834 0.1460127 0.027635327 0.12704442 0.0914218 0.07442429 0.030708294
0.03323027 0.050092317 0.028706247 0.023699438 0.06250156 0.029306417 0.05238228 0.031609923
0.09550975 0.038337395 0.016837811 0.017261004 0.04779089 0.019569483 0.09488069 0.039802685
0.020146864 0.016318727 0.055189107 0.032213643 0.021136593 0.15147552 0.035733312 0.19544269
00000000: b409 a93e 65dd 043d 34ee 433d 516b 0f3e
00000010: 6373 a53d 6350 0a3d ae11 5a3c fab1 bd3d
00000020: 01b9 483d 237c f03c 2aed 413d acaf a03c
00000030: a2cb ca3d ec07 a63c 7157 a33c c6c5 cf3c
00000040: 9712 833c a469 863d 7994 253e 256e 9a3d
00000050: c7f7 a93d b9a8 783e a1d1 ef3c 1e22 0f3e
00000060: 38c3 d03d 9eff 2c3d d6ce 843c 6996 9e3d
00000070: ae80 563e e7b1 4d3d 4d59 cf3d ea47 a33c
00000080: 50bf a23d 204e 1d3e 5a84 153e 7b63 e23c
00000090: ef17 023e 5a3b bb3d c36b 983d f68f fb3c
000000a0: 771c 083d 9a2d 4d3d 5d29 eb3c 5325 c23c
000000b0: d100 803d 0314 f03c cd8e 563d 6879 013d
000000c0: 9e9a c33d ac07 1d3d 73ef 893c f366 8d3c
000000d0: 61c0 433d 2e50 a03c cf50 c23d 2408 233d
000000e0: 090b a53c daae 853c f90d 623d 74f2 033d
000000f0: a626 ad3c 661c 1b3e 185d 123d 2122 483e

net.8.weight f4 [128, 64, 3, 3]
0.018986635 -0.029083123 -0.03335431 0.027453648 -0.00038656284 -0.020587126 -0.035864472 -0.019149156
0.019744886 -0.01668876 -0.0012602542 -0.02583045 -0.032486852 -0.026905265 0.008099868 0.032618452
-0.049137585 0.010704838 0.015627315 0.0016372026 -0.03434203 -0.011505142 -0.006027501 -0.04108475
-0.008177808 -0.012576929 -0.0526825 -0.046902858 -0.00027146135 0.0097565595 0.008550402 -0.0054672454
0.029792396 0.007981545 -0.043647233 -0.032868665 0.009789306 -0.029189702 -0.020929348 -0.024475457
-0.0146200685 -0.009352122 -0.018323775 0.003794602 0.033467535 0.0042392197 -0.002009042 0.004368569
-0.00036016782 0.034184255 0.029552232 -0.029317275 -0.043845177 0.007915572 -0.056547686 -0.0014496124
-0.05055602 -0.018084519 0.041648973 0.015023637 -0.031319074 0.049759455 -0.026415575 -0.05048562
-0.03667035 -0.018017715 -0.017195705 0.011792316 0.031739254 0.0076897386 -0.026503187 -0.027942304
-0.027314905 0.010601389 -0.006574503 0.020300824 0.019723672 0.041367594 -0.04905624 0.02987202
0.03902988 -0.013135929 -0.029348904 -0.010827006 -0.008226351 -0.003020128 0.008175776 -0.013453961
0.010041285 0.0031740407 0.026727365 -0.040536605 -0.025173279 0.016404986 0.014655093 0.0014286017
0.02334187 0.026140288 -0.031545132 0.011580764 -0.025145452 -0.048297856 -0.050002713 0.03104411
-0.01710927 -0.048426308 0.013975636 -0.046200518 -0.02605116 0.026009513 0.027853522 0.009900448
-0.022400724 -0.011600432 0.01324352 -0.001269273 0.009404688 0.02487089 -0.010414814 0.042752042
0.026010307 0.037811823 0.026941769 0.03428327 0.029907731 0.049500328 0.0011504308 -0.03105346
-0.015584081 0.026142893 -0.036238153 -0.032174964 0.036754817 0.010763223 0.04731395 -0.047149215
-0.033039022 0.0031560364 -0.020950366 0.0054919086 -0.017928816 -0.03491984 0.010347613 -0.033920337
0.0016215914 0.04951761 0.024534984 -0.03557572 -0.0052960175 -0.026710903 -0.0055149184 0.06980043
0.0124706505 -0.02839292 0.022486543 -0.0013887187 -0.025127226 0.0016076824 0.031669594 -0.0237188
-0.000818575 -0.012808903 -0.00597901 -0.007288377 0.019122157 -0.021261599 -0.00878666 0.021898638
-0.0029753782 0.011779635 -0.016435044 -0.0064673037 -0.034044515 -0.045837842 -0.016359664 -0.017889468
-0.022140088 -0.0006288091 0.035013992 -0.012230814 0.03135453 -0.060001634 0.0056890147 -0.0041241287
-0.04658507 -0.01877099 0.040576477 -0.041675437 -0.004467739 0.008900247 -0.023577744 -0.011866066
-0.024656499 0.0020005323 0.0128154205 -0.0034072693 0.015879678 -0.0024580436 -0.062001802 -0.049084544
0.017909471 0.0151582565 -0.00868675 0.03903987 0.006189961 -0.01680283 0.036030702 0.017575366
-0.043718282 -0.04350178 0.011980951 0.0063611576 -0.025826659 0.00046903177 0.009154881 0.019301917
-0.005711846 0.037783995 -0.010034575 -0.010586883 -0.043665554 -0.0025291496 -0.043153062 0.028624475
-0.0041735433 0.010177471 -0.031788286 -0.012596223 0.0380866 -0.05431275 0.032648377 -0.0010484713
-0.005772293 0.00932045 -0.04519814 0.0017572432 -0.02094826 -0.017179966 0.0051728524 0.013661221
-0.0026695123 -0.01669432 0.007456711 0.019005045 0.03211961 0.037002686 0.033994354 -0.032416653
0.014641893 0.017181918 -0.0040557785 -0.036043655 -0.043917257 -0.02245041 -0.0076111043 0.0016645809
00000000: dc89 9b3c bb3f eebc 879e 08bd 79e6 e03c
00000010: 96ab cab9 55a6 a8bc a0e6 12bd b1de 9cbc
00000020: 07c0 a13c deb6 88bc 1d2f a5ba 619a d3bc
00000030: ef10 05bd 6e68 dcbc 4fb5 043c ed9a 053d
00000040: 7e44 49bd 5863 2f3c db04 803c 6797 d63a
00000050: 3aaa 0cbd 1080 3cbc 5882 c5bb 7c48 28bd
00000060: 36fc 05bc 770f 4ebc 9bc9 57bd 361d 40bd
00000070: ed52 8eb9 fad9 1f3c fc16 0c3c 9426 b3bb
00000080: 2f0f f43c 07c5 023c 71c7 32bd 4ba1 06bd
00000090: 5363 203c 3e1f efbc 0674 abbc c180 c8bc
000000a0: 0389 6fbc a539 19bc be1b 96bc dbae 783b
000000b0: 4115 093d 27e9 8a3b 22aa 03bb 3626 8f3b
000000c0: e8d4 bcb9 ca04 0c3d 8617 f23c c82a f0bc
000000d0: 0097 33bd 51b0 013c 8c9e 67bd ec00 beba
000000e0: d413 4fbd fc25 94bc 1d98 2a3d b325 763c
000000f0: 6e48 00bd 92d0 4b3d 7a65 d8bc 02ca 4ebd
00000100: a633 16bd e399 93bc 02de 8cbc 8f34 413c
00000110: 0501 023d 34fa fb3b 361d d9bc 42e7 e4bc
00000120: 82c3 dfbc 73b1 2d3c ee6e d7bb ea4d a63c
00000130: 8a93 a13c 1171 293d 32ef 48bd 2bb6 f43c
00000140: ccdd 1f3d 1438 57bc 1d6d f0bc c163 31bc
00000150: d1c7 06bc 57ed 45bb b1f3 053c 016e 5cbc
00000160: 3484 243c 9103 503b 59f3 da3c b609 26bd
00000170: 3138 cebc c063 863c ea1b 703c eb3f bb3a
00000180: 7337 bf3c 2824 d63c 7835 01bd 3fbd 3d3c
00000190: d6fd cdbc f9d3 45bd a5cf 4cbd 3850 fe3c
000001a0: bd28 8cbc aa5a 46bd 11fa 643c c13c 3dbd
000001b0: 3e69 d5bc e711 d53c 122d e43c 7d35 223c
000001c0: b981 b7bc bd0f 3ebc 59fb 583c bc5d a6ba
000001d0: 1f16 1a3c 09be cb3c e5a2 2abc c41c 2f3d
000001e0: 9113 d53c 92e0 1a3d fcb4 dc3c 9d6c 0c3d
000001f0: 0f01 f53c dbc0 4a3d 0dca 963a d363 febc
00000200: 6054 7fbc 9f29 d63c 756e 14bd e5c9 03bd
00000210: 388c 163d 3b58 303c 46cc 413d 891f 41bd
00000220: ed53 07bd 81d5 4e3b 1aa0 abbc 78f5 b33b
00000230: 74df 92bc 1b08 0fbd 0989 293c 0df0 0abd
00000240: 948b d43a fad2 4a3d 97fd c83c d9b7 11bd
00000250: 378a adbb d3d0 dabc 7db6 b4bb 87f3 8e3d
00000260: b351 4c3c 4598 e8bc b335 b83c ab05 b6ba
00000270: 9dd7 cdbc dfb8 d23a fab7 013d ee4d c2bc
00000280: a395 56ba 6fdc 51bc 92eb c3bb 56d3 eebb
00000290: 12a6 9c3c ce2c aebc ecf5 0fbc c664 b33c
000002a0: 90fe 42bb 5fff 403c c9a2 86bc adeb d3bb
000002b0: 4372 0bbd 76c0 3bbd b404 86bc ef8c 92bc
000002c0: 215f b5bc aad6 24ba d56a 0f3d c163 48bc
000002d0: 9c6d 003d 46c4 75bd ea6a ba3b b323 87bb
000002e0: fdcf 3ebd 9fc5 99bc 8533 263d ddb3 2abd
000002f0: 1c66 92bb 57d2 113c 1d26 c1bc e369 42bc
00000300: 6dfc c9bc 5d1b 033b c5f7 513c 7e4c 5fbb
00000310: 1916 823c 2117 21bb 9af5 7dbd e00c 49bd
00000320: e2b6 923c 565a 783c df52 0ebc 45e8 1f3d
00000330: 28d5 ca3b 17a6 89bc ee94 133d 37fa 8f3c
00000340: f111 33bd ec2e 32bd c04b 443c 4271 d03b
00000350: 6e92 d3bc 61e8 f539 5bfe 153c 0e1f 9e3c
00000360: 702a bbbb 64c3 1a3d 0f68 24bc 9b74 2dbc
00000370: a7da 32bd 17c0 25bb 44c1 30bd e07d ea3c
00000380: 38c2 88bb 68bf 263c 6f34 02bd 6360 4ebc
00000390: b200 1c3d 0c77 5ebd 4eba 053d dc6c 89ba
000003a0: 8125 bdbb cdb4 183c af21 39bd 4c53 e63a
000003b0: af9b abbc 00bd 8cbc 0881 a93b 50d3 5f3c
000003c0: fcf2 2ebb 87c2 88bc 6d57 f43b 78b0 9b3c
000003d0: da8f 033d 2190 173d aa3d 0b3d 53c7 04bd
000003e0: 8de4 6f3c 18c1 8c3c 56e6 84bb 83a2 13bd
000003f0: 95e2 33bd ece9 b7bc 9266 f9bb 112e da3a

net.8.bias f4 [128]
-0.011363496 -0.013110665 0.009112226 0.019145645 -0.035927765 0.00439433 -0.028629681 -0.021781528
-0.011271564 -0.037488848 0.006483153 -0.038101822 -0.015740307 -0.032971114 0.013741285 0.0013562463
-0.016214957 0.01999076 0.030110998 -0.023145637 -0.036079586 0.009490847 0.025702627 0.0121479975
0.033718985 -0.04122341 0.0338298 -0.006775854 -0.01626334 0.011788965 0.031195952 -0.020627538
-0.041533243 0.011878362 0.010738366 0.003776013 0.013108261 0.019317508 0.0095232185 0.02330006
0.012930742 -0.00414595 -0.023267971 -0.03623666 0.006761947 -0.03830117 0.025740953 0.039541114
0.03242376 0.015597613 0.030294238 0.038907174 0.028657643 -0.010303415 0.020939764 -0.008747669
-0.033701845 0.014173501 -0.00889974 -0.00573148 -0.00651499 -0.010785577 -0.018527864 0.03533259
0.027621249 -0.0074510286 -0.03668665 -0.027892958 -0.04029049 -0.015743444 0.014707539 -0.004164659
0.03191805 0.038610592 -0.02171762 -0.039449047 0.003262249 -0.018208874 -0.025401812 -0.026001742
0.024174731 -0.016872134 -0.035737857 0.010831069 0.0180131 0.020699136 0.008411568 -0.008795336
-0.015005641 0.026734341 -0.017193224 -0.009257553 -0.01466068 -0.01771796 0.032530304 -0.043423712
-0.018218819 0.0352621 0.038820166 0.014982493 0.011804282 -0.035340868 -0.021863442 -0.017767167
-0.02284241 -0.021061275 -0.029438458 -0.039205473 0.028240247 -0.0025335525 -0.019190505 0.02120312
0.010887984 0.03550993 0.041663453 -0.014977651 -0.028706446 -0.0045740907 -0.0064696004 -0.008539125
-0.006052399 -0.0011910248 -0.018368298 0.018241042 -0.018310908 -0.025870703 0.031413935 -0.030884966
00000000: f52d 3abc 1dce 56bc 724b 153c 54d7 9c3c
00000010: fe28 13bd 50fe 8f3b cb88 eabc 2d6f b2bc
00000020: 5eac 38bc e88d 19bd a170 d43b a810 1cbd
00000030: d1f1 80bc b80c 07bd 2023 613c 13c4 b13a
00000040: 3bd5 84bc aac3 a33c 57ab f63c eb9b bdbc
00000050: 30c8 13bd 7f7f 1b3c 518e d23c 6508 473c
00000060: eb1c 0a3d e1d9 28bd 1e91 0a3d fc07 debb
00000070: b23a 85bc 8126 413c a78e ff3c 15fb a8bc
00000080: c31e 2abd 769d 423c f9ef 2f3c fc76 773b
00000090: 08c4 563c c03f 9e3c 4607 1c3c c4df be3c
000000a0: 77db 533c c0da 87bb 799c bebc e46c 14bd
000000b0: 5393 dd3b b0e1 1cbd b1de d23c ddf5 213d
000000c0: c7ce 043d 218d 7f3c 9f2b f83c 215d 1f3d
000000d0: 6fc3 ea3c a8cf 28bc de89 ab3c 6252 0fbc
000000e0: f20a 0abd f937 683c 37d0 11bc 24cf bbbb
000000f0: b27b d5bb fdb5 30bc bfc7 97bc e8b8 103d
00000100: f545 e23c c227 f4bb be44 16bd c67f e4bc
00000110: a407 25bd 65f8 80bc e4f7 703c b177 88bb
00000120: 80bc 023d 2426 1e3d 26e9 b1bc 5395 21bd
00000130: 75cb 553b c72a 95bc 7617 d0bc 9b01 d5bc
00000140: 160a c63c 6e37 8abc dc61 12bd cc74 313c
00000150: 3590 933c 3c91 a93c acd0 093c 501a 10bc
00000160: 38da 75bc fa01 db3c ced8 8cbc feac 17bc
00000170: 5933 70bc 4125 91bc 7f3e 053d 10dd 31bd
00000180: a23f 95bc fe6e 103d e501 1f3d 2179 753c
00000190: bf66 413c 96c1 10bd f61a b3bc 738c 91bc
000001a0: 0120 bbbc b288 acbc ec28 f1bc eb95 20bd
000001b0: 1758 e73c f509 26bb 6835 9dbc 2ab2 ad3c
000001c0: 8463 323c dc72 113d 4ca7 2a3d d264 75bc
000001d0: c829 ebbc 41e2 95bb f1fe d3bb b0e7 0bbc
000001e0: 3453 c6bb 291c 9cba 1d79 96bc 3d6e 953c
000001f0: c200 96bc ccee d3bc e6ab 003d 7802 fdbc

net.9.weight f4 [128]
0.03156305 0.3125081 0.95304906 0.39519647 0.3351075 0.8620607 0.88441265 0.78601766
0.76424545 0.069800936 0.8182171 0.7345622 0.46368355 0.45957488 0.3648793 0.4338911
0.49079582 0.25851917 0.8607946 0.4170279 1.0220649 0.64608073 0.18041392 0.41123357
0.09644608 0.13953112 0.74108344 0.4630564 0.15055507 0.18197292 0.49938855 0.8334245
0.31229022 0.35721827 0.0411731 0.19819881 0.42786384 0.6030146 0.24760194 0.44756383
0.9210102 0.6088384 0.094016664 0.8162563 0.35988086 0.38750628 0.7054756 0.20026481
0.28819647 0.7530469 0.13760103 0.89047563 0.6430359 0.09107101 0.15976644 0.36676842
0.14883819 0.6579318 0.9195301 0.21296269 0.041278813 0.64971673 0.588657 0.609191
0.17543359 0.7655154 0.14350979 0.31590262 0.46148327 0.6342959 0.95307904 0.21185377
0.45501137 0.6948016 0.39914942 0.74768394 0.23709169 0.3824838 0.3007778 0.117174126
0.08618743 0.9059693 0.34352225 0.17801689 0.09096712 0.49294293 0.15136904 0.6986132
0.41626236 0.19964628 0.978745 0.29079223 0.5046561 0.38044697 0.63412666 0.27536544
0.66202223 0.90307605 0.6718107 0.3646494 0.68144566 1.0139207 0.45157427 0.27670294
0.8889485 0.6059149 0.109715894 0.46607554 0.47097817 0.045815013 0.8805688 0.69785583
0.7064194 0.3039587 1.0104446 0.88645977 0.30985385 0.3021471 0.20546538 0.9973042
0.22892715 0.67571574 0.95170903 0.63557076 0.4480908 0.39014205 0.043660205 0.41208637
00000000: 4248 013d 1001 a03e 06fb 733f 3157 ca3e
00000010: 3693 ab3e 03b0 5c3f de68 623f 7438 493f
00000020: 97a5 433f cbf3 8e3d ad76 513f 450c 3c3f
00000030: ee67 ed3e 664d eb3e 76d1 ba3e f926 de3e
00000040: 9749 fb3e a05c 843e 095d 5c3f ae84 d53e
00000050: 06d3 823f 8c65 253f 6dbe 383e 358d d23e
00000060: 8685 c53d 3fe1 0e3e a5b7 3d3f ba15 ed3e
00000070: 1c2b 1a3e 1c57 3a3e dbaf ff3e 4f5b 553f
00000080: 81e4 9f3e 50e5 b63e 20a5 283d a1f4 4a3e
00000090: f810 db3e 2a5f 1a3f 5d8b 7d3e 1627 e53e
000000a0: 53c7 6b3f d5dc 1b3f cf8b c03d 2cf6 503f
000000b0: 4e42 b83e 3967 c63e 0d9a 343f 3812 4d3e
000000c0: 7d8e 933e aec7 403f 49e7 0c3e 36f6 633f
000000d0: 009e 243f 7083 ba3d d099 233e 12c9 bb3e
000000e0: 0a69 183e 386e 283f 5366 6b3f e412 5a3e
000000f0: f913 293d d653 263f 3ab2 163f f1f3 1b3f
00000100: dda4 333e d1f8 433f 3bf4 123e fdbd a13e
00000110: 8947 ec3e 3761 223f fdfc 733f 32f0 583e
00000120: 40f7 e83e 85de 313f 505d cc3e 3768 3f3f
00000130: 2ac8 723e ebd4 c33e 8cff 993e fdf8 ef3d
00000140: 0983 b03d 9bed 673f 26e2 af3e 0f4a 363e
00000150: f84c ba3d 0463 fc3e 7c00 1b3e 51d8 323f
00000160: 5720 d53e 1370 4c3e 088f 7a3f b8e2 943e
00000170: 2431 013f f2c9 c23e 2056 223f b3fc 8c3e
00000180: 4a7a 293f fe2f 673f c9fb 2b3f 53b3 ba3e
00000190: 3973 2e3f 27c8 813f be34 e73e 02ac 8d3e
000001a0: 2192 633f 3d1d 1b3f bab2 e03d 74a1 ee3e
000001b0: 0d24 f13e 86a8 3b3d f56c 613f aea6 323f
000001c0: e7d7 343f 7aa0 9b3e 4056 813f 07ef 623f
000001d0: 2aa5 9e3e 06b3 9a3e 8465 523e 544f 7f3f
000001e0: e16b 6a3e b5fb 2c3f 34a3 733f c4b4 223f
000001f0: 286c e53e b3c0 c73e 0bd5 323d fcfc d23e

net.9.bias f4 [128]
0.00013075651 -0.0044732317 -0.00086916063 -0.0053206934 -0.01867401 -0.006332742 -0.00953189 0.0071724635
0.0010565409 -0.0019791338 -0.015129371 -0.011536702 -0.013120458 -0.018626424 0.0020294606 -0.00091032917
0.014931247 0.006469441 0.013772924 -0.0011319354 -0.0014771459 0.009993664 -0.016334139 0.004876088
-0.0083735 0.007854194 0.01556935 -0.000324893 0.00045823917 -0.006866899 -0.0029253159 0.0009289095
-0.006301229 -0.009905451 -0.005861522 0.010714722 0.0047631008 -0.014563431 0.008528219 0.006684887
-0.02748797 -0.00052291644 -0.0047997097 0.0057329037 0.0011044804 0.013306462 0.011101213 -0.00013633014
-0.004098197 -0.002767358 -0.0028895426 -0.008376885 -0.00038527348 0.018995924 0.0009226512 -0.010117214
0.006257461 -0.0076049613 0.015215493 -0.019659096 -0.0036255296 -0.009850259 -0.0014202705 -0.003799471
0.013315799 -0.008027979 0.0021302656 -0.016526999 -0.0070378287 -0.0030345176 -0.0020765483 -0.004979256
0.010388782 -0.015269443 0.002974326 -0.04716898 0.00803497 -0.0021919876 -0.0003347768 0.0066498118
0.029460073 0.00087053294 0.007815873 -0.01987174 0.012955468 0.00665945 0.008988181 0.011594832
0.007633601 0.0052600163 -0.004561927 0.0035465152 -0.009148139 0.0035959918 -0.017481375 0.0052563804
-0.015980434 -0.030604864 -0.005867685 0.0012911154 -0.043120537 0.016881298 0.003389491 0.011220384
0.00714535 0.0034535422 0.005565059 0.0056339847 -0.013070386 0.009252171 -0.01405982 0.005452042
-0.011570465 0.01207637 0.00075350166 0.013627169 0.0058099236 -0.008773765 -0.0082579395 -0.0054646623
0.00046033884 0.013337829 -0.057997003 0.014858146 -0.010636023 0.0020104428 0.0028109248 0.007155111
00000000: af1b 0939 3094 92bb 62d8 63ba 3659 aebb
00000010: 3dfa 98bc e482 cfbb a52b 1cbc fc06 eb3b
00000020: a17b 8a3a 5bb4 01bb 2ee1 77bc 6f04 3dbc
00000030: 31f7 56bc 7196 98bc b300 053b 28a3 6eba
00000040: 30a2 743c 9bfd d33b d5a7 613c 735d 94ba
00000050: cb9c c1ba 77bc 233c 2ccf 85bc 97c7 9f3b
00000060: 0131 09bc e1ae 003c 9616 7f3c 6656 aab9
00000070: d23f f039 b903 e1bb a8b6 3fbb 1082 733a
00000080: 8a7a cebb 794a 22bc 0312 c0bb cd8c 2f3c
00000090: c913 9c3b 759b 6ebc f1b9 0b3c e60c db3b
000000a0: 742e e1bc 5414 09ba e246 9dbb 15db bb3b
000000b0: 36c4 903a 5903 5a3c dde1 353c d8f3 0eb9
000000c0: 2b4a 86bb 905c 35bb 7b5e 3dbb 343f 09bc
000000d0: 88fe c9b9 579d 9b3c 13de 713a acc2 25bc
000000e0: 630b cd3b 0a33 f9bb 674a 793c 1d0c a1bc
000000f0: 4b9a 6dbb fb62 21bc 5f28 baba 8c00 79bb
00000100: 822a 5a3c c987 03bc ed9b 0b3b a163 87bc
00000110: 969d e6bb c2de 46bb b316 08bb 0729 a3bb
00000120: b635 2a3c b02c 7abc e9ec 423b 4334 41bd
00000130: 1ba5 033c 73a7 0fbb fb84 afb9 aae6 d93b
00000140: 4056 f13c 7a34 643a 260e 003c 0fca a2bc
00000150: 2c43 543c 8437 da3b 2a43 133c 40f8 3d3c
00000160: 4923 fa3b 375c ac3b 387c 95bb a76c 683b
00000170: 13e2 15bc bbaa 6b3b 1a35 8fbc b73d ac3b
00000180: 66e9 82bc 0db7 fabc b645 c0bb a53a a93a
00000190: 299f 30bd a64a 8a3c 3922 5e3b b4d5 373c
000001a0: 8a23 ea3b d354 623b 195b b63b 4a9d b83b
000001b0: 2c25 56bc 6b96 173c 295b 66bc 0ba7 b23b
000001c0: 0c92 3dbc f8db 453c a486 453a 7d44 5f3c
000001d0: 2c61 be3b d6bf 0fbc 4f4c 07bc e910 b3bb
000001e0: a259 f139 e986 5a3c 448e 6dbd 956f 733c
000001f0: b742 2ebc a2c1 033b 7e37 383b 6c75 ea3b

net.9.running_mean f4 [128]
-0.27869225 -0.10470022 0.2863479 0.041525308 0.00811482 -0.26125035 -0.229864 -0.20326701
-0.07356681 -0.034131426 -0.08503166 0.22786725 -0.09613964 -0.05480515 -0.34317312 -0.22814803
0.096028924 0.49974063 -0.12800269 -0.012457974 0.02861742 -0.16388367 -0.012454703 0.1686655
-0.12884846 0.18790342 0.15217099 -0.09108768 -0.1544222 -0.17986412 0.01301454 -0.21863453
0.0064650266 -0.17375495 0.09094259 -0.32674146 0.018648641 -0.12234862 0.16293488 0.2096054
-0.026771523 0.17941478 -0.0031348306 0.174364 -0.20070626 0.007959281 0.060641117 -0.13286085
-0.061671738 0.24815336 0.040431235 -0.20463002 -0.069432035 0.2359376 -0.040150378 -0.33437568
0.22302964 -0.17804001 -0.22802684 -0.031350955 -0.22594348 0.025768485 0.1412117 -0.1458943
-0.13931379 -0.19933097 -0.30217028 0.0992368 -0.16961147 -0.06667257 0.13150436 0.020080354
0.15809833 -0.065197214 0.16833296 0.091309205 -0.4307409 -0.12690027 0.3006192 -0.12752873
0.13682453 0.2953178 -0.096063666 0.04879776 0.13697739 -0.0047792043 -0.17174256 0.14219247
0.10992665 0.1336344 -0.13929231 0.21789347 -0.28167605 -0.15129843 -0.0034234438 -0.5874469
0.1355405 -0.06758878 -0.06572043 -0.21982814 -0.116073474 -0.23902903 -0.21531357 0.20645924
-0.26886556 -0.17731486 -0.0006731436 -0.1310846 -0.2361825 -0.11347671 -0.19378996 -0.2699199
-0.25967488 0.075089626 0.35419706 -0.24087529 0.0004558045 -0.14908464 0.17842048 -0.17901643
-0.14153935 0.16699095 -0.21678615 -0.076085664 -0.11361771 0.1611491 0.21728496 -0.104937784
00000000: c0b0 8ebe 126d d6bd 319c 923e 7116 2a3d
00000010: 06f4 043c 9bc2 85be 7861 6bbe 3a25 50be
00000020: 32aa 96bd 65cd 0bbd 1425 aebd 0856 693e
00000030: dce4 c4bd 5d7b 60bd 63b4 afbe a39f 69be
00000040: d0aa c43d 01de ff3e 2313 03be 881c 4cbc
00000050: 146f ea3c 1fd1 27be d00e 4cbc a6b6 2c3e
00000060: daf0 03be c169 403e b6d2 1b3e 2d8c babd
00000070: da20 1ebe 4d2e 38be f03a 553c bbe1 5fbe
00000080: 93d8 d33b d1ec 31be 1c40 ba3d a84a a7be
00000090: 09c5 983c ea91 fabd 67d8 263e cca2 563e
000000a0: f44f dbbc 82b8 373e bb71 4dbb 7a8c 323e
000000b0: f185 4dbe a567 023c d262 783d ad0c 08be
000000c0: 819b 7cbd ea1b 7e3e 399b 253d 888a 51be
000000d0: 6232 8ebd a099 713e b974 24bd 4a33 abbe
000000e0: e261 643e 1f50 36be de7f 69be dc69 00bd
000000f0: ba5d 67be 6e18 d33c cd99 103e 5165 15be
00000100: 46a8 0ebe 6b1d 4cbe 10b6 9abe aa3c cb3d
00000110: a1ae 2dbe a18b 88bd 14a9 063e 8e7f a43c
00000120: 87e4 213e 1e86 85bd 7a5f 2c3e 5200 bb3d
00000130: 128a dcbe 25f2 01be c3ea 993e e496 02be
00000140: bb1b 0c3e e533 973e 07bd c4bd 29e0 473d
00000150: cd43 0c3e df9a 9cbb 48dd 2fbe e79a 113e
00000160: 3921 e13d 75d7 083e a5a2 0ebe 771f 5f3e
00000170: d837 90be faed 1abe db5b 60bb ec62 16bf
00000180: 21cb 0a3e fc6b 8abd 6f98 86bd a11a 61be
00000190: eeb7 edbd 07c4 74be 297b 5cbe 0d6a 533e
000001a0: bfa8 89be 0792 35be e775 30ba 0b3b 06be
000001b0: d3d9 71be 7a66 e8bd e070 46be f132 8abe
000001c0: 1bf4 84be 97c8 993d 5159 b53e 03a8 76be
000001d0: 0bf9 ee39 a5a9 18be dcb3 363e 1550 37be
000001e0: b1ef 10be adff 2a3e 30fd 5dbe cdd2 9bbd
000001f0: 67b0 e8bd 4504 253e f37f 5e3e 9fe9 d6bd
