D_B.pth (torch_old, 401728 bytes, 21 tensors)

net.0.weight f4 [16, 3, 3, 3]
00000000: 34c8 183e d55f 1bbe c814 813c b314 373d
00000010: 9215 2f3e 593f 57bd b437 9b3d 5efd 12bd
00000020: 15f5 b73d cb49 13be 1a34 b1bd 34ef 1a3e
00000030: 6359 e8bd 7459 bbbd 1a70 b2bc 3213 05be
00000040: 9d91 a9bc 708d 683d 5285 2e3e 8ad7 d33d
00000050: 17c0 31be c9a9 8ebd 6e13 203e 8b6b 813d
00000060: 5a2f 0abd 2175 e0bd 3c04 853d 7d2f 88bd
00000070: 882d 303e 32e4 ac3c 8bd6 03be 4d0c 0c3e
00000080: 935c 31be 841f 0cbe c209 f43d 7a69 2a3e
00000090: 7f1c 503d a7de f33d a7a0 d1bd 170b 663d
000000a0: a5ed fc3d d676 b53d 7e14 a13d af28 0a3e
000000b0: d297 6fbd 7c2b 26bd e477 0e3e 9e6e 0cbe
000000c0: 6ac6 7bbd aab3 1e3b c91a 543e 31c9 3f3d
000000d0: 9f44 623d 1248 97bc 5b72 b23d 2ec9 13be
000000e0: a961 33bd 301a 88bd f2f3 1e3e b1df 153e
000000f0: 941c e63d d772 813d e1f6 293e 68b9 a3bd
00000100: 3468 de3d f2d0 383e b790 24bd bf1a ae3d
00000110: 5618 c23d 8766 ab3d a8be c93d f209 92bc
00000120: c9fa e83c ba74 273e 969d 0e3d a52e e5bc
00000130: dfaf b1bd 7452 e7bd d650 983d 17eb 8b3d
00000140: af63 c53c 30c1 bfbd 31dc eb3d 803d 4b3e
00000150: 65c1 483e 2558 a03d 55ca 32be 0c43 093e
00000160: fa63 2bbe 3616 d1bd 0439 083e 9623 8abc
00000170: 809a 3cbd 455e 22be a510 2b3e 7b90 183e
00000180: 1f6f fd3b e386 5cbd f3d9 17be 58a8 3bbd
00000190: 574d f93d d849 04be bd15 5cbd bb46 a0bd
000001a0: aad3 1d3e 816d 27be 64f8 89bc a787 a23d
000001b0: e355 03bd 4433 28bd 67fb 103e b538 dcbd
000001c0: cb61 123e dc1e 4d3d 4fc7 213e 91cc 123e
000001d0: 76ab 013e cd4a 053d e825 34be b54d 26be
000001e0: 34e9 2b3d de3c f63d ad71 49bd aa78 55bb
000001f0: 9781 e9bd 5ca8 103e 3d93 36bd 57bd fa3d
00000200: 2509 9dbd 9991 753d 2e54 0f3e aa28 cb3d
00000210: 5b2e 8e3d 47b1 96bd ca08 bf3d 5a56 a4bb
00000220: d464 c6bd 2602 b5bd a9e6 063d 0069 fd3d
00000230: bab0 b9bd 0419 eabd b2ea 2c3c 6a05 53bd
00000240: 7836 133e f73f b13d 1691 65bd 8313 223e
00000250: bd50 f8bd 6b4f babd c5bb adbd ece9 02bd
00000260: ef5a 313e fb29 533d 1887 973d 5adf 88bd
00000270: 2403 223c fc22 2b3c e10c 203d be04 a2bc
00000280: c5dd 263e 5f18 ba3d db8d 3b3e 0418 f13d
00000290: 6409 4abd aaa6 483e 76c6 183d e958 81bd
000002a0: cec1 e9bd 3e10 143e f39b 82bd f332 06bd
000002b0: e279 2fbe e8b6 d9bd 818e 903d 36ed 0fbd
000002c0: 8753 563d 3996 a43c 30b7 c7bd 435d 92bc
000002d0: 277a 333d 6405 8bbd d1a1 11be 4dd4 c0bd
000002e0: c9d8 483e ea10 c83d f375 a9bd 010b 4abd
000002f0: 01f6 50bd 0b32 363e 2267 293d d543 443d
00000300: 5eba 00bd ddaf f4bc af0a ba3d f41a 573b
00000310: dded 8bbd d93f f63d 4a01 84bc 698c 27be
00000320: 83eb 4bbd eac2 b83d fec3 f83d 4ce1 eebd
00000330: 8bcc 2a3e e034 c9bc 356b b9bd 73d3 ebbd
00000340: 3dbe 37be 0798 aebd 47b9 ad3c bcfa 65bd
00000350: 2199 b439 8b5b a2bc e16c 0dbd 377d c6bc
00000360: 8b25 e13b 1ef6 603d f4ce b0bd 5e7a 683d
00000370: ac96 c8bd a901 38be 9088 f0bd aa53 3dbe
00000380: eb7f 263e 79b4 5e3d 57ac d8bd 72dc 45bd
00000390: 964b 2d3d c3f1 403e 16c0 383d 25d1 b2bd
000003a0: d71c 9b3d fd2d 423e 89ca 0ebe ef83 bf3d
000003b0: 0f66 02be 509e 41bd fc8e dfbc 030f 193e
000003c0: 8d6d 393d f2f6 0abe b815 073e c046 3dbe
000003d0: d201 2cbd 4e2d 18bd 9c9e 1ebe d812 ed3d
000003e0: fb18 ffbd 1c2e 31bd e18b 22be 2458 09be
000003f0: fc20 fdbc b6e2 943d 36c5 1b3d 3733 b83d
0.14920121 -0.15173276 0.01575698 0.044697475 0.17098072 -0.052550647 0.07578984 -0.03588616
0.089822926 -0.14383619 -0.08652516 0.15130311 -0.11345174 -0.09147921 -0.02178197 -0.12995604
-0.020699317 0.05677551 0.17043045 0.10343845 -0.17358433 -0.06965978 0.15632412 0.0631934
-0.033736564 -0.109598406 0.06494948 -0.06649683 0.17204869 0.021104906 -0.1287481 0.13676567
-0.1732047 -0.13683897 0.11915924 0.16641799 0.050808426 0.11907702 -0.1023572 0.05616292
0.123500146 0.08860557 0.07865237 0.13492082 -0.058494397 -0.040568814 0.13912922 -0.13714072
-0.06146852 0.0024215975 0.20713343 0.04682273 0.055241223 -0.018466983 0.08713218 -0.14432213
-0.043794308 -0.0664562 0.15522745 0.14636113 0.112359196 0.06320732 0.16598083 -0.07994348
0.10859719 0.18048456 -0.040177073 0.08501195 0.09477298 0.08369165 0.09850818 -0.017827008
0.028439896 0.16353121 0.034818254 -0.027976343 -0.08676123 -0.112950236 0.07437293 0.06831949
0.024095384 -0.093630195 0.115166076 0.19847679 0.19605024 0.07829312 -0.17459996 0.13404483
-0.16737357 -0.102093145 0.13303 -0.016862672 -0.04604578 -0.15856273 0.16705568 0.14898865
0.007734194 -0.053839575 -0.14829235 -0.045814842 0.121729545 -0.12918794 -0.05373167 -0.07825991
0.15412775 -0.16350366 -0.016842075 0.0793603 -0.03206433 -0.041064516 0.14158402 -0.107530035
0.14295118 0.050078258 0.15798686 0.14335848 0.12663063 0.03254204 -0.17592585 -0.1624058
0.041970447 0.12023328 -0.049180675 -0.0032573142 -0.114016704 0.14126724 -0.04457401 0.12243145
-0.0766776 0.059953306 0.13996956 0.099198654 0.06942435 -0.07358032 0.09327848 -0.0050151767
-0.096872 -0.088383004 0.03293482 0.12373543 -0.09066911 -0.114305526 0.010554003 -0.051518835
0.14376247 0.086547785 -0.056046568 0.15827756 -0.121247746 -0.09097179 -0.0848308 -0.031961367
0.17319845 0.051553708 0.07398814 -0.06683226 0.009888444 0.010445353 0.039074782 -0.019777652
0.16295536 0.0908668 0.18315832 0.11772159 -0.04932536 0.19594827 0.037298642 -0.063157864
-0.114139184 0.14459321 -0.06377401 -0.032763433 -0.17136338 -0.1063059 0.070584305 -0.03513833
0.05232575 0.020091163 -0.09751737 -0.017866736 0.043817665 -0.067881376 -0.14221884 -0.09415493
0.19613947 0.09768851 -0.0827445 -0.0493269 -0.051015858 0.17792527 0.04135812 0.047916252
-0.031427734 -0.029869014 0.09084069 0.0032822462 -0.06832478 0.12023897 -0.016113896 -0.16362156
-0.04978515 0.09021552 0.121467575 -0.11664066 0.1667959 -0.024561346 -0.09053651 -0.1151494
-0.17943664 -0.08525091 0.021206511 -0.056147322 0.00034446365 -0.019819042 -0.034527663 -0.024229629
0.0068709305 0.054922216 -0.08633223 0.056757323 -0.097943634 -0.17969383 -0.11744797 -0.18488947
0.16259734 0.05437133 -0.10579746 -0.048305936 0.042308412 0.18842225 0.045105062 -0.087312974
0.0757386 0.18962856 -0.13944449 0.09351336 -0.12734245 -0.04727012 -0.02728986 0.14947133
0.04527049 -0.13570765 0.13191879 -0.1848402 -0.041993923 -0.03715258 -0.15490192 0.1157586
-0.124559365 -0.043256864 -0.15873672 -0.13412529 -0.030899517 0.07269804 0.038029872 0.089941435

net.0.bias f4 [16]
00000000: b00c 4f3e 21f7 413d 9ed2 943d b4f7 863c
00000010: 4bd0 b5bc 53f0 d13d d9d9 5dbc c2d3 983d
00000020: ffc2 2e3e fdb0 d93d 186f 96bd 2073 503e
00000030: a0e3 20bd a588 9c3d 449a eb3d 2fac 50be
0.20219684 0.04735482 0.072667345 0.016475536 -0.022194048 0.10250916 -0.013540708 0.074622646
0.17066573 0.10629461 -0.07345408 0.20356417 -0.03927958 0.076432504 0.11504033 -0.20378183

net.2.weight f4 [32, 16, 3, 3]
00000000: 1a2e 1f3c 8d02 89bd be6e a03d dc19 df3a
00000010: c463 aebd b051 623b 9013 493d a899 003d
00000020: ad3f 833d a1cf c93d 9ee7 c4bc 1afb 0b3d
00000030: 759a 41bd ba11 a1bd 7e66 883d 4641 8c3d
00000040: 2318 86bd 8b52 603d 311a 613c 36e8 c23b
00000050: c1ae 39bd 195a c6bc e154 39bd 31cd 17bd
00000060: 3b97 10bc f9de 723d 9b3d a73d f0c3 63bd
00000070: af05 a93c b2e9 c03c 5f12 9bbd 8c82 263c
00000080: 8a8e b8bc 68c2 773c 1e0f 383b 603d a93d
00000090: fdfe 3ebd aec4 63bd 8695 7fbc d54b 69bd
000000a0: 6084 c4bc 591e 863c 1c06 66bd 1fbf 7b3d
000000b0: f3de 813d 68c5 c63c f5cd b6bd 9a94 213c
000000c0: d3ee 103d 127f c33c e001 8bbc 4ad9 a03c
000000d0: 8655 6ebd a2ad c03d d0b2 6c3c ad42 163d
000000e0: 247a d7bc 6691 cdbd 0fd3 51bd e316 29bd
000000f0: 1332 723d c704 fa3c 6fa3 b1b7 e47b cdbc
00000100: 7bff 9b3c a5f3 333d d675 99bc 0d6d 9f3d
00000110: 2c14 863c 1e53 6abd ddfa 4fbd f6f6 6ebd
00000120: e6f3 ac3c bb40 7f3d bc17 d83d 7321 64bd
00000130: f2a0 e83c 5980 ab3d fe28 e83b dd09 82bd
00000140: c545 68bd d1c5 69bd 5dfd 4d3d f503 12bd
00000150: 0827 48bd fc5d ad3d 3a58 ad3d d436 6c3d
00000160: 8808 22bc 907e 27bd dd62 36bb 6e91 003d
00000170: a986 33bd ddef 933d fce5 943d 288e 7c3d
00000180: abff 90bd 2a3a 97bc be98 8dbd 5e97 6abd
00000190: 66c7 a1bd 4c71 3cbd c5b9 47bd 7e93 503c
000001a0: 4e1d 953c db79 923d a023 a6bc f6de 26b7
000001b0: 0b52 263d 4b83 083c f6f9 debb cbec 943c
000001c0: 86c3 5f3c 8b66 66bd 2441 64bd 25a9 71bd
000001d0: b34a a8bd 78c2 2d3d 0149 b4bd cd45 b8bb
000001e0: 2678 0dbc 843e 39bc 93b3 02bd 570e 41bc
000001f0: d70f f73c 2681 843c 6846 ae3c b6a8 cfba
00000200: b66e cabb 1d36 ae3d ea7e ab3c 36b6 e0bc
00000210: 5a5a cbbd 5109 5d3d efd3 8cbb 2ef7 b0bd
00000220: 1866 c5bd fe77 613d e2fe 063d bd02 5c3d
00000230: 30b8 89bd 67a3 aebd 9c32 dcbc 07e3 0a3d
00000240: af71 37bd 7e5e aabd cb3d 06bb b105 903c
00000250: 6169 88bd c38b a3bd f813 e93c 93e6 a13c
00000260: 5c33 f33c cb6f 1dbd 59b6 a0bd 9652 d23c
00000270: 57b6 193d c900 9dbd 8d66 9ebd 7b1b 8e3c
00000280: 6e2c ac3c a3a6 363d ed06 efbc 8735 223d
00000290: a3f2 6dbc d40f d4bc 9833 7abd f430 63bd
000002a0: 1718 59bc 8b33 95bb 2927 8d3d 635f b9bc
000002b0: f46e 973c c25a 1dbd f2b8 85bb 0086 5fbc
000002c0: 74d5 56bd c536 603d c746 0e3c e49c 213d
000002d0: 015f 423d 31e5 95bc b98e 463d 04ca 433d
000002e0: 3101 953d e85b a83c f6a4 20bd 7c3e 8fbd
000002f0: 9ce8 d23d e7ba aabc 584e aa3c 694d 513c
00000300: f86a d03c 2f0e 92bd f237 473c 2cf8 39bd
00000310: 4910 9d3c 6b49 83bc c88a 483c 6f79 063c
00000320: b4c9 733d 1679 83b9 7cfb 67bd 92c3 813c
00000330: e4e8 0d3d 5d62 123d 1aec ad3d 65ae 6a3c
00000340: 6a7d fc3c faff 93bb 1e94 5cbc 9e03 1ebd
00000350: 79c7 883d 7fb4 3bbc 552b 7a3d 9d6f a1bd
00000360: f7ef aebd 854b 0e3c 7299 3cbd 2d59 573d
00000370: 2b83 f8bd 4bd5 033b 978c 8a3b 9d16 10bb
00000380: b4c7 0f3d b505 cd3d b041 6c3d cae8 d33d
00000390: 0d21 663c 82ab c13c fa24 2bbd 915b 433d
000003a0: 03cb 9b3d a49f 703d a134 2cbd f641 bc3c
000003b0: d946 2b3a 3435 1d3d cb42 14bc 4b0b c53c
000003c0: 5113 89bd a0a0 633c 801e 35bd 66b9 a3bd
000003d0: 67c8 333d dbbe c4bb c431 03bc a12a 30bd
000003e0: d3c1 db3c fa7b 8f3d d2b9 0e3c beee 7dbd
000003f0: fb62 9b3b 4ffe 91bd 7fbf 853d b3d6 ec3c
0.009715581 -0.0668994 0.078336224 0.0017021256 -0.085151225 0.0034533553 0.049090922 0.031396538
0.064086296 0.09854055 -0.024036225 0.034175016 -0.047266442 -0.07864709 0.06660174 0.068483874
-0.065475725 0.05476622 0.013739155 0.005948092 -0.045332674 -0.024212884 -0.045246962 -0.03706092
-0.008825119 0.059294675 0.08166047 -0.055606782 0.020632593 0.023548935 -0.075718634 0.010162961
-0.022528905 0.015122034 0.0028085182 0.082636595 -0.046629895 -0.05560749 -0.015599614 -0.056957085
-0.023988903 0.016371893 -0.05615817 0.061461564 0.06341352 0.024264053 -0.08926002 0.0098620895
0.03538401 0.023864303 -0.016968668 0.019634861 -0.05818703 0.09408118 0.014446929 0.03668468
-0.026303358 -0.10037498 -0.05122667 -0.041281592 0.059129786 0.030519856 -2.1176149e-05 -0.02508349
0.019042721 0.04393353 -0.018732946 0.07784472 0.01636704 -0.057208173 -0.05077635 -0.05834099
0.021112394 0.06231759 0.10551402 -0.055695962 0.028397057 0.0837409 0.007084965 -0.063495375
-0.056707162 -0.057073418 0.050290454 -0.035648305 -0.048865348 0.08465192 0.084640935 0.057669476
-0.009889729 -0.040892184 -0.0027829923 0.031388693 -0.043829594 0.07223485 0.072704285 0.06165901
-0.07080015 -0.018460352 -0.06913899 -0.05727326 -0.0789936 -0.046006486 -0.048761148 0.012730477
0.01820245 0.07152148 -0.02028066 -9.946283e-06 0.040605586 0.008332084 -0.0068047 0.018179318
0.013657456 -0.056250136 -0.055726185 -0.0589992 -0.08217373 0.042421788 -0.08802987 -0.0056235553
-0.008634603 -0.011306409 -0.031909537 -0.011783204 0.03015892 0.016174864 0.021273807 -0.0015843126
-0.0061777486 0.08506415 0.02093454 -0.027430635 -0.099293426 0.053963963 -0.0042977254 -0.08640896
-0.096386135 0.055046074 0.03295792 0.05371355 -0.06724584 -0.0852726 -0.026879601 0.033907916
-0.04478615 -0.08318804 -0.0020483609 0.017580839 -0.066607244 -0.07985642 0.028451905 0.019763267
0.029687576 -0.038436692 -0.0784728 0.025674146 0.03752741 -0.076661654 -0.07734404 0.017347088
0.02101728 0.04459251 -0.029178107 0.03960183 -0.014523181 -0.025886454 -0.06108436 -0.055466607
-0.013250372 -0.0045532635 0.06892235 -0.022628492 0.018485524 -0.03841663 -0.004080885 -0.013642788
-0.05244966 0.054739732 0.008683867 0.039456263 0.047453884 -0.018297764 0.048475955 0.04780008
0.07275618 0.020551637 -0.03921982 -0.0699434 0.10298273 -0.020841075 0.02078931 0.012774804
0.025441632 -0.071316116 0.0121593345 -0.04540269 0.019172804 -0.01602622 0.012240119 0.008207663
0.05951853 -0.00025076483 -0.05663632 0.015840326 0.03464593 0.035738338 0.084922984 0.014323805
0.03082152 -0.004516599 -0.013463048 -0.03857767 0.066786714 -0.011456608 0.06107648 -0.07882617
-0.085418634 0.008684997 -0.046044774 0.05257528 -0.12134393 0.0020116146 0.0042281854 -0.0021986135
0.03510256 0.10010854 0.057679832 0.10347135 0.014045966 0.023641352 -0.04178331 0.047694746
0.07607081 0.058745995 -0.04204238 0.022980671 0.00065336894 0.038380817 -0.009049128 0.024053236
-0.066931374 0.013893276 -0.04421854 -0.07994346 0.04389229 -0.006004197 -0.0080074705 -0.043009404
0.026825821 0.070060685 0.008711295 -0.06199526 0.004742024 -0.07128584 0.065306656 0.02891097

net.2.bias f4 [32]
00000000: 5760 c33c 1284 60bd df90 e5bc a8db 213d
00000010: cf89 99bd 7463 0abd 4911 7a3d 7499 83bd
00000020: 4402 dc3c 6d2d 823d 7266 febc 0d4d 95bd
00000030: f1fb 6abd ad22 963d d659 84bd aebf 4c3d
00000040: 284a d0bc 862e 5cbd 9412 b3bc 9b03 3e3d
00000050: 82ce e4bc ef95 a73d 608c b8bc d2fd 0c3d
00000060: 7395 823d be6c 9e3d 5aed 823d c12d 113c
00000070: 7e61 a3bc 2c57 53bd 986d 313d cf0b 96bd
0.02384965 -0.054813452 -0.028023181 0.03951612 -0.07496988 -0.033786252 0.06105164 -0.06425753
0.02685655 0.063563205 -0.03105471 -0.07290087 -0.057369176 0.07330833 -0.06462447 0.049987487
-0.025425985 -0.053755306 -0.021859445 0.046390157 -0.027930502 0.081828944 -0.022527874 0.03442175
0.063761614 0.07735585 0.063929275 0.008861006 -0.019943949 -0.051596805 0.043317407 -0.07326471

net.3.weight f4 [32]
00000000: 3321 013e 388e ed3d dcb0 ea3e 7f73 6a3f
00000010: d998 0b3f d973 613f de16 5d3f 5c9d 7a3e
00000020: 8d8c 723e 7527 7c3f 04c8 393f 7feb 253f
00000030: 0468 1e3f 684c 653f bce3 6f3f e8d6 4a3f
00000040: 1274 db3e 0078 1b3f 9737 303f 8c80 4e3f
00000050: 2410 6c3f 3cfd 673e c4cf d53e f5ed fc3e
00000060: 78b5 943d 8de9 2f3f 3378 203f bc6e 9f3e
00000070: 8cd3 ac3d ce17 543f 4408 5b3e 8fcf 1f3f
0.12610321 0.11599392 0.45838058 0.91582483 0.545301 0.88067394 0.8636302 0.2447409
0.23686428 0.98497707 0.72570825 0.64812464 0.61877465 0.8956971 0.9370687 0.7923417
0.42861992 0.6072998 0.68834823 0.80664897 0.9221213 0.22655195 0.41760075 0.49400297
0.07261175 0.68715745 0.6268341 0.3113917 0.08438787 0.82848823 0.21389872 0.62426084

net.3.bias f4 [32]
00000000: 821d 743b db33 493d 0630 053b 7b9e f4bb
00000010: e2dd db3b f280 b1ba a2bc ce3b eead cd3c
00000020: 4dac 7d3b 2024 7fbc 9d3d 60bc 0b51 15bb
00000030: bd3b b83b ec95 aabc a7ea 61bc fdfc e4bc
00000040: 5fed 933a 30aa bcbc 4d66 dfbb 1c9b 84bc
00000050: 947f 01bd 7337 ea3b dce0 d23b df38 063c
00000060: b7cb b83c 05b8 87bc b818 b33b 973b bbbb
00000070: 741d 9b3c 9cd5 db3b 0020 0538 1098 25bd
0.0037249033 0.04912172 0.0020322814 -0.0074651814 0.0067098 -0.0013542457 0.006309108 0.02510735
0.0038707436 -0.015572578 -0.013686565 -0.00227839 0.0056223557 -0.020823441 -0.013788856 -0.027952665
0.0011285952 -0.02303037 -0.006817615 -0.016187243 -0.03161581 0.0071477233 0.0064354967 0.00819227
0.022558076 -0.01656724 0.005465593 -0.005713891 0.018934943 0.006708814 3.1739473e-05 -0.04042822

net.3.running_mean f4 [32]
00000000: 6bae 9ebc 71af 0fbe 81c2 1dbe bce4 1abe
00000010: ff35 2a3e 3e4d 393e 3783 1d3e ea52 7f3b
00000020: 35a5 663c f225 ebbe efb3 06bd ce51 ecbe
00000030: a22b c8bd 0605 a53c b3b6 633e 93e4 d6bd
00000040: c32f 333d 449d 88bd 7f49 84bc eb9a abbe
00000050: c38e 47be 57ce 2a3e f367 393e 1f19 b03a
00000060: 9631 553c b502 16be a773 0b3e 5272 08bb
00000070: ea24 a5bd d448 bf3e 4b69 e3bc 9a61 09be
-0.019370278 -0.1403177 -0.15406229 -0.15126318 0.1662216 0.18095872 0.15382086 0.0038959333
0.014077474 -0.45927387 -0.03288644 -0.46156162 -0.09773947 0.020143997 0.22237663 -0.10492816
0.04374672 -0.06670621 -0.016148327 -0.3351663 -0.19488053 0.16680275 0.1810606 0.0013435221
0.0130123105 -0.1464947 0.13618337 -0.0020820093 -0.080636814 0.3736025 -0.027760169 -0.13416138

net.3.running_var f4 [32]
00000000: ef9d 493b eb30 9c3a 12be d43a 8a45 213b
00000010: 9ccb cb3b 310e 6f3b 357f d53a af9f 403a
00000020: b479 163a 3ab2 d23c d5a5 863a 1a21 983c
00000030: 003c 9a3a 0e78 c33a 6852 263c 98b9 583a
00000040: 4272 bf3a 35cd 053b df8f 203b 417d 2c3c
00000050: 93a3 793b a43e 873a 6d26 c03b 1bb8 483a
00000060: e885 7d3a a09d 323c e474 9d3a 92dd 1f3b
00000070: ad31 573a cc8c 863c faad e93a b31d cd39
0.0030764302 0.0011916434 0.0016230962 0.00246081 0.0062193405 0.0036476965 0.0016288521 0.00073480135
0.0005740181 0.02571975 0.001027281 0.018570472 0.0011767149 0.0014913098 0.010151483 0.0008267402
0.0014606195 0.0020416502 0.0024499816 0.01052791 0.0038091883 0.0010318351 0.0058639557 0.00076568284
0.00096711377 0.010901839 0.0012012986 0.002439354 0.00082090014 0.016424559 0.0017828338 0.00039122775

net.5.weight f4 [64, 32, 3, 3]
00000000: 5629 ba3b f4df 053c 819a ae3c 40fd dcbb
00000010: e38a 4e3b 17b2 233d b288 b6bc 6def 773c
00000020: 2d79 60bd f6d0 f23c 4b57 9d3b acf0 cc3c
00000030: a734 963d 9c3f 42bc 3d07 273d 0730 5dbc
00000040: d54c debc 24cb 61bd 6e60 a1bc ea2c 53bc
00000050: 956d 1cbb acfe a13b 525b 4a3a e624 a5bb
00000060: fcb8 823c a310 723d faa1 fb3b 930e 9a3c
00000070: 1522 053c 671f 2fbd 5b4c 8c3b 2ab7 abbc
00000080: d12f dd3c 27d2 833b b258 3cbd b3a2 e73c
00000090: d69f 5dbd 4cc2 083c 9832 02bd 322d abbc
000000a0: 8455 293c 2510 7a3d 4951 fe3c 8985 8abb
000000b0: 29ce 0abd 7247 49bd 0727 bbbb e930 e73c
000000c0: 5abb 193d 533e b2bc f951 ab3c b99c 70bc
000000d0: 2ba1 c73c ae6e 83bc 2c40 be3c 821b 81bc
000000e0: d287 2a3d d670 023d 11dc 1e3d 2401 1e3d
000000f0: c224 0fbc 33c7 413c 6cd2 22bd 1c1f 273d
00000100: 5ff9 64bc 62a0 c8bc 3114 6a3d b449 0b3d
00000110: 8735 873c 94e3 303d 9fae a53c dafd 81bd
00000120: 96b5 1f3d 2f7a df3c 4bb2 213c f01d 8a3d
00000130: b607 8b3c d93e 0c3b efff 473d 5009 213d
00000140: 4c84 403d 6802 653d 2121 213d 0c49 31bc
00000150: d81d 3f3c de89 1abd 083e 24bb d40b 323b
00000160: 228d 1e3d 3451 c53c 3fa7 2d3c 6c25 96bc
00000170: 562c 14bd e6e1 7a3d 9408 d6bc bc77 ab3c
00000180: f031 adbc 81c7 95bc 8b91 acbc 7666 703b
00000190: 583a 3fbd cd24 cc3c af20 0b3d 1d20 f43c
000001a0: 147f 8db9 2ab5 353d cfc8 083c 6911 d4bc
000001b0: 2102 223d fc4d 8cbc f2bc bfbc fe9b fdbc
000001c0: a2e1 2ebd ba32 8b3c 320f 08bd 62eb 6d3c
000001d0: 5287 43bc 5844 94b8 8111 8f3c 8545 223c
000001e0: 93ef 753b 43e4 853d 619e 29bc 7d21 2b3c
000001f0: 63b9 7dbb 9eed 01bd 470b a8bd afdd fcbc
00000200: bdde 8abd 3d73 99bd fca1 16bd 594e 55bd
00000210: 6696 c83c c636 9d3c f288 3abd d2c0 25bc
00000220: f43b e63b f7b8 2e3d 7336 85bc bd0c fe3b
00000230: a6d3 01bd aecc d4bc be9a a0bb 5fec 8e3c
00000240: 8104 b1bd 2e33 bfbd 7008 e7bd af7d eabb
00000250: e048 b1bd dd15 3ebd 1c31 2a3d 6f4d 9b3c
00000260: e161 7bbc a167 5dbb d0c7 7b3d b319 a4bc
00000270: 8975 be3c 1549 9a3c 0fe2 0b3d f6f6 23bd
00000280: 957b 233d 8421 3f3d 21e8 a2bc 8c63 06bc
00000290: 00b6 35bd 5e58 06bd 921f 703d 424a 433d
000002a0: 77bc 293d 0316 b0bc 3f78 1cbd c0ac 6dba
000002b0: 9fe6 6a3d e8cc 1a3d aded 303d dcfe 1b3d
000002c0: 385a 4cbd eee1 25bd 6273 133b 8874 be3a
000002d0: 7a7b 4c3d eb1d 253d e327 db3c c5aa b6bc
000002e0: cac9 09bc 8954 153d 91aa 233c 2c63 543c
000002f0: 066e 2e3d caa5 903b f4ba 60bd 74da 2ebc
00000300: a2ab cebc 10d9 2fbd fea5 43bd 60b5 b9bc
00000310: d05d 40bc 823d 95bc f2ae 9ebc bf01 53bd
00000320: e484 15bd 54be 86bc 18fa 33bd 4e5a 13bd
00000330: cc80 cebc f9bb 333c 5748 88bb cef5 303c
00000340: f8f3 393d 33e8 9ebc 7637 7a3d e098 1d3d
00000350: f386 a5bc 8915 1b3c f5aa bbbc b927 1e3d
00000360: ae81 76bd 5648 7b3d 7d6c 4f3d 435f 35bd
00000370: 1023 143d d87b 4bbc a6a8 1d3d b251 62bd
00000380: ac89 72bd 51b8 0a3d 5339 2abd 75f6 9e3c
00000390: 0ff3 10bd edb9 a9bc b55a 893c 5d52 e3bc
000003a0: 2557 84bc 0f77 563c 26cd 8e3c c8bd 65bc
000003b0: 3561 b6bb 2d59 54bd 2fcd 2abc 1858 853c
000003c0: 2f99 193c 8114 23bc 6eff cbbb 40ab dabb
000003d0: ad75 7d3d 03b6 16bd bc8c 8c3c bac2 a4bc
000003e0: 0b60 99bc be17 00bd f68b 77bc 23a9 4bbd
000003f0: 8fd2 87bc 4617 923d 910b aebc 6b38 c43c
0.005681197 0.00817107 0.021313908 -0.006744057 0.0031515888 0.03996476 -0.022281978 0.015132767
-0.054803062 0.029640656 0.004801666 0.025017105 0.073342614 -0.011855986 0.040778387 -0.01350022
-0.027136246 -0.05512537 -0.019699302 -0.012889126 -0.0023869027 0.0049436893 0.0007719296 -0.005039799
0.015957348 0.059097897 0.007679221 0.018805778 0.008125802 -0.042754557 0.004281563 -0.020961363
0.02700034 0.004022855 -0.045983024 0.028275823 -0.05410751 0.008347105 -0.03178653 -0.020895574
0.01033533 0.061050553 0.03104462 -0.0042273444 -0.033888016 -0.0491404 -0.0057114395 0.028221564
0.037532188 -0.021758234 0.020913111 -0.014685803 0.024368843 -0.016043987 0.023223959 -0.015760187
0.041633435 0.03184589 0.03878409 0.038575307 -0.008736791 0.011827278 -0.039751455 0.040801153
-0.01397547 -0.024490539 0.057148162 0.034005836 0.016505016 0.043185785 0.020224867 -0.063472465
0.038991533 0.027279941 0.0098691685 0.067439914 0.01697145 0.0021399765 0.04882806 0.03931552
0.047001168 0.055910498 0.039338235 -0.010820638 0.01166483 -0.037729137 -0.0025061388 0.0027167695
0.038708813 0.024086572 0.010598957 -0.018328391 -0.036175095 0.06125059 -0.026127137 0.020931117
-0.021141976 -0.018283607 -0.021065494 0.0036682165 -0.0466865 0.024919892 0.033966716 0.029800469
-0.00026988296 0.044362225 0.008348658 -0.025887208 0.03955281 -0.01712703 -0.023405526 -0.030958172
-0.04269565 0.016991962 -0.033217616 0.014521452 -0.011934118 -7.06992e-05 0.017464401 0.00990427
0.003752683 0.06537678 -0.010352702 0.010444996 -0.0038715235 -0.03172075 -0.08205276 -0.030867426
-0.06780765 -0.07492683 -0.036775574 -0.05207667 0.024485778 0.019191157 -0.045540757 -0.010116773
0.00702619 0.042656865 -0.016261315 0.0077529834 -0.031695984 -0.025976505 -0.004901259 0.017446695
-0.08643437 -0.093359336 -0.11280906 -0.007156096 -0.08656478 -0.04640757 0.04155074 0.018957822
-0.01534316 -0.0033783691 0.061469853 -0.020031786 0.023249405 0.018833676 0.034151133 -0.040030442
0.03991278 0.046662822 -0.019886078 -0.008202445 -0.04436302 -0.032799117 0.058623858 0.04767824
0.0414395 -0.021494871 -0.038200613 -0.0009066574 0.057348844 0.03779307 0.043195415 0.03808485
-0.049890727 -0.040498666 0.0022499193 0.0014530579 0.049922444 0.040311735 0.026752418 -0.022298226
-0.008409927 0.036457572 0.009989397 0.012963098 0.042585395 0.004414295 -0.054865792 -0.0106722005
-0.025228325 -0.042931616 -0.047765724 -0.022669494 -0.011741117 -0.018217806 -0.01937053 -0.051515337
-0.036503688 -0.016448177 -0.04393968 -0.035974793 -0.0252079 0.010970109 -0.004159014 0.010800792
0.045398682 -0.01939783 0.061088048 0.03847587 -0.02020595 0.009465584 -0.022908667 0.0386121
-0.060182266 0.06134828 0.05064057 -0.0442803 0.03616625 -0.012419663 0.038490914 -0.055253692
-0.059213325 0.033867184 -0.041558575 0.01940463 -0.03538805 -0.02071854 0.016766885 -0.027749235
-0.016154835 0.013089909 0.017431807 -0.014022298 -0.005565787 -0.051842857 -0.010424896 0.016277358
0.009374901 -0.009953619 -0.006225518 -0.0066732466 0.061879802 -0.036794674 0.017156951 -0.020112384
-0.018722555 -0.031272642 -0.015109053 -0.04972185 -0.016579894 0.07133345 -0.02124575 0.023952683

net.5.bias f4 [64]
00000000: 80cc 6b3d 65db 39bc 551a df3c 4e81 d7bc
00000010: 7298 f8bc 03c4 343a 5832 d33c 2644 0a3d
00000020: 89e3 c93c 14df 373d 2135 41bc 08c9 533d
00000030: dc0c 123d 47bc acbc 93d3 fdba 1941 84bb
00000040: 1a98 763c 32c1 67bd cce6 573d df4f 1d3d
00000050: 52e1 65bb cf3c 4f3c 6852 00bd 107b 3fbd
00000060: 9d59 37bd d257 fbbc 1e59 ac3c 6e9a dd3a
00000070: 4160 3a3d f4d0 6c3d e845 003c 342e 813d
00000080: b307 03bd 9c11 c73b 54ad df3c 241e af3c
00000090: a084 f53c 58dc a9bc 7a3c b4bb 94d4 2ebd
000000a0: e10a 87bc 4c84 3a3c f508 13bd af17 57bd
000000b0: 9bd6 503d 2516 6bbd 649a fcbb 9ac7 c6bc
000000c0: f51d 77bc c310 5cbc e253 b3bc 5968 e3bc
000000d0: c658 5b3d 1db5 f2bc 81eb 3fbd 04a6 3e3c
000000e0: 994c 863b 5f4b 9cbc 91c8 c9bb 684c 0e3d
000000f0: 1a6d 01bd 280f 6fba b2cf a6bb df62 43bd
0.057568073 -0.011343812 0.027234236 -0.026306774 -0.03034613 0.0006895663 0.025780842 0.033756398
0.02464463 0.04489048 -0.011792452 0.05170539 0.035656795 -0.021085871 -0.0019365422 -0.0040360806
0.015050912 -0.05658073 0.05271034 0.03840625 -0.0035076928 0.012648775 -0.03132859 -0.04674822
-0.044763196 -0.030681524 0.021038588 0.0016906986 0.04550195 0.05781646 0.007829167 0.06307641
-0.031989764 0.0060750972 0.027304329 0.021376677 0.029970467 -0.02073495 -0.0055003734 -0.0426832
-0.01648468 0.011384081 -0.035897214 -0.05251282 0.050985914 -0.057394166 -0.0077088345 -0.0242651
-0.015082826 -0.013431731 -0.021890584 -0.027759718 0.053551458 -0.029627377 -0.046855453 0.011636261
0.0040984866 -0.019078908 -0.0061579426 0.034740835 -0.031598188 -0.0009119385 -0.005090677 -0.047701713

net.6.weight f4 [64]
00000000: 0483 5f3f 926b 453e e7a8 d13e 7642 513f
00000010: 3e0c 4b3f b2f8 253f 2512 b13e c09f e83e
00000020: 61da dc3e 0f22 3b3f 57b8 373f 440f bf3d
00000030: 1fa7 c03e 68e5 6c3e f1db 063e 205e af3e
00000040: 3d35 953e 13fa 1a3f f04c 233f 6f45 013f
00000050: 7f59 433e f12b 4c3f 6d8a c73e 39c1 bf3e
00000060: 7210 683f fcfd f83e fdfc d63e a54a 593f
00000070: 1aa4 373f f551 d43e 577d 593f c1ef 553e
00000080: 4f09 033f 479d 4a3f fe37 233f cc88 753f
00000090: 109c 643f eee0 4c3f eec8 653f d81d 1c3e
000000a0: 2020 ac3e c539 2b3f 0c20 d23e 6a31 383f
000000b0: caf5 2e3f 999f fa3e 5834 6f3f 745e 2d3f
000000c0: 87d0 103f 3130 c13e 4f47 4d3e 155b 523f
000000d0: b4a0 3d3d 8cfa d43e d1b2 853e 1cf7 293f
000000e0: 2062 d73e e7f8 d63d eebe ca3e 5109 bd3e
000000f0: e93f 5f3e c5ac 263f 8247 2f3e d56f dd3e
0.8730929 0.19279316 0.40949175 0.81742036 0.79315555 0.64832604 0.34584156 0.4543438
0.4313536 0.73098844 0.71765655 0.093290836 0.37627503 0.23134387 0.13169838 0.342515
0.2914218 0.6053783 0.6378927 0.5049657 0.19077109 0.7975455 0.38972798 0.37452105
0.90650094 0.48631275 0.4198989 0.84879524 0.71734774 0.41468778 0.8495688 0.2089224
0.5118608 0.79146236 0.6375731 0.9591186 0.8930063 0.80030715 0.8975972 0.1524576
0.3361826 0.66885024 0.41040075 0.719504 0.68343794 0.48949888 0.93439245 0.6772225
0.5656819 0.3773208 0.20046733 0.8217023 0.046295837 0.41597402 0.2611299 0.66392684
0.4206705 0.10496693 0.39598793 0.3692117 0.21801724 0.65107375 0.17117122 0.43249384

net.6.bias f4 [64]
00000000: 76cb 9abc 69fe c83b 05c8 093c 2477 b5bc
00000010: b81c 2fbd f59b 72bd 4a48 fa3a 7176 843c
00000020: 8b31 e9bc 091c 83bc 78db 45bd 3132 323d
00000030: 8b01 d93b 9fbf 16bc b05d 8b3c 2679 17bd
00000040: efd8 27ba e9aa 52bc cc4b c8bc 3ed7 edbc
00000050: 9cdc 4a3c 0b41 633b 3df2 e0bc 529c e13b
00000060: 375e a0bc f924 7fbc 9f26 03bd 03cb 23bd
00000070: 5f8a 56bc 195e cabc 2d16 32bc 6caf 593c
00000080: 9b80 02bd 2497 a4bc 49a8 c9bc 82a7 3bbd
00000090: d055 0abd 7731 69bc e098 3bbd 15b9 b3bb
000000a0: 38f3 823c d87a 2bbd ea1d 7fbd 5756 f1bc
000000b0: 3193 0bbb 77a5 a3bc 4545 2abd 19e4 f2bc
000000c0: 3597 1fbc aa09 10bd 5cb4 e8b9 378b dfbc
000000d0: 0369 7c3c 724d d9bb 2dee a73c be7a 10bd
000000e0: 4d7a 1fbd 8de6 0a3b 97c3 8f3c 5862 4ebc
000000f0: a355 c9bc 6b1e a4bc 4b70 64ba cb39 b03b
-0.018895846 0.0061338437 0.008409505 -0.022151537 -0.042751998 -0.059230763 0.001909503 0.016169759
-0.028466007 -0.01600458 -0.048305005 0.043504898 0.0066224984 -0.0092009595 0.017012447 -0.03698077
-0.000640287 -0.012858131 -0.024450205 -0.0290333 0.012381699 0.003467622 -0.027459258 0.00688509
-0.019576175 -0.01557278 -0.032019254 -0.03998853 -0.013094514 -0.024703072 -0.010869545 0.013286453
-0.03186093 -0.0200916 -0.024616377 -0.045814045 -0.033773243 -0.014232985 -0.04580009 -0.00548471
0.015985116 -0.0418652 -0.062284388 -0.029460115 -0.002129745 -0.01997636 -0.041569967 -0.029649781
-0.00974064 -0.035165466 -0.00044384866 -0.027288062 0.015405896 -0.0066315467 0.020499313 -0.035273306
-0.038934994 0.0021194548 0.01754932 -0.012596689 -0.024576968 -0.020034036 -0.0008714243 0.005377983

net.6.running_mean f4 [64]
00000000: dddc 8d3d a8ae e83c 4a6e 82be be43 60be
00000010: 935f a2be b794 413e 9e3c 823e 8abf c8be
00000020: 0b60 a73e f96e 3f3e 230b 0f3e b1f6 a93e
00000030: 0db0 ad3d 998d 863e 1182 4d3d b3ab dd3d
00000040: ef87 8e3d 1e41 d03c d831 b0be 72c4 debb
00000050: 180d dcbd e4da f7be e066 5d3d d355 2fbd
00000060: 712d b2be f276 c3bd ae04 873d 8485 ae3e
00000070: 6594 1abe 5bd0 933e 16a8 bfbd 3d55 863e
00000080: e3c8 a13d 6846 46bd 9213 c33d ce1c 7d3e
00000090: 0e9e 1fbe cb55 aabe 7c81 203d 004c 0f3e
000000a0: 94b4 563d a0b6 d53e 3bc6 3c3d f390 32be
000000b0: f378 febd 16ca c3bd 27bc 5a3e d399 edbd
000000c0: e72c 45be 494f 9a3d 8ada 713e 6676 1f3e
000000d0: 57a9 d7bd af39 5f3e a257 12be d75f 9a3d
000000e0: 8ee1 9dbc 9557 243e abd8 2bbe 7b46 65bd
000000f0: 6d25 613e 9f3e abbe 238a fe3d a88b f6be
0.06926892 0.028403595 -0.2547477 -0.21900842 -0.31713542 0.18904386 0.25436872 -0.39208633
0.32690462 0.18694676 0.13969092 0.33196023 0.08480845 0.26279905 0.05017287 0.10823765
0.06959521 0.025421675 -0.34413028 -0.0067983204 -0.10744685 -0.48409188 0.054053187 -0.042806458
-0.34800294 -0.095441714 0.065926895 0.3408624 -0.1509567 0.288699 -0.09358232 0.26236907
0.07899644 -0.04840699 0.09525217 0.2471802 -0.15587637 -0.3326858 0.039185986 0.13993835
0.052418306 0.41740894 0.046087485 -0.17438106 -0.12425413 -0.09560029 0.21360837 -0.11601605
-0.1925541 0.07534654 0.23618522 0.15572509 -0.10530346 0.21799348 -0.14291242 0.07537811
-0.019272592 0.16049035 -0.16781871 -0.05597542 0.21986933 -0.33446214 0.12428691 -0.48153424

net.6.running_var f4 [64]
00000000: 6c40 6f3e 411c ca3c e8f4 143d e96b ca3d
00000010: 9646 8d3d 7af1 223d 8d5b 683c 8904 993d
00000020: 5ffc 533d 0bed d93c 42de 3f3d 8778 a93c
00000030: 6789 063e 88ce c33c 0c27 9b3c 1ef9 073d
00000040: b080 8a3c 342d 633d ec69 d23d 2fcb 713d
00000050: a48b 6f3d 8da7 2c3e 0da3 f33c b34d 9f3d
00000060: 6018 c63d 486e 2a3d fe42 a23c 3bf9 a13d
00000070: 40ff 0b3e 5a33 1f3d 8698 823d 196c 803c
00000080: a93b 823d 43c8 d73d 7e28 f13d c519 103d
00000090: 9c65 ee3d 62a1 9d3d aa4e 923d d562 043d
000000a0: 954a f63c fe75 383d e140 0a3d 667e a93c
000000b0: f7c8 623d a764 b73c 5eb5 673d 58ca 0c3d
000000c0: 3556 993d e4a2 213d 2d5d b43c 8c25 d33c
000000d0: 59ec 283d 6c61 a73c 6dd8 bb3d 424a 4c3d
000000e0: cd43 d53c b11c ac3c 3565 353d 4124 0a3d
000000f0: 2861 b33c 6288 d53d 7a51 343d f1e1 0c3e
0.23364419 0.024671676 0.036366373 0.098838635 0.06898229 0.03978107 0.014181984 0.07471568
0.05175435 0.026602289 0.04684282 0.020687355 0.13138352 0.023902193 0.018939517 0.03319656
0.016907066 0.05546303 0.10274109 0.05903166 0.05848278 0.1686079 0.029740835 0.07778492
0.09672618 0.04160908 0.019807335 0.07908865 0.13671589 0.038867332 0.06376748 0.015676545
0.063590355 0.10536244 0.117753014 0.035180826 0.11640474 0.07696797 0.0714391 0.032320816
0.03006486 0.0450344 0.03375328 0.020690154 0.055367436 0.022386862 0.05656945 0.034372658
0.07487146 0.039461985 0.022017086 0.02577474 0.041241024 0.020432197 0.09172139 0.049875505
0.026033306 0.021009775 0.04428597 0.03372598 0.021896914 0.104264036 0.044023015 0.13758065

net.8.weight f4 [128, 64, 3, 3]
00000000: 7608 9e3c 59a7 f5bc 844e 0abd 33b4 c73c
00000010: 5175 28bb 9f4f b0bc 01b4 1bbd 5ca2 acbc
00000020: 1674 923c 7cf8 9cbc 0673 8c3b 15a5 e8bc
00000030: 5086 06bd 9081 cfbc cb8f bd3b 4055 0c3d
00000040: 730d 31bd e07b 283c 702a 8b3c 2e62 583b
00000050: e9cd 10bd 2c5d 2abc 264c 86bb 5375 36bd
00000060: 6c3f 33bb 12fc 11bc 0343 4ebd 4ceb 29bd
00000070: c0d0 f83a 9a5a 003c ef79 513c 5664 96bb
00000080: 845d e83c f97f 383c fb47 2dbd c4fe 10bd
00000090: 15e5 2d3c b66f e5bc e086 a7bc 8776 c6bc
000000a0: 0d93 6dbc 32e4 3bbc 05b4 8bbc 65f7 783b
000000b0: c7b6 013d e017 593b ae91 233b 83ca 913b
000000c0: b17d 1ebb fc0b 063d aa12 e13c 7e46 eabc
000000d0: a731 27bd 0093 f03b 5c5b 5bbd c518 723b
000000e0: 9390 2bbd 0c7f 8bbc 8574 2b3d 8b11 c73c
000000f0: 6434 fcbc 6884 663d a57e 3abc af01 42bd
00000100: 91e5 19bd eac5 acbc c6b8 9cbc 4e54 083c
00000110: 3d1b f33c 3e10 4b3b 2916 07bd f544 07bd
00000120: bddb dcbc 548e 1f3c bd8e 07bc b549 c33c
00000130: 96e8 b33c 143b 253d 0b40 3ebd 4aea 003d
00000140: af3b 1e3d b402 4bbc 0783 dbbc 5486 0ebc
00000150: bbc0 f3bb 486d 5bba 8b10 1c3c be42 5bbc
00000160: 201e 6c3c 6fd5 b93b d698 c73c 93ce 29bd
00000170: 4182 c2bc 3525 823c 5272 5e3c af2a 863b
00000180: 2c70 c73c 2413 d93c 0307 dfbc 8ec3 8d3c
00000190: 3952 d5bc 0fd7 3ebd 66f5 3bbd de82 003d
000001a0: e3ad 6fbc 9b82 25bd 7f72 823c 0a21 30bd
000001b0: 70d5 c6bc 4f5e e03c e5da f73c 5b56 2f3c
000001c0: dfa9 b7bc ab0f 1ebc a5b8 6a3c fe91 c438
000001d0: f8bc 353c d805 cd3c 6edb 84bb b51a 213d
000001e0: ba72 c93c 8887 113d a554 ae3c c042 0f3d
000001f0: 7604 fd3c a8fd 373d 1dab 633b db2f b3bc
00000200: 740c 52bc 7a59 da3c bdc5 d6bc 284f f4bc
00000210: 1a4f 203d a6b2 8f3c 090b 4c3d 806b 2ebd
00000220: d804 0cbd 9114 fa3b e46a 5ebc a9e4 e73b
00000230: bce7 19bc 60ec 0cbd abbd 133c 3910 0abd
00000240: 77d8 093b 56ff 473d 53d3 f53c adad fabc
00000250: 9803 03bc 2d36 cebc e002 ecba 110a 8c3d
00000260: 69f9 603c a22e dcbc 1df7 e23c 306b da39
00000270: 37c6 cabc 1f7c a33b 791a 053d 4fc3 a4bc
00000280: 17e0 d53b aa85 0ebc ec24 06bc 075d 62bc
00000290: dd40 803c c0b7 aebc 5495 61bc 55dc aa3c
000002a0: 7ee3 bfbb dd76 143c 0558 92bc 9dc2 dcbb
000002b0: 9d61 0fbd de92 33bd 48c6 81bc b5f3 93bc
000002c0: e70f a6bc c4ac d83a 5b00 163d 9dc8 3dbc
000002d0: ab83 ea3c 744f 7fbd 1839 8f3b 10e5 8fbb
000002e0: cab3 40bd fe05 9abc 7e67 263d 9a0a 2bbd
000002f0: 28ba 75bb 9224 253c cfad e5bc f0ad 3cbc
00000300: 8c2e d5bc 7a75 50ba e5cb 653c 1ac1 f7bb
00000310: f933 3a3c aa29 25ba eb9f 84bd 719c 47bd
00000320: 6e43 9d3c 6bc4 623c 5b8c 01bc 6090 273d
00000330: 3b98 a63b 295b 6fbc 96fc 1d3d 520c 803c
00000340: 3136 38bd 5099 38bd 5efb 2f3c da35 c23b
00000350: d653 dbbc 8867 b83a 6de7 333c 5175 ac3c
00000360: d912 37bc bc5c 0f3d 562d 62bc 6439 57bc
00000370: 9957 3cbd 958a d2ba 531f 2fbd 6a01 e33c
00000380: f71e 95bb dd39 dc3b 5b53 fdbc 2ee5 71bc
00000390: 3559 193d 10ec 52bd 4a94 033d ae09 d3ba
000003a0: 3dd9 5cbb 3eea 073c f78f 2fbd 78c4 aa3b
000003b0: eecc a2bc 0de7 46bc 6607 ce3b 5dcc 723c
000003c0: dbb3 86bb 36eb 8cbc 0f24 873b 2db5 963c
000003d0: f77a 093d 4329 183d 3c6c 103d 79ec f4bc
000003e0: f44c 643c d2ad a13c 05f1 a0ba fec1 10bd
000003f0: d93e 31bd ae32 e0bc 09da f8bb 8b55 293b
0.019291144 -0.029987024 -0.033766285 0.024377918 -0.0025704692 -0.021522341 -0.038013462 -0.021073513
0.01787762 -0.019161455 0.004286173 -0.02839903 -0.032842934 -0.025330335 0.0057849637 0.03426099
-0.043225717 0.01028344 0.01698801 0.0033017504 -0.03535262 -0.0103981905 -0.004098433 -0.044545483
-0.0027351035 -0.008910196 -0.050356876 -0.041484162 0.0018983111 0.007834101 0.012785419 -0.0045895977
0.028364904 0.01126098 -0.042304974 -0.035399213 0.010613699 -0.02800737 -0.020450056 -0.02422644
-0.014500392 -0.01146798 -0.017053613 0.0037989256 0.03166845 0.0033125803 0.0024958658 0.00444919
-0.0024183805 0.032726273 0.02747472 -0.028598066 -0.040818837 0.0073417425 -0.053553924 0.0036941033
-0.041885924 -0.017028354 0.04185917 0.024300357 -0.0307867 0.056278616 -0.0113827335 -0.047364887
-0.037572447 -0.021090467 -0.019131076 0.008320881 0.029676074 0.0030985023 -0.032980118 -0.033024747
-0.026960248 0.0097385235 -0.008273778 0.023838857 0.021961492 0.040339544 -0.046447795 0.031473435
0.038631137 -0.012390781 -0.026795877 -0.0086990185 -0.0074387467 -0.0008370471 0.0095254285 -0.013382612
0.014411479 0.005671195 0.02436487 -0.04145677 -0.02374375 0.015886882 0.013577061 0.0040944437
0.02434548 0.026498385 -0.027225023 0.017305162 -0.026040183 -0.046591815 -0.045888327 0.031374805
-0.01462886 -0.04040776 0.015923737 -0.04300026 -0.024271697 0.02738872 0.030255744 0.010701741
-0.022419868 -0.00964729 0.014326249 9.3732015e-05 0.011092417 0.0250272 -0.0040544784 0.03933211
0.024590839 0.035529643 0.021280596 0.034975767 0.030885916 0.04491964 0.0034739443 -0.021873405
-0.012820352 0.026653994 -0.026217336 -0.0298229 0.039137937 0.01754124 0.04981521 -0.04258299
-0.034184307 0.0076318462 -0.013575289 0.007076819 -0.009393629 -0.034405112 0.009017388 -0.033706877
0.0021033564 0.04882749 0.030007994 -0.030600393 -0.007996462 -0.025172317 -0.0018006228 0.068378575
0.013731339 -0.026877705 0.027705723 0.0004166006 -0.02475272 0.0049891616 0.03249595 -0.020112662
0.0065269577 -0.00869886 -0.008187514 -0.013816125 0.01565593 -0.021327853 -0.013768513 0.020857016
-0.0058559766 0.009061542 -0.017864237 -0.006737067 -0.0350052 -0.043841235 -0.015841618 -0.018060545
-0.020271255 0.001653098 0.036621433 -0.011583474 0.028627237 -0.06233163 0.00437082 -0.00439132
-0.04704646 -0.018801685 0.04062604 -0.041758157 -0.003749499 0.01007952 -0.02803698 -0.011516079
-0.026023172 -0.00079520757 0.014025663 -0.0075608613 0.01136493 -0.0006300459 -0.064758144 -0.04873318
0.019197192 0.013840775 -0.0079069985 0.04090917 0.0050840653 -0.014609137 0.038570963 0.015630875
-0.044973556 -0.045068085 0.010741083 0.0059268298 -0.026773375 0.0014068941 0.010980469 0.021052035
-0.011173927 0.035000548 -0.013804754 -0.013136242 -0.045981977 -0.0016063029 -0.042754482 0.027710635
-0.0045508104 0.006720765 -0.030923536 -0.014764113 0.03743859 -0.051494658 0.03212384 -0.0016100907
-0.003369882 0.008295594 -0.042861905 0.005211409 -0.019873109 -0.012140048 0.006287503 0.014819232
-0.004110796 -0.017202001 0.0041241716 0.018396938 0.033564534 0.037148725 0.03525947 -0.029897915
0.013934363 0.019736204 -0.0012278861 -0.035341255 -0.043272827 -0.027367916 -0.007594351 0.002583834

net.8.bias f4 [128]
00000000: 91b9 39bc 5ae2 53bc 5198 173c d972 9c3c
00000010: efc3 12bd 81a0 8e3b be33 e5bc 92f0 b2bc
00000020: b5f5 38bc 4940 19bd 4eb8 d73b 154a 1cbd
00000030: bf94 80bc 8041 06bd be31 663c 7a16 dc3a
00000040: 64d1 82bc 4a5e a33c 3f5e f63c d886 bebc
00000050: 2330 14bd d6d7 1b3c 0d20 d23c 44ed 423c
00000060: f545 0a3d ba3c 29bd eab7 093d c255 cdbb
00000070: 44b7 82bc 53e4 403c 0832 003d f54a a8bc
00000080: e6c4 29bd f7e4 443c d9cd 2f3c bc45 773b
00000090: 1b0e 553c dd34 9e3c b0b3 1c3c d4a1 bf3c
000000a0: 5337 533c 35a7 87bb 4e87 bebc 006b 15bd
000000b0: 4327 eb3b 1439 1cbd 99b2 d13c af75 233d
000000c0: 8670 043d 9032 813c 60d4 f73c d8ed 1f3d
000000d0: d499 ec3c f5ba 29bc a8a9 ac3c a1f0 0cbc
000000e0: efc1 09bd 4156 6a3c 8d94 0fbc feb1 bebb
000000f0: f358 d4bb ba0a 2fbc 7284 98bc 0ea2 113d
00000100: bb83 e23c 513a f8bb dbfe 15bd a81c e4bc
00000110: 75b5 24bd e4f1 81bc 83b8 6d3c 3f88 89bb
00000120: aee3 023d 62a1 1e3d 8eea b0bc 1602 22bd
00000130: 2ee8 653b adf1 94bc eeea cebc 5ffc d4bc
00000140: 00d7 c53c aff9 8bbc 947e 12bd e26d 313c
00000150: 6e62 933c 8bcc a83c a259 0d3c 2a11 0fbc
00000160: 2efb 78bc aa21 db3c e4bf 8cbc 2179 17bc
00000170: 8f05 6fbc 563a 92bc bec8 043d d258 2fbd
00000180: 6330 97bc 8300 113d 6001 213d 4e02 743c
00000190: 9a18 433c 94f7 0fbd 6630 b2bc c8eb 93bc
000001a0: 3cf7 b9bc f893 adbc 2173 f0bc 6043 1ebd
000001b0: 3270 e73c 1ef2 26bb 6ef9 98bc 9aed ad3c
000001c0: 7b5f 323c 0bce 113d 19b6 2a3d 88be 73bc
000001d0: bd5e ebbc b215 90bb cc75 d7bb 0544 0cbc
000001e0: d822 c0bb a97d 97ba 613b 97bc db0f 953c
000001f0: dae9 95bc d27d d3bc bb81 003d 7622 fdbc
-0.011335746 -0.012932384 0.009252624 0.019097732 -0.035831388 0.0043526297 -0.027978774 -0.021843228
-0.01128905 -0.037414823 0.00658325 -0.038156588 -0.015695928 -0.03277731 0.014049945 0.0016791367
-0.015968986 0.019942421 0.030074237 -0.023257658 -0.03617872 0.0095119085 0.025650049 0.011897389
0.033758122 -0.04131768 0.03362266 -0.0062663266 -0.015956528 0.011773187 0.031297714 -0.020543555
-0.041447543 0.01201748 0.01073023 0.0037730774 0.013003851 0.019312317 0.009564325 0.023392595
0.012891608 -0.0041398057 -0.023257878 -0.036478996 0.007176311 -0.03814037 0.025597857 0.039907154
0.032333873 0.01577118 0.030252635 0.039045185 0.028881945 -0.010359515 0.021076992 -0.008602292
-0.033632215 0.014302791 -0.008763445 -0.005819558 -0.00648033 -0.01068371 -0.018617842 0.035554938
0.027650705 -0.007575311 -0.036620002 -0.027845696 -0.040212113 -0.015862413 0.014509323 -0.00419715
0.031955414 0.038728125 -0.02159622 -0.03955277 0.0035081017 -0.018181646 -0.025258508 -0.025999246
0.024150372 -0.017086832 -0.035765246 0.010829421 0.01799127 0.020605346 0.008627327 -0.00873212
-0.015196605 0.02674945 -0.017181344 -0.009245188 -0.014588728 -0.017850082 0.032418005 -0.042809315
-0.01845569 0.03540088 0.039307952 0.014893128 0.011907721 -0.03514822 -0.021751594 -0.018056765
-0.022700898 -0.021188721 -0.029351773 -0.038638473 0.028251741 -0.0025473903 -0.018673625 0.021231461
0.010887022 0.03559689 0.041677568 -0.014876969 -0.028731698 -0.0043971175 -0.006575322 -0.008561139
-0.0058635287 -0.0011557835 -0.018460931 0.018196037 -0.018299986 -0.025816832 0.03137372 -0.030900221

net.9.weight f4 [128]
00000000: 71a3 e73c 7d77 9e3e feb8 733f b007 c93e
00000010: 9140 aa3e 5a2b 5c3f 43cf 613f 3cca 483f
00000020: 7a17 433f adcd 843d 17ee 503f b6e2 3b3f
00000030: 6162 ec3e 6ad0 ea3e 09c7 b93e 77e3 dc3e
00000040: fde9 f93e 92ca 813e 17da 5b3f f41f d43e
00000050: ce7d 823f 8b09 253f 509d 343e 8c23 d03e
00000060: 3e15 be3d c94c 0c3e 37de 3c3f 066d eb3e
00000070: 95d9 153e 83d3 373e f19b fe3e 5b59 553f
00000080: 500b 9f3e 02f5 b53e fdfe 1c3d 6050 473e
00000090: e270 d93e 018a 193f 7350 7b3e 2663 e43e
000000a0: fce0 6a3f 3f7d 1b3f 9765 b43d c43a 503f
000000b0: 1a87 b63e 8598 c43e eeef 333f 1583 4a3e
000000c0: 5086 913e 885f 403f e38a 073e 0aad 633f
000000d0: 1d38 243f ddbe ae3d 402b 1f3e 628e ba3e
000000e0: 412e 143e 0fd6 273f 1166 6b3f 8be7 563e
000000f0: 50d4 183d 6f7a 253f a90c 163f cf6a 1b3f
00000100: 3ecd 2f3e 6da2 423f 2751 103e 43c4 9d3e
00000110: 2afe eb3e 9408 223f d05b 733f a2b1 563e
00000120: f7b7 e73e ed53 313f 64b3 ca3e 44e3 3e3f
00000130: 4397 6f3e 4d2c c23e 7aa1 983e 5657 e73d
00000140: a0e0 a33d a2e8 673f 7269 ae3e 0101 313e
00000150: 7136 ae3d f369 fb3e 7b1a 163e bed9 323f
00000160: 909b d33e 2997 493e 0326 7a3f eb4d 933e
00000170: 0dcb 003f 8aa5 c13e 5fc8 213f 3cf1 8a3e
00000180: 5a64 283f 7fb9 663f 974f 2b3f 1916 b93e
00000190: 7d18 2d3f 259f 813f bea5 e53e 081c 8c3e
000001a0: 8e45 633f 8915 1a3f 04e0 d43d f481 ec3e
000001b0: b3de ed3e db22 2c3d 0c19 613f 64b5 313f
000001c0: ac65 343f 4005 9a3e 763d 813f 12bf 623f
000001d0: 19f4 9c3e 139d 993e 77d7 4c3e 20b6 7e3f
000001e0: 9e80 663e 70df 2c3f 6ca4 733f 4a83 223f
000001f0: 3ef5 e33e 63c2 c53e 6b18 233d 6d99 d13e
0.028276177 0.30950537 0.9520415 0.39263678 0.33252385 0.8600365 0.8820688 0.78433585
0.762077 0.06484542 0.81613296 0.7339281 0.46168807 0.45862132 0.36284664 0.43142292
0.4881133 0.2534986 0.85879654 0.41430628 1.0194643 0.64467686 0.17638135 0.4065212
0.092813954 0.13701166 0.7377657 0.45981616 0.14633782 0.17951779 0.4972835 0.8333947
0.31063318 0.3553849 0.038329113 0.19464254 0.42468935 0.599762 0.24542408 0.44606894
0.9174955 0.60737985 0.08808439 0.8133967 0.3564995 0.38397613 0.7028798 0.19776566
0.28422785 0.7514577 0.13236575 0.8893591 0.6414812 0.08532498 0.15543842 0.36436754
0.1447077 0.65561 0.91952616 0.20986764 0.037311852 0.64639944 0.5861307 0.6070985
0.17168137 0.7602909 0.14093457 0.30813798 0.4609235 0.6329434 0.9506197 0.20966199
0.45257542 0.69268686 0.3958999 0.7456553 0.23397546 0.37924424 0.29810697 0.11295955
0.08001828 0.90589345 0.34064823 0.17285539 0.085064776 0.4910427 0.14658539 0.698635
0.41329622 0.1968657 0.9771425 0.28770384 0.5030983 0.3782161 0.6319637 0.27137172
0.65778124 0.90126795 0.6691832 0.36149672 0.6761549 1.0126692 0.44853014 0.27365136
0.8877801 0.6018911 0.1039429 0.46192896 0.4645897 0.04202543 0.87928843 0.69417405
0.7046764 0.3008213 1.0096881 0.885728 0.30654982 0.3000265 0.20004068 0.9949665
0.22510001 0.6752844 0.9517276 0.6348158 0.44523042 0.38624868 0.03981821 0.40937367

net.9.bias f4 [128]
00000000: 5673 4339 cfa9 3cbb 4ce0 ffba 5e49 b3bb
00000010: 07f6 7bbc 5ac8 c9bb ddb6 1abc b4f9 c83b
00000020: 4a12 c5b9 f135 19bb d0b4 6fbc 38ce 1fbc
00000030: 5d7a 33bc 9aef 80bc 7f39 c93a c25d 84ba
00000040: 230d 573c a6cb 023c 2cf5 6c3c 4ef4 4939
00000050: a373 7c3a 0d58 223c 0163 81bc cf73 953b
00000060: 0368 e4bb b66b ca3b d617 6b3c 41f5 bf39
00000070: c227 2738 6988 c6bb b6d8 55bb 913e 273a
00000080: 920b 9fbb 928f f7bb 0688 a7bb 92ab 193c
00000090: c4bd 6f3b 08c2 4dbc 5c75 f33b 8830 f43b
000000a0: 3709 c6bc 1c1b 8fb8 f91f 87bb 4296 983b
000000b0: c991 743a 6be8 553c 58ee 0e3c 6f4b 6bba
000000c0: 6371 4ebb 969c 5cbb 0f9b 04bb cc0f e2bb
000000d0: bf88 63b9 f2f7 953c e149 283a ba0d 03bc
000000e0: d058 9e3b 2b4d c4bb da81 7a3c 3bbf 8ebc
000000f0: 3e48 20bb f37c fabb 8228 a2ba 9198 23bb
00000100: 065f 613c ffb5 10bc 0fb1 433b 01c2 7cbc
00000110: 5952 cebb 3808 63bb f261 1fbb f178 91bb
00000120: 8dfc 093c c9f5 59bc f455 223b 43ed 34bd
00000130: ec1f e03b 012a 3fbb c2a8 d9ba 17a6 c63b
00000140: 2d2d e53c 15b1 80b8 48a2 103c 706e 83bc
00000150: 9fad 553c c871 023c 24f1 ef3b a252 333c
00000160: e60f ed3b eb06 b73b da2d 9cbb 7872 3e3b
00000170: b14b 0bbc 7e6e 7d3b 92a7 73bc b7e9 b53b
00000180: b29a 6dbc a43f f2bc 67b6 b2bb 3a79 043a
00000190: 6b5b 22bd 7c13 803c 94cd 323b 5c05 2e3c
000001a0: c60c 093c a836 493b c5d0 ab3b 08e2 843b
000001b0: 7e87 7bbc d0b1 133c 9075 40bc da5e 953b
000001c0: 9eb5 1cbc 060b 263c a3f9 9c3a fd81 4d3c
000001d0: ed15 9e3b 4033 f5bb 52e1 dcbb 72c1 cebb
000001e0: fa34 d539 6397 563c e0c6 5cbd a610 793c
000001f0: f1aa 25bc 4540 733a 4ad7 033b 6e96 af3b
0.00018639615 -0.0028787737 -0.0019521802 -0.0054713925 -0.015378482 -0.006157917 -0.009443012 0.0061332826
-0.00037588394 -0.00233781 -0.014630511 -0.009753756 -0.010954467 -0.01573925 0.0015352218 -0.0010098743
0.013125691 0.007983124 0.01446275 0.00019259864 0.00096302683 0.009908688 -0.015794279 0.0045609246
-0.006970407 0.006177391 0.014348945 0.00036613087 3.985293e-05 -0.006058742 -0.003263039 0.00063798676
-0.004853674 -0.0075549567 -0.005112651 0.009379284 0.0036581615 -0.012558468 0.007429762 0.0074520744
-0.024174316 -6.823821e-05 -0.0041236845 0.004656584 0.0009329585 0.013055901 0.008723818 -0.0008975779
-0.003150069 -0.0033662668 -0.0020234024 -0.006898856 -0.00021699349 0.018306706 0.00064197 -0.007998878
0.0048323646 -0.0059906445 0.015289748 -0.01742517 -0.0024457122 -0.0076442896 -0.0012371691 -0.0024962763
0.0137555655 -0.008832454 0.0029860174 -0.0154271135 -0.0062964377 -0.003464235 -0.0024319855 -0.004439466
0.008422029 -0.013303229 0.002477047 -0.044171583 0.006839743 -0.0029169323 -0.001660608 0.00606228
0.027975643 -6.1365e-05 0.008827753 -0.016043872 0.013041883 0.007961698 0.0073224474 0.010944994
0.0072345613 0.0055855415 -0.004766208 0.0029059928 -0.008501933 0.0038670595 -0.014871495 0.0055515426
-0.014502214 -0.029571362 -0.005453873 0.00050534646 -0.039637964 0.01563429 0.0027283179 0.010621395
0.008364862 0.0030702744 0.005243393 0.0040552653 -0.015352128 0.009014562 -0.011746779 0.0045584263
-0.009564785 0.010134464 0.0011976253 0.012543199 0.004824391 -0.007482916 -0.0067407275 -0.0063096816
0.00040665996 0.013097617 -0.0539006 0.015201723 -0.010111556 0.0009279291 0.0020117336 0.005358509

net.9.running_mean f4 [128]
00000000: 584c 92be e0d7 fabd c296 913e 2ff8 083d
00000010: a25c fabb ebb3 a6be 14f4 3ebe 3419 70be
00000020: e993 44bd 38ef debc 48b4 48bd fec8 8c3e
00000030: d12f 1bbe bb80 b7bd cd1b bebe afbd 6dbe
00000040: f26e 1f3e ab53 ff3e a010 5abe d41d 33bc
00000050: 84b7 50bc b73b 48be a467 83bc 1746 773e
00000060: e46d 5abe 2ecd 353e 6000 313e 4242 a8bd
00000070: 6cfb 07be 7de6 26be 7ccb 613d 0850 6dbe
00000080: 0d38 793d 8fa0 3dbe 0b5a c93d 79c8 c9be
00000090: c734 b63c ea1d d6bd eb94 3b3e 844c 603e
000000a0: 38c4 78bc 9d4d 3c3e 707f edbc 8d5b 743e
000000b0: 6bf9 73be 5eb2 91bc af9b 903d c98c 0ebe
000000c0: 6f77 5bbd 67cc 803e 8ac3 4d3d 77fd 79be
000000d0: 2f47 0fbe 1cea 8d3e bd9e 84bc 9cee b2be
000000e0: 7eba 813e 12f2 4abe a49c 79be 45c2 90bb
000000f0: f215 85be 5eb9 f13c 4b49 b53d 4f47 63be
00000100: de0e 1cbe 3f0c 6ebe b504 9abe 65f5 f63d
00000110: b93c 34be 570e 55bd 8012 e63d 52de 86bc
00000120: 7a94 de3d efd0 edbd 9c20 273e 20cd a13d
00000130: e1f8 d0be fe37 f2bd ff49 903e 07ac f4bd
00000140: 4e26 073e ec7a 9b3e c0b5 1abe 57f3 523d
00000150: 5141 393e 94ae 27bd 84cf 51be ec7d 353e
00000160: 32d7 d53d b0c5 1c3e 1dd4 0fbe 5195 5e3e
00000170: 99a4 99be 9e13 3fbe bba8 cdbb a849 2abf
00000180: 4621 153e ef0f a1bd 59fe 67bd 8983 6abe
00000190: 6f3f 2abe 97f1 91be 3d1a 51be 0533 733e
000001a0: df75 9dbe bb0f 52be 32e4 c83c 5c3d f0bd
000001b0: bef2 66be 7072 18be a35e 69be a38f 9abe
000001c0: 9e7a 8cbe 0158 d13d 1b7d bc3e a48b 71be
000001d0: 68ec e23c 64fe 26be e818 543e 7943 27be
000001e0: e776 64be e1a5 0a3e 1a38 7fbe 66ca f9bd
000001f0: a4e1 2abe 7e9c 313e 9604 5b3e 367b c0bd
-0.2857387 -0.12248206 0.28435332 0.03343981 -0.007640437 -0.32559142 -0.18647796 -0.23447114
-0.04799262 -0.027213678 -0.049000055 0.27497095 -0.1515496 -0.089601 -0.37130585 -0.2321689
0.15569666 0.4986852 -0.21295404 -0.010932405 -0.012739066 -0.1955403 -0.01604063 0.24147831
-0.21330982 0.17754051 0.172853 -0.08215763 -0.13279504 -0.16298862 0.0551257 -0.23175061
0.06084447 -0.1851828 0.098316275 -0.3941076 0.022241963 -0.104549244 0.18318526 0.21904188
-0.015183501 0.18388982 -0.028991431 0.23863049 -0.23825614 -0.017785247 0.07060944 -0.13920893
-0.053580698 0.25155947 0.05023531 -0.24413095 -0.13991998 0.27717674 -0.016188974 -0.3494767
0.25337595 -0.19818905 -0.2437616 -0.00441769 -0.25993305 0.029507335 0.0885187 -0.22195171
-0.15240046 -0.23246859 -0.30081716 0.12058524 -0.17601289 -0.05201563 0.11233997 -0.016463432
0.108681634 -0.116121165 0.16321033 0.079004526 -0.4081488 -0.11827086 0.28181455 -0.11946874
0.13198206 0.3036722 -0.15108395 0.0515016 0.18091322 -0.040937975 -0.20489317 0.17723817
0.10441436 0.15309787 -0.14045759 0.21736647 -0.3000839 -0.18659827 -0.0062762178 -0.6651864
0.14563474 -0.07864367 -0.05663905 -0.22901739 -0.1662576 -0.2850463 -0.20420165 0.23749931
-0.3075399 -0.20513813 0.024522875 -0.11730453 -0.22553536 -0.14887404 -0.22790007 -0.3018771
-0.274373 0.102218635 0.36814198 -0.23588425 0.027700618 -0.1630798 0.20712626 -0.16334333
-0.22310983 0.1353984 -0.24923745 -0.121968076 -0.16687638 0.17344853 0.21388468 -0.093985006
