D_B.pth (torch_old, 401728 bytes, 21 tensors)

net.0.weight f4 [16, 3, 3, 3]
000000 6d fd 1d 3e 47 27 1c be 13 09 7b 3c ec 81 49 3d
       0.15428706 -0.15249358 0.015321988 0.04919617
000010 d4 f4 2c 3e fe 3c 6a bd 6b be a7 3d 02 81 f7 bc
       0.1689027 -0.057187073 0.08190616 -0.030212883
000020 6e da bf 3d ab 00 0e be fd e6 a8 bd c2 40 20 3e
       0.09367834 -0.13867442 -0.082471825 0.15649703
000030 99 74 e1 bd b8 f1 b7 bd 5c 22 ab bc 3d af ff bd
       -0.11008567 -0.08981651 -0.020890407 -0.12484596
000040 e1 66 1b bc 8a a0 7f 3d 90 a9 2a 3e 93 08 cc 3d
       -0.009484977 0.06240896 0.16666245 0.09962573
000050 d6 d8 3a be 3f 7b 91 bd 28 5b 1f 3e 53 dd 6a 3d
       -0.18246779 -0.071035855 0.15562117 0.057339977
000060 8f 67 23 bd c7 08 e4 bd c7 78 67 3d 87 a3 70 bd
       -0.039893683 -0.11134487 0.056511667 -0.0587497
000070 bb 26 37 3e 03 14 d6 3c 61 c0 fc bd ea 35 05 3e
       0.17885868 0.02613259 -0.12341381 0.13008848
000080 3c 36 3b be 18 75 15 be 79 c0 dd 3d a5 87 26 3e
       -0.18282408 -0.14595449 0.10827727 0.16262682
000090 19 ea 50 3d 48 e2 f5 3d e2 d4 d4 bd d3 03 7b 3d
       0.051004503 0.1200605 -0.10392167 0.061282944
0000a0 ec e7 09 3e dd 15 c0 3d a6 76 93 3d 70 8c 13 3e
       0.13467377 0.0937917 0.07200365 0.14409041
0000b0 bb 9f 82 bd 77 8a 98 bc 77 4a 2b 3e 23 bc 0f be
       -0.063781224 -0.018620713 0.16727625 -0.14036612
0000c0 19 56 7c bd fb c1 6f b9 4e d3 3f 3e a0 a4 36 3d
       -0.061605547 -0.0002286508 0.1873295 0.044590592
0000d0 c5 a1 64 3d 8a b2 12 bd 24 ad a3 3d 98 a8 18 be
       0.055818338 -0.0358148 0.07992008 -0.14908063
0000e0 4c a7 35 bd 57 57 93 bd 45 2e 1e 3e f1 82 19 3e
       -0.044349 -0.07194393 0.15447338 0.14991356
0000f0 1b fb dc 3d 29 94 7f 3d f0 4f 2c 3e 40 fb a2 bd
       0.10790082 0.062397156 0.16827369 -0.079580784
000100 39 6c f0 3d 64 39 3e 3e c1 f7 1e bd 79 c6 c3 3d
       0.11739392 0.1857658 -0.038810495 0.0955934
000110 4a 5c d6 3d 98 ce b5 3d 80 40 e0 3d 13 37 67 bc
       0.104668215 0.08877295 0.109498024 -0.014112252
000120 77 41 12 3d fe 82 30 3e 31 35 1a 3d 57 87 dc bc
       0.035706963 0.1723747 0.037648384 -0.026920004
000130 c4 48 b2 bd 42 5e ea bd 9a 5e 9d 3d 8e 6b 91 3d
       -0.08705285 -0.114437595 0.076840594 0.071005926
000140 02 40 cb 3c f2 3d dd bd e5 87 d4 3d 14 3e 45 3e
       0.024810795 -0.10802831 0.10377482 0.19261962
000150 a1 db 40 3e 61 80 8c 3d 49 71 38 be ce 09 f7 3d
       0.18833782 0.06860424 -0.18011965 0.12062417
000160 46 53 33 be 85 aa cd bd bb 8d 12 3e b6 78 9c bc
       -0.17512235 -0.1004229 0.14311878 -0.019100528
000170 8b 2d 7e bd d0 a3 1b be 39 b3 2e 3e ef 2f 13 3e
       -0.062055152 -0.15199208 0.17060556 0.14373754
000180 cf 3c 2a 3c 42 01 3c bd cf 9b 1d be 01 4a e5 bc
       0.010390474 -0.045899637 -0.15391468 -0.02798939
000190 19 4e 08 3e dc f6 11 be 08 2a fc bc 7b 23 80 bd
       0.13311042 -0.14254326 -0.03078176 -0.06256767
0001a0 23 c0 19 3e 5c 2a 18 be e5 09 a6 b9 5c b9 a6 3d
       0.150147 -0.14859909 -0.0003166936 0.08140823
0001b0 2f 8f 15 bd c9 af 2f bd 83 03 11 3e 69 17 da bd
       -0.036513504 -0.04289225 0.14161496 -0.106489964
0001c0 2d 07 19 3e 71 3d 65 3d a9 df 21 3e 83 2e 19 3e
       0.14944144 0.0559668 0.15807976 0.14959149
0001d0 ff 03 0a 3e 54 1c f4 3c 38 b5 3b be 45 83 29 be
       0.13478087 0.029798664 -0.18330848 -0.16553982
0001e0 ca a8 2f 3d 33 72 f1 3d ca d0 4a bd 5d 63 4a bb
       0.04288558 0.1178936 -0.049515523 -0.003088198
0001f0 69 3a eb bd 95 62 14 3e f1 9b 34 bd a8 d7 02 3e
       -0.1148575 0.14490731 -0.04409403 0.12777579
000200 93 20 8d bd 57 2c 79 3d b9 15 14 3e 75 90 d3 3d
       -0.06890979 0.0608333 0.14461412 0.10330287
000210 6d b7 90 3d 7a cf 8e bd 6d 56 cb 3d a7 b4 52 bb
       0.07066236 -0.06973167 0.09928594 -0.0032151134
000220 11 62 b6 bd e7 96 a1 bd dc a7 18 3d 1b a2 06 3e
       -0.089054234 -0.078901105 0.03726946 0.13147776
000230 21 a0 a7 bd e9 95 d4 bd 5f 14 8c 3c 81 9a 35 bd
       -0.08184839 -0.103801556 0.017099557 -0.0443368
000240 16 40 1d 3e b0 aa ca 3d 2e cb 40 bd 50 fa 24 3e
       0.15356478 0.09895837 -0.047068767 0.16111112
000250 41 fd f8 bd 1e 1d b9 bd c6 4b 93 bd 3a 8e e6 bc
       -0.12157679 -0.09038757 -0.07192187 -0.02814399
000260 bd 0e 36 3e b2 ea ff 3c 7d d2 86 3d b3 d1 9c bd
       0.1777906 0.031239841 0.06583116 -0.076571845
000270 c2 1b dd ba b2 0e cc 3b fd b2 07 3d 2e fe d8 bc
       -0.0016869234 0.0062273378 0.03312968 -0.02648839
000280 99 cc 1d 3e 8f dc 9c 3d ad 70 3b 3e 9c 37 fa 3d
       0.15410079 0.07659256 0.18304701 0.12217638
000290 f2 25 2c bd 25 4b 3d 3e f4 6e ec 3c a1 84 95 bd
       -0.042028375 0.18485697 0.0288615 -0.073006876
0002a0 30 9d fa bd ca 29 0e 3e ad 2b 8f bd 6f 99 32 bd
       -0.122370124 0.13883129 -0.06990752 -0.043603357
0002b0 2e 6d 38 be 34 9d cf bd 50 74 75 3d 13 5d 36 bd
       -0.18010399 -0.10137406 0.059925377 -0.044522356
0002c0 06 c6 61 3d a1 3e bf 3b 39 2a e0 bd 39 29 d2 bc
       0.05512049 0.0058363234 -0.10945553 -0.025654422
0002d0 a7 86 50 3d 88 2e 6e bd f7 d1 f7 bd e2 fd db bd
       0.050909664 -0.058149844 -0.121005945 -0.10741784
0002e0 17 68 3d 3e 9b 92 c4 3d d7 4c b4 bd ef 92 68 bd
       0.18496738 0.09598275 -0.088037185 -0.05678075
0002f0 58 cd 51 bd f7 e8 2c 3e 18 d8 18 3d 62 3e 2e 3d
       -0.05122122 0.16885744 0.037315458 0.04253996
000300 61 7e 28 bd 44 2c 09 bd 97 4b b3 3d 75 48 91 bb
       -0.04113615 -0.03348948 0.08754652 -0.0044336864
000310 a5 03 91 bd 32 14 f0 3d 62 81 15 bd 0c 39 3a be
       -0.07080773 0.11722602 -0.036500342 -0.18185824
000320 16 60 8f bd fe 94 a3 3d dc 5a eb 3d a9 de 00 be
       -0.07000749 0.079874024 0.114919394 -0.12584938
000330 f0 78 1d 3e 48 54 10 bd 8c 86 d6 bd b9 68 02 be
       0.15378165 -0.035236627 -0.104748815 -0.12735261
000340 0e af 41 be 1a 3a b2 bd 36 a6 20 3c ad 57 80 bd
       -0.18914434 -0.08702488 0.009805253 -0.06266723
000350 a6 5b 11 3b 7e 25 b5 bc 89 88 08 bd 82 1a 8f bc
       0.002217987 -0.022112604 -0.033333335 -0.017468695
000360 f3 ce 60 3b 2f 87 48 3d 7b f8 be bd d4 ad 81 3d
       0.003430304 0.048957046 -0.09324738 0.06331983
000370 e1 51 c5 bd 8d 6b 3c be c7 cb f2 bd 5d 12 43 be
       -0.09634758 -0.18400402 -0.11855274 -0.19049974
000380 54 3e 1e 3e 40 74 40 3d b2 25 eb bd 5c 71 46 bd
       0.15453464 0.046985865 -0.11481799 -0.04844795
000390 16 e5 3d 3d 22 01 42 3e 7c b6 5b 3d 7e 2b b1 bd
       0.04636105 0.18945745 0.053640828 -0.086508736
0003a0 dd f3 98 3d 98 a4 44 3e 54 98 13 be 7c 42 bd 3d
       0.07468388 0.19203413 -0.14413577 0.092411965
0003b0 cd 01 fd bd a6 39 3d bd af bb e3 bc 98 a5 20 3e
       -0.12353859 -0.046197556 -0.027799455 0.15688169
0003c0 65 f6 4d 3d 39 57 0e be d5 61 04 3e 7f 84 3d be
       0.05028381 -0.1390046 0.12927945 -0.18507574
0003d0 a0 d4 30 bd d9 1b 1a bd 45 b2 1b be ee 06 ef 3d
       -0.043171525 -0.037624214 -0.15204723 0.116712436
0003e0 31 54 fb bd b7 05 25 bd ec d6 20 be d0 10 08 be
       -0.122719176 -0.040288653 -0.15706986 -0.13287663
0003f0 66 0e 07 bd 6d 54 8f 3d 64 33 0e 3d 14 36 b6 3d
       -0.032972716 0.06998525 0.03471698 0.08897033

net.0.bias f4 [16]
000000 3a 1c 42 3e db d6 27 3d 61 de 6b 3d c3 9c e2 bb
       0.1895608 0.040976387 0.057585124 -0.00691566
000010 ae 5a 7a bc 50 db c4 3d 54 86 88 bc 39 de 73 3d
       -0.015280409 0.09612143 -0.016665615 0.0595381
000020 84 1e 1b 3e 22 8f c3 3d 55 82 8f bd 57 40 4c 3e
       0.1514836 0.09548785 -0.07007281 0.19946419
000030 65 fb 6c bd 7a 19 7d 3d 35 72 be 3d 6c 2e 47 be
       -0.057856936 0.061791874 0.09299127 -0.19451302

net.2.weight f4 [32, 16, 3, 3]
000000 a5 a1 c2 3c d2 b4 52 bd 5d df 96 3d 63 69 a1 3c
       0.023758719 -0.051441975 0.07366822 0.019703573
000010 ad 8e 9e bd e9 f2 15 3c 2a 5d 95 3d 4b bc 66 3d
       -0.07742057 0.009152153 0.0729316 0.056331914
000020 c9 29 a2 3d 28 30 96 3d a2 f1 b4 bc 08 bd b9 3c
       0.07918126 0.07333404 -0.022087876 0.022673145
000030 2f 7b 98 bd ac 31 ae bd a6 e1 61 3d 5c ef 38 3d
       -0.074453704 -0.08505568 0.055146836 0.045150146
000040 89 88 8a bd 98 ab 30 3d d5 be 8d b9 e3 d8 98 bb
       -0.06764323 0.043132395 -0.00027035797 -0.004664527
000050 1e 6b 61 bd a2 a6 16 bd f5 ac 38 bd c8 07 39 bd
       -0.055033796 -0.036780007 -0.04508682 -0.045173436
000060 fb ed a8 bc f7 3d 5b 3d 88 cf 96 3d a7 b8 45 bd
       -0.02062129 0.05352589 0.07363802 -0.0482718
000070 c2 a7 18 3d 59 44 df 3b d1 5d 91 bd f5 01 da 3c
       0.03726936 0.0068135676 -0.07097972 0.026612261
000080 89 18 0b bd ac e9 c4 bc 23 d7 63 bc f0 69 4b 3d
       -0.033958945 -0.024037205 -0.013906273 0.049661577
000090 6c 5f 8f bd eb a2 a0 bd 66 ca fc bc 5b c9 96 bd
       -0.07000622 -0.07843574 -0.03085823 -0.07362624
0000a0 92 67 19 bd f6 b9 27 3b 00 3f 54 bd 2f 12 8a 3d
       -0.037452288 0.002559302 -0.051817894 0.067417495
0000b0 65 16 7f 3d ab 57 a0 3c 2e 97 99 bd 46 fc c2 bb
       0.062277216 0.019573053 -0.07499538 -0.0059504835
0000c0 16 bb 54 3d d7 46 ca 3c 06 50 d4 bc 3d e9 2f 3c
       0.05193623 0.024691982 -0.025917064 0.010736761
0000d0 46 1d 52 bd 23 83 9f 3d a3 89 39 3d 20 55 8f 3d
       -0.05129745 0.07788684 0.045297276 0.06998658
0000e0 9b 3c 90 bc 77 1b 68 bd 94 6f 15 bd b4 d3 00 bd
       -0.017607024 -0.056666818 -0.036483362 -0.031451896
0000f0 5b 41 b8 3d 91 d1 4f 3d a5 f5 75 3b 37 98 94 bc
       0.089968406 0.050736967 0.0037530449 -0.018138988
000100 84 bb 09 3d f1 03 4b 3d 98 2f 29 bc 28 57 b3 3d
       0.033626094 0.049564306 -0.010326289 0.08756858
000110 2c 06 87 3c 64 17 52 bd 69 22 4f bd 66 53 8b bd
       0.016482435 -0.05129184 -0.050569925 -0.06803016
000120 53 3e 26 3c 71 cf 9f 3d 85 d6 d4 3d 90 a0 56 bd
       0.010146695 0.07803238 0.10392479 -0.052399218
000130 43 9b f1 3c 6c a0 c5 3d 4a bb 3b bc 54 ec 59 bd
       0.02949298 0.09649739 -0.011458227 -0.053203896
000140 28 50 86 bd e4 74 7f bd 31 70 34 3d 02 fd 3d bd
       -0.06558257 -0.062367335 0.044052307 -0.046383865
000150 f4 25 79 bd f1 f8 a6 3d d6 e7 90 3d 73 9f 57 3d
       -0.06082721 0.081529506 0.07075469 0.052642297
000160 28 ad 93 bc 7b ea 3c bd 6f 1b 8a bc 2e 92 60 3c
       -0.018026903 -0.046122056 -0.016858784 0.013706727
000170 1e a1 5e bd d2 58 34 3d cf 1e 82 3d 44 b3 45 3d
       -0.054352872 0.04403002 0.063535325 0.048266664
000180 bd c4 98 bd 97 11 bd bc 52 05 95 bd e2 eb 6c bd
       -0.074594 -0.023079677 -0.072764054 -0.057842143
000190 84 6b 9b bd 27 ba 4c bd c5 3c 79 bd cb 1a ca 3b
       -0.07588866 -0.049982216 -0.06084897 0.0061677448
0001a0 a7 40 05 3c da 8e 6e 3d 1c a0 da bc b4 e4 33 bc
       0.00813309 0.058241703 -0.026687674 -0.01097982
0001b0 69 27 17 3d 84 f7 98 bc f3 0e 32 bd 82 a1 aa 3c
       0.03690282 -0.018672712 -0.043471288 0.020828966
0001c0 13 d0 9f bb 40 a9 46 bd db bc a3 bc 8c 74 27 bd
       -0.0048770993 -0.048501253 -0.019987514 -0.040882632
0001d0 9e e0 76 bd 0c 5a 1c 3d 67 bf b6 bd f6 83 b9 bc
       -0.060272805 0.038171813 -0.08923226 -0.022645932
0001e0 f2 2a a4 bc fd 4b cf bc 40 c0 56 bd ae 05 d8 bc
       -0.02004001 -0.025304789 -0.052429438 -0.026369896
0001f0 d2 66 c0 3c 82 2c a6 ba fc b3 3f 3d a2 a9 bd 3b
       0.023486529 -0.0012678059 0.046802506 0.005788044
000200 a1 ff a3 3b b0 cc c9 3d 7f 0e 36 3d e9 09 89 bc
       0.0050048386 0.09853494 0.04444742 -0.016728358
000210 f2 8c 57 bd 29 0a 75 3d 73 3b 6f 3c 9f 51 95 bd
       -0.05262465 0.059824143 0.014601576 -0.072909586
000220 01 2f a6 bd a7 12 74 3d e3 dc 42 3d fb d9 8a 3d
       -0.08114434 0.0595881 0.047573935 0.06779858
000230 94 96 50 bd e2 2e b3 bd 31 bb e6 bc 18 e3 c8 3c
       -0.050924852 -0.087491766 -0.028165432 0.02452235
000240 02 db 2d bd c4 a7 ad bd da 8e 18 3c 8f 44 c9 3c
       -0.04244519 -0.084792644 0.009311402 0.024568824
000250 a9 4e 45 bd 6a 30 9f bd a8 ea 1d 3d d5 0b 2b 3c
       -0.04817072 -0.07772906 0.038553864 0.010439833
000260 fc ad 55 bd 99 66 2f bd 58 63 a7 bd ff 29 f7 3c
       -0.052167878 -0.042822454 -0.08173245 0.030171392
000270 31 0e 29 3d f7 af 92 bd 79 31 af bd 49 ae d9 3c
       0.0412733 -0.07162469 -0.08554358 0.026572363
000280 7b 76 da 3c 28 0c d1 3c 2b 06 d8 bc ff d9 37 3d
       0.026667824 0.025518492 -0.026370129 0.04488563
000290 c1 dc 4c bc 0d 4b e6 bc 34 8f 7f bd ea a0 66 bd
       -0.012503804 -0.028111959 -0.06239243 -0.056305803
0002a0 8b f5 05 bc df 99 7b 3a 2c 96 80 3d 3f 61 4c bd
       -0.008176218 0.0009597819 0.06278643 -0.04989743
0002b0 03 19 98 3b 43 a3 d6 ba d7 42 28 3b e4 62 9d bd
       0.0046416535 -0.001637556 0.0025674605 -0.076848775
0002c0 ac 54 a2 bd 88 ec 6e 3d 73 45 f1 3c 45 c1 36 bc
       -0.07926306 0.058331043 0.029452061 -0.0111544775
0002d0 20 2c 4b 3d cc 7c a0 bc fb 15 54 3d 0d 14 72 3d
       0.049602628 -0.019590758 0.051778775 0.059101153
0002e0 74 02 a3 3d e0 b8 be 3c 0f 40 0b bd d3 f9 97 bd
       0.07959452 0.023281515 -0.033996638 -0.07420697
0002f0 af 33 96 3d c3 d9 1f bc ed c2 d5 3c a4 5b 63 3c
       0.073340766 -0.009756508 0.026093924 0.013876829
000300 8c a2 f9 3c f5 b0 52 bd ac 48 cf 3b 93 4b ac bc
       0.030473016 -0.05143829 0.006325802 -0.02103213
000310 c5 70 b7 3c 06 51 20 bc 68 12 e1 bc b0 03 52 bd
       0.02239264 -0.0097849425 -0.027474597 -0.051273048
000320 21 2b a0 3c 0e ab d1 3b ae 64 45 bd 63 86 8f bc
       0.019551815 0.006398565 -0.04819172 -0.017520135
000330 af 20 90 3c f9 99 37 3c 1c a6 91 3d 38 f2 02 bc
       0.01759371 0.011206144 0.07111761 -0.00799232
000340 85 68 09 bb 15 5e 5e bd bf 50 fb bc 38 7b 8f bd
       -0.002096684 -0.054288942 -0.030678151 -0.07005924
000350 77 34 3f 3d 3d 90 0d bd 9e 30 30 3d 86 8e 9f bd
       0.046680894 -0.034561384 0.043015115 -0.07790856
000360 16 c1 b8 bd e3 eb 9d 3b 50 91 7c bd 0c bf 86 3d
       -0.09021203 0.0048193797 -0.06166202 0.06579408
000370 b2 17 d1 bd 84 91 80 bc 77 d3 76 3d ed 26 a4 3c
       -0.10209598 -0.015694387 0.060260262 0.020038093
000380 16 6d bf 3c 23 40 b1 3d 89 52 48 3d c8 43 90 3d
       0.023367446 0.08654811 0.048906837 0.07044178
000390 15 7e 60 3c 46 5f d3 3c 6c 5c 41 bd 51 d2 db 3c
       0.013701935 0.025802266 -0.04720728 0.026833685
0003a0 b8 07 97 3d 81 5c 52 3d b6 2a 40 bd e2 7f e2 3c
       0.07374519 0.05135775 -0.046915732 0.02764887
0003b0 e4 fa bb 3b d9 b0 4a 3d 2f 16 68 bb be 45 d1 3c
       0.0057366956 0.04948506 -0.0035413613 0.025545951
0003c0 91 a0 4d bd e6 cd 9b 3c 3e fa 76 bd 27 ff ad bd
       -0.050201956 0.019019078 -0.060297243 -0.08495932
0003d0 c3 a9 22 3d 96 e9 b0 bb 4e be d9 3a 59 78 f2 bc
       0.03971268 -0.0053989394 0.0016612501 -0.029598402
0003e0 b2 a1 03 3d 60 66 9a 3d 40 27 7a 3c d4 26 9c bd
       0.032136627 0.07539058 0.015268147 -0.076245934
0003f0 97 d1 9e bc c5 c1 d5 bc 93 9c ad 3d 26 7d 34 3d
       -0.01938705 -0.026093373 0.0847713 0.044064663

net.2.bias f4 [32]
000000 f5 2d c4 3c 50 30 60 bd 3e 18 d3 bc cc 57 1f 3d
       0.023947695 -0.054733574 -0.025768396 0.03890209
000010 35 57 96 bd 22 25 03 bd c3 4f 7e 3d 8f 42 7f bd
       -0.07340852 -0.032017834 0.062087785 -0.062319335
000020 49 dd be 3c 8a 84 81 3d f9 9d d4 bc fc 9c 96 bd
       0.023298876 0.06324108 -0.025954233 -0.07354161
000030 1e bc 71 bd c2 8d 96 3d 11 76 84 bd 85 11 4c 3d
       -0.059017293 0.07351257 -0.06467832 0.049821395
000040 a3 6b ce bc 9d 9a 5b bd b1 fc aa bc 39 85 3b 3d
       -0.02519781 -0.053614248 -0.020872446 0.045781348
000050 e7 43 db bc 6f 5f a4 3d 20 92 b0 bc e5 34 07 3d
       -0.026765777 0.08026015 -0.021554053 0.03300943
000060 e8 81 82 3d ae 87 a1 3d 05 d7 84 3d e0 48 1f 3c
       0.06372434 0.07887207 0.06486324 0.009721965
000070 af 79 85 bc 79 a1 50 bd b9 48 34 3d f6 14 96 bd
       -0.016293375 -0.050935242 0.044014666 -0.07328217

net.3.weight f4 [32]
000000 b8 75 ef 3d 7d 60 c1 3d 00 09 e8 3e d5 da 6b 3f
       0.11692375 0.09442232 0.45319366 0.92130786
000010 b8 bc 0b 3f ca 2e 63 3f b1 25 5f 3f 89 b0 5c 3e
       0.54584837 0.8874327 0.8716689 0.21551718
000020 de 53 66 3e a2 7f 7c 3f b1 a0 37 3f c1 f3 25 3f
       0.2249293 0.9863225 0.7172957 0.64825064
000030 04 a1 21 3f db 7e 65 3f 5b 2b 70 3f c9 98 4c 3f
       0.63136315 0.8964669 0.93816155 0.7992063
000040 4e 50 d9 3e 5b 73 1c 3f 53 5c 35 3f 14 21 4f 3f
       0.4244408 0.6111352 0.70844 0.8090985
000050 e1 84 6c 3f a1 b7 61 3e 51 fa d3 3e 9f fc f6 3e
       0.9239026 0.22042705 0.41401914 0.4823961
000060 c2 f2 1c 3d 81 27 2f 3f 3c cd 21 3f 68 30 9b 3e
       0.03831745 0.68419653 0.6320379 0.3031037
000070 2b 7c d3 3c fc 64 55 3f c7 0e 4c 3e 9d fb 1f 3f
       0.025816044 0.83357215 0.19927512 0.62493306

net.3.bias f4 [32]
000000 33 e3 a7 bb 88 7a 65 3c 84 89 24 bc c7 05 ef bb
       -0.00512352 0.0140062645 -0.010042552 -0.00729439
000010 83 98 e1 3b 55 6f d3 bb dd 1b a8 bb 3a aa fd 3b
       0.006884636 -0.006452481 -0.0051302747 0.00774124
000020 c7 cc e3 3b ce 4a 96 bc f8 1c 68 bb a1 77 1c ba
       0.0069519016 -0.018346217 -0.0035417657 -0.0005968754
000030 8b b3 52 ba a2 68 01 bc 83 b6 4a bc 2b e0 22 bc
       -0.0008037618 -0.007898482 -0.012372616 -0.009941141
000040 ac c0 7d 3a 38 f7 3f bc ee cc e9 ba 94 e0 57 bc
       0.00096798944 -0.011716656 -0.0017837563 -0.013176102
000050 8a 83 66 bc 6f 33 7b 3b 78 9c 73 3a ba 89 a7 3b
       -0.014069447 0.0038330217 0.000929303 0.005112854
000060 14 d6 a5 3b fe cc 2c bc e7 37 38 bb 19 aa 4d 3b
       0.0050609205 -0.010546921 -0.0028109492 0.0031381904
000070 70 cc 82 3b 1f 12 4e ba 2f 64 b4 bb 29 47 64 bc
       0.003991656 -0.00078609766 -0.005505107 -0.0139329815

net.3.running_mean f4 [32]
000000 c2 31 8d be 96 d9 e3 bd 52 8e 3c be ea b6 db bd
       -0.27577025 -0.111254856 -0.18413666 -0.107282475
000010 f9 b9 02 3e eb 0e 27 3e 9a 18 3d 3e 47 52 0c 3d
       0.12766255 0.16314285 0.18466416 0.034258153
000020 88 f1 a2 3d 14 e3 b8 be 06 f6 70 bc f2 cc c5 be
       0.07956225 -0.36110747 -0.014707094 -0.38632923
000030 3d fd 88 bd 63 7a 50 3d 39 0c 36 3e 17 d9 9a bd
       -0.06688926 0.050897967 0.177781 -0.07560938
000040 57 7c 37 3e eb cc 34 be 7c f5 b5 3d 5a 9c c9 be
       0.17918526 -0.17656295 0.08884713 -0.393771
000050 cf 85 76 be 41 3c 15 3e 0c b2 26 3e 4b 80 0d 3d
       -0.24074481 0.14573766 0.16278857 0.034546178
000060 77 81 16 bc 9f 24 e7 bd a6 56 1e 3e 89 00 0b be
       -0.00918614 -0.11286282 0.15462741 -0.13574423
000070 d1 76 bf bd 84 51 06 3e 76 12 15 be 69 5e c4 bd
       -0.09348834 0.13117033 -0.14557824 -0.0958832

net.3.running_var f4 [32]
000000 98 e5 72 3c 3e 89 99 39 d7 cf 45 3b 80 38 10 3b
       0.014825247 0.00029284687 0.0030183697 0.0022006333
000010 da 26 a5 3b 93 eb 7f 3b 3c df d6 3a 5a 2a 28 3a
       0.005040032 0.0039050325 0.0016393433 0.0006415002
000020 d8 87 83 3a ae 66 64 3c dd 59 fa 3a 4c f7 3e 3c
       0.0010034991 0.013940496 0.0019100268 0.01165564
000030 90 e2 49 3a 56 36 8e 3a b2 22 a5 3b 2d 96 8e 3a
       0.0007701302 0.0010849934 0.0050395364 0.0010878496
000040 4c f2 84 3b cd 8c 38 3b f0 f0 3f 3b 16 37 83 3c
       0.0040572044 0.0028160096 0.0029287897 0.016017478
000050 f1 51 8a 3b 33 63 0f 3a 62 79 7f 3b 07 2e 6b 3a
       0.004221194 0.0005469799 0.0038982262 0.0008971397
000060 7e 9d d2 3a da ff f0 3b 59 10 b8 3a 0f 0e 8b 3b
       0.0016068665 0.0073547186 0.0014042958 0.0042436193
000070 85 8f 8b 3a 69 87 55 3b b0 f7 ab 3b d9 3e 4e 3a
       0.001064763 0.0032581931 0.0052480325 0.00078676414

net.5.weight f4 [64, 32, 3, 3]
000000 9f b0 36 bc a7 2d 7e bb 89 35 2e 3c eb f4 05 bc
       -0.011150508 -0.0038784535 0.010632881 -0.008176069
000010 f3 b7 e3 3b e0 44 07 3d d8 3a b6 bc 4c 0c 8e 3c
       0.0069494187 0.03302467 -0.022244856 0.017339848
000020 4e 6a 78 bd 5a 5c ab 3c b4 15 db 3b 3f c5 20 3d
       -0.060648255 0.02091806 0.006685937 0.03925061
000030 d2 fa 4a 3d ec 37 c1 bc 21 95 5a 3d a5 ad 15 bd
       0.049555607 -0.023586236 0.053364877 -0.036542553
000040 37 df 39 bd 47 5d 5b bd fa 7f b5 bc cd 25 45 bc
       -0.04537889 -0.053555753 -0.02215575 -0.012032938
000050 66 ac 49 bc 60 9c b5 3b 68 24 57 3a 0a 40 59 bc
       -0.012309169 0.005542323 0.0008207024 -0.013259897
000060 54 bf 83 3b 08 55 39 3d f5 a7 14 bc f1 09 91 3c
       0.004020611 0.045247108 -0.009073247 0.017704936
000070 a5 3f 68 3c c5 cc 3a bd 8d ad 92 3b d5 4f f5 bc
       0.01417533 -0.04560544 0.0044762553 -0.029945293
000080 2e 87 e7 3c d5 d8 b9 bb c5 49 53 bd 44 7b d4 3c
       0.0282627 -0.0056716003 -0.051584024 0.025937684
000090 c7 9f 36 bd b7 32 3b 3c 31 44 d1 bc a3 ab bf bc
       -0.04458597 0.011425666 -0.025545212 -0.023397272
0000a0 f4 88 08 3c 3e 79 61 3d 31 49 0d 3d 0d 26 5b bc
       0.008333433 0.055047266 0.03449363 -0.013375771
0000b0 a4 a2 2d bd e2 2c 1a bd 86 40 ae 3b 6a 4a 1a 3d
       -0.042391434 -0.03764046 0.0053177504 0.037668623
0000c0 45 45 50 3d f6 00 d0 bb 89 60 fd 3c 15 a3 fa bb
       0.05084731 -0.006347771 0.03092982 -0.0076488354
0000d0 1c bb f4 3c 0e a9 4e bc 0a 1a dd 3c 07 4e 01 bc
       0.029874377 -0.012613548 0.026989955 -0.007892138
0000e0 1c 5f 31 3d e4 66 c4 3c a3 79 1e 3d c5 90 0e 3d
       0.043303594 0.023974843 0.03869022 0.03480603
0000f0 00 66 43 bc ae 27 80 3c ae 5e 50 bd 0d 07 0d 3d
       -0.011926174 0.01564392 -0.050871544 0.034430552
000100 ab cf 80 bc b5 14 8a bc e8 03 39 3d 53 f9 4b 3d
       -0.015724024 -0.016855577 0.04516974 0.04979832
000110 fa 93 03 3d 73 b9 36 3d 6d c5 f5 3c 84 30 4a bd
       0.032123543 0.044610452 0.030001367 -0.049362674
000120 dd fb e0 3c a2 3e 17 3c 34 7d ad bb e0 c4 54 3d
       0.027463848 0.009231241 -0.0052944664 0.051945567
000130 37 b0 14 bb a0 f7 7e bb 4a 71 0b 3d 75 76 68 3c
       -0.002268804 -0.003890492 0.034043588 0.014188399
000140 c6 5b 3e 3d 3c 49 72 3d 4b f4 40 3d 95 bd 4b bc
       0.04647424 0.059151873 0.047107976 -0.012435337
000150 94 45 91 3c df fa f6 bc 0f a6 0d ba ed c3 12 bb
       0.017733373 -0.030148922 -0.0005403468 -0.0022394613
000160 59 c5 14 3d 38 d4 9a 3c 28 78 01 3a 5c 54 d6 bc
       0.036321018 0.018900022 0.0004938864 -0.026163273
000170 75 2f 53 bd 2a cf 56 3d e5 9e 06 bd d7 7d eb 3b
       -0.05155893 0.05244366 -0.032866377 0.007186632
000180 d9 7f 07 bd 4e c7 bc bc 4d 37 0c bd 36 b6 c8 3b
       -0.03308091 -0.023044255 -0.034232426 0.006125237
000190 df 88 33 bd f2 35 b7 3c 0f 64 37 3d d4 58 24 3d
       -0.043831702 0.02236459 0.044773158 0.040123776
0001a0 28 26 7a 3b 2f 47 43 3d de ca 54 3c fe b4 e1 bc
       0.0038169716 0.047675308 0.01298782 -0.027552124
0001b0 8f 15 06 3d 70 a7 82 bc 42 d7 05 bd ab 84 17 bd
       0.032735404 -0.015948981 -0.03267599 -0.036991756
0001c0 95 73 00 bd 37 e3 13 3c 77 30 24 bd 71 ff 4b 3c
       -0.031360228 0.00902634 -0.040085282 0.012451039
0001d0 fd 2b 99 bc b6 a4 83 bc 9f 3d 34 3c 13 88 d5 3a
       -0.018697733 -0.016069751 0.01100102 0.0016291164
0001e0 ca 4d 29 bc d1 78 69 3d a1 57 a0 bc a7 9b df ba
       -0.010333488 0.056999985 -0.019573035 -0.0017059938
0001f0 d1 12 11 bc 8a 3a 2d bd f4 c0 72 bd 93 1c 48 ba
       -0.008854584 -0.042292155 -0.059266046 -0.00076336524
000200 cb 49 2a bd 0a 52 6f bd 70 34 63 bc 1c db 06 bd
       -0.04157428 -0.058427848 -0.013867483 -0.032923803
000210 e0 7c 0d 3d cc 59 f6 3c 0d 64 21 bd 2e 72 b7 bc
       0.03454292 0.030072115 -0.039402056 -0.022393312
000220 0a f4 e5 bb e7 ad 18 3d e7 52 e5 bc e9 3d be bc
       -0.007017617 0.03727522 -0.027993632 -0.02322288
000230 0e 53 12 bd 17 bd 29 bd 8a cd 19 bd d6 09 3b 3c
       -0.03572374 -0.041440096 -0.037549533 0.011415919
000240 80 a6 7e bd 7a 6b 5f bd 14 60 98 bd 32 3c b9 3c
       -0.062170506 -0.054545857 -0.074402004 0.022611711
000250 3d fe 57 bd da ed 76 bc ab c7 70 3d 90 6c 42 3d
       -0.052732695 -0.015071357 0.05878417 0.047466815
000260 e7 49 0a 3b d4 b8 3e bc 1f df 70 3d b1 6d da bc
       0.0021101178 -0.011640746 0.058806535 -0.026663633
000270 19 86 94 3c 31 f7 62 3b 0e e8 19 3d 54 4d 62 bd
       0.018130349 0.00346322 0.03757482 -0.055249527
000280 90 c0 09 3d 42 5b 39 3d 56 3e 23 bd b5 68 c2 bc
       0.033630908 0.045253046 -0.03985437 -0.023731569
000290 6c f0 77 bd f7 d2 44 bd 90 d6 50 3d 56 f7 0b 3d
       -0.06053202 -0.048052754 0.050985873 0.034171425
0002a0 a1 56 01 3d d8 63 14 bd d8 ac 53 bd a4 b6 9d bb
       0.031576756 -0.03622803 -0.05167851 -0.004813032
0002b0 2d ad 7c 3d b5 c0 09 3d e7 cb 34 3d f8 fc 2f 3d
       0.06168859 0.033631045 0.04413977 0.04296586
0002c0 78 57 53 bd 7d 99 55 bd 28 07 c3 bb 92 1a ce bb
       -0.05159709 -0.05214833 -0.005951781 -0.0062897885
0002d0 53 05 57 3d 0f f2 38 3d 1c 23 bc 3c af 0a 94 bc
       0.052495312 0.04515272 0.02296596 -0.0180715
0002e0 ac 75 f6 3a f6 a5 26 3d 75 95 70 3c 40 e8 a3 3c
       0.001880338 0.040685616 0.014684071 0.020008206
0002f0 b7 2e 24 3d 52 9c 7e ba 64 70 75 bd a5 b5 c3 bc
       0.040083613 -0.00097126246 -0.059921637 -0.023890326
000300 33 c3 76 bc cd 2c 0c bd b5 6b 28 bd 44 c4 b4 bc
       -0.015061188 -0.034222413 -0.041118342 -0.022066243
000310 70 d7 09 ba d3 d0 6f bc dc da c5 bc 3e c5 44 bd
       -0.0005258238 -0.01463719 -0.024152212 -0.048039667
000320 27 25 d8 bc 7e 95 a2 bc 7e 4c 2e bd c7 fc fb bc
       -0.026384903 -0.019846674 -0.042553417 -0.030760182
000330 c2 2e db bc 67 c5 c2 3c 06 54 f7 3b cc 80 42 ba
       -0.026755694 0.02377577 0.007547858 -0.0007419705
000340 c7 45 14 3d 84 8d 09 bd e8 5c 70 3c 32 12 ac 3c
       0.036199357 -0.033582225 0.014670588 0.02100477
000350 b3 a4 71 bd ee f9 06 bc 6a 5a 06 bd 4f ff 89 3c
       -0.05899496 -0.008238299 -0.03280107 0.016845373
000360 5f 3c 51 bd 80 36 62 3d af c5 3b 3d 63 4a ea bc
       -0.051082965 0.055227757 0.045842823 -0.028599923
000370 b2 23 32 3d 83 62 65 bb 5a 1d 6d 3d 48 5b 1f bd
       0.043491073 -0.0035001345 0.05788932 -0.038905412
000380 10 12 2d bd f7 33 24 3d 1f 29 06 bd dd 15 c2 3c
       -0.042253554 0.04008862 -0.03275406 0.023692066
000390 d4 7b fe bc 08 d7 63 bc 94 58 b6 3c 54 a9 0c bd
       -0.031064905 -0.013906248 0.022259034 -0.03434117
0003a0 14 61 a9 bc af 26 3f 3c ae 7e d1 3c 5a 99 1b bc
       -0.020676173 0.011666938 0.0255731 -0.009497011
0003b0 59 93 24 3b e0 8f 78 bd 7e c5 65 bb 89 1a 2f 3c
       0.002511224 -0.060684085 -0.0035060341 0.010687479
0003c0 12 f1 1c 3a 37 1e cc bc bf df a4 bc cc 62 76 bc
       0.000598685 -0.024916751 -0.020126222 -0.015038203
0003d0 2a 4b 57 3d 81 77 3f bd 60 d8 d7 3c c3 9a 8f bc
       0.052561916 -0.046744827 0.026348293 -0.01752985
0003e0 21 ad bd bc 47 a5 48 bd 1c 02 0c bd 02 c2 69 bd
       -0.023153843 -0.048985746 -0.0341817 -0.057069786
0003f0 d0 7f 01 bd 30 92 6f 3d 11 fc 15 bd a0 f0 d8 3c
       -0.031616032 0.058489025 -0.036617342 0.026481926

net.5.bias f4 [64]
000000 ed 28 6a 3d 39 89 22 bc 87 7f f2 3c c3 33 da bc
       0.057167936 -0.009920412 0.029601825 -0.02663601
000010 fa 1e ef bc 7e 79 46 ba f5 c3 cf 3c 4f 33 0d 3d
       -0.029189575 -0.00075712043 0.025361994 0.03447276
000020 3e 48 c3 3c 33 79 3a 3d e6 c3 57 bc 48 57 4b 3d
       0.023838159 0.04552574 -0.013169264 0.049643785
000030 66 28 12 3d 0e ce be bc 33 3d 13 bb 82 f3 cb bb
       0.03568306 -0.023291614 -0.0022466897 -0.0062240968
000040 27 e8 68 3c a6 62 68 bd e9 cb 54 3d c1 3c 17 3d
       0.014215506 -0.056734703 0.051952276 0.036923174
000050 ed 8d 3b bb 62 d5 46 3c 37 77 01 bd f6 91 3d bd
       -0.002861853 0.012135835 -0.031607833 -0.046281777
000060 6e 90 33 bd c9 ad fe bc 86 d1 88 3c d6 29 91 3a
       -0.04383891 -0.031088727 0.016701471 0.001107509
000070 27 24 50 3d 90 bf 6b 3d 37 3e da 3b 80 8f 6a 3d
       0.050815728 0.057555735 0.0066602486 0.05726576
000080 df bb 04 bd 07 ee bd 3b 4b 20 de 3c 0b 24 a9 3c
       -0.03240573 0.0057961973 0.027115008 0.02064707
000090 79 11 ed 3c a7 ad aa bc 0d ca bd bb db 94 2f bd
       0.028938996 -0.020834757 -0.0057919086 -0.04286657
0000a0 6d b2 83 bc a5 b5 f2 3b 71 9a 16 bd 43 d2 58 bd
       -0.016076291 0.0074069076 -0.03676838 -0.052934896
0000b0 f0 0d 4d 3d 6b 23 65 bd 0b d4 0c bc ef 77 c8 bc
       0.05006212 -0.05594198 -0.008595477 -0.024471251
0000c0 3e 0b 79 bc 56 2f 62 bc 64 16 bc bc 4e 75 f6 bc
       -0.015200434 -0.013805231 -0.022959895 -0.030085232
0000d0 11 c5 5b 3d 88 f2 01 bd 03 43 3d bd 7e 25 2d 3c
       0.053654734 -0.031725436 -0.046206485 0.010568021
0000e0 3b 1c 6d 3b 93 1f a9 bc 40 2d 9c bb fd b2 0d 3d
       0.0036180157 -0.020644939 -0.0047661364 0.034594525
0000f0 6b c3 05 bd ba 38 a3 3a 52 88 aa bb ca b7 41 bd
       -0.03265707 0.0012452819 -0.005204239 -0.047294416

net.6.weight f4 [64]
000000 43 ed 63 3f b9 fe 2d 3e 87 57 cb 3e d8 01 53 3f
       0.8903391 0.169917 0.39715216 0.8242469
000010 e8 ac 4a 3f f5 bf 28 3f 9e ab a8 3e 5e e2 e5 3e
       0.79170084 0.65917903 0.32943434 0.44899267
000020 62 5d e1 3e 9c 77 3d 3f 12 06 3a 3f 84 98 8d 3d
       0.44016558 0.74010634 0.7266551 0.06913856
000030 00 ba c3 3e 86 a7 5b 3e 0d 18 e0 3d c1 ef ae 3e
       0.38227844 0.21450624 0.10942087 0.34167293
000040 7d 46 8e 3e 73 66 1d 3f 9f 35 27 3f 0e fb 01 3f
       0.27788153 0.6148445 0.65316194 0.50773704
000050 33 4b 33 3e 35 99 4e 3f 90 cd cf 3e fb 6d bc 3e
       0.17509155 0.80702525 0.4058652 0.36802658
000060 ed ff 67 3f aa 23 f7 3e 7d 7a c8 3e 82 e0 5c 3f
       0.90624887 0.48269397 0.3915595 0.8628007
000070 1a 7b 36 3f c6 da d4 3e ef ad 5e 3f 68 65 36 3e
       0.7128159 0.4157316 0.8698415 0.17812121
000080 17 3a 06 3f cf b6 4d 3f eb 37 25 3f b2 a2 77 3f
       0.5243239 0.8035707 0.6453845 0.9673263
000090 53 13 68 3f e0 bf 4e 3f 1d 23 6a 3f 2a 58 13 3e
       0.90654486 0.8076153 0.9145983 0.143891
0000a0 bf e8 a1 3e 1d ac 2b 3f b7 da d8 3e e2 6d 37 3f
       0.31622884 0.670595 0.42354366 0.7165204
0000b0 0c 57 30 3f a3 50 fa 3e 5c 92 71 3f 44 ca 29 3f
       0.68882823 0.48889646 0.9436395 0.6632426
0000c0 09 89 11 3f 3a b0 c1 3e 7c 83 3d 3e ec 98 53 3f
       0.56849724 0.37829763 0.18507189 0.82655215
0000d0 b2 e1 8d 3c a3 f5 cb 3e 4c 97 80 3e 14 8c 2b 3f
       0.017319534 0.39835843 0.2511543 0.6701062
0000e0 92 fd d7 3e 30 8b 9f 3d 21 35 bf 3e 26 de b9 3e
       0.42185646 0.0779022 0.37345222 0.36302298
0000f0 f8 c4 44 3e d0 e9 26 3f 1a de 26 3e f9 2d db 3e
       0.19215763 0.6520052 0.16295663 0.42808512

net.6.bias f4 [64]
000000 1a 6e 3c bc 07 cf b1 3b 76 8f f9 3a 37 90 43 bc
       -0.01150086 0.005426291 0.0019039947 -0.011936239
000010 0d f8 1b bc 1c ec b2 bc 5c c0 d2 bb 92 64 e1 3b
       -0.009519589 -0.021841101 -0.0064316224 0.006878444
000020 81 25 87 bc 33 bd 1d bc be 2e b6 bc a9 0c 7e 3c
       -0.016497375 -0.009627628 -0.022239085 0.015505948
000030 26 ce cd 3b a1 da 9d 3b 25 6e f1 3b 83 25 83 bb
       0.0062806783 0.0048173224 0.0073678666 -0.0040022745
000040 eb 5e 1b 3a 38 d3 2e bc 0e 54 b3 bb 74 f6 b4 bb
       0.00059269246 -0.010670476 -0.0054726666 -0.0055225436
000050 d8 d9 c7 3a 3a 72 5e 3b 1e 84 3b bc 2e cc cc 39
       0.0015247418 0.0033942596 -0.011445073 0.00039062038
000060 09 ea c7 bb ea 35 57 ba 4f a8 45 bc 57 71 4b bc
       -0.006100897 -0.0008209633 -0.012064054 -0.012417159
000070 b9 8e 23 bb b6 87 33 bc 8c 3c f5 bb d4 cd 60 bb
       -0.0024956896 -0.010957649 -0.0074840244 -0.003430237
000080 02 53 31 bc 78 fe 88 bc 9a a5 4e bc 1c bb 7c bc
       -0.010823013 -0.016722903 -0.012612725 -0.01542547
000090 01 9f 8f bc 8e 2b 93 bb f7 4f 8f bc 18 ee 91 bb
       -0.017531874 -0.004491276 -0.017494185 -0.004453432
0000a0 f0 91 38 3b 55 98 81 bc 2b ec de bc 04 84 e2 bb
       0.0028163157 -0.015819708 -0.027212223 -0.00691271
0000b0 6b 49 15 39 4f 3c dc bb 81 dc a3 bc 50 cd 36 bc
       0.00014237098 -0.0067210565 -0.020002605 -0.011157349
0000c0 e8 bb 22 bb d5 be 8b bc 91 7f f2 3b 7d 66 17 bc
       -0.002483124 -0.01705877 0.007400461 -0.009240744
0000d0 d7 c0 04 3c 17 79 94 bb 87 99 41 3c 49 55 7b bc
       0.008102617 -0.0045310366 0.011816389 -0.015340158
0000e0 c8 90 e1 bb 8f e0 03 3b 05 5c a0 3b 76 e7 f7 bb
       -0.0068837143 0.002012286 0.004893782 -0.007565434
0000f0 05 78 db bb 89 3a ab bb 85 1d 59 bb c2 6f 84 3b
       -0.006697657 -0.005225484 -0.0033129167 0.004041643

net.6.running_mean f4 [64]
000000 3a af 93 3c 5e 98 7e be 48 10 ae bd ec da 25 be
       0.01802789 -0.24862811 -0.08499199 -0.16196793
000010 ef 55 97 bd 7f fc 15 3e c8 db fc 3d e4 af 8b be
       -0.073894374 0.14647101 0.123466074 -0.2728263
000020 82 b8 85 3e 29 11 2c 3e ab b5 14 3e 26 c9 b3 3e
       0.2611733 0.16803421 0.14522426 0.35114402
000030 6b 25 fb 3d 9e b0 95 3d a1 19 8d 3d 43 20 4a 3e
       0.12262996 0.07309078 0.06889654 0.1973887
000040 99 c5 b6 bd 82 21 42 bd 1c 9f 37 be cd 76 87 bd
       -0.089244075 -0.047395237 -0.17931789 -0.06614456
000050 33 f4 82 bd c3 90 ec be e3 54 89 3d 46 63 b1 bd
       -0.063942336 -0.46204194 0.06705644 -0.08661513
000060 b5 9a 4a be 16 3a b6 3d d4 0c af 3d eb 3c 86 3e
       -0.19785579 0.08897798 0.08547369 0.26218352
000070 ed 9d b7 be eb 7b 8b 3e b9 6e 24 bc 5d 79 61 3e
       -0.35862675 0.2724298 -0.010036164 0.22018953
000080 c4 d5 9a 3d 0b df 70 bc a6 44 ce 3d 79 c8 3b 3e
       0.07560304 -0.014701615 0.100716874 0.18338193
000090 8d f7 4f bc cf 98 44 be 81 53 2a 3d 67 d3 4d 3e
       -0.012693298 -0.19198917 0.04158354 0.20100175
0000a0 63 aa 99 3d 7c 6f a7 3e 47 d5 ab 3d 5d 97 5b be
       0.07503202 0.32702243 0.08390289 -0.2144446
0000b0 9d 7a 59 3d 58 8d 95 bd 97 98 c6 3d a0 85 5b bd
       0.05309545 -0.0730235 0.09697073 -0.05359423
0000c0 90 fd 59 be f8 11 b1 3d 3c 44 8e 3e c5 e3 ab 3d
       -0.21288133 0.086460054 0.27786434 0.08393053
0000d0 97 0a 8a be d9 75 66 3e 0c ab 73 be 2d 06 c1 3d
       -0.26961204 0.22505893 -0.23795718 0.09425006
0000e0 2c 00 19 38 b3 94 a4 3d 95 cf 45 be 79 0d 0f 3d
       3.6478203e-05 0.080361746 -0.19317468 0.034924958
0000f0 1a 71 b7 3d 51 c4 97 be e1 51 b1 3d c5 54 c6 be
       0.08957119 -0.29641965 0.08658195 -0.3873655

net.6.running_var f4 [64]
000000 b2 2e f8 3d 7f e3 31 3d 0b 6d 05 3d 67 cd 84 3d
       0.121182814 0.043429848 0.032574695 0.0648449
000010 fc a7 02 3d 3c 8a 14 3d 7d 4a b6 3c 66 c9 98 3d
       0.031898484 0.036264643 0.022252316 0.07460289
000020 9f 50 11 3d ef 83 07 3d a2 e9 ef 3c c4 86 2d 3d
       0.035477277 0.033084806 0.02928621 0.04236485
000030 bd a4 08 3e 21 f7 e1 3c ae 28 c7 3c d6 fb 3a 3d
       0.13344093 0.02758366 0.02431139 0.045650326
000040 77 d9 ef 3c 29 c0 21 3d 99 d3 58 3d 84 88 58 3d
       0.0292785 0.0394899 0.05293617 0.052864566
000050 58 41 a3 3d 0d 66 29 3e d2 3d c2 3c 99 5d 93 3d
       0.07971448 0.16542836 0.023711119 0.07195587
000060 22 4f 9e 3d bb 84 11 3d 90 9e 80 3c 8e 5a 0d 3d
       0.07729937 0.035526972 0.015700608 0.034510188
000070 1c 82 b2 3d 4f 4b 55 3d 26 73 3e 3d da 20 92 3c
       0.08716223 0.052073773 0.046496533 0.01783793
000080 1c 44 2d 3d 36 31 a3 3d c0 b9 9a 3d 07 a7 60 3d
       0.042301282 0.079683706 0.0755496 0.05484679
000090 01 59 a0 3d 60 d5 93 3d 4d ce a9 3d 1e 52 11 3d
       0.07829476 0.072184324 0.08291302 0.035478704
0000a0 87 36 e9 3c e7 ba 65 3d e2 7e 0e 3d 8c f5 28 3d
       0.028468383 0.056086447 0.034788974 0.041249797
0000b0 41 51 66 3d 6e cb c6 3c 24 16 78 3d cb dc cf 3c
       0.056229834 0.024266925 0.06056799 0.025373837
0000c0 4f c9 96 3d a9 9a 11 3d f0 9f 58 3d 45 6c fe 3c
       0.07362615 0.035547886 0.052886903 0.031057486
0000d0 08 29 c3 3d e7 35 e8 3c a7 c7 a5 3d 07 b3 20 3d
       0.095293105 0.028346015 0.08094721 0.039233234
0000e0 c9 77 9f 3c 88 d0 b7 3c 38 3d 3f 3d a9 8f 0d 3d
       0.019466298 0.022438303 0.046689242 0.034560833
0000f0 e8 27 fd 3c 89 35 5a 3d eb e2 23 3d b4 73 13 3e
       0.030902818 0.05327371 0.040011328 0.14399606

net.8.weight f4 [128, 64, 3, 3]
000000 4c f8 ab 3c 15 2e fd bc ae 1a 0e bd 59 ed e4 3c
       0.02099242 -0.030905763 -0.034693412 0.027945207
000010 b7 9a fc 3b 2c e9 73 bc f9 bf 1b bd 1e f0 c1 bc
       0.007708873 -0.0148871355 -0.038024876 -0.023674067
000020 43 81 c3 3c 75 24 dc bc 32 d7 bc 3b 8d 1c 68 bc
       0.023865348 -0.026872853 0.005762958 -0.014166963
000030 b2 3f 30 bd 29 bd ad bc 67 35 ae 3c 4c 42 14 3d
       -0.043029495 -0.021208363 0.021265699 0.036196038
000040 b5 2d 01 bd 11 72 08 3d 40 ed d9 3c dc 09 e1 3c
       -0.03153773 0.033311907 0.026602387 0.027470522
000050 a3 1f e7 bc d5 49 16 bc ca 1d e4 3c 29 d6 20 bd
       -0.028213328 -0.009172876 0.027846236 -0.03926674
000060 2b f6 a3 3c 1e 5a 5d 3c b4 ae 17 bd 41 2c 1a bd
       0.020014843 0.013510255 -0.037031844 -0.03763986
000070 99 b5 85 3b 35 62 25 3b d2 92 9e 3c 0d 42 e3 3b
       0.004080486 0.0025235538 0.019357119 0.006935364
000080 dd 1e de 3c 34 f0 55 3c 38 91 d2 bc ba 7c 23 bd
       0.027114326 0.013057757 -0.025704011 -0.03991387
000090 75 11 3c 3c 2a ed 94 bc 54 83 8d bc 86 f3 d8 bc
       0.011478771 -0.018179495 -0.017274536 -0.026483309
0000a0 4f 3d 82 bb df af 12 bc e5 9d 23 bc 45 d6 46 3c
       -0.0039745937 -0.008953064 -0.009986375 0.012136047
0000b0 8b 9d 23 3d 81 34 81 39 a1 82 45 3c 69 a4 f1 ba
       0.039945167 0.00024643916 0.01205507 -0.0018435839
0000c0 9d 97 c7 bb ab 5d f4 3c b4 bc b1 3c 04 7c 24 bd
       -0.0060910718 0.02982982 0.021696426 -0.040157333
0000d0 4d b7 44 bd ae 0b 3d 3b f8 fe 33 bd 8a 82 2a bc
       -0.04802637 0.0028846073 -0.04394433 -0.0104070995
0000e0 c4 1a 2f bd ea b3 2b 3b 28 59 12 3d a8 b2 ff 3c
       -0.042750135 0.0026199766 0.035729557 0.03121312
0000f0 ea 29 f6 bc 77 a1 16 3d e4 f8 b3 bc b1 93 0e bd
       -0.030049283 0.03677508 -0.021969266 -0.03480882
000100 3c 50 f4 bc 3b 2c 80 bc f7 87 25 bb 74 14 7e 3c
       -0.029823415 -0.01564609 -0.0025258043 0.015507806
000110 08 21 0c 3d 39 49 97 3c 8d a2 dc bc fb 36 ee bc
       0.03421119 0.018467532 -0.026932979 -0.029078951
000120 0a 86 cf bc 93 83 dd 3b 4d b5 34 bc fa 67 ac 3c
       -0.02533247 0.0067600696 -0.011029554 0.021045674
000130 64 1e 84 3c 37 06 17 3d 69 19 50 bd 38 fa f2 3c
       0.016127773 0.03687116 -0.050805483 0.02966033
000140 a1 e8 22 3d 59 53 3e bc 85 f0 03 bd 7f fe ac bb
       0.039772633 -0.011616551 -0.0322118 -0.0052793617
000150 fa e5 5b bc ec 81 26 bc 9c 25 59 3c 78 29 aa bc
       -0.01342153 -0.010162812 0.013253596 -0.020771727
000160 ea 88 da 3b b0 3a e3 3b b1 eb cb 3c 9a b7 3e bd
       0.0066691535 0.0069344863 0.02489266 -0.046561815
000170 ad e9 d2 bc a0 b5 5b 3c b5 7f 69 3c 42 50 f3 3b
       -0.02574619 0.013410002 0.014251639 0.007425339
000180 71 47 94 3c cb 8e c1 3c 5a 58 0b bd 2e ec 94 3c
       0.018100472 0.02362766 -0.034019805 0.018179026
000190 7c d9 1a bd 0e 6e 2b bd fe 1c 35 bd 55 af 8f 3c
       -0.037805066 -0.041853003 -0.044217102 0.01753966
0001a0 17 ae 00 bc bb 01 2a bd 88 e4 68 3c 22 cb 27 bd
       -0.007854006 -0.041505557 0.014214642 -0.040965207
0001b0 1d 53 93 bc d4 70 cf 3c e4 05 c9 3c 04 54 5b 3c
       -0.017983967 0.025322355 0.024538942 0.01338673
0001c0 73 de d7 bc 20 b6 5b bc 4b 6d 5e 3c 99 ed 8f bb
       -0.02635119 -0.013410121 0.013575862 -0.0043923375
0001d0 66 1f c4 3b b0 a7 cb 3c 23 4e 28 3c 44 85 18 3d
       0.0059851883 0.024860233 0.0102725355 0.037236467
0001e0 11 93 92 3c 98 b7 ce 3c 97 3f 20 3c e0 91 0a 3d
       0.017892392 0.025234029 0.009780786 0.033830523
0001f0 63 43 57 3c 9c 4f 09 3d 6a 92 88 bc eb 8f 5a bc
       0.013138625 0.033523187 -0.016671378 -0.013339977
000200 eb 3a a6 bc bb 06 ef 3c 1e be ad 3b 80 0c bc bc
       -0.020291766 0.029178014 0.0053022048 -0.02295518
000210 35 4e 8d 3c ae 3f 89 3c 17 68 09 3d 81 cf 13 bd
       0.017249206 0.016753998 0.033546533 -0.036086563
000220 a0 61 32 bd b6 37 5e 3c ee 58 8a bb 5c 61 fd 3b
       -0.043550134 0.013563087 -0.004222027 0.0077325534
000230 64 24 67 b8 80 11 23 bd 82 d8 24 bc d8 2c 1f bd
       -5.5108583e-05 -0.03981161 -0.010061385 -0.038861126
000240 50 10 72 3c f8 4d 09 3d 1b 5d ef 3c 52 cd 5d bc
       0.014774397 0.033521622 0.0292192 -0.013537722
000250 e6 e7 b1 bc 43 fa 07 bd 66 5b cf bb f4 be 17 3d
       -0.021717023 -0.033197653 -0.006328034 0.03704734
000260 b7 2d bc bb 7d ff 2f bd 1d 23 e4 3c 09 03 8c ba
       -0.0057427543 -0.042968262 0.027848775 -0.0010682057
000270 fd 3d 03 bd ea 99 e0 3b 5f c5 09 3d e2 27 1a bd
       -0.03204154 0.0068542855 0.033635493 -0.03763569
000280 25 bd 72 3c ba 80 d3 bc d4 38 b8 bc be 50 ae bc
       0.014815603 -0.025818218 -0.022488035 -0.021278735
000290 31 5e 24 3c e1 bf cf bc 9d 82 18 bc 93 22 c4 3c
       0.010032223 -0.02536005 -0.009308484 0.023942268
0002a0 57 93 f0 bb a9 c3 b9 3c 71 18 70 bc 2a 20 cd bb
       -0.007341783 0.022676306 -0.014654265 -0.006259938
0002b0 6f 04 1c bd 84 94 24 bd f5 ae 54 bc ab ca 27 bd
       -0.038090166 -0.040180698 -0.012981166 -0.040964764
0002c0 34 53 b3 bc b2 56 8f 3a 8a 0c 0a 3d f1 1f 4f bc
       -0.02189026 0.0010935871 0.033703364 -0.012641893
0002d0 96 ae 16 3d 49 94 4d bd 2f 75 15 3c 76 c2 cc 39
       0.036787592 -0.050190244 0.009122177 0.00039054797
0002e0 bd c5 3d bd f3 0e a1 bc 06 13 34 3d 91 2b 21 bd
       -0.046331156 -0.019660449 0.043963455 -0.03934819
0002f0 f1 1b b4 ba 94 08 30 3c b6 40 00 bd 6f 4e 68 bc
       -0.0013741237 0.010744233 -0.031311713 -0.014178856
000300 14 35 a7 bc c6 3b d4 3b dc bd c3 3c 48 c3 a5 3b
       -0.020411052 0.006476852 0.023894243 0.0050586797
000310 10 cf c3 3c 7d 61 24 3c c8 25 66 bd 70 05 16 bd
       0.023902446 0.010033009 -0.056188375 -0.03662628
000320 13 6b fc 3c 66 21 17 3c 40 01 85 bc a4 9b 3b 3d
       0.030812776 0.009224271 -0.016235948 0.045802727
000330 6f e9 da bb 50 f0 79 bc cb 83 21 3d d8 c2 99 3c
       -0.0066806595 -0.015255049 0.03943233 0.018769667
000340 30 bb 16 bd 55 9b 27 bd b3 bb 11 3c 37 ac e2 3b
       -0.03679961 -0.04091962 0.008894849 0.0069175023
000350 4f 8b f8 bc 91 45 1a bb 5f 09 48 3c 5e 74 b3 3c
       -0.030339865 -0.002354 0.0122092655 0.021906074
000360 59 b6 4d bc f4 8c e6 3c f3 e7 bb bc 5e 87 e4 bb
       -0.012555682 0.028143384 -0.02293775 -0.006974145
000370 c1 29 3d bd a1 36 12 bc e2 a2 1e bd cf 2c db 3c
       -0.046182398 -0.008924157 -0.038729556 0.026754765
000380 5b 5d 82 bc 8b fb a5 3b ea a7 54 ba 8b 1e 03 bc
       -0.015913656 0.0050653866 -0.00081121793 -0.0080028875
000390 61 db 1a 3d 91 f8 3d bd e0 ae 14 3d 34 18 04 bb
       0.037806872 -0.04637963 0.036299586 -0.0020156028
0003a0 ac ab 17 39 1b 98 55 3c a9 c7 8b bc 41 52 c0 3c
       0.00014464435 0.013036753 -0.017062979 0.023476722
0003b0 e4 2b 44 bc 01 c7 e7 3c 2e d6 64 3c 7a ae 7f 3b
       -0.011973355 0.028293135 0.01396708 0.0039013908
0003c0 6e 5b 82 3c 41 d8 5b bc ac 43 92 39 10 b0 81 3c
       0.015912738 -0.013418258 0.0002789771 0.015831023
0003d0 6d cf 01 3d 09 26 1c 3d 95 5f 0f 3d 3a f2 10 bd
       0.031691957 0.03812221 0.035003264 -0.035387255
0003e0 f4 b4 8a 3c 88 c7 95 3c 37 30 67 bb f0 2f 0c bd
       0.016931988 0.01828362 -0.003527654 -0.034225404
0003f0 63 ae 0c bd 99 7d 00 bd 74 e4 b3 3b f0 33 d6 3b
       -0.034345996 -0.03136978 0.00548988 0.006536953

net.8.bias f4 [128]
000000 94 49 39 bc 8f a5 4f bc b1 c7 09 3c 5f e0 9a 3c
       -0.011309046 -0.01267375 0.008409427 0.018905817
000010 e0 08 12 bd 86 51 bf 3b 88 f6 d8 bc 44 91 af bc
       -0.035652995 0.005838576 -0.026484743 -0.021431573
000020 bf fd 39 bc ad 02 19 bd 2c 44 fa 3b 9c a5 1b bd
       -0.011352002 -0.037356067 0.0076375213 -0.037999734
000030 b9 ae 7b bc 33 f1 07 bd c5 a5 86 3c 07 21 c6 3a
       -0.015361481 -0.03318901 0.016436467 0.0015116044
000040 60 24 83 bc b9 b6 a0 3c f8 3e f9 3c fa 3e bf bc
       -0.016008556 0.019618379 0.030425534 -0.02334546
000050 37 a3 15 bd 08 f0 17 3c 3b dc d1 3c 7e 17 35 3c
       -0.036532607 0.0092735365 0.02561771 0.011052964
000060 5c 56 0a 3d 0e 87 29 bd 2e d0 0a 3d 4b 9c b2 bb
       0.033773765 -0.041388564 0.033889942 -0.0054507605
000070 0f a1 7c bc ec 63 43 3c b1 a0 01 3d 71 59 a9 bc
       -0.015419259 0.011925679 0.031647388 -0.020672532
000080 ae 0b 2a bd 5d 58 44 3c 10 ee 2e 3c ed c9 81 3b
       -0.041515045 0.011983958 0.010676876 0.003960839
000090 eb 11 54 3c 7f aa 9d 3c 89 72 14 3c 28 5b bd 3c
       0.012943725 0.019246338 0.00906051 0.023114756
0000a0 92 f3 52 3c 9d 8f 89 bb d4 8e be bc d6 2d 15 bd
       0.0128754545 -0.0041980282 -0.023261465 -0.036420666
0000b0 0e 68 fb 3b b1 79 19 bd 96 75 d2 3c 41 1a 28 3d
       0.0076723164 -0.03746957 0.025690835 0.041040663
0000c0 99 37 03 3d 5f ed 7e 3c 6d 54 f7 3c cb 25 22 3d
       0.032035444 0.015559523 0.030191625 0.039586823
0000d0 c5 5b f9 3c f0 a0 2f bc 4e 58 b3 3c 59 41 04 bc
       0.030439267 -0.010719523 0.021892693 -0.008072221
0000e0 10 ae 0a bd bb 38 64 3c 47 23 1a bc a3 45 cb bb
       -0.033857405 0.013929541 -0.009407825 -0.0062033697
0000f0 65 d7 d1 bb 04 41 2e bc 70 a8 99 bc ce 49 13 3d
       -0.006403851 -0.010635618 -0.018757075 0.035959058
000100 7e 02 e5 3c 30 a4 fd bb 49 03 16 bd 08 40 e4 bc
       0.02795529 -0.00774052 -0.036624227 -0.027862564
000110 1f 3d 25 bd 46 eb 83 bc 43 97 6d 3c 72 ff 8f bb
       -0.040341493 -0.016103398 0.014501396 -0.004394465
000120 a4 9d 04 3d d0 aa 1e 3d 57 25 b2 bc 58 a1 22 bd
       0.0323769 0.03873712 -0.02174632 -0.03970465
000130 ac 89 a7 3b 22 48 92 bc 13 7a cf bc 54 11 d5 bc
       0.0051128473 -0.017856661 -0.025326764 -0.02600924
000140 64 5b c5 3c de 3b 90 bc dd 03 12 bd 7c 1a 31 3c
       0.02409143 -0.017606672 -0.035648216 0.010809537
000150 99 4c 93 3c 01 47 a8 3c f2 36 11 3c 6b a0 0f bc
       0.01798086 0.02054167 0.008863198 -0.008766274
000160 9d ab 77 bc d4 92 dc 3c 67 9c 8a bc 36 46 1a bc
       -0.015116599 0.026925482 -0.016920282 -0.009416154
000170 a7 42 75 bc df 62 91 bc fd 3a 07 3d 8b 9c 28 bd
       -0.014969504 -0.01774734 0.03301524 -0.041164916
000180 b0 79 98 bc 46 56 10 3d bf 53 26 3d 5b 56 7b 3c
       -0.018612713 0.035238527 0.04060721 0.015340413
000190 a7 04 3e 3c bb 04 0d bd b5 0f ab bc e1 45 9b bc
       0.011597789 -0.03442834 -0.020881513 -0.01895422
0001a0 b2 14 ba bc 19 ef ae bc 17 bf ef bc e2 f3 1a bd
       -0.022714946 -0.021354245 -0.029265923 -0.03783024
0001b0 3b da e7 3c 3e 0e 26 bb 18 03 97 bc 1c f3 b4 3c
       0.028302303 -0.002533808 -0.018434092 0.02208858
0001c0 6b 29 30 3c 8f 6e 11 3d fb ed 2a 3d be eb 74 bc
       0.010752062 0.035505828 0.041730862 -0.014948783
0001d0 30 79 eb bc 41 bc 8e bb f2 59 df bb 06 c5 e1 bb
       -0.02874431 -0.0043559377 -0.0068161422 -0.006889942
0001e0 8c 52 9a bb f7 24 cc ba c1 62 93 bc 8a 31 95 3c
       -0.0047095474 -0.0015574981 -0.017991425 0.018212099
0001f0 f1 34 8b bc c7 9e d3 bc 94 38 00 3d b1 04 ff bc
       -0.016993018 -0.025832547 0.031303957 -0.031130167

net.9.weight f4 [128]
000000 b4 b9 92 3c bd c4 98 3e 0f f9 71 3f 70 33 be 3e
       0.017910816 0.298376 0.9452066 0.3714862
000010 3f c9 a5 3e dd 7d 59 3f ef ec 5e 3f 9f cd 45 3f
       0.323801 0.8495768 0.8708028 0.7726688
000020 f9 60 41 3f c4 31 2f 3d 81 3b 4d 3f 12 20 3a 3f
       0.75538594 0.04277207 0.8016892 0.72705185
000030 bf 28 e8 3e 50 18 e7 3e e5 c7 b2 3e 2b a6 d4 3e
       0.45343587 0.45135736 0.34918132 0.41533026
000040 35 a3 f4 3e 99 44 4b 3e d8 d6 56 3f f7 31 d0 3e
       0.47780767 0.19850387 0.83921576 0.4066312
000050 f1 1f 80 3f 71 0c 23 3f b7 65 22 3e af 16 c6 3e
       1.0009748 0.6369086 0.15859114 0.3868918
000060 ad 09 a9 3d 40 f5 ff 3d ed cd 39 3f 3a 65 e3 3e
       0.08253799 0.124979496 0.7257984 0.44413167
000070 1f 5e 07 3e fb f8 2d 3e 48 14 fa 3e 5d e5 52 3f
       0.13219498 0.1698951 0.48843598 0.8238123
000080 dd 15 9b 3e 9a 5e b1 3e 4e cb e8 3c 2e 4b 34 3e
       0.30290118 0.34642488 0.028417256 0.17606804
000090 12 b9 d0 3e 36 d7 16 3f 93 01 6b 3e dd e4 e0 3e
       0.40766197 0.58922136 0.2294982 0.4392461
0000a0 de 0c 67 3f eb 46 1a 3f ed dd 6a 3d 23 5b 4e 3f
       0.9025401 0.6026446 0.05734055 0.80607814
0000b0 2c a9 b0 3e d6 57 ba 3e 60 6f 31 3f 45 bb 39 3e
       0.34504068 0.36395139 0.6931057 0.18137844
0000c0 9d 6d 8c 3e df b8 3d 3f f5 7f eb 3d 71 56 61 3f
       0.27427378 0.74110216 0.11499015 0.88022524
0000d0 f9 8e 21 3f c1 8c 44 3d 70 39 0b 3e f6 da b4 3e
       0.63108784 0.047985796 0.1359613 0.35323304
0000e0 ea db 06 3e 31 c3 26 3f 26 7d 66 3f f8 56 4f 3e
       0.13169828 0.6514159 0.9003471 0.2024802
0000f0 21 ab be 3c b5 b9 22 3f 08 46 14 3f 29 1f 1a 3f
       0.02327496 0.63564616 0.5791936 0.60203797
000100 f1 e6 10 3e 8a 93 39 3f 91 d0 07 3e 90 19 96 3e
       0.14150597 0.7249075 0.13263156 0.29316378
000110 21 2f e7 3e 91 49 1f 3f a4 ba 70 3f 96 d0 4b 3e
       0.45153144 0.6222163 0.9403479 0.19903788
000120 02 09 e2 3e d2 87 2f 3f e2 73 c4 3e f7 80 3d 3f
       0.44147497 0.6856662 0.38369662 0.7402491
000130 d0 8d 61 3e 57 6a bb 3e c7 0f 94 3e 80 1c d4 3d
       0.22026753 0.36604568 0.28918287 0.103569984
000140 76 9e 29 3d 4f 78 67 3f 6c aa a7 3e 03 dc 22 3e
       0.041410886 0.9041795 0.3274721 0.1590424
000150 51 13 82 3d ac e2 f4 3e 20 e1 f7 3d 41 f0 31 3f
       0.063513406 0.47829187 0.12103486 0.69507223
000160 39 15 cc 3e 0b 17 3d 3e 76 36 78 3f 83 fd 8b 3e
       0.39859942 0.18465821 0.969581 0.27341852
000170 12 9d ff 3e 68 e3 bc 3e 7d 81 1f 3f 72 19 84 3e
       0.49924523 0.36892247 0.6230696 0.25800663
000180 c0 7d 23 3f 87 aa 63 3f 46 28 28 3f 21 46 b2 3e
       0.63863754 0.8893208 0.6568645 0.3481913
000190 35 d1 26 3f 4f 5b 80 3f 7f 47 de 3e b3 d8 84 3e
       0.65162975 1.0027865 0.43413922 0.25946578
0001a0 5c 56 5e 3f 37 85 13 3f 11 04 aa 3d 3c bb e3 3e
       0.86850524 0.57625145 0.08301557 0.44478786
0001b0 1c 32 e3 3e 30 fd de 3c bc d5 5e 3f c0 18 2e 3f
       0.44374168 0.027220339 0.8704488 0.68006516
0001c0 c3 02 32 3f 6f 08 95 3e 61 bf 80 3f 6f 2e 61 3f
       0.69535464 0.29107997 1.0058404 0.8796148
0001d0 0b 0c 99 3e d6 dd 94 3e c4 9b 31 3e 62 80 7c 3f
       0.29892 0.29075497 0.17344576 0.98633397
0001e0 5d db 53 3e a4 e2 2a 3f e6 21 6f 3f ef 61 1e 3f
       0.20689149 0.66752076 0.934111 0.61868185
0001f0 54 a8 dd 3e 14 57 c2 3e e4 49 9b 3c d6 08 cd 3e
       0.43292487 0.3795706 0.018956132 0.40045804
