D_B.pth (torch_old, 401728 bytes, 21 tensors)

net.0.weight f4 [16, 3, 3, 3]
0.1276308 0.012173457 0.010710162 -0.13779326 -0.016287483 0.113192745 -0.06328019 0.17943156
0.18020388 0.12727173 -0.18108508 0.15258045 0.051313005 -0.18689942 0.056342114 -0.09458648
-0.10525287 -0.008840931 0.088888355 -0.11316467 -0.13830999 -0.12524612 0.081448056 -0.019746942
-0.054673735 -0.10404488 0.0005983591 0.04075571 -0.07543396 0.04777286 -0.107386366 -0.10343565
0.14593878 0.178186 -0.118280396 -0.16126342 -0.035038583 -0.15461081 0.031061329 0.11499257
-0.09780975 0.015652897 0.18327731 0.16597216 0.11223774 -0.120785944 0.0433902 -0.029504292
0.09344546 -0.15786254 0.076970614 0.18981457 -0.16438422 0.07399842 -0.12689516 -0.061127685
0.16776368 0.16839515 -0.025197815 -0.044432793 0.16208403 0.026434889 0.05164792 0.12839109
0.16581227 0.056631077 0.045464978 -0.05029505 -0.071547754 0.14200145 -0.049638253 0.100992784
-0.2081187 -0.09788834 -0.13822582 -0.15057606 0.20661567 -0.07872135 -0.048374686 0.14796194
-0.16819347 0.057326403 -0.059384774 -0.015987154 -0.11906991 -0.070461445 -0.07102532 -0.10068911
-0.18903944 0.0037515145 0.109155424 0.066999815 -0.015297438 0.10958255 -0.17343052 0.033688184
0.012636109 0.049395572 0.08362104 0.036275398 0.20225683 0.009383028 0.17170574 -0.06665715
-0.012366566 -0.039038435 0.16805631 0.04096468 -0.16939794 -0.13464175 -0.09238531 0.053876907
-0.032960568 0.07893126 -0.12704575 -0.15741464 -0.072589345 0.069703035 0.13420445 0.045844413
0.19720887 -0.14761494 0.13918634 0.12365952 -0.05898087 0.1227162 -0.066478275 0.07970679
-0.18761243 0.1159569 0.0031099275 0.11460825 -0.009426103 -0.080625705 0.018316286 -0.15764096
0.13373926 0.12677677 0.08562873 0.05258038 0.053513415 -0.04116342 0.02413907 0.097501285
0.026556868 -0.15820935 0.025276557 0.105991796 0.07076681 -0.0070692124 -0.20942989 -0.043597475
0.14506157 -0.02761202 0.14426598 0.04088618 -0.091728844 0.08666274 0.19245589 0.017511413
-0.0009820932 -0.030600436 -0.11909794 0.04927694 -0.13387091 -0.037175786 0.133646 0.08526887
-0.14405996 -0.16316813 0.06310237 -0.102923505 0.07990927 -0.08894454 -0.05881203 -0.18619247
0.027640402 -0.00982629 0.096639596 -0.031689644 0.011946242 0.13583313 -0.18088174 -0.051912475
0.04061934 -0.17908517 -0.05956091 -0.08194174 -0.108269684 -0.1721091 0.14201872 -0.2075679
-0.005677583 0.039520007 0.14924064 -0.089286506 0.035167582 0.097872555 -0.0914296 -0.13250452
0.09822204 0.061842047 0.045398243 -0.09906444 0.09496156 -0.14313412 -0.055282142 0.115627214
-0.048228443 -0.025036601 0.11404161 0.18417281 0.041238744 -0.003525373 -0.06935584 0.07459645
-0.10608472 0.042457357 0.1837133 -0.1506969 0.14528279 0.008227634 0.14599419 -0.0136076
0.017988987 0.12230414 -0.15857936 -0.08610165 0.13151707 -0.0279222 0.1593817 -0.15399063
0.017016342 -0.1147231 0.00080269825 -0.13941894 -0.07231288 -0.12848556 0.20723332 0.13099107
0.08932852 -0.028665472 0.12607336 -0.08299224 0.07085933 -0.09140699 0.105727665 0.049144633
0.03470188 -0.15362702 0.16420867 0.058267597 -0.03182929 0.13486315 -0.05956219 -0.099739194
00000000: a6b1 023e 2e73 473c ad79 2f3c ad19 0dbe
00000010: 546d 85bc 99d1 e73d 0b99 81bd e8bc 373e
00000020: 5e87 383e 8553 023e 5e6e 39be 0d3e 1c3e
00000030: 962d 523d 9062 3fbe fdc6 663d 8eb6 c1bd
00000040: d18e d7bd 8dd9 10bc 190b b63d e1c2 e7bd
00000050: 22a1 0dbe 8540 00be 3dce a63d 57c4 a1bc
00000060: 91f1 5fbd 7b15 d5bd 33db 1c3a 76ef 263d
00000070: 1f7d 9abd 79ad 433d 62ed dbbd 12d6 d3bd
00000080: fa70 153e 6476 363e fe3c f2bd 3d22 25be
00000090: 9e84 0fbd 4c52 1ebe 5474 fe3c 3981 eb3d
000000a0: 7a50 c8bd 813a 803c 0cad 3b3e 9bf4 293e
000000b0: e6dc e53d 9f5e f7bd ecb9 313d fcb2 f1bc
000000c0: 5560 bf3d b8a6 21be c5a2 9d3d c05e 423e
000000d0: 5654 28be 7c8c 973d cef0 01be 0661 7abd
000000e0: 3eca 2b3e c76f 2c3e a66b cebc 29ff 35bd
000000f0: 5bf9 253e fb8d d83c c58c 533d f478 033e
00000100: b1ca 293e fdf5 673d 7c39 3a3d 2f02 4ebd
00000110: a187 92bd d468 113e 7b51 4bbd 4ed5 ce3d
00000120: 121d 55be af79 c8bd 128b 0dbe 9c30 1abe
00000130: 0f93 533e a938 a1bd 8924 46bd 5683 173e
00000140: e93a 2cbe 17cf 6a3d 733d 73bd 7ef7 82bc
00000150: edda f3bd 174e 90bd b975 91bd 1836 cebd
00000160: 8e93 41be f8db 753b e18c df3d 3337 893d
00000170: 1ba2 7abc d16c e03d c597 31be 9ffc 093d
00000180: af07 4f3c 0353 4a3d 8241 ab3d 8395 143d
00000190: 6a1c 4f3e 46bb 193c a1d3 2f3e 8b83 88bd
000001a0: 239d 4abc c4e6 1fbd f416 2c3e 95ca 273d
000001b0: a776 2dbe 87df 09be 8234 bdbd 08ae 5c3d
000001c0: a901 07bd b6a6 a13d 4818 02be 4e31 21be
000001d0: b9a9 94bd 77c0 8e3d e46c 093e 5ac7 3b3d
000001e0: 1ff1 493e 5f28 17be dd86 0e3e 3441 fd3d
000001f0: ed95 71bd a252 fb3d c325 88bd 503d a33d
00000200: 791d 40be d07a ed3d edcf 4b3b bbb7 ea3d
00000210: f16f 1abc 171f a5bd 090c 963c a26c 21be
00000220: f2f2 083e c5d1 013e 1e5e af3d 865e 573d
00000230: e230 5b3d f99a 28bd 4dbf c53c c1ae c73d
00000240: ca8d d93c a201 22be c810 cf3c 3a12 d93d
00000250: 30ee 903d daa4 e7bb ca74 56be 4493 32bd
00000260: 058b 143e 9a32 e2bc 76ba 133e 4478 273d
00000270: 55dc bbbd 3c7c b13d 2813 453e 1874 8f3c
00000280: 94b9 80ba c4ad fabc 9fe9 f3bd 9ed6 493d
00000290: 7515 09be a345 18bd 7fda 083e 72a1 ae3d
000002a0: 7484 13be 8c15 27be d13b 813d 8fc9 d2bd
000002b0: 79a7 a33d 8e28 b6bd e2e4 70bd 3da9 3ebe
000002c0: 206e e23c 73fe 20bc fbea c53d 00cd 01bd
000002d0: 2cba 433c d717 0b3e 1039 39be 2da2 54bd
000002e0: 7760 263d 1a62 37be 24f6 73bd 12d1 a7bd
000002f0: 7fbc ddbd 5e3d 30be 5b6d 113e ae8c 54be
00000300: 050b babb bbdf 213d 8ad2 183e d8db b6bd
00000310: e20b 103d 6871 c83d 713f bbbd 44af 07be
00000320: a328 c93d 164e 7d3d 82f3 393d 4ce2 cabd
00000330: 357b c23d c091 12be 876f 62bd f6cd ec3d
00000340: 308b 45bd 8f19 cdbc a68e e93d cc97 3c3e
00000350: f5e9 283d f209 67bb 6f0a 8ebd 06c6 983d
00000360: f242 d9bd c4e7 2d3d 571f 3c3e 4a50 1abe
00000370: 03c5 143e 33cd 063c 807f 153e 69f2 5ebc
00000380: a45d 933c 987a fa3d a162 22be 1056 b0bd
00000390: 69ac 063e 19bd e4bc f534 233e b8af 1dbe
000003a0: db65 8b3c f2f3 eabd 2b6c 523a d7c3 0ebe
000003b0: c618 94bd b891 03be f934 543e 8622 063e
000003c0: dff1 b63d dad3 eabc 6019 013e d6f7 a9bd
000003d0: b21e 913d 9733 bbbd bf87 d83d e24b 493d
000003e0: 8f23 0e3d 6750 1dbe 5126 283e 01aa 6e3d
000003f0: 6e5f 02bd 9119 0a3e 7cf7 73bd 1044 ccbd

net.0.bias f4 [16]
0.110039726 -0.092686385 -0.027081348 -0.15715505 0.18564007 0.031897582 0.24963968 -0.03077048
-0.26638937 -0.10774304 0.15273476 -0.07668171 0.21218109 -0.22182067 -0.04213217 -0.14087045
00000000: 825c e13d 5cd2 bdbd b4d9 ddbc 41ed 20be
00000010: 6e18 3e3e 0aa7 023d 8ba1 7f3e 6012 fcbc
00000020: 3064 88be 62a8 dcbd 8066 1c3e 4d0b 9dbd
00000030: 0046 593e f524 63be c892 2cbd 5840 10be

net.2.weight f4 [32, 16, 3, 3]
0.054224156 -0.07095557 0.0035195209 0.011613647 -0.08583119 -0.024002075 -0.039015356 -0.014300775
0.03126888 0.021411551 0.054795936 0.12002332 0.04551783 -0.008232672 0.03549986 -0.08932674
-0.061770502 -0.052672066 -0.01914373 -0.06768843 0.09429856 -0.04976831 -0.053842407 -0.059836067
0.0048525697 0.07553344 0.08277813 0.04776257 -0.03940837 0.0749752 -0.06224051 -0.0491611
-0.10265831 -0.06603359 0.001096379 -0.10549065 0.0057898504 -0.08093245 -0.07196079 -0.0335047
-0.023938745 -0.114889145 -0.037961077 0.03893988 0.05914535 -0.057868566 0.053844757 -0.057792652
-0.044642247 0.025481395 0.00052414025 0.0643882 -0.04266637 0.017871674 -0.10463688 -0.029031351
-0.10440063 0.022387499 -0.12861781 -0.11235652 0.04989394 -0.061404187 -0.044792447 0.04514288
-0.06608916 -0.07660155 -0.023309961 0.015464316 0.0042940625 0.045874536 0.00045836536 -0.0466973
0.01334172 -0.03549893 -0.030465607 -0.12121805 -0.178898 -0.12593727 -0.01462225 -0.09367116
-0.005256563 -0.08462638 -0.022496667 -0.10120386 -0.08008997 -0.055622816 -0.031471267 0.004959052
0.06971571 0.051951274 0.058919627 -0.055296857 -0.06796681 -0.013853338 0.08409541 -0.1339643
-0.063265674 -0.040192064 -0.05430153 0.0745046 0.13667895 0.17720789 -0.0693747 0.106666334
0.0077014184 0.08527212 -0.0056538475 -0.0134352585 -0.050233595 0.034592293 -0.07649478 -0.04464282
0.04358319 0.05408548 -0.055725828 0.028453467 -0.017887881 -0.01975738 0.009312575 0.13464634
0.022172702 0.06153688 0.021239383 0.06769717 0.06639019 -0.035669643 -0.08308773 -0.033111986
0.046830848 0.059569057 -0.08026085 0.011110005 -0.049591523 0.065297 0.037450533 -0.087621
-0.06581004 -0.0054073134 -0.06065387 0.038853616 -0.047143124 -0.088676535 -0.09142418 -0.035688363
0.090575494 0.0033617755 0.025932338 0.039591543 -0.10460961 0.052147474 0.09059841 0.12980059
0.028176991 0.06953258 -0.044175647 -0.020617194 0.047451828 -0.0040199533 0.05360145 0.014941994
0.011116384 0.0012707936 0.021579338 -0.043429922 0.048970968 0.051153876 -0.027460378 0.106133275
-0.04279636 0.004141186 0.052810032 -0.017312616 -0.018210579 -0.09237059 0.13036576 0.10265591
0.0110500585 -0.042217318 0.018876545 -0.03856682 -0.0018940123 0.025404755 0.02328198 -0.04134395
0.037028715 -0.008820443 -0.010944981 -0.041070707 -0.12814268 0.04332944 0.11564118 -0.0036379276
0.06355743 0.08663868 -0.063483946 -0.046887632 0.05885218 -0.089985795 -0.01655562 -0.04599992
-0.072514676 -0.061129496 -0.09588698 -0.14498061 0.022965068 -0.119429 -0.12702402 -0.07431265
0.023355719 0.12807845 0.00018508083 -0.011825938 0.09446372 -0.04220954 -0.10515028 -0.002011176
-0.028568337 0.04094116 0.10971927 -0.034813028 0.013370221 0.0057693934 -0.0026053695 -0.07851243
0.100224555 -0.010508103 0.08420445 0.030471748 -0.002708527 -0.091464296 0.054794833 -0.052357152
-0.12183123 0.08046684 -0.00084919424 0.09581715 -0.015011677 0.02118467 0.05973998 -0.021598285
0.01982354 0.051140632 -0.01856708 -0.06590462 -0.11161851 -0.096515074 0.029753903 0.06313405
0.026908154 -0.006147255 0.029474897 0.02315535 -0.019409958 -0.036875386 -0.06409871 0.097114116
00000000: 261a 5e3d 2751 91bd c3a7 663b 2b47 3e3c
00000010: 43c8 afbd 00a0 c4bc 91ce 1fbd cc4d 6abc
00000020: cc13 003d 4767 af3c b471 603d c9ce f53d
00000030: e770 3a3d 54e2 06bc 4d68 113d f0f0 b6bd
00000040: 1103 7dbd aabe 57bd 50d3 9cbc 3ba0 8abd
00000050: 9a1f c13d dbd9 4bbd db89 5cbd aa16 75bd
00000060: 4e02 9f3b 47b1 9a3d 9587 a93d afa2 433d
00000070: ac6a 21bd 998c 993d e8ef 7ebd 265d 49bd
00000080: 853e d2bd 9e3c 87bd 60b4 8f3a 7b0b d8bd
00000090: c9b8 bd3b eabf a5bd 2e60 93bd 393c 09bd
000000a0: 301b c4bc 004b ebbd 137d 1bbd 6c7f 1f3d
000000b0: 6542 723d 9707 6dbd 528c 5c3d fdb7 6cbd
000000c0: cada 36bd 5cbe d03c 7566 093a f6dd 833d
000000d0: eec2 2ebd 9e67 923c dc4b d6bd 28d3 edbc
000000e0: ffcf d5bd fd65 b73c 63b4 03be 2d1b e6bd
000000f0: 975d 4c3d f582 7bbd 4978 37bd bee7 383d
00000100: c159 87bd 46e1 9cbd 88f4 bebc 0b5e 7d3c
00000110: 35b5 8c3b f0e6 3b3d c250 f039 ab45 3fbd
00000120: 3b97 5a3c 5367 11bd 0293 f9bc 2b41 f8bd
00000130: 0a31 37be b3f5 00be 2992 6fbc aad6 bfbd
00000140: 3f3f acbb 9850 adbd ee4a b8bc f843 cfbd
00000150: 3606 a4bd c0d4 63bd 04e8 00bd 8b7f a23b
00000160: 1cc7 8e3d dcca 543d b555 713d f57e 62bd
00000170: 2f32 8bbd 1cf9 62bc 373a ac3d f02d 09be
00000180: 6f91 81bd 6fa0 24bd 486b 5ebd de95 983d
00000190: 91f5 0b3e fc75 353e 5314 8ebd e173 da3d
000001a0: 2e5c fc3b 26a3 ae3d e943 b9bb 8f1f 5cbc
000001b0: bec1 4dbd a6b0 0d3d 4ca9 9cbd 64db 36bd
000001c0: 4984 323d bc88 5d3d c440 64bd 3f17 e93c
000001d0: 9b89 92bc 3bda a1bc c593 183c bbe0 093e
000001e0: 87a3 b53c 180e 7c3d 37fe ad3c d0a4 8a3d
000001f0: 94f7 873d 551a 12bd e629 aabd 6fa0 07bd
00000200: b4d1 3f3d affe 733d cd5f a4bd bd06 363c
00000210: 7b20 4bbd 6fba 853d bb65 193d a472 b3bd
00000220: 6ac7 86bd d52f b1bb 3170 78bd f824 1f3d
00000230: 2619 41bd 0b9c b5bd 9a3c bbbd f62d 12bd
00000240: a57f b93d 3c51 5c3b 0e70 d43c be2a 223d
00000250: 903d d6bd 9798 553d a98b b93d 72ea 043e
00000260: 6fd3 e63c 1967 8e3d 86f1 34bd 64e5 a8bc
00000270: d95c 423d d0b9 83bb 328d 5b3d 44cf 743c
00000280: 7e21 363c c290 a63a 27c7 b03c 93e3 31bd
00000290: c895 483d ba86 513d 96f4 e0bc 675c d93d
000002a0: 3c4b 2fbd c9b2 873b 554f 583d 30d3 8dbc
000002b0: 5a2e 95bc cb2c bdbd 9a7e 053e 433d d23d
000002c0: 4e0b 353c 11ec 2cbd fca2 9a3c 3ef8 1dbd
000002d0: 8240 f8ba a21d d03c dab9 be3c 4658 29bd
000002e0: 6cab 173d 9f83 10bc 9452 33bc c239 28bd
000002f0: d637 03be 367a 313d 48d5 ec3d 4c6a 6ebb
00000300: 662a 823d 9f6f b13d df03 82bd 3f0d 40bd
00000310: fc0e 713d 794a b8bd a79f 87bc 6a6a 3cbd
00000320: 9382 94bd ec62 7abd 6560 c4bd cc75 14be
00000330: 3d21 bc3c 3197 f4bd 9612 02be 3b31 98bd
00000340: 7e54 bf3c ff26 033e 4212 4239 94c1 41bc
00000350: 3276 c13d e9e3 2cbd 0859 d7bd efcd 03bb
00000360: 2508 eabc ebb1 273d 7fb4 e03d 1b98 0ebd
00000370: c50e 5b3c 2e0d bd3b d9be 2abb 20cb a0bd
00000380: 8842 cd3d 2e2a 2cbc 6273 ac3d e39f f93c
00000390: 8b81 31bb a251 bbbd 8c70 603d 7474 56bd
000003a0: a782 f9bd cccb a43d 769c 5eba c83b c43d
000003b0: 89f3 75bc 798b ad3c e9b1 743d e3ee b0bc
000003c0: fa64 a23c d778 513d fd19 98bc 00f9 86bd
000003d0: 3f98 e4bd b2a9 c5bd 75be f33c 6d4c 813d
000003e0: 7d6e dc3c ea6e c9bb 5775 f13c 4ab0 bd3c
000003f0: a201 9fbc a50a 17bd 2f46 83bd c4e3 c63d

net.2.bias f4 [32]
0.11484434 -0.00929335 0.015534856 0.0017938263 -0.105057575 -0.030684909 -0.017731091 0.025458435
-0.07756745 -0.14306393 0.017907914 -0.056973703 0.10000793 -0.09100043 -0.02344661 -0.071070395
0.013875746 -0.004608297 0.012193153 0.020443164 -0.018351223 -0.014660232 -0.05083 0.04928118
0.03582417 -0.12670733 0.012624111 0.030544424 0.040072117 -0.044968925 0.056574874 0.076112285
00000000: 8233 eb3d 2343 18bc e985 7e3c d31e eb3a
00000010: 6d28 d7bd eb5e fbbc cb40 91bc 358e d03c
00000020: afdb 9ebd 5a7f 12be 9eb3 923c 425d 69bd
00000030: f5d0 cc3d 6f5e babd 1b13 c0bc 5b8d 91bd
00000040: 1957 633c 3201 97bb cac5 473c 6c78 a73c
00000050: 4e55 96bc 7831 70bc 1e33 50bd 10db 493d
00000060: 5dbc 123d 91bf 01be 5cd5 4e3c 4d38 fa3c
00000070: a922 243d 5631 38bd 0ebb 673d c2e0 9b3d

net.3.weight f4 [32]
0.44021615 0.99575 0.952854 0.20948446 0.18940772 0.37728643 0.73655206 0.6705451
0.98269033 0.25626585 0.8633324 0.92237365 0.7053245 0.73685986 0.8071814 0.60687685
0.47260734 0.46038195 0.6576168 -0.083170734 0.24850073 0.68620634 0.9561922 0.78787065
0.19219114 0.39869186 0.9806228 0.9903235 0.3366511 0.25690803 0.479821 0.8688672
00000000: 0364 e13e 79e9 7e3f 3dee 733f 1883 563e
00000010: 19f4 413e b02b c13e ad8e 3c3f d8a8 2b3f
00000020: 9891 7b3f 4735 833e 5a03 5d3f ae20 6c3f
00000030: 2590 343f d9a2 3c3f 71a3 4e3f 485c 1b3f
00000040: 97f9 f13e 2fb7 eb3e 9359 283f 6b55 aabd
00000050: fa76 7e3e 38ab 2f3f 03c9 743f e4b1 493f
00000060: c1cd 443e 5721 cc3e 190a 7b3f d785 7d3f
00000070: 885d ac3e 7389 833e 19ab f53e 156e 5e3f

net.3.bias f4 [32]
0.014390785 -0.034833062 -0.022183098 0.018484432 0.012303965 -0.032769207 0.015291516 0.017953856
-0.04383183 0.009154863 -0.011445674 -0.040138874 -0.044781625 -0.08936805 -0.114602394 -0.03871261
-0.023598019 0.027957588 -0.017536901 -0.03128983 -0.045791205 -0.031657446 0.0016554695 0.016770542
0.038255766 0.019339599 -0.012288352 -0.018920606 -0.09321049 0.004352723 -0.08385621 -0.010986729
00000000: 54c7 6b3c 1dad 0ebd 54b9 b5bc aa6c 973c
00000010: 9296 493c 0139 06bd 4489 7a3c f713 933c
00000020: 0189 33bd 47fe 153c a386 3bbc a968 24bd
00000030: f06c 37bd 9906 b7bd a9b4 eabd 1d91 1ebd
00000040: a250 c1bc 5007 e53c 8ca9 8fbc c429 00bd
00000050: 8f8f 3bbd 3dab 01bd 57fc d83a 6062 893c
00000060: 14b2 1c3d 146e 9e3c 1555 49bc 63ff 9abc
00000070: 24e5 bebd 49a1 8e3b cebc abbd ae01 34bc

net.3.running_mean f4 [32]
-0.015679458 0.13686328 -0.13180277 -0.10370884 -0.26683682 0.01803824 0.10152957 0.4756889
-0.54062593 -0.17939119 -0.3163826 -0.02758304 0.30169833 -0.43867227 -0.09268522 0.179464
0.10584025 0.116701506 -0.1910515 0.17151111 -0.13318619 0.15866785 -0.13713913 0.117269665
-0.1502657 -0.09697685 0.18884698 0.20348863 0.052752525 -0.11566415 -0.08398122 0.41817355
00000000: 3572 80bc e325 0c3e 4ef7 06be 4d65 d4bd
00000010: d69e 88be eec4 933c bcee cf3d 7f8d f33e
00000020: 7666 0abf 53b2 37be e6fc a1be d4f5 e1bc
00000030: 3478 9a3e a799 e0be c0d1 bdbd 69c5 373e
00000040: c6c2 d83d 3301 ef3d 01a3 43be 9ca0 2f3e
00000050: f661 08be d379 223e 336e 0cbe 142b f03d
00000060: 40df 19be cc9b c6bd 1a61 413e 535f 503e
00000070: 0813 583d 53e1 ecbd 59fe abbd d81a d63e

net.3.running_var f4 [32]
0.0011285236 0.004397768 0.0020813248 0.0012252924 0.0021856122 0.000948392 0.003634288 0.011197871
0.014870415 0.0020892667 0.008717526 0.0026867145 0.0053636283 0.012022688 0.0012825165 0.001870122
0.0015558463 0.0027223506 0.0025781856 0.0025254502 0.004788991 0.009252558 0.0041998266 0.0033825147
0.0028690258 0.0017809919 0.0058113965 0.0064956415 0.0012560375 0.0013182668 0.0025276118 0.005909124
00000000: f8ea 933a 271b 903b d666 083b fe99 a03a
00000010: 7d3c 0f3b 829d 783a 3c2d 6e3b 4677 373c
00000020: 0ba3 733c 14ec 083b f4d3 0e3c 9713 303b
00000030: 60c1 af3b cffa 443c 1d1a a83a e21e f53a
00000040: 8aed cb3a 7769 323b c7f6 283b 0682 253b
00000050: f8ec 9c3b 0b98 173c b39e 893b 2ead 5d3b
00000060: 4406 3c3b 2c70 e93a 876d be3b 64d9 d43b
00000070: a0a1 a43a b2c9 ac3a 4aa6 253b 53a1 c13b

net.5.weight f4 [64, 32, 3, 3]
0.0044542206 0.104653835 0.02299594 0.051756218 0.0069912467 0.009115119 -0.020012217 -0.0125398915
-0.06037273 0.022067808 -0.04917695 -0.015863668 0.08021676 0.011675566 -0.03305862 0.064878635
-0.031612393 -0.028907696 0.025875224 -0.000659909 0.041531436 -0.011808274 -0.09217812 0.0032701513
0.028868493 -0.12562986 -0.03081404 0.043420333 0.015679564 -0.016723314 0.0744733 0.055967916
-0.06424833 0.072974265 -0.003650182 -0.00964052 0.03298935 -0.016359126 0.01214571 -0.002532248
0.04575971 0.07624148 0.024039326 0.08424449 0.00094783143 0.014451559 0.10039019 0.00026872248
0.10736931 0.123256505 -0.04093628 -0.013476799 0.075139634 -0.0026443165 0.08820531 0.039836064
0.059698522 0.028106863 0.10305977 0.07154325 0.07468517 0.046498094 -0.02289358 0.0037374536
0.024859574 0.09683335 0.07259709 -0.011973972 0.020103464 -0.02674078 0.050728247 0.10026392
0.089518495 -0.07595093 -0.021765387 0.06372097 -0.058291018 -0.075315945 0.040411886 -0.018945571
0.0074060746 -0.002136318 -0.05159499 -0.084493004 0.041607704 0.100979075 0.044823997 0.0660644
0.06887428 0.05792191 0.0012825814 0.0021947345 0.015868984 -0.03033104 0.053943824 0.01505374
-0.02470776 -0.04263174 0.033487365 0.00705059 0.11826973 -0.032599185 -0.009358244 0.11347598
0.0054267985 -0.029295953 0.05027481 -0.025833013 0.0834889 0.015496861 0.06578236 -0.00025368689
-0.03359395 0.0018126924 -0.055291478 -0.021447277 -0.06456199 0.047737025 -0.037941273 -0.042991012
0.027345011 0.0051275836 -0.04663715 0.0656843 0.00594513 0.04585211 0.046182703 0.024392344
0.033271637 0.058015544 -0.02869831 -0.0004681778 -0.05383596 -0.0514818 -0.04090161 -0.008247663
-0.016493969 0.014792396 0.013060824 0.028859222 -0.004617578 -0.048476133 0.002218056 -0.022912506
-0.025723036 -0.046010014 -0.09795572 0.04887175 0.014377521 0.0388475 0.06290635 -0.045514617
-0.035829373 -0.020000882 0.079858035 0.06008674 -0.017282447 0.027056344 0.056332976 -0.03970325
-0.019069973 0.031567313 0.023468932 -0.038736135 -0.058174573 0.07995736 -0.08985757 -0.095643006
0.00294267 -0.09182734 -0.094548896 -0.022801196 -0.013508235 0.015406302 0.036776103 0.012149289
-0.040771347 0.05374688 0.05287843 0.08824713 0.101803474 -0.0061003454 0.018741667 0.08857051
-0.08244739 0.042465575 0.046694733 -0.008937614 -0.0035312597 -0.04420419 -0.022159964 0.023877919
0.02454064 0.02921889 0.035228457 -0.04872348 0.03244314 0.07687621 0.035125967 0.055329468
-0.026245115 -0.035155147 0.024439637 0.027282042 -0.007075924 0.051172964 0.011001745 -0.054218534
-0.050573464 -0.033771478 -0.054548312 -0.011719564 0.035500307 0.0028895524 0.040989846 -0.025605064
0.040674917 -0.09762909 -0.05153836 -0.011261282 -0.11042097 -0.02669628 -0.011302902 -0.034659766
-0.0011772041 -0.04965929 -0.0035732125 -0.007365477 0.024179524 -0.010441519 -0.07135182 0.009362098
0.010030848 -0.09708322 -0.010322996 0.033300173 0.07464449 -0.042676356 0.07944952 0.038468167
-0.060941197 -0.024149373 -0.039971106 0.09789925 0.007365797 -0.031183824 0.13836716 0.0003999698
-0.09372423 0.08599558 0.01628863 -0.035046548 0.03125496 0.1084448 -0.074730575 -0.0464509
00000000: b6f4 913b c054 d63d fb61 bc3c 54fe 533d
00000010: d416 e53b 9557 153c a9f0 a3bc 1e74 4dbc
00000020: 6549 77bd 8cc7 b43c c56d 49bd 86f4 81bc
00000030: af48 a43d e04a 3f3c 7a68 07bd 17df 843d
00000040: ff7b 01bd d5cf ecbc 47f8 d33c befd 2cba
00000050: de1c 2a3d 7e77 41bc e2c7 bcbd 0950 563b
00000060: 9e7d ec3c 1da5 00be ba6d fcbc 85d9 313d
00000070: 6e72 803c 55ff 88bc 7585 983d 9d3e 653d
00000080: a194 83bd 8873 953d e437 6fbb 46f3 1dbc
00000090: d71f 073d 9303 86bc cdfe 463c 12f4 25bb
000000a0: 896e 3b3d 7e24 9c3d 1fee c43c 6088 ac3d
000000b0: e477 783a 3bc6 6c3c 5f99 cd3d 52e3 8c39
000000c0: 71e4 db3d e86d fc3d cdac 27bd cbcd 5cbc
000000d0: cfe2 993d 454c 2dbb fca4 b43d 242b 233d
000000e0: 7086 743d 5d40 e63c 0011 d33d 4485 923d
000000f0: 8af4 983d c974 3e3d 518b bbbc 11f0 743b
00000100: 4ea6 cb3c 9050 c63d c8ad 943d 7b2e 44bc
00000110: 05b0 a43c 7b0f dbbc 6cc8 4f3d 2c57 cd3d
00000120: 7955 b73d 298c 9bbd 534d b2bc 2480 823d
00000130: 90c2 6ebd 3f3f 9abd ef86 253d be33 9bbc
00000140: a8ae f23b 7801 0cbb 4555 53bd ab0a adbd
00000150: d76c 2a3d 1ece ce3d 5e99 373d c64c 873d
00000160: f50d 8d3d 863f 6d3d 4a1c a83a 89d5 0f3b
00000170: acff 813c cd78 f8bc 33f4 5c3d f6a3 763c
00000180: ee67 cabc 9f9e 2ebd 0c2a 093d a308 e73b
00000190: 6637 f23d b986 05bd 5253 19bc 1866 e83d
000001a0: 49d3 b13b 11fe efbc f6ec 4d3d c19f d3bc
000001b0: 3afc aa3d 8ce6 7d3c e7b8 863d 4701 85b9
000001c0: cf99 09bd dd97 ed3a 5179 62bd 33b2 afbc
000001d0: 1439 84bd e687 433d 4f68 1bbd 5817 30bd
000001e0: a502 e03c 4a05 a83b 9906 3fbd 7e85 863d
000001f0: 5dcf c23b 6ccf 3b3d 132a 3d3d 74d2 c73c
00000200: d747 083d b5a1 6d3d b818 ebbc c375 f5b9
00000210: 1883 5cbd 94de 52bd 7288 27bd 3521 07bc
00000220: 5c1e 87bc ce5b 723c 11fd 553c 2d6a ec3c
00000230: 0d4f 97bb e98e 46bd ce5c 113b 02b3 bbbc
00000240: 1eb9 d2bc ff74 3cbd 029d c8bd be2d 483d
00000250: b28f 6b3c 8e1e 1f3d 0bd5 803d 896d 3abd
00000260: d2c1 12bd e4d8 a3bc 9c8c a33d 831d 763d
00000270: eb93 8dbc 44a5 dd3c 68bd 663d e09f 22bd
00000280: a238 9cbc ba4c 013d eb41 c03c c8a9 1ebd
00000290: 7648 6ebd afc0 a33d 3f07 b8bd 7be0 c3bd
000002a0: cfd9 403b f90f bcbd daa2 c1bd 93c9 babc
000002b0: a551 5dbc b76a 7c3c 8aa2 163d d00d 473c
000002c0: dbff 26bd b025 5c3d 0d97 583d e9ba b43d
000002d0: 577e d03d 68e5 c7bb 2088 993c 7564 b53d
000002e0: 2dda a8bd 62f0 2d3d fa42 3f3d 126f 12bc
000002f0: b56c 67bb 740f 35bd d088 b5bc a09b c33c
00000300: 7409 c93c 745c ef3c b74b 103d 4692 47bd
00000310: 19e3 043d 4671 9d3d 3fe0 0f3d 27a1 623d
00000320: ffff d6bc d8fe 0fbd a235 c83c 977e df3c
00000330: 27dd e7bb be9a 513d aa40 343c 4114 5ebd
00000340: 1f26 4fbd f653 0abd 0d6e 5fbd 6a03 40bc
00000350: c568 113d a55e 3d3b f8e4 273d b6c1 d1bc
00000360: be9a 263d c3f1 c7bd e319 53bd 3d81 38bc
00000370: 6424 e2bd 28b2 dabc cf2f 39bc 66f7 0dbd
00000380: 6a4c 9aba 8a67 4bbd 8f2c 6abb 195a f1bb
00000390: 2314 c63c e812 2bbc e720 92bd 7c63 193c
000003a0: 6d58 243c 91d3 c6bd c921 29bc c365 083d
000003b0: 36df 983d 67cd 2ebd 6eb6 a23d cc90 1d3d
000003c0: 7a9d 79bd e8d4 c5bc beb8 23bd 677f c83d
000003d0: c95c f13b 3875 ffbc 1fb0 0d3e 0ab3 d139
000003e0: 7df2 bfbd 731e b03d bc6f 853c f88c 0fbd
000003f0: 3305 003d 4f18 de3d 580c 99bd 4d43 3ebd

net.5.bias f4 [64]
0.027373787 0.048060793 0.0035746738 -0.0013973512 0.033156537 0.054717176 0.03517459 0.009324767
-0.01704968 -0.014651589 0.026451327 -0.01279646 0.03755521 -0.06043037 0.033751458 -0.004661861
0.010330041 -0.036429122 -0.016208915 0.016871266 -0.0070003797 0.07907377 0.0012038078 -0.083797626
-0.0738164 0.048640184 -0.008394635 0.017876472 -0.057357248 -0.017824395 0.028407248 0.01268373
0.045438264 0.013270868 0.011350571 0.0016739637 -0.0052817897 -0.043409754 -0.01946261 0.0012189135
-0.026731098 0.024887798 0.041131753 0.008966593 -0.024725465 0.06377365 0.075289056 0.019408073
0.04518628 0.0040132855 0.006629396 -0.032922875 -0.038252022 0.03586389 0.013216683 -0.047387358
-0.054932725 0.030825121 0.0067572966 -0.007932732 -0.0322614 0.06062217 0.016804557 0.0013662946
00000000: fe3e e03c 65db 443d 1345 6a3b 5327 b7ba
00000010: 26cf 073d 1e1f 603d 3b13 103d e8c6 183c
00000020: c5ab 8bbc 380d 70bc 74b0 d83c 3ea8 51bc
00000030: 7ed3 193d d685 77bd f83e 0a3d 86c2 98bb
00000040: 553f 293c b436 15bd 8fc8 84bc 9c35 8a3c
00000050: 7163 e5bb 6ef1 a13d 16c9 9d3a 179e abbd
00000060: 0d2d 97bd ee3a 473d a789 09bc ae71 923c
00000070: 6fef 6abd 7704 92bc 51b6 e83c 6bcf 4f3c
00000080: 791d 3a3d 0e6e 593c bff7 393c e768 db3a
00000090: dd12 adbb 6dce 31bd 0d70 9fbc f3c3 9f3a
000000a0: 2dfb dabc 7fe1 cb3c c579 283d 9ee8 123c
000000b0: 0f8d cabc c29b 823d 2631 9a3d aefd 9e3c
000000c0: 4015 393d e181 833b 683b d93b 23da 06bd
000000d0: 27ae 1cbd 04e6 123d c98a 583c 3f19 42bd
000000e0: 2301 61bd f784 fc3c 506c dd3b 4af8 01bc
000000f0: 8824 04bd f44e 783d b6a9 893c 3d15 b33a

net.6.weight f4 [64]
0.6549062 0.296934 0.69699144 0.5251764 0.5811247 0.8114877 0.44736224 0.18570836
0.2354712 0.28960586 0.31526336 0.48971736 0.5409293 0.9219058 0.41151685 0.60223645
0.82430977 0.20544988 0.8177227 0.12356506 0.77254456 0.61533856 0.288964 0.47750384
0.5271617 0.23135576 0.8463041 0.63184446 0.9376919 0.64266986 0.25781226 0.5594488
0.38187736 0.10960295 0.3299941 0.24106212 0.4068944 0.75174665 0.13944651 0.6535869
0.34708706 0.8710028 0.18175475 0.615495 0.29888117 0.84544724 0.4923578 0.6703325
0.2722186 0.19049174 0.40486705 0.337896 0.27037084 0.4074538 0.6434687 0.8626325
0.6076411 0.25255054 0.43505853 0.8521501 0.17836286 0.108828865 0.6172445 0.75085545
00000000: efa7 273f bc07 983e 086e 323f f671 063f
00000010: 97c4 143f a8bd 4f3f aa0c e53e 552a 3e3e
00000020: 5d1f 713e 3847 943e 336a a13e 3cbc fa3e
00000030: 587a 0a3f 0502 6c3f 56b2 d23e 2b2c 1a3f
00000040: f705 533f 7461 523e 4656 513f ae0f fd3d
00000050: 7bc5 453f d486 1d3f 17f3 933e 627b f43e
00000060: 12f4 063f 86e8 6c3e 63a7 583f 8fc0 213f
00000070: 940c 703f 0386 243f f8ff 833e 0938 0f3f
00000080: 6e85 c33e 8377 e03d fdf4 a83e fdd8 763e
00000090: 7654 d03e 7872 403f 11cb 0e3e 7951 273f
000000a0: 65b5 b13e 0afa 5e3f eb1d 3a3e 1591 1d3f
000000b0: f406 993e 3b6f 583f 5216 fc3e e99a 2b3f
000000c0: 3d60 8b3e 4410 433e bc4a cf3e b400 ad3e
000000d0: 0c6e 8a3e c99d d03e 5dba 243f 7cd5 5c3f
000000e0: 5e8e 1b3f 4e4e 813e febf de3e 8226 5a3f
000000f0: c1a4 363e abe1 de3d bc03 1e3f 1038 403f

net.6.bias f4 [64]
-0.26250973 -0.11326053 -0.34296554 -0.21505345 -0.26213604 -0.112850256 -0.18217902 -0.14558402
-0.13306844 -0.116430186 -0.12219824 -0.08413523 -0.17188442 -0.08005822 -0.31125185 -0.15108617
-0.2552424 -0.031173209 -0.067593925 0.006588075 -0.08398846 -0.3455118 -0.07834225 -0.11646705
-0.22122982 -0.048545234 -0.059815086 -0.06042694 -0.44187188 -0.15706751 -0.034501407 -0.17792964
-0.25179204 0.010006075 -0.27742746 -0.13877827 -0.10789512 -0.113639235 -0.06480652 -0.16640718
-0.128348 -0.058699243 -0.1491563 -0.11785355 -0.11546248 -0.34707695 -0.26442027 -0.03921382
-0.14810205 -0.17136009 -0.18861522 -0.08559673 -0.07869054 -0.14236698 -0.04842031 -0.23004183
-0.12773558 -0.2031498 -0.060247228 -0.07566447 -0.15906711 -0.11796864 -0.22153835 -0.13061622
00000000: ad67 86be 23f5 e7bd 2e99 afbe f936 5cbe
00000010: b236 86be 091e e7bd 238d 3abe fa13 15be
00000020: 1843 08be f372 eebd 1243 fabd 174f acbd
00000030: 7802 30be 90f5 a3bd 675c 9fbe 55b6 1abe
00000040: 22af 82be f55e ffbc af6e 8abd c7e0 d73b
00000050: 2402 acbd ece6 b0be e771 a0bd 4786 eebd
00000060: 128a 62be 5ed7 46bd aa00 75bd 3d82 77bd
00000070: 083d e2be 4ed6 20be 5951 0dbd 3033 36be
00000080: e3ea 80be 85f0 233c f90a 8ebe e41b 0ebe
00000090: 1ef8 dcbd b0bb e8bd 48b9 84bd a566 2abe
000000a0: a86d 03be 9e6e 70bd 6ebc 18be 345d f1bd
000000b0: 9877 ecbd 12b4 b1be 1862 87be ac9e 20bd
000000c0: 10a8 17be 0579 2fbe 5924 41be 574d afbd
000000d0: 8128 a1bd a6c8 11be 6054 46bd 1690 6bbe
000000e0: 1ecd 02be 8006 50be ccc5 76bd f9f5 9abd
000000f0: 7de2 22be 8b99 f1bd f3da 62be 42c0 05be

net.6.running_mean f4 [64]
0.4891523 0.0759087 0.3892145 0.53946376 0.56287843 -0.4260344 0.076396324 0.46107167
0.8740972 0.21468239 0.30026737 -0.57719415 0.3501048 -1.0546622 0.68615586 0.021799415
0.19727044 0.7096425 -0.9995887 0.2660112 -0.8052532 0.66442734 0.35273716 -1.2725096
-0.34395373 -0.07270458 -0.46294552 -0.9688291 -0.41502458 0.0049890266 -0.3871699 -0.97097856
0.89393383 -0.21379866 0.76867706 0.7710443 -0.28600842 -1.2046175 -1.6338077 -0.57073003
-0.58780557 -0.7328282 0.3453664 -0.06565037 -0.079963915 -0.5169254 0.48794058 -1.0098196
-0.35444602 0.53678495 0.23923859 -1.2257496 0.17608298 -0.61737096 -0.58958864 0.013240998
-0.72229415 0.1438231 -1.007925 -0.63114065 0.4182822 0.49152794 -0.084695205 -1.1104748
00000000: 2c72 fa3e 0576 9b3d 1f47 c73e 4c1a 0a3f
00000010: cd18 103f 2e21 dabe ad75 9c3d 9611 ec3e
00000020: d6c4 5f3f b3d5 5b3e a5bc 993e ffc2 13bf
00000030: f040 b33e 2cff 86bf e9a7 2f3f b094 b23c
00000040: 4301 4a3e 22ab 353f 0ce5 7fbf 9f32 883e
00000050: 1325 4ebf e917 2a3f f799 b43e 98e1 a2bf
00000060: b41a b0be 24e6 94bd 3207 edbe 2f05 78bf
00000070: 1a7e d4be fd7a a33b 223b c6be 0d92 78bf
00000080: d9d8 643f 09ee 5abe 05c8 443f 2963 453f
00000090: b26f 92be e830 9abf 9c20 d1bf 5d1b 12bf
000000a0: 6d7a 16bf a19a 3bbf ddd3 b03e b473 86bd
000000b0: 1fc4 a3bd 3955 04bf 59d3 f93e c541 81bf
000000c0: f379 b5be bd6a 093f f6fa 743e 5de5 9cbf
000000d0: 194f 343e 060c 1ebf 48ef 16bf c5f0 583c
000000e0: 45e8 38bf 5d46 133e b003 81bf 6f92 21bf
000000f0: 1629 d63e 8da9 fb3e ae74 adbd 0a24 8ebf

net.6.running_var f4 [64]
0.27751818 0.10865475 0.13674289 0.2713994 0.09862934 0.37300795 0.3352901 0.098448604
0.12421089 0.15599008 0.102874026 0.27932626 0.12893257 0.42659622 0.20807242 0.5414579
0.28750196 0.6024636 0.9256315 0.29180303 0.41653085 0.29591066 0.20609334 0.21622647
0.0864766 0.08393078 0.40320727 0.3707868 0.09207715 0.44588792 0.11883895 0.168473
0.2523521 0.27459073 0.16256322 0.18916403 0.1762504 0.5462296 0.4870892 0.26650402
0.14373897 0.88325894 0.06926908 0.10088203 0.09496116 0.8431588 0.0824246 0.29207218
0.13347138 0.09479154 0.14138977 0.29848078 0.1014471 0.16447201 0.52819633 0.16108556
0.36144164 0.07474308 0.29430965 0.36407515 0.10300904 0.11862321 0.10784213 0.21606964
00000000: dd16 8e3e 6286 de3d 5406 0c3e ddf4 8a3e
00000010: 2efe c93d e6fa be3e 25ab ab3e 6c9f c93d
00000020: 4762 fe3d ddbb 1f3e 9eaf d23d da03 8f3e
00000030: e606 043e d26a da3e f010 553e fc9c 0a3f
00000040: 7533 933e 0e3b 1a3f 30f6 6c3f 3567 953e
00000050: 8843 d53e 9a81 973e 220a 533e 796a 5d3e
00000060: a51a b13d e7e3 ab3d 2f71 ce3e c4d7 bd3e
00000070: f292 bc3d 6c4b e43e d661 f33d 3084 2c3e
00000080: 4b34 813e 2897 8c3e f976 263e 37b4 413e
00000090: fc7a 343e b4d5 0b3f c163 f93e 3773 883e
000000a0: 4f30 133e 421d 623f f3dc 8d3d 3d9b ce3d
000000b0: ff7a c23d 41d9 573f 3bce a83d 7c8a 953e
000000c0: b9ac 083e 1122 c23d 7bc8 103e 79d2 983e
000000d0: 7fc3 cf3d 5a6b 283e e037 073f 9df3 243e
000000e0: e10e b93e e612 993d c1af 963e 0f68 ba3e
000000f0: 67f6 d23d baf0 f23d 56dc dc3d 5c41 5d3e

net.8.weight f4 [128, 64, 3, 3]
0.044378668 -0.043654356 -0.0059329225 -0.049891576 -0.049657434 0.008096687 0.04885475 -0.014267131
0.017220054 0.03113023 0.074906565 0.08183945 -0.020905258 0.019732662 0.017810384 -0.057328068
-0.008091274 -0.084227 -0.058940858 -0.030688688 0.036561295 0.03246982 0.05033488 0.05029874
0.006329501 -0.034886714 -0.03330614 -0.0012245326 -0.041761648 -0.041086145 0.035402622 -0.02021217
0.05703805 -0.0008382135 0.0037686892 0.045448136 0.013544545 -0.00920093 0.027149603 0.050446115
0.030109543 0.072123416 -0.02503277 -0.11303881 -0.051860604 0.020429602 0.034824315 0.017332945
0.08089469 0.02297672 0.003449603 -0.02005568 -0.040736593 0.003284692 -0.0789507 -0.021403955
-0.029549876 -0.07037514 -0.016991146 0.001998582 -0.020329269 0.026581246 -0.021338118 -0.017666304
-0.14912426 -0.030501295 -0.037595466 -0.09746199 -0.011993849 0.0069738002 -0.028770303 0.07087059
0.009365154 0.02380719 -0.041016974 -0.018400827 0.022742452 -0.002834558 -0.04682138 -0.02049912
-0.1207804 0.004378721 -0.04630832 -0.017437879 0.023471821 0.020890791 0.06673783 0.03971728
-0.008155388 0.034603056 0.09349526 0.084608205 0.08607051 -0.0067361305 -0.020242898 -0.03446651
-0.008556289 0.0054310164 0.07440064 0.015236263 0.006021916 -0.015223299 -0.011774685 0.01199328
0.0051715504 0.0037533445 -0.04400412 0.0018421956 0.052395858 0.04562599 0.012777867 -0.0076491926
-0.04256695 0.009526305 -0.023070857 -0.066047505 0.033412658 0.033641756 0.0889718 0.016718004
-0.0238292 0.061498925 -0.060785126 -0.022255896 0.07440278 0.030896 -0.030457284 -0.013285247
-0.030414343 -0.032109693 -0.1047007 -0.11757286 -0.041172344 -0.029087976 -0.058411237 -0.05277738
0.001961652 -0.065345995 0.03785165 0.033216912 -0.1027155 0.014172727 0.020625217 -0.00042807643
0.05940682 -0.051957875 -0.046106495 0.022030579 -0.017181108 0.01442455 0.026921796 -0.016268013
-0.0059003653 0.060036354 0.06093196 -0.007328804 -0.029618803 -0.018531619 0.010612531 0.017040797
0.00962627 -0.020895522 -0.061207335 0.034211673 -0.039598174 0.0338643 0.04946255 -0.049802344
0.031105952 -0.0028513737 0.007134715 -0.05583211 -0.035508107 -0.096392296 -0.04885974 -0.03910827
-0.106661476 -0.007831374 0.037070602 -0.0017936187 -0.012441881 0.02869432 -0.023770591 -0.044575725
0.016070861 -0.0126674585 -0.039126337 0.028919581 -0.012043697 0.031404 -0.01408591 0.06863228
-0.025751218 -0.13292909 -0.098031625 0.04496813 -0.06836676 -0.0050856625 0.08189896 -0.010080704
0.0055612265 0.019126993 -0.039620716 -0.0026132115 0.036596853 0.03685711 0.03688743 0.0109565165
0.044528265 -0.10035211 0.016975744 0.08133509 0.021074487 0.03762934 0.010540179 -0.0886899
-0.03270581 -0.033183634 0.004513971 -0.02583768 0.022672335 0.013363945 0.011682706 0.011836846
0.012652258 -0.06342844 -0.12778527 -0.0023733072 -0.0517409 -0.047798358 -0.08376136 -0.11567156
-0.05502367 0.064534456 -0.02776951 -0.066327296 -0.03339142 0.015955823 0.09240132 0.025327582
0.014976227 -0.023097813 -0.023061952 -0.009646401 0.013925303 0.027949454 0.010845901 -0.013168664
0.07071784 0.07441036 0.011518939 -0.017643128 0.0088571105 -0.028383866 0.020243054 -0.02794786
00000000: 68c6 353d e9ce 32bd f668 c2bb 1c5b 4cbd
00000010: 9865 4bbd f7a7 043c eb1b 483d afc0 69bc
00000020: 1211 8d3c d304 ff3c 9d68 993d 719b a73d
00000030: 8141 abbc 64a6 a13c 15e7 913c d6d0 6abd
00000040: 4391 04bc 357f acbd f86b 71bd d866 fbbc
00000050: 4cc1 153d 13ff 043d f22b 4e3d 0d06 4e3d
00000060: b467 cf3b 5fe5 0ebd 056c 08bd 7f80 a0ba
00000070: 430e 2bbd f249 28bd 5702 113d fe93 a5bc
00000080: bba0 693d 8ebb 5bba 1dfc 763b d327 3a3d
00000090: f0e9 5d3c 7fbf 16bc d868 de3c 96a0 4e3d
000000a0: 4aa8 f63c 71b5 933d 8611 cdbc e480 e7bd
000000b0: c96b 54bd fb5b a73c f1a3 0e3d d2fd 8d3c
000000c0: 1dac a53d ad39 bc3c bc12 623b cf4b a4bc
000000d0: 6adb 26bd fd43 573b e8b0 a1bd 5957 afbc
000000e0: 9512 f2bc d720 90bd 0431 8bbc a4fa 023b
000000f0: 9189 a6bc eac0 d93c 47cd aebc edb8 90bc
00000100: 08b4 18be dadd f9bc b4fd 19bd 279a c7bd
00000110: d981 44bc 7a84 e43b b3af ebbc 9a24 913d
00000120: 4e70 193c 4c07 c33c 6a01 28bd 55bd 96bc
00000130: 614e ba3c fec3 39bb c6c7 3fbd c5ed a7bc
00000140: b75b f7bd 607b 8f3b cbad 3dbd e2d9 8ebc
00000150: fa47 c03c 2a23 ab3c d8ad 883d 96ae 223d
00000160: 2d9e 05bc efbb 0d3d 717a bf3d 1147 ad3d
00000170: bc45 b03d c2ba dcbb 6fd4 a5bc c12c 0dbd
00000180: ad2f 0cbc abf6 b13b 5d5f 983d 85a1 793c
00000190: 7e53 c53b 256b 79bc 9cea 40bc 767f 443c
000001a0: 1c76 a93b acfa 753b aa3d 34bd d475 f13a
000001b0: 0a9d 563d 51e2 3a3d 425a 513c 14a6 fabb
000001c0: af5a 2ebd 3814 1c3c 18ff bcbc ea43 87bd
000001d0: b6db 083d f0cb 093d d936 b63d 32f4 883c
000001e0: 7435 c3bc 4ce6 7b3d d3f9 78bd ff51 b6bc
000001f0: 7c60 983d 9c19 fd3c 8e81 f9bc 5daa 59bc
00000200: 8027 f9bc 7485 03bd 526d d6bd 0aca f0bd
00000210: 55a4 28bd e849 eebc 9f40 6fbd 182d 58bd
00000220: 0f8f 003b 1fd4 85bd 550a 1b3d 750e 083d
00000230: 815c d2bd ba34 683c 37f6 a83c 726f e0b9
00000240: 9154 733d c8d1 54bd 2ada 3cbd 7979 b43c
00000250: 65bf 8cbc f354 6c3c 198b dc3c 7f44 85bc
00000260: da57 c1bb aee8 753d ca93 793d 7726 f0bb
00000270: 22a3 f2bc 9fcf 97bc 2ee0 2d3c 2499 8b3c
00000280: 81b7 1d3c 162d abbc 8bb4 7abd 8a21 0c3d
00000290: b231 22bd 4bb5 0a3d 3e99 4a3d 8bfd 4bbd
000002a0: e9d1 fe3c 1dde 3abb 54ca e93b 36b0 64bd
000002b0: f370 11bd 5369 c5bd 2721 48bd fe2f 20bd
000002c0: 5571 dabd 2a4f 00bc 58d7 173d db17 ebba
000002d0: 08d9 4bbc 5a10 eb3c 8bba c2bc 0995 36bd
000002e0: 0aa7 833c 2c8b 4fbc f042 20bd c2e8 ec3c
000002f0: ed52 45bc 7ba1 003d 97c8 66bc 158f 8c3d
00000300: 38f4 d2bc 901e 08be cec4 c8bd 8030 383d
00000310: df03 8cbd a1a5 a6bb a4ba a73d 8a29 25bc
00000320: f33a b63b 36b0 9c3c 5549 22bd 6a42 2bbb
00000330: 95e6 153d 7bf7 163d 4617 173d f682 333c
00000340: 4563 363d 6885 cdbd b710 8b3c 0393 a63d
00000350: 67a4 ac3c 3921 1a3d b7b0 2c3c 0da3 b5bd
00000360: 87f6 05bd 90eb 07bd efe9 933b 8ba9 d3bc
00000370: 55bb b93c 73f4 5a3c d268 3f3c 55ef 413c
00000380: 6b4b 4f3c c5e6 81bd 24da 02be 7d89 1bbb
00000390: 44ee 53bd 36c8 43bd 138b abbd 36e5 ecbd
000003a0: 8060 61bd a42a 843d e27c e3bc 9bd6 87bd
000003b0: 71c5 08bd c9b5 823c e73c bd3d ca7b cf3c
000003c0: d95e 753c a037 bdbc 6bec bcbc f00b 1ebc
000003d0: f426 643c 41f6 e43c 02b3 313c 61c1 57bc
000003e0: 84d4 903d 7564 983d efb9 3c3c 5288 90bc
000003f0: 6a1d 113c 4885 e8bc c3d4 a53c e9f2 e4bc

net.8.bias f4 [128]
0.015944812 0.03805336 -0.0043329475 -0.02101445 -0.04501084 -0.006711527 -0.04004833 -0.021164227
0.028682433 -0.014619293 0.010705877 0.04776853 0.039705906 -0.014565714 0.019417543 -0.0036733246
-0.018991297 0.011192922 0.020746628 -0.002296063 0.0113190375 0.02252078 0.02472805 -0.013107522
-0.029451363 -0.022380678 -0.016666159 0.034989715 0.019837666 -0.011110878 0.00053995557 0.03477267
-0.0038592268 -0.01198039 -0.009716343 -0.023946328 -0.03967135 0.039600223 -0.046101388 0.002655146
-0.04295994 -0.04089073 -0.00793788 0.031504184 0.0027697717 -0.043888178 -0.03349331 -0.0045150006
0.030548882 -0.012975419 0.004986119 -0.02046187 0.0024437462 0.031828612 -0.01489845 -0.003355651
-0.0399011 -0.02876293 0.0064738067 0.0013368975 -0.006246465 0.0054988796 0.0037464804 0.036504578
0.024107596 0.015254516 -0.037829988 0.0072492356 -0.009692853 -0.026363816 0.009174161 0.014994841
-0.0017618145 0.034690697 -0.023198608 0.035292555 -0.035152286 0.03884365 -0.029734498 0.01930173
0.027324548 -0.024897011 -0.009039781 0.007027425 -0.031048564 0.029052584 -0.029737242 -0.026338259
-0.035747997 -0.03227136 0.0002014083 0.020100694 0.00576459 0.0022663316 -0.02682226 -0.02537147
0.011809249 0.020300668 -0.041758936 0.023432937 0.03890611 -0.017986398 -0.009571319 0.030258669
-0.016630758 0.02781825 0.022197394 -0.03675322 0.023547258 0.034162186 0.009954216 0.011048291
0.019270986 0.029436728 -0.0005743982 0.013562342 0.032447446 -0.0071061756 -0.031170521 0.019594667
-0.024644505 0.042054094 0.032774623 -0.042625755 -0.041110195 0.03462177 -0.007822763 -0.011587772
00000000: b29e 823c d7dd 1b3d 66fb 8dbb 7f26 acbc
00000010: 495d 38bd 5eec dbbb b809 24bd 9a60 adbc
00000020: 6cf7 ea3c c285 6fbc b467 2f3c efa8 433d
00000030: a9a2 223d 08a5 6ebc 8a11 9f3c 29bc 70bb
00000040: a393 9bbc 8462 373c d5f4 a93c 8b79 16bb
00000050: 7c73 393c 807d b83c 7b92 ca3c efc0 56bc
00000060: fc43 f1bc af57 b7bc 7887 88bc 6051 0f3d
00000070: 9a82 a23c 660a 36bc ce8b 0d3a ca6d 0e3d
00000080: 15eb 7cbb 6649 44bc 4c31 1fbc 172b c4bc
00000090: 6d7e 22bd d833 223d cfd4 3cbd f501 2e3b
000000a0: c3f6 2fbd 0a7d 27bd e20d 02bc 880a 013d
000000b0: 0f85 353b 17c4 33bd 4830 09bd 92f2 93bb
000000c0: a641 fa3c da96 54bc 9962 a33b a79f a7bc
000000d0: 4227 203b b85e 023d a118 74bc 7bea 5bbb
000000e0: 566f 23bd 3ca0 ebbc 3a22 d43b d63a af3a
000000f0: 25af ccbb f22f b43b 8387 753b d385 153d
00000100: 4b7d c53c 14ee 793c 9ef3 1abd ff8a ed3b
00000110: c6ce 1ebc eef8 d7bc 384f 163c ecac 753c
00000120: afec e6ba d517 0e3d 020b bebc ed8e 103d
00000130: d8fb 0fbd 851a 1f3d c395 f3bc a91e 9e3c
00000140: bbd7 df3c d1f4 cbbc 971b 14bc 5046 e63b
00000150: 8f59 febc afff ed3c 849b f3bc 55c3 d7bc
00000160: 7e6c 12bd f92e 04bd 2131 5339 36aa a43c
00000170: e3e4 bc3b bc86 143b 5bba dbbc d4d7 cfbc
00000180: 957b 413c 964d a63c 6b0b 2bbd 6ef6 bf3c
00000190: 035c 1f3d 3658 93bc 06d1 1cbc 07e1 f73c
000001a0: 3a3d 88bc 19e3 e33c 4fd7 b53c 8b8a 16bd
000001b0: 2ee6 c03c a6ed 0b3d 0217 233c e403 353c
000001c0: 30de 9d3c 4b25 f13c 3693 16ba 9634 5e3c
000001d0: 9de7 043d ecda e8bb 5259 ffbc ff84 a03c
000001e0: 46e3 c9bc ea40 2c3d af3e 063d 5898 2ebd
000001f0: 2a63 28bd 8fcf 0d3d 0c2b 00bc a3da 3dbc

net.9.weight f4 [128]
0.901386 0.13423723 0.885501 0.58410984 0.24608082 0.31217718 0.20053974 0.18891612
0.77198124 0.10178821 0.5169649 0.8045439 0.47618085 0.88907605 0.73121023 0.48047784
0.6846487 0.5493682 0.5348822 0.3394162 0.17554277 0.61578304 0.7441547 0.6522348
0.15402567 0.11436287 0.41642177 0.18160957 0.5153234 0.26015994 0.89974904 0.8687799
0.057025865 0.6427201 0.1248744 0.48754716 0.118109465 0.3065256 0.55332565 0.8272123
0.2649313 0.47845784 0.100210354 0.10963074 0.50652206 0.85910547 0.58429873 0.992402
0.73899984 0.72127765 0.31236082 0.18415157 0.5577208 0.42327043 0.6581051 0.9635002
0.77440757 0.8695492 0.6530437 0.18175237 0.33174863 0.78758323 0.7327818 0.10568798
0.39481908 0.7942448 0.94952416 0.40304402 0.79479086 0.72011805 0.3352655 0.8766287
0.6101998 0.24184695 0.17707607 0.37368342 0.73783576 0.41465694 0.13347253 0.60241574
0.13031304 0.9141144 0.5439923 0.12424343 0.5656811 0.11380539 0.126426 0.3410752
0.29075515 0.78676766 0.4467116 0.62671185 0.95689106 0.22258468 0.75172365 0.22109248
0.5953795 0.28912377 0.6356273 0.21615982 0.6156488 0.67045164 0.8744219 0.06485122
0.8009398 0.37160212 0.887437 0.39853865 0.76934606 0.29797053 0.090907805 0.8294487
0.8709847 0.29335365 0.11804969 0.5338728 0.0907345 0.47314835 0.48630822 0.54947656
0.808425 0.8777895 0.7737856 0.22324781 0.9435908 0.61079824 0.19203278 0.41175953
00000000: 3cc1 663f 7c75 093e 32b0 623f 3988 153f
00000010: 9cfc 7b3e b0d5 9f3e 4a5a 4d3e 3a73 413e
00000020: 90a0 453f 5676 d03d d057 043f 97f6 4d3f
00000030: facd f33e 7d9a 633f 9830 3b3f 3101 f63e
00000040: 2345 2f3f 65a3 0c3f 0aee 083f f6c7 ad3e
00000050: 7cc1 333e f5a3 1d3f ec80 3e3f dcf8 263f
00000060: e8b8 1d3e 1537 ea3d 3c35 d53e dcf7 393e
00000070: 3cec 033f af33 853e f455 663f 5c68 5e3f
00000080: f493 693d 4e89 243f 26be ff3d c89f f93e
00000090: 60e3 f13d ecf0 9c3e c0a6 0d3f 2fc4 533f
000000a0: 13a5 873e 6df8 f43e 163b cd3d 1586 e03d
000000b0: 6eab 013f 56ee 5b3f 9a94 153f 0f0e 7e3f
000000c0: 182f 3d3f a7a5 383f c2ed 9f3e 3b92 3c3e
000000d0: cac6 0e3f e7b6 d83e 9379 283f f3a7 763f
000000e0: 933f 463f c79a 5e3f df2d 273f 4b1d 3a3e
000000f0: f5da a93e 0e9f 493f 9797 3b3f f172 d83d
00000100: ba25 ca3e a153 4b3f 0414 733f c95b ce3e
00000110: 6a77 4b3f a859 383f eba7 ab3e bd6a 603f
00000120: 0e36 1c3f baa6 773e 6e53 353e 6f53 bf3e
00000130: cee2 3c3f ea4d d43e 06ad 083e eb37 1a3f
00000140: c870 053e 6703 6a3f 1443 0b3f 5773 fe3d
00000150: 7ad0 103f cd12 e93d d175 013e 69a1 ae3e
00000160: dcdd 943e 9b69 493f 62b7 e43e 3070 203f
00000170: d0f6 743f 3ded 633e f670 403f 1166 623e
00000180: ca6a 183f 0808 943e 79b8 223f 0059 5d3e
00000190: 299b 1d3f b8a2 2b3f 1dda 5f3f b7d0 843d
000001a0: 640a 4d3f a242 be3e 122f 633f 420d cc3e
000001b0: ddf3 443f 988f 983e df2d ba3d c056 543f
000001c0: daf8 5e3f 7332 963e 09c4 f13d e3ab 083f
000001d0: 02d3 b93d 8040 f23e 64fd f83e 7faa 0c3f
000001e0: f1f4 4e3f d0b6 603f d016 463f 139b 643e
000001f0: 2b8f 713f 465d 1c3f 3ea4 443e 25d2 d23e

net.9.bias f4 [128]
-0.029568022 0.03424402 0.022206385 -0.0411523 -0.06592455 -0.020097941 -0.011638771 0.0053617684
0.028563153 -0.03319217 -0.0152417105 -0.03827904 0.02857232 -0.08222066 -0.06637706 -0.046691872
-0.0483094 -0.003184646 0.039643824 -0.061934315 -0.045359742 -0.051147852 -0.05193535 -0.0017945666
-0.009801796 -0.032041423 -0.05661191 -0.039628245 0.018069273 -0.040334743 -0.079242356 -0.08097868
-0.035919853 -0.0133194905 -0.038283512 -0.05374623 -0.05045393 0.02164877 -0.026981434 -0.49417186
-0.038076334 -0.017548788 -0.032625362 -0.052915476 -0.015273597 -0.19412945 -0.05590471 -0.05007239
0.0005657786 -0.06591766 0.0012809047 -0.039332863 -0.04396776 -0.009527382 -0.04562631 -0.04875772
-0.006185237 -0.050895073 -0.061213054 -0.045272045 -0.124198176 0.023987686 -0.04656182 0.034903735
-0.17954269 -0.06093919 -0.041171562 -0.06286273 -0.04127008 -0.023423033 -0.060566574 -0.33760363
-0.03447158 -0.03380714 -0.042936977 -0.009369051 -0.045890797 -0.02988138 -0.063438095 -0.039829023
-0.04524584 -0.043403853 0.007014047 -0.035990577 -0.036514245 -0.032270215 -0.034398295 -0.040078327
-0.02603988 -0.019107608 0.022731166 -0.04764268 -0.04193162 -0.059963375 -0.037602536 -0.04577031
0.0018168954 -0.044715192 -0.048408654 -0.037495833 -0.051743213 -0.0392117 0.015342299 0.020781776
0.016674792 -0.048371047 -0.02433568 -0.031042427 -0.26894233 -0.048428435 -0.035413846 -0.07757001
-0.03863394 -0.07016765 -0.07787856 -0.045787476 -0.05895129 -0.010365434 -0.054031916 -0.043511204
-0.06639862 -0.029522438 -0.06440782 -0.07293553 -0.025608119 -0.040913243 -0.031199045 -0.04064909
00000000: a338 f2bc 7543 0c3d 2aea b53c 508f 28bd
00000010: 7303 87bd 70a4 a4bc 8bb0 3ebc c6b1 af3b
00000020: 46fd e93c 83f4 07bd 5eb8 79bc 7cca 1cbd
00000030: 7f10 ea3c 4e63 a8bd b2f0 87bd fa3f 3fbd
00000040: 14e0 45bd 7eb5 50bb 9061 223d d6ae 7dbd
00000050: 23cb 39bd 6980 51bd 29ba 54bd aa37 ebba
00000060: b697 20bc de3d 03bd e4e1 67bd 3a51 22bd
00000070: 0306 943c 0b36 25bd d149 a2bd 26d8 a5bd
00000080: b220 13bd fe39 5abc 2ccf 1cbd 0225 5cbd
00000090: c8a8 4ebd c358 b13c 2b08 ddbc 1804 fdbe
000000a0: eef5 1bbd 7ac2 8fbc 2ca2 05bd e6bd 58bd
000000b0: 1c3e 7abc dfc9 46be 56fc 64bd b518 4dbd
000000c0: c250 143a d7ff 86bd 08e4 a73a 7f1b 21bd
000000d0: 8a17 34bd bd18 1cbc a7e2 3abd 2db6 47bd
000000e0: 87ad cabb 5a77 50bd 8aba 7abd 2e6f 39bd
000000f0: 9d5b febd d381 c43c 9bb7 3ebd 38f7 0e3d
00000100: 0ada 37be 5f9b 79bd 83a3 28bd 2dbe 80bd
00000110: d10a 29bd a9e1 bfbc a814 78bd 62da acbe
00000120: 1232 0dbd 5b79 0abd afde 2fbd a680 19bc
00000130: fdf7 3bbd ccc9 f4bc d5eb 81bd c223 23bd
00000140: b453 39bd 3dc8 31bd 17d6 e53b db6a 13bd
00000150: f68f 15bd c62d 04bd 3ae5 0cbd 2c29 24bd
00000160: 9651 d5bc 8f87 9cbc b636 ba3c f924 43bd
00000170: 7ec0 2bbd 289c 75bd 1e05 1abd a679 3bbd
00000180: e524 ee3a 4727 37bd 2748 46bd 3b95 19bd
00000190: b1f0 53bd 739c 20bd 445e 7b3c 8b3e aa3c
000001a0: 9399 883c b820 46bd 9f5b c7bc b04c febc
000001b0: cfb2 89be e55c 46bd 1c0e 11bd 07dd 9ebd
000001c0: 9f3e 1ebd 0fb4 8fbd cb7e 9fbd a68b 3bbd
000001d0: e876 71bd c8d3 29bc 9250 5dbd ce38 32bd
000001e0: 00fc 87bd 0ad9 f1bc 3fe8 83bd 395f 95bd
000001f0: 1ec8 d1bc a594 27bd 2495 ffbc a97f 26bd

net.9.running_mean f4 [128]
0.08213926 0.094425075 0.17052805 -0.3611967 -0.09344408 -0.37527493 -0.040242504 -0.10476387
0.32587704 0.06084377 0.060707156 -0.3407583 0.29722148 0.20756923 -0.3442433 -0.013315566
0.18286714 -0.07260243 -0.27247116 -0.11126559 -0.43268102 -0.32387242 0.088253014 0.46878844
0.25718647 0.20872657 -0.89468026 -0.8128804 0.2580636 0.066587694 -0.5808089 -0.073858656
0.31273836 -0.0053764624 -0.0055115297 -0.15821011 -0.33043015 0.3606564 -0.14361475 -0.23222414
-0.685284 0.016673218 -0.19695665 0.120120384 -0.149606 -0.5594759 0.12976488 -0.27741075
-0.23798645 -0.37473038 0.22168837 0.25062746 -0.26843518 -0.08257433 0.6443653 0.23796624
0.023009526 -0.41538158 -0.519064 -0.38712645 0.07892363 0.15014374 -0.65755624 0.3686956
-0.2429587 -0.19863138 -0.4119408 -0.102127455 -0.24167307 -0.54974234 -0.34544566 -0.29923925
-0.34109342 -0.08215308 -0.40602657 0.0011609425 -0.059240934 0.12438301 -0.20946065 -0.15969415
-0.14553253 -0.038427163 -0.0734146 -0.40064567 -0.31346938 -0.29317024 -0.16612424 -0.3519165
-0.07351549 -0.04983149 0.124366775 -0.5203836 -0.20514394 -0.3094568 0.43459973 -0.50815225
-0.1801553 0.10382605 -0.33428505 0.17412718 -0.3502639 0.086984165 -0.037996694 0.15678914
0.17489122 -0.0346253 -0.5984834 0.15787634 -0.23067369 0.59024704 0.033626184 0.18821628
-0.14741899 -0.40760916 0.042972546 -0.2181019 -0.119098 -0.21212845 0.12620279 -0.38067785
-0.22264595 -0.105589055 -0.20757213 0.17433521 -0.0991164 -0.2826984 -0.029097825 0.09154491
00000000: a138 a83d ef61 c13d e89e 2e3e c6ee b8be
00000010: 9c5f bfbd 0924 c0be 53d5 24bd 718e d6bd
00000020: 5bd9 a63e 5137 793d 11a8 783d df77 aebe
00000030: 6a2d 983e 078d 543e a840 b0be 8829 5abc
00000040: 8641 3b3e 95b0 94bd 5781 8bbe 37df e3bd
00000050: 5e88 ddbe 9bd2 a5be ffbd b43d 0a05 f03e
00000060: f2ad 833e 6bbc 553e c409 65bf ee18 50bf
00000070: ea20 843e 215f 883d e4af 14bf 3543 97bd
00000080: 3e1f a03e 092d b0bb 109a b4bb d501 22be
00000090: 242e a9be f5a7 b83e bf0f 13be 2acc 6dbe
000000a0: c66e 2fbf 4696 883c 01af 49be ad01 f63d
000000b0: 5132 19be d039 0fbf 16e1 043e c808 8ebe
000000c0: b8b2 73be a9dc bfbe 4702 633e 3e52 803e
000000d0: 5670 89be bb1c a9bd 20f5 243f 6cad 733e
000000e0: 797e bc3c e5ac d4be 61e1 04bf 7035 c6be
000000f0: b6a2 a13d 48bf 193e 9b55 28bf abc5 bc3e
00000100: 2aca 78be 0666 4bbe e8e9 d2be 3328 d1bd
00000110: 2579 77be eabb 0cbf 41de b0be e335 99be
00000120: cca3 aebe e03f a8bd b7e2 cfbe c42a 983a
00000130: 9fa6 72bd 85bc fe3d da7c 56be dd86 23be
00000140: 7b06 15be cd65 1dbd 655a 96bd 6e21 cdbe
00000150: 0f7f a0be 691a 96be 791c 2abe 662e b4be
00000160: 4a8f 96bd 1b1c 4cbd 02b4 fe3d dc37 05bf
00000170: 4111 52be 1f71 9ebe db83 de3e 4416 02bf
00000180: a27a 38be c1a2 d43d 6927 abbe 654e 323e
00000190: ca55 b3be c124 b23d 6ca2 1bbd 558d 203e
000001a0: af16 333e 42d3 0dbd 3536 19bf 56aa 213e
000001b0: b935 6cbe 6e1a 173f 9cbb 093d c5bb 403e
000001c0: 01f5 16be 26b2 d0be fb03 303d 1b56 5fbe
000001d0: a7e9 f3bd 3338 59be 4e3b 013e 35e8 c2be
000001e0: 4dfd 63be 133f d8bd ca8d 54be ee84 323e
000001f0: 8afd cabd d8bd 90be 905e eebc e67b bb3d
