D_B.pth (torch_old, 401728 bytes, 21 tensors)

net.0.weight f4 [16, 3, 3, 3]
0	0x3e192a21	0.14957477
1	0xbe1ae7c9	-0.15127482
2	0x3c5cf96b	0.0134872
3	0x3d379154	0.04481633
4	0x3e2f0379	0.17091168
5	0xbd566788	-0.05234483
6	0x3d9ca7a8	0.076491654
7	0xbd11b73c	-0.035575137
8	0x3db6b8c4	0.0892196
9	0xbe13dff0	-0.14440894
10	0xbdb465b5	-0.088084616
11	0x3e1ac770	0.15115142
12	0xbde8d954	-0.11369577
13	0xbdbb79e3	-0.091541074
14	0xbc9e65d4	-0.019335665
15	0xbe05385c	-0.1300978
16	0xbcc04740	-0.023471475
17	0x3d667a8b	0.05626921
18	0x3e2fba64	0.17160946
19	0x3dd694ad	0.104775764
20	0xbe31e3cc	-0.17372054
21	0xbd8c86a0	-0.06861615
22	0x3e2046af	0.15651964
23	0x3d817a1d	0.063221194
24	0xbd04df33	-0.03243942
25	0xbddec1e1	-0.10876823
26	0x3d856d4e	0.06514989
27	0xbd91f3c6	-0.07126574
28	0x3e2ecbc6	0.17069921
29	0x3cc5b30a	0.024133224
30	0xbe0ab7ea	-0.1354672
31	0x3e08e899	0.13369979
32	0xbe2df50f	-0.16988014
33	0xbe0e6a71	-0.13907792
34	0x3de95bcc	0.11394462
35	0x3e2975d7	0.16548859
36	0x3d684369	0.056704912
37	0x3dfb085d	0.122574545
38	0xbdc80a9f	-0.09767651
39	0x3d7424f4	0.059605554
40	0x3df07d4d	0.11742649
41	0x3db40d40	0.0879159
42	0x3da52a79	0.08064742
43	0x3dfca1f7	0.1233558
44	0xbd6536a8	-0.055960327
45	0xbd28bdac	-0.04119651
46	0x3e0889f5	0.13333876
47	0xbe05922f	-0.13044046
48	0xbd7e500f	-0.06208807
49	0x3aaeb09a	0.0013327778
50	0x3e5a7585	0.21333893
51	0x3d1ebc0b	0.03875355
52	0x3d34b436	0.044117175
53	0xbc60b263	-0.013714406
54	0x3db52d9c	0.0884659
55	0xbe146888	-0.14493
56	0xbd2fc3c2	-0.0429113
57	0xbd843e74	-0.064572245
58	0x3e1eaad9	0.1549486
59	0x3e15fe5c	0.14647812
60	0x3de73ab5	0.11290494
61	0x3d7d20a5	0.06179871
62	0x3e2a2d72	0.16618899
63	0xbda2dfdc	-0.07952854
64	0x3ddb88ea	0.10719474
65	0x3e39a7a0	0.1813035
66	0xbd19da72	-0.03756184
67	0x3dad108a	0.0845042
68	0x3dbf6483	0.09345343
69	0x3dac8a54	0.084248215
70	0x3dc75443	0.097328685
71	0xbc998bf2	-0.018743489
72	0x3cede1dd	0.029038364
73	0x3e2782c8	0.16358483
74	0x3d146f7d	0.036239136
75	0xbccd7606	-0.025080692
76	0xbdabad3c	-0.08382651
77	0xbde3ff9c	-0.11132738
78	0x3d992c47	0.07479148
79	0x3d8df31b	0.06931134
80	0x3cd27ad3	0.025693333
81	0xbdbdc060	-0.09265208
82	0x3df37215	0.11886994
83	0x3e4e9fea	0.2017819
84	0x3e46ee69	0.19426884
85	0x3d9f9925	0.07792882
86	0xbe31f597	-0.17378841
87	0x3e09c24d	0.13453026
88	0xbe2c0a8d	-0.168009
89	0xbdd495ca	-0.103801325
90	0x3e0796ad	0.13241072
91	0xbc9a7502	-0.018854622
92	0xbd39dd26	-0.04537692
93	0xbe255ba9	-0.16148247
94	0x3e27c4f0	0.1638372
95	0x3e171a36	0.14756092
96	0x3c213081	0.009838224
97	0xbd6e5e89	-0.058195625
98	0xbe18c5b9	-0.14919175
99	0xbd51efb2	-0.051253982
100	0x3df49395	0.119422115
101	0xbe01e0b6	-0.12683377
102	0xbd6aeaf5	-0.05735298
103	0xbd9f3f10	-0.077757
104	0x3e1f8c7e	0.15580937
105	0xbe268b82	-0.16264156
106	0xbc751258	-0.014957987
107	0x3da8e4b5	0.082467474
108	0xbce99468	-0.028513148
109	0xbd1f5cc3	-0.038906824
110	0x3e11b76b	0.14230125
111	0xbdd94810	-0.10609448
112	0x3e113fca	0.1418449
113	0x3d48242e	0.04886263
114	0x3e220580	0.1582241
115	0x3e116839	0.14199914
116	0x3dff6025	0.1246951
117	0x3d077cd5	0.033078033
118	0xbe309757	-0.17245232
119	0xbe276914	-0.16348678
120	0x3d230f1b	0.039809328
121	0x3df7249f	0.12067532
122	0xbd521ce7	-0.051297095
123	0xbb8fd31c	-0.00438918
124	0xbde7b9fb	-0.1131477
125	0x3e0d8e63	0.13823847
126	0xbd355ff5	-0.044280965
127	0x3dfa549f	0.122231714
128	0xbda2602b	-0.07928499
129	0x3d70b188	0.058763057
130	0x3e0d152d	0.13777609
131	0x3dc363ba	0.09540506
132	0x3d8f9a8d	0.070119
133	0xbd958ba3	-0.07302024
134	0x3db9041f	0.09033989
135	0xbbae6ee1	-0.0053232764
136	0xbdc7ef14	-0.097623974
137	0xbdb57e33	-0.08861961
138	0x3d0c431a	0.03424368
139	0x3e0114aa	0.12605539
140	0xbdb5ad8d	-0.08870993
141	0xbde9efa9	-0.11422665
142	0x3c56a7aa	0.013101498
143	0xbd4ccc88	-0.049999744
144	0x3e142735	0.14468081
145	0x3daec2b6	0.08533232
146	0xbd6a824e	-0.057253174
147	0x3e23fcb7	0.16014372
148	0xbdf19dd7	-0.11797684
149	0xbdb657b2	-0.08903445
150	0xbdaa1ad7	-0.083059005
151	0xbcec4aa0	-0.028844178
152	0x3e33248a	0.17494407
153	0x3d5da77e	0.05411481
154	0x3d96f8a4	0.07371643
155	0xbd8a0cdc	-0.06740734
156	0x3c3e43b2	0.0116128195
157	0x3c303494	0.010754723
158	0x3d23a122	0.03994859
159	0xbc9a0b0b	-0.018804094
160	0x3e28c8b6	0.16482815
161	0x3dc251d7	0.09488266
162	0x3e37acf3	0.17937069
163	0x3dece97c	0.11567971
164	0xbd50ffa2	-0.05102504
165	0x3e478ac6	0.19486532
166	0x3d19c8b8	0.037544936
167	0xbd79f121	-0.061020974
168	0xbdedcb5b	-0.116110526
169	0x3e127da9	0.14305748
170	0xbd813756	-0.063093826
171	0xbd1202c2	-0.03564716
172	0xbe34bf5b	-0.17651121
173	0xbddf9d5b	-0.10918685
174	0x3d8d7108	0.069063246
175	0xbd227861	-0.039665584
176	0x3d553348	0.05205086
177	0x3ca15d5e	0.019697841
178	0xbdd04c9b	-0.10170861
179	0xbc90df43	-0.017684584
180	0x3d242751	0.040076558
181	0xbd918805	-0.07106022
182	0xbe119954	-0.14218646
183	0xbdbfccd2	-0.09365238
184	0x3e473d2b	0.19456927
185	0x3dc50211	0.09619535
186	0xbda8e3e1	-0.082465895
187	0xbd53b80d	-0.051689196
188	0xbd5014ff	-0.050801273
189	0x3e36a783	0.17837338
190	0x3d24f96f	0.04027694
191	0x3d3edd86	0.04659798
192	0xbcfe0151	-0.031006487
193	0xbd0091d8	-0.031389087
194	0x3db59d88	0.08867937
195	0x3a82f527	0.0009991274
196	0xbd90cf2f	-0.07070767
197	0x3df3aa57	0.11897724
198	0xbc77a0e7	-0.015114046
199	0xbe267455	-0.16255315
200	0xbd46f473	-0.04857297
201	0x3dbc0ed2	0.09182514
202	0x3dfae670	0.12250984
203	0xbdecebe9	-0.11568434
204	0x3e2adcbd	0.16685767
205	0xbcc2c4c8	-0.023775473
206	0xbdb84ee8	-0.08999425
207	0xbde85ba7	-0.11345606
208	0xbe36dccf	-0.1785767
209	0xbdafe7e5	-0.08589152
210	0x3cb428f3	0.021992182
211	0xbd699ecb	-0.057036202
212	0xbace3636	-0.0015732709
213	0xbcb11627	-0.021617008
214	0xbd14d0ac	-0.036331818
215	0xbcd6a9e2	-0.026204053
216	0x3bb6722a	0.0055678086
217	0x3d593658	0.053030342
218	0xbdb4e872	-0.08833398
219	0x3d5df83b	0.05419181
220	0xbdcc6272	-0.099797145
221	0xbe3aeca4	-0.18254334
222	0xbdf3d822	-0.119064584
223	0xbe3e11bd	-0.18561454
224	0x3e262846	0.162263
225	0x3d5cdeda	0.053923465
226	0xbdd57bd4	-0.10424009
227	0xbd4db4ba	-0.050221182
228	0x3d24cee6	0.040236376
229	0x3e3fee90	0.18743348
230	0x3d27f5ee	0.04100602
231	0xbdb8a0d9	-0.09015054
232	0x3d9cb548	0.07651764
233	0x3e4270b5	0.18988307
234	0xbe1097e8	-0.14120448
235	0x3dbad74a	0.091230944
236	0xbe0710ee	-0.13190052
237	0xbd537706	-0.05162718
238	0xbcfc5ce2	-0.030806009
239	0x3e14ecca	0.14543453
240	0x3d23d0b1	0.039993946
241	0xbe0e1e2a	-0.13878694
242	0x3e05be47	0.13060866
243	0xbe3aab75	-0.18229468
244	0xbd2766df	-0.04086959
245	0xbd1434ed	-0.036183286
246	0xbe1cf603	-0.15328221
247	0x3def48d8	0.11683816
248	0xbdfd38e7	-0.12364369
249	0xbd32dcf0	-0.043667734
250	0xbe23661b	-0.15956919
251	0xbe081843	-0.13290505
252	0xbcf36b2c	-0.02971419
253	0x3d96dca4	0.073663026
254	0x3d1e54b4	0.038654998
255	0x3db9b05f	0.09066843

net.0.bias f4 [16]
0	0x3e5273a5	0.20551927
1	0x3d4658ef	0.048424657
2	0x3d94a151	0.07257331
3	0x3c9c0005	0.019042978
4	0xbcc54ce0	-0.024084508
5	0x3dd580a7	0.10424929
6	0xbc869737	-0.016429527
7	0x3d9ded40	0.077112675
8	0x3e2e46fa	0.17019263
9	0x3de2db81	0.11077023
10	0xbd9ac3bd	-0.07556865
11	0x3e517bd2	0.2045739
12	0xbd1427f4	-0.036170915
13	0x3d99f8c6	0.07518153
14	0x3dedc279	0.11609358
15	0xbe549bf5	-0.20762618

net.2.weight f4 [32, 16, 3, 3]
0	0x3c4588e2	0.012056561
1	0xbd8bbbd6	-0.06822936
2	0x3d9f069d	0.07764933
3	0xba5014c1	-0.0007937663
4	0xbdac12e0	-0.084020376
5	0xbae94e39	-0.0017799801
6	0x3d30fcfd	0.04321002
7	0x3cbb098e	0.022831704
8	0x3d47454f	0.048650082
9	0x3dce893b	0.100847684
10	0xbcbea2a1	-0.023270907
11	0x3d0244e6	0.031803988
12	0xbd39a28a	-0.045321025
13	0xbd9a3f8c	-0.07531652
14	0x3d866cf5	0.06563751
15	0x3d9527aa	0.07282956
16	0xbd7cb2e1	-0.06169403
17	0x3d5891a2	0.05287326
18	0x3c79c6c7	0.015245146
19	0x3bf90905	0.007599952
20	0xbd410d0c	-0.047131583
21	0xbcb3e5b9	-0.021960126
22	0xbd2fcdbb	-0.04292081
23	0xbd18076b	-0.03711645
24	0xbbb26ab5	-0.0054448494
25	0x3d816971	0.063189395
26	0x3da70250	0.08154738
27	0xbd6c06d0	-0.057623684
28	0x3cb192c7	0.021676434
29	0x3cb3d37d	0.021951431
30	0xbd9979f2	-0.07493962
31	0x3c4fb488	0.012677319
32	0xbce92e50	-0.028464466
33	0x3c652b7d	0.013987419
34	0x3bf7da85	0.0075638914
35	0x3daa2eca	0.083097056
36	0xbd2d62de	-0.042330615
37	0xbd58758c	-0.052846476
38	0xbc9749c8	-0.018467799
39	0xbd5d0746	-0.053962015
40	0xbc9cfb0f	-0.019162683
41	0x3c94bf34	0.018157579
42	0xbd5fa61f	-0.054601785
43	0x3d81fc87	0.06346994
44	0x3d79831f	0.060916062
45	0x3cd32be0	0.025777757
46	0xbdbc9d97	-0.092097454
47	0x3c0a5328	0.008442678
48	0x3cfee5c0	0.031115413
49	0x3cdfe6fd	0.027331823
50	0xbca677f8	-0.020320877
51	0x3c8b91c6	0.017037284
52	0xbd8959a0	-0.06706548
53	0x3dae0d47	0.08498626
54	0x3c7c3ae9	0.015394905
55	0x3d093670	0.03349918
56	0xbcb7efc1	-0.02245319
57	0xbdde72a2	-0.10861708
58	0xbd10973f	-0.03530049
59	0xbd2615c3	-0.040548097
60	0x3d5e58fd	0.054284085
61	0x3cd9f517	0.026606126
62	0xbb2b59ed	-0.002614613
63	0xbcda49de	-0.02664655
64	0x3c933e2f	0.017973987
65	0x3d204f79	0.03913829
66	0xbc9c22bb	-0.01905953
67	0x3dac7cad	0.084222175
68	0x3ca03685	0.019557247
69	0xbd595459	-0.053058956
70	0xbd3e74c0	-0.04649806
71	0xbd5f3a79	-0.054499123
72	0x3cb92446	0.022600304
73	0x3d5d7f02	0.054076202
74	0x3dce65cb	0.10078009
75	0xbd73ee57	-0.05955347
76	0x3d0217c7	0.031760957
77	0x3da1b544	0.07895902
78	0x3c1c9b35	0.009558489
79	0xbd884ed3	-0.066556595
80	0xbd75553d	-0.059895743
81	0xbd73467f	-0.059393402
82	0x3d502203	0.050813686
83	0xbd07026f	-0.032961305
84	0xbd334b3a	-0.043772914
85	0x3dae11f0	0.08499515
86	0x3db96607	0.09052663
87	0x3d6c0db4	0.057630256
88	0xbc20335b	-0.009777869
89	0xbd3049f7	-0.04303929
90	0xba7e359e	-0.00096973206
91	0x3d08fd1c	0.03344451
92	0xbd42792a	-0.047478832
93	0x3d9d7dc1	0.07690001
94	0x3d9bf69a	0.07615395
95	0x3d83040e	0.06397258
96	0xbd9208bf	-0.071305744
97	0xbc843581	-0.016138794
98	0xbd9158f9	-0.07097048
99	0xbd64159b	-0.055684667
100	0xbda15792	-0.07878031
101	0xbd4b678e	-0.049659304
102	0xbd418d78	-0.047254056
103	0x3c5a3362	0.013317915
104	0x3c7101a1	0.014709861
105	0x3d91f2a1	0.07126356
106	0xbca6bea4	-0.020354576
107	0xbbc27a2f	-0.0059349756
108	0x3d3203b4	0.043460563
109	0x3cd109a1	0.025517287
110	0x3bbf9591	0.005846687
111	0x3cd673b0	0.026178211
112	0x3d1ed60c	0.03877835
113	0xbcf4f560	-0.02990216
114	0xbd6fc3d3	-0.058536362
115	0xbd6bf176	-0.057603322
116	0xbda60578	-0.08106512
117	0x3d31fc98	0.043453783
118	0xbdb04b9f	-0.086081736
119	0xbbecc7da	-0.0072259726
120	0xbc12f614	-0.008969802
121	0xbc0323af	-0.008004113
122	0xbd088b06	-0.033335708
123	0xbc252ab4	-0.010080982
124	0x3d0b467f	0.034002777
125	0x3c8bf6b4	0.01708541
126	0x3ca48df0	0.020087212
127	0x3ab949a7	0.001413633
128	0xbc0dbfe1	-0.0086517045
129	0x3dc552f3	0.09634962
130	0x3c8aa7a5	0.016925642
131	0xbcb6df1b	-0.022323182
132	0xbdd8f8a7	-0.10594302
133	0x3d65303c	0.055954203
134	0xbb93c6d3	-0.0045097857
135	0xbda4eec0	-0.080533504
136	0xbdbc4300	-0.09192467
137	0x3d7fa552	0.06241352
138	0x3d1b21d5	0.03787406
139	0x3d6e2c74	0.058147863
140	0xbd87ee27	-0.06637221
141	0xbda2d10b	-0.07950028
142	0xbc89a81d	-0.016803795
143	0x3d57bf63	0.052672755
144	0xbd388da8	-0.04505697
145	0xbda4e1ba	-0.080508664
146	0xba198f17	-0.0005857809
147	0x3c94fd12	0.01818708
148	0xbd8d7d5b	-0.06908675
149	0xbda17fbf	-0.07885694
150	0x3cbda22b	0.023148617
151	0x3c722b87	0.014780886
152	0x3c8bec43	0.017080432
153	0xbd12c332	-0.035830684
154	0xbda07723	-0.078352235
155	0x3cfb0668	0.030642703
156	0x3d1d2521	0.038365487
157	0xbd968858	-0.07350224
158	0xbd922d85	-0.071375884
159	0x3c943866	0.0180933
160	0x3cbc9a00	0.023022652
161	0x3d2781ea	0.04089538
162	0xbce29b5f	-0.027661977
163	0x3d26f78b	0.04076342
164	0xbc3fcd53	-0.011706668
165	0xbcccc3cc	-0.024995707
166	0xbd6d6b9c	-0.057963952
167	0xbd4ec64f	-0.05048209
168	0xbc58ddaa	-0.013236443
169	0xbb89e30d	-0.0042079748
170	0x3d8902af	0.06689965
171	0xbc933670	-0.017970294
172	0x3ce5f734	0.028071977
173	0xbd5191de	-0.0511645
174	0xbc256241	-0.010094226
175	0xbc46b60c	-0.012128364
176	0xbd39d5aa	-0.04536978
177	0x3d55567d	0.052084435
178	0x3bd6b66c	0.006552508
179	0x3d4d0190	0.05005032
180	0x3d47a0ab	0.04873721
181	0xbc97894d	-0.018498087
182	0x3d511fc9	0.051055703
183	0x3d43ece2	0.04783333
184	0x3d9b154d	0.07572422
185	0x3ca9eceb	0.020742854
186	0xbd28864b	-0.041143697
187	0xbd94b6d2	-0.07261433
188	0x3dc561dc	0.09637806
189	0xbcb9ed1d	-0.022696072
190	0x3cb14f26	0.021644186
191	0x3ca2e2dc	0.019883566
192	0x3cef7c7b	0.029234162
193	0xbd94d878	-0.07267851
194	0x3be69463	0.007036732
195	0xbd35f45d	-0.044422496
196	0x3ca2ae9f	0.019858656
197	0xbccd47ce	-0.025058653
198	0x3ca6a71f	0.020343361
199	0x3cabfb42	0.020993832
200	0x3d8dc4c3	0.06922295
201	0x3b662fd0	0.0035123713
202	0xbd79941a	-0.060932256
203	0x3be60bc1	0.007020444
204	0x3cd88850	0.026432186
205	0x3c9652f9	0.018350111
206	0x3d973ee2	0.07385041
207	0x3c866fbc	0.016410701
208	0x3cfdc51b	0.030977776
209	0xbc111df5	-0.00885724
210	0xbc8aa11b	-0.016922524
211	0xbd175582	-0.03694678
212	0x3d804248	0.06262642
213	0xbc6a758e	-0.014310254
214	0x3d67e618	0.05661592
215	0xbda70762	-0.08155705
216	0xbdc7085d	-0.09718392
217	0x3b9cc0be	0.004783719
218	0xbcabdafd	-0.020978445
219	0x3d5856f8	0.052817315
220	0xbdee6ac5	-0.116414584
221	0x3b23729c	0.0024940139
222	0x3be0f617	0.0068652737
223	0xbbeeb2cd	-0.0072844983
224	0x3cd56f7f	0.026054142
225	0x3dc3bd9c	0.095576495
226	0x3d509545	0.050923605
227	0x3ddf881a	0.10914631
228	0x3c8fbb2a	0.017545301
229	0x3ca94d00	0.0206666
230	0xbd296c56	-0.041363083
231	0x3d525ecf	0.051359948
232	0x3d998758	0.07496518
233	0x3d5456ca	0.05184058
234	0xbd24a19f	-0.040193196
235	0x3cbc9693	0.023021018
236	0x3bac5c6a	0.00526004
237	0x3d1b02f2	0.037844606
238	0xbbbffcc0	-0.0058589876
239	0x3ce27f15	0.027648488
240	0xbd8b4134	-0.06799546
241	0x3c40ed75	0.011775364
242	0xbd52ce20	-0.051466107
243	0xbd9f4f34	-0.07778779
244	0x3d362e3d	0.04447769
245	0xbb35ac9c	-0.0027721291
246	0xbbfac8cd	-0.007653332
247	0xbd326088	-0.04354909
248	0x3cf1a919	0.029499577
249	0x3d91df8d	0.07122717
250	0x3c1ea4d5	0.009682854
251	0xbd86ad07	-0.06575971
252	0x3c898f72	0.016792033
253	0xbdbc0273	-0.09180155
254	0x3d8ebc9f	0.0696957
255	0x3d0ceb9f	0.034404393

net.2.bias f4 [32]
0	0x3cbf128c	0.023324274
1	0xbd6197f0	-0.05507654
2	0xbce91a38	-0.028454885
3	0x3d1ff4d3	0.039051842
4	0xbd98d59f	-0.0746262
5	0xbd0d8b21	-0.03455651
6	0x3d78f9ba	0.060785033
7	0xbd83328b	-0.06406125
8	0x3cd8ebc9	0.026479619
9	0x3d82a5fb	0.063793145
10	0xbd0001ec	-0.031251833
11	0xbd956c3c	-0.07296035
12	0xbd6bf6cf	-0.057608422
13	0x3d9502e8	0.07275945
14	0xbd85a133	-0.06524887
15	0x3d4d0dd7	0.050062027
16	0xbccf673d	-0.025317783
17	0xbd5b391f	-0.05352127
18	0xbcba7c22	-0.02276427
19	0x3d3ee173	0.046601724
20	0xbcdde12c	-0.02708491
21	0x3da6e79b	0.08149644
22	0xbcb90e65	-0.022589872
23	0x3d0d40f5	0.034485776
24	0x3d82357f	0.0635786
25	0x3d9f3915	0.077745594
26	0x3d81972f	0.06327664
27	0x3c122985	0.008921032
28	0xbca984b7	-0.020693166
29	0xbd53b892	-0.05168969
30	0x3d2cce47	0.04218891
31	0xbd964cb0	-0.07338846

net.3.weight f4 [32]
0	0x3e064c6d	0.13115092
1	0x3df7a928	0.12092811
2	0x3ee9f18a	0.45692092
3	0x3f6a874a	0.91612685
4	0x3f0ba019	0.54541165
5	0x3f60e593	0.878503
6	0x3f5d39ed	0.8641651
7	0x3e7a343a	0.24433985
8	0x3e70c6b2	0.23513296
9	0x3f7bb620	0.98324776
10	0x3f39baef	0.72550863
11	0x3f260a1c	0.64859176
12	0x3f2020d9	0.6255012
13	0x3f669ce0	0.9008312
14	0x3f6fdb85	0.93694335
15	0x3f4a2fb9	0.7897907
16	0x3edd8a68	0.43269658
17	0x3f1acdf5	0.60470515
18	0x3f3182ee	0.6934041
19	0x3f4e09dd	0.804838
20	0x3f6ba89a	0.9205414
21	0x3e6b37c2	0.22970489
22	0x3ed5ab29	0.41732147
23	0x3efc70c6	0.4930479
24	0x3da6e10d	0.08148394
25	0x3f2faa2c	0.68619037
26	0x3f20c70b	0.62803715
27	0x3e9f89af	0.31159732
28	0x3db402ab	0.087895714
29	0x3f546612	0.82968247
30	0x3e5f3abd	0.2179975
31	0x3f1f6c1f	0.62274355

net.3.bias f4 [32]
0	0x3b8bb8a4	0.0042639542
1	0x3d586ca7	0.052837994
2	0x3bc2f865	0.005950021
3	0xbc1a1ed1	-0.009406761
4	0x3c264883	0.010149124
5	0xb933e5b7	-0.00017156346
6	0x3c46e719	0.012140059
7	0x3cec47ae	0.028842773
8	0x3b3db42d	0.0028946504
9	0xbc809408	-0.015695587
10	0xbc6875f6	-0.01418828
11	0xbb5cadc9	-0.003367292
12	0x3c05ac49	0.008158752
13	0xbc9be366	-0.01902933
14	0xbc47cb9b	-0.012194539
15	0xbd048960	-0.032357574
16	0x3ab6712a	0.0013919224
17	0xbc9a94bc	-0.01886975
18	0x3b7b600c	0.003835681
19	0xbc804fca	-0.015663046
20	0xbd085ab2	-0.03328962
21	0x3c0e6e29	0.008693256
22	0x3c0368d3	0.0080205975
23	0x3c5bc6bb	0.01341408
24	0x3cbc9bfb	0.023023596
25	0xbc3fb1dc	-0.01170012
26	0x3b12190a	0.0022292756
27	0x39f50d98	0.0004674017
28	0x3cae0d1c	0.021246485
29	0x3c10210f	0.008796944
30	0x3b96717b	0.0045911646
31	0xbd2c43e2	-0.042056926

net.3.running_mean f4 [32]
0	0xbc87679d	-0.016528899
1	0xbdfef139	-0.12448353
2	0xbe07c911	-0.13260294
3	0xbe2763be	-0.16346642
4	0x3e2e7831	0.17038037
5	0x3e3d2d95	0.1847442
6	0x3de6956b	0.11258968
7	0xbbadc7fc	-0.005303381
8	0x38fb2965	0.00011976323
9	0xbeddd433	-0.43325958
10	0xbcdc7f92	-0.026916299
11	0xbedb96f2	-0.428886
12	0xbdf2a7d9	-0.11848421
13	0x3d482766	0.0488657
14	0x3e44d26c	0.19220895
15	0xbe03f533	-0.12886505
16	0x3d3141e4	0.04327573
17	0xbd8e3d1a	-0.06945248
18	0xbb93b288	-0.0045073666
19	0xbe96a658	-0.29423785
20	0xbe845f33	-0.2585388
21	0x3e2b1bf2	0.16709879
22	0x3e245f73	0.16052036
23	0x3c203f4a	0.009780714
24	0x3cc53e4a	0.024077553
25	0xbe126997	-0.14298092
26	0x3e160e15	0.1465381
27	0xbbca354c	-0.0061709043
28	0xbd7e3e63	-0.062071215
29	0x3eba0170	0.36329222
30	0xbd68d220	-0.056841016
31	0xbe0c1bc6	-0.1368247

net.3.running_var f4 [32]
0	0x3b02acf8	0.0019939523
1	0x3a81b18b	0.0009894831
2	0x3abfd527	0.0014635668
3	0x3b5f454a	0.00340684
4	0x3bc7cea7	0.006097633
5	0x3b500fc8	0.0031747688
6	0x3adb43ed	0.0016728617
7	0x3a23daf0	0.0006250581
8	0x3a17ef6a	0.00057958683
9	0x3cc62d6b	0.024191579
10	0x3b1b81bc	0.002372845
11	0x3c7a6011	0.015281693
12	0x3a93f0c4	0.0011286964
13	0x3b28de03	0.0025767095
14	0x3c18c86d	0.009325129
15	0x3a6bff92	0.00090026215
16	0x3b0fa58b	0.002191874
17	0x3ade1d51	0.0016945993
18	0x3ad0f25f	0.0015941373
19	0x3c08acf2	0.008342015
20	0x3bcefe0d	0.0063169063
21	0x3a80af38	0.0009817844
22	0x3bdc6f0c	0.006727105
23	0x3a24ed9d	0.00062915107
24	0x3a5d6243	0.0008445123
25	0x3c3a31e0	0.01136443
26	0x3aa399f2	0.0012481792
27	0x3b34d7da	0.0027594478
28	0x3a2bd92d	0.0006555494
29	0x3c968173	0.018372273
30	0x3affba14	0.0019510412
31	0x398f7bd5	0.00027367348

net.5.weight f4 [64, 32, 3, 3]
0	0xbb2d4781	-0.0026440325
1	0x3b7ce4ed	0.00385886
2	0x3c8f06df	0.017459331
3	0xbc89cf92	-0.01682261
4	0xbb5e6cba	-0.0033939318
5	0x3d0c8c5d	0.03431355
6	0xbcf10966	-0.029423427
7	0x3c45af49	0.012065717
8	0xbd762825	-0.06009688
9	0x3ce009a4	0.027348347
10	0x3a58c8e6	0.00082696823
11	0x3cb75ec8	0.022384062
12	0x3d9e1567	0.07718926
13	0xbbe8d8e4	-0.0071059335
14	0x3d23f5e9	0.04002944
15	0xbc4a4e66	-0.012347793
16	0xbce52e9c	-0.027976327
17	0xbd610f4e	-0.054946236
18	0xbcbace3c	-0.022803418
19	0xbc7c2aaa	-0.015391031
20	0xbbe9c581	-0.00713414
21	0x3bc906a0	0.006134823
22	0x3a0c9daf	0.0005364073
23	0xbbe79417	-0.007067214
24	0x3c8c5b27	0.017133309
25	0x3d74aad1	0.059733216
26	0x3bfb0955	0.0076610246
27	0x3c9a04a4	0.018801041
28	0x3be7a726	0.007069486
29	0xbd2b6ddb	-0.041852813
30	0x3c18c341	0.009323896
31	0xbc8baec5	-0.01705111
32	0x3cf5e2d7	0.030015392
33	0x3b8dc9b8	0.0043270253
34	0xbd3e6792	-0.04648549
35	0x3cf88818	0.030338332
36	0xbd753e14	-0.059873655
37	0xb968f228	-0.00022215454
38	0xbd28ef12	-0.04124362
39	0xbcc5671a	-0.024097014
40	0x3c02c9d9	0.007982695
41	0x3d71d68c	0.0590425
42	0x3cb90782	0.022586588
43	0xbc2de345	-0.010613267
44	0xbd25f087	-0.040512588
45	0xbd4a0d2e	-0.049328975
46	0xbbc4ba71	-0.006003671
47	0x3cd1f305	0.025628576
48	0x3d09334f	0.033496197
49	0xbcd286a4	-0.025698967
50	0x3c75708d	0.0149804475
51	0xbc95c5a6	-0.018282723
52	0x3cb0ff13	0.021606004
53	0xbcadaee5	-0.02120156
54	0x3c950bca	0.018194098
55	0xbc9780dd	-0.018494064
56	0x3d2b808e	0.041870646
57	0x3ceec885	0.02914835
58	0x3d0bb403	0.03410722
59	0x3d1a43d1	0.03766233
60	0xbc1d4e71	-0.009601221
61	0x3c14e1df	0.009087055
62	0xbd126066	-0.035736464
63	0x3d30dc2d	0.043178726
64	0xbc460cae	-0.012087984
65	0xbcb19155	-0.021675745
66	0x3d609b10	0.05483538
67	0x3cf42eb6	0.02980743
68	0x3c47335c	0.012158241
69	0x3d24113f	0.04005551
70	0x3c9d7dd0	0.019225031
71	0xbd80c8f8	-0.06288332
72	0x3d1962d9	0.037447784
73	0x3ccfa2ba	0.025346149
74	0x3c66cf9d	0.014087585
75	0x3d8eba19	0.06969089
76	0x3c911bb9	0.017713415
77	0x3bf6db1d	0.0075334446
78	0x3d424022	0.047424443
79	0x3d1c89b2	0.038217254
80	0x3d434e37	0.047682013
81	0x3d5c92cc	0.053850934
82	0x3d14b513	0.0363055
83	0xbc333ab6	-0.010939291
84	0x3c6c0e74	0.014407743
85	0xbd15cede	-0.036574237
86	0x3afd5907	0.00193289
87	0x3b9fda23	0.004878299
88	0x3d20d1b8	0.039262503
89	0x3cddf198	0.02709274
90	0x3c2e7f3b	0.010650451
91	0xbc9c04b5	-0.019045213
92	0xbd144df1	-0.036207143
93	0x3d7a5fd6	0.061126553
94	0xbcdb417a	-0.02676462
95	0x3cae52c4	0.0212797
96	0xbc92c7ba	-0.017917503
97	0xbc8be82d	-0.017078483
98	0xbc89aecd	-0.016806984
99	0x3a0ce926	0.0005375318
100	0xbd46e2b0	-0.04855603
101	0x3cca2a07	0.024678243
102	0x3d0b5ba6	0.03402295
103	0x3cf6b779	0.030116783
104	0x3aaf6d0d	0.001338394
105	0x3d3622a5	0.044466633
106	0x3c083dcd	0.008315516
107	0xbcc8f75b	-0.02453201
108	0x3d202a62	0.03910292
109	0xbc9a5a30	-0.018841833
110	0xbcae9589	-0.021311538
111	0xbcf8ca83	-0.030370003
112	0xbd37f156	-0.04490789
113	0x3ca9856e	0.020693507
114	0xbd05e68f	-0.03269058
115	0x3c501698	0.012700699
116	0xbc2a24d4	-0.010384757
117	0x3ad4633e	0.0016203893
118	0x3c88655d	0.016649896
119	0x3c2e091d	0.01062229
120	0x3bd14dd6	0.0063874526
121	0x3d89bb95	0.067252316
122	0xbc172660	-0.009225458
123	0x3c2635d6	0.010144671
124	0xbbeee71b	-0.0072907335
125	0xbd0186e0	-0.031622767
126	0xbdaf828f	-0.08569824
127	0xbd098658	-0.033575386
128	0xbd92dc1b	-0.07170888
129	0xbd9ae686	-0.075635
130	0xbd1eba78	-0.03875205
131	0xbd532b43	-0.05155493
132	0x3cab8d0c	0.02094128
133	0x3c85191f	0.01624733
134	0xbd41148e	-0.047138743
135	0xbc30e85b	-0.010797585
136	0x3b8b34a5	0.004248219
137	0x3d2f5b91	0.042811934
138	0xbc8ba5f0	-0.017046899
139	0xbb62c53d	-0.0034602426
140	0xbd01a17e	-0.03164815
141	0xbce1ce36	-0.02756415
142	0xbbf2b135	-0.0074063786
143	0x3c918bca	0.017766852
144	0xbdba6a83	-0.09102347
145	0xbdca4b06	-0.09877591
146	0xbdf826a9	-0.12116749
147	0xbc42fdba	-0.011901313
148	0xbdbb00b6	-0.09130995
149	0xbd47cbf3	-0.048778486
150	0x3d114895	0.03546961
151	0x3c27d2b2	0.010243105
152	0xbcac79ab	-0.02105411
153	0xba4ed2f6	-0.0007889712
154	0x3d7a52c6	0.061114095
155	0xbc89cd2f	-0.016821472
156	0x3ccb050d	0.024782682
157	0x3c94c001	0.01815796
158	0x3d0a1b22	0.033717282
159	0xbd12a6e1	-0.03580368
160	0x3d269406	0.04066851
161	0x3d48fe4c	0.04907064
162	0xbc9d37f2	-0.019191716
163	0xbc1c6837	-0.009546331
164	0xbd31faf7	-0.04345223
165	0xbd10fc37	-0.03539678
166	0x3d5761cc	0.0525835
167	0x3d434e8c	0.04768233
168	0x3d27c571	0.04095978
169	0xbcb77551	-0.022394808
170	0xbd19058b	-0.0373588
171	0xbb5d08c5	-0.003372715
172	0x3d5beb28	0.05369106
173	0x3d1b5e98	0.03793201
174	0x3d395ad6	0.045252644
175	0x3d20330a	0.039111175
176	0xbd3b9f75	-0.045806367
177	0xbd1ea979	-0.03873584
178	0x3b31c005	0.002712251
179	0x3b9ae0a7	0.0047264877
180	0x3d429dff	0.047513958
181	0x3d1d4fad	0.038406063
182	0x3cea336e	0.028588977
183	0xbca56131	-0.020187946
184	0xbc1ec9a0	-0.009691626
185	0x3d203de1	0.039121512
186	0x3c2c9d36	0.010535529
187	0x3c543630	0.012952372
188	0x3d390afb	0.045176487
189	0x3c408563	0.011750552
190	0xbd4f6c6e	-0.050640516
191	0x3b0bc5f0	0.0021327697
192	0xbcebb202	-0.028771404
193	0xbd39aed9	-0.045332763
194	0xbd540b62	-0.051768668
195	0xbc82fa00	-0.01598835
196	0xbba96acd	-0.0051702023
197	0xbc122f85	-0.008922462
198	0xbc8ee222	-0.017441813
199	0xbd62c876	-0.055366956
200	0xbd1ce27a	-0.038301922
201	0xbc8aebc2	-0.016958121
202	0xbd31e34d	-0.04342966
203	0xbd0b6df6	-0.034040414
204	0xbcdf16cc	-0.02723255
205	0x3ba6289e	0.00507076
206	0xbbb3108f	-0.0054646204
207	0x3c23eee6	0.010005688
208	0x3d396dce	0.045270734
209	0xbc9b0f81	-0.018928291
210	0x3d54b914	0.051934317
211	0x3ce85276	0.028359633
212	0xbcbd618d	-0.023117805
213	0x3bc5d277	0.0060370523
214	0xbce00aae	-0.027348842
215	0x3d0f470e	0.034979872
216	0xbd890776	-0.06690876
217	0x3d84a869	0.06477434
218	0x3d51589f	0.051109906
219	0xbd5ad283	-0.053423416
220	0x3d0edb77	0.034877267
221	0xbc58bce5	-0.01322863
222	0x3ce0e9dc	0.027455263
223	0xbd79dd78	-0.061002225
224	0xbd8037dd	-0.06260655
225	0x3d03fd0f	0.032223757
226	0xbd2abfc1	-0.041686777
227	0x3ca292d3	0.019845402
228	0xbd08dfb2	-0.033416457
229	0xbc9c0aaf	-0.019048063
230	0x3ca4e7b4	0.020130016
231	0xbcd6c046	-0.02621473
232	0xbc789ea5	-0.015174543
233	0x3c7a2139	0.01526671
234	0x3c791124	0.015201841
235	0xbc8cc7af	-0.01718506
236	0xbbb3d390	-0.0054878667
237	0xbd60a5f2	-0.054845758
238	0xbc6a3b7e	-0.014296411
239	0x3c8e468a	0.01736762
240	0x3c1d430c	0.009598505
241	0xbc4d9368	-0.012547351
242	0xbb99e90c	-0.004696971
243	0xbbe3f0d9	-0.0069562015
244	0x3d7fdf58	0.062468857
245	0xbd10435e	-0.035220496
246	0x3c6b97a7	0.014379418
247	0xbc9d7772	-0.019221995
248	0xbc953780	-0.018214941
249	0xbcf56790	-0.029956609
250	0xbc6c3f9f	-0.014419465
251	0xbd494a64	-0.04914321
252	0xbc8c3f43	-0.01712001
253	0x3d927ced	0.07152734
254	0xbc692e0d	-0.014232171
255	0x3cc38f26	0.02387197

net.5.bias f4 [64]
0	0x3d6c09fa	0.057626702
1	0xbc34f1a7	-0.0110439425
2	0x3ceb0cde	0.028692659
3	0xbcda5b53	-0.026654875
4	0xbcf0c0ed	-0.02938887
5	0x3acf15ca	0.001579934
6	0x3cca14ff	0.024668215
7	0x3d0920d2	0.033478566
8	0x3ccf3394	0.025293149
9	0x3d378889	0.044807944
10	0xbc3aab25	-0.011393343
11	0x3d59e411	0.053196017
12	0x3d11fbed	0.035640646
13	0xbc9fdcaf	-0.01951441
14	0xbad93a42	-0.0016573148
15	0xbb09e4ba	-0.0021040873
16	0x3c80f41e	0.015741404
17	0xbd681d9a	-0.056668855
18	0x3d577e83	0.052610885
19	0x3d1e78d1	0.03868944
20	0xbb71a7e6	-0.0036873757
21	0x3c515c01	0.012778283
22	0xbcfdf2a2	-0.030999485
23	0xbd40732d	-0.04698484
24	0xbd386212	-0.045015402
25	0xbcf75648	-0.03019251
26	0x3cb3755b	0.021906545
27	0x3af96844	0.0019028266
28	0x3d357705	0.04430296
29	0x3d6cdde4	0.0578288
30	0x3c0bcdb7	0.008532933
31	0x3d82fc73	0.06395807
32	0xbd029f55	-0.031890232
33	0x3bcd58b6	0.0062666787
34	0x3cdf3159	0.02724521
35	0x3cb204d3	0.021730816
36	0x3cf79521	0.030222477
37	0xbcaafc5c	-0.020872287
38	0xbbaa83c4	-0.005203696
39	0xbd2e1d6b	-0.042508524
40	0xbc859b0f	-0.01630929
41	0x3c3a6543	0.011376682
42	0xbd132f89	-0.035934005
43	0xbd544fbc	-0.051833853
44	0x3d5259df	0.05135524
45	0xbd6a02c7	-0.057131555
46	0xbbf925d7	-0.007603388
47	0xbcc7c79a	-0.02438717
48	0xbc7f24dd	-0.015572754
49	0xbc5a6f26	-0.013332164
50	0xbcad6972	-0.021168444
51	0xbccd10f8	-0.025032505
52	0x3d5af1c6	0.05345323
53	0xbcefcd01	-0.029272558
54	0xbd40bf00	-0.04705715
55	0x3c45d9ae	0.012075825
56	0x3b8eb6a2	0.0043552676
57	0xbc94cd20	-0.018164217
58	0xbbd2a476	-0.0064282967
59	0x3d0d9267	0.03456345
60	0xbd018986	-0.031625293
61	0xbb3301a7	-0.0027314217
62	0xbba95f3a	-0.0051688226
63	0xbd434639	-0.04767439

net.6.weight f4 [64]
0	0x3f5fd080	0.8742752
1	0x3e465717	0.1936916
2	0x3ece2bce	0.40267795
3	0x3f51a83f	0.8189735
4	0x3f4a9354	0.79131055
5	0x3f26028f	0.64847654
6	0x3ead705b	0.33874783
7	0x3ee9ad0d	0.4563984
8	0x3edc9523	0.43082532
9	0x3f39e80f	0.7261972
10	0x3f37818f	0.71682066
11	0x3dc0f255	0.09421221
12	0x3ec16053	0.37768802
13	0x3e741b90	0.2383864
14	0x3e07546a	0.13215795
15	0x3eb14018	0.34619212
16	0x3e97943d	0.29605284
17	0x3f1aff53	0.60545844
18	0x3f238cdd	0.63886815
19	0x3f015e97	0.5053496
20	0x3e451360	0.19245672
21	0x3f4ba054	0.79541516
22	0x3ec87f0e	0.39159435
23	0x3ec04e00	0.3755951
24	0x3f687c2f	0.9081449
25	0x3ef75d8d	0.4831356
26	0x3ed96edd	0.42467394
27	0x3f5915f5	0.8479913
28	0x3f3803da	0.71880877
29	0x3ed1352b	0.40860876
30	0x3f574273	0.8408577
31	0x3e56621c	0.20935863
32	0x3f02f181	0.51149756
33	0x3f484189	0.78225
34	0x3f22bfcf	0.63573927
35	0x3f744c98	0.9542937
36	0x3f644f8e	0.8918389
37	0x3f4d43b5	0.8018144
38	0x3f64ac9f	0.893259
39	0x3e1d0062	0.15332177
40	0x3eaa2997	0.33234856
41	0x3f2acc8a	0.6671835
42	0x3ed09db8	0.4074533
43	0x3f37fad1	0.7186709
44	0x3f2e7332	0.68144524
45	0x3efa14df	0.48844048
46	0x3f6ed520	0.9329395
47	0x3f2efe7c	0.6835706
48	0x3f12af73	0.57298964
49	0x3ec13ee2	0.37743288
50	0x3e4f15b1	0.20223118
51	0x3f52c5d9	0.8233314
52	0x3d62b050	0.055343926
53	0x3ed33611	0.41252187
54	0x3e863c21	0.2621775
55	0x3f29a0fe	0.6626128
56	0x3ed751e2	0.4205466
57	0x3de4bfd4	0.11169401
58	0x3ecc3530	0.3988433
59	0x3ebdbe97	0.3705947
60	0x3e5d8cc3	0.21635728
61	0x3f27a6c3	0.65488833
62	0x3e2f42a7	0.1711527
63	0x3edc355b	0.43009457

net.6.bias f4 [64]
0	0xbc9a44ce	-0.018831637
1	0x3acbbd12	0.0015544018
2	0xbc19bac7	-0.00938291
3	0xbca1f765	-0.019771287
4	0xbd87b1de	-0.06625722
5	0xbd8236ed	-0.063581325
6	0xba99d0be	-0.0011735184
7	0x3c987e84	0.018615015
8	0xbd0325ea	-0.03201858
9	0xbca06c3e	-0.019582864
10	0xbd5f90dd	-0.05458151
11	0x3d3fda5a	0.046839096
12	0x3c1ebaa2	0.009688051
13	0xbba46ee2	-0.005018101
14	0x3c582736	0.013192942
15	0xbd327c2b	-0.043575447
16	0xba05e03e	-0.0005106962
17	0xbc2c2875	-0.010507693
18	0xbcfa0c78	-0.030523524
19	0xbd098b85	-0.03358032
20	0x3c89229c	0.016740136
21	0x3b87c1c0	0.00414297
22	0xbcf5acbd	-0.029989595
23	0x3c308118	0.010772966
24	0xbca4e3b8	-0.020128116
25	0xbcdd1f5e	-0.026992496
26	0xbd1e7973	-0.03869004
27	0xbd2c4341	-0.042056326
28	0xbc76119c	-0.015018847
29	0xbcff877f	-0.03119254
30	0xbc9497b8	-0.018138751
31	0x3b62dbea	0.0034615942
32	0xbd0cc059	-0.034363125
33	0xbcc765ca	-0.024340529
34	0xbcbf2204	-0.02333165
35	0xbd5faa1a	-0.05460558
36	0xbd25bfda	-0.040466167
37	0xbc6b9bdd	-0.014380422
38	0xbd6a8efd	-0.05726527
39	0xbc16da86	-0.0092073735
40	0x3c34ca8e	0.011034621
41	0xbd48bef7	-0.049010243
42	0xbd81288f	-0.06306564
43	0xbd071a14	-0.032983854
44	0xbbf1f275	-0.0073836395
45	0xbcc51cc8	-0.024061576
46	0xbd2e6926	-0.042580746
47	0xbd06cf84	-0.032912746
48	0xbbd49d91	-0.00648851
49	0xbd19c32d	-0.03753965
50	0xbb64b73f	-0.0034899262
51	0xbd189aaa	-0.037256874
52	0x3c9c3445	0.019067893
53	0xbc8bc62d	-0.017062271
54	0x3cc2061f	0.02368456
55	0xbd30d93b	-0.043175917
56	0xbd3c2830	-0.045936763
57	0xbb0a1c34	-0.002107394
58	0x3ca9a095	0.020706454
59	0xbc092f06	-0.008373028
60	0xbcd90d1d	-0.02649551
61	0xbca9a0b2	-0.020706508
62	0x3a2e65f5	0.0006652766
63	0x3bb018a5	0.0053740316

net.6.running_mean f4 [64]
0	0x3d2db27c	0.042406544
1	0x3c1d7c1d	0.00961211
2	0xbe604e7b	-0.21904938
3	0xbe8a4cd9	-0.27011755
4	0xbe75c1d0	-0.23999715
5	0x3e3a61a0	0.18201303
6	0x3e78e249	0.24305071
7	0xbebfa2f0	-0.37429
8	0x3ea80987	0.3281977
9	0x3e0a4790	0.13503861
10	0x3e04ef0b	0.12981813
11	0x3e91bf73	0.28466377
12	0x3db7f013	0.089813374
13	0x3e74d61f	0.23909806
14	0x3d75719d	0.059922803
15	0x3d476ffb	0.048690777
16	0x3d3c19eb	0.045923155
17	0xbc8947e6	-0.016757917
18	0xbeb80156	-0.3593852
19	0xbdaab157	-0.08334606
20	0xbe242531	-0.16029812
21	0xbefea3d1	-0.49734357
22	0x3d1990b2	0.037491508
23	0xbe03a059	-0.12854137
24	0xbebec23b	-0.3725756
25	0xbddde0eb	-0.10833915
26	0x3da4e035	0.080505766
27	0x3e9c3a22	0.30513102
28	0xbe76b209	-0.24091353
29	0x3e948e20	0.29014683
30	0xbd67b155	-0.0565656
31	0x3e6c909a	0.23102036
32	0x3da69c86	0.08135323
33	0xbdaf8910	-0.085710645
34	0x3c9966ab	0.018725714
35	0x3e6461f3	0.2230299
36	0xbdfc4e0c	-0.12319574
37	0xbea64cfc	-0.3248061
38	0x3da7ac21	0.08187128
39	0x3dcd9202	0.100376144
40	0x3d45caab	0.048288982
41	0x3ebd1454	0.36929572
42	0x3d79f95e	0.06102883
43	0xbe5dfea2	-0.21679166
44	0xbd9d9a2a	-0.0769542
45	0xbe28d1e3	-0.16486315
46	0x3e36528c	0.17804927
47	0xbdeabe25	-0.114620484
48	0xbe60df60	-0.21960211
49	0x3d906108	0.07049757
50	0x3e3a9f13	0.18224744
51	0x3dbf382f	0.09336888
52	0xbd887a1e	-0.06663917
53	0x3e5f5264	0.21808773
54	0xbe1a96ed	-0.15096636
55	0x3d5475f0	0.051870286
56	0xbb951dbd	-0.004550664
57	0x3e2ed3ca	0.17072979
58	0xbe22af98	-0.15887296
59	0xbda2117b	-0.079134904
60	0x3e237a6b	0.15964667
61	0xbec65fa6	-0.3874485
62	0x3df05e46	0.11736731
63	0xbefba6b2	-0.49150616

net.6.running_var f4 [64]
0	0x3eacd1cc	0.33753812
1	0x3cf413da	0.029794622
2	0x3d4b17e4	0.04958333
3	0x3df3efd0	0.11910975
4	0x3d9e1eba	0.077207044
5	0x3ce75295	0.02823762
6	0x3c4caa22	0.012491735
7	0x3db71cc7	0.08941036
8	0x3d2712c2	0.040789373
9	0x3cffcf33	0.03122673
10	0x3d475d9f	0.04867327
11	0x3c905509	0.017618673
12	0x3dbb7283	0.09152701
13	0x3ca59518	0.020212695
14	0x3c8cae21	0.017172875
15	0x3ca656bf	0.020305036
16	0x3c81a9df	0.015828071
17	0x3d843eb2	0.06457271
18	0x3e3c3802	0.1838074
19	0x3dadfdf9	0.08495707
20	0x3da717de	0.08158849
21	0x3e86abf0	0.26303053
22	0x3ce8501c	0.028358512
23	0x3e1042a4	0.14087921
24	0x3dc5793c	0.09642264
25	0x3d20d947	0.03926971
26	0x3c6be503	0.014397862
27	0x3d9ab571	0.075541385
28	0x3e81e3d5	0.25369135
29	0x3d473eb1	0.04864377
30	0x3dba73b0	0.09104097
31	0x3c92ab6c	0.017904006
32	0x3d98824f	0.074467294
33	0x3e1b92c9	0.15192713
34	0x3e0d5f0f	0.13805793
35	0x3cdca1f1	0.026932688
36	0x3dfe7ac5	0.1242576
37	0x3db853ce	0.090003595
38	0x3d8db11d	0.06918547
39	0x3ce31cb8	0.027723655
40	0x3cf84fc2	0.030311469
41	0x3d24f3cf	0.040271576
42	0x3ce371ca	0.02776422
43	0x3cd3c98d	0.025852943
44	0x3d7603e1	0.060062293
45	0x3cf9c95d	0.030491525
46	0x3d5d6c6d	0.05405848
47	0x3ce5eafb	0.028066149
48	0x3dabec1e	0.08394645
49	0x3d0c8193	0.03430326
50	0x3c86eb1c	0.01646953
51	0x3c7ad1a3	0.01530877
52	0x3d54d025	0.051956315
53	0x3c957e6e	0.018248763
54	0x3daa98dc	0.08329937
55	0x3d1698e8	0.036766917
56	0x3c99ff06	0.018798362
57	0x3c6c9437	0.014439634
58	0x3d704a39	0.058664534
59	0x3cf97e12	0.030455623
60	0x3cacf55a	0.021113086
61	0x3e3df1da	0.1854929
62	0x3cf91845	0.03040708
63	0x3e364ef7	0.1780356

net.8.weight f4 [128, 64, 3, 3]
0	0x3c9e37e1	0.019313755
1	0xbcebc761	-0.028781595
2	0xbd07dbd1	-0.033168618
3	0x3ce3138a	0.027719278
4	0xb93e6c83	-0.00018160236
5	0xbca79082	-0.020454649
6	0xbd11cafa	-0.035593964
7	0xbc9ae18d	-0.01890638
8	0x3ca34752	0.01993147
9	0xbc872ab2	-0.01649985
10	0xba812360	-0.0009852462
11	0xbcd25105	-0.025673399
12	0xbd04f253	-0.03245766
13	0xbcd9e24a	-0.02659716
14	0x3c074fd2	0.008258777
15	0x3d055ff4	0.03256221
16	0xbd4904d4	-0.04907687
17	0x3c311ee0	0.010810584
18	0x3c7cae69	0.015422442
19	0x3ab59594	0.0013853782
20	0xbd0d1d8e	-0.034452014
21	0xbc3c87fe	-0.011507032
22	0xbbcb2b9f	-0.0062002684
23	0xbd27cc0a	-0.04096607
24	0xbc07a40f	-0.008278861
25	0xbc515f90	-0.0127791315
26	0xbd581e03	-0.052762996
27	0xbd3f9ef7	-0.04678246
28	0xb8fde3dd	-0.00012106423
29	0x3c236f7c	0.00997531
30	0x3c0f05fb	0.008729453
31	0xbbadc44c	-0.0053029414
32	0x3cf51700	0.029918194
33	0x3c045f08	0.008079298
34	0xbd327711	-0.04357058
35	0xbd06036b	-0.032718103
36	0x3c201e0a	0.009772787
37	0xbceeb9d8	-0.029141352
38	0xbcabeb7b	-0.02098631
39	0xbcc826b1	-0.024432512
40	0xbc6dbdcf	-0.014510586
41	0xbc19988e	-0.009374751
42	0xbc969b05	-0.018384466
43	0x3b775949	0.0037742427
44	0x3d08d9df	0.033410903
45	0x3b8b6f7b	0.004255233
46	0xbb058d3f	-0.0020378379
47	0x3b8c1858	0.004275363
48	0xb9db0e74	-0.00041781703
49	0x3d0c36d0	0.03423196
50	0x3cf0fd69	0.02941771
51	0xbcf0e9ab	-0.029408297
52	0xbd33ae87	-0.043867614
53	0x3bfffe42	0.0078122923
54	0xbd67aa84	-0.0565591
55	0xbaa7d706	-0.0012805171
56	0xbd508dba	-0.05091641
57	0xbc95b3f0	-0.018274277
58	0x3d2b2e08	0.041791946
59	0x3c6d1f6f	0.014472826
60	0xbd00ec73	-0.031475496
61	0x3d4b9646	0.04970386
62	0xbcddbaec	-0.02706667
63	0xbd4f1935	-0.05056115
64	0xbd16833f	-0.03674626
65	0xbc94983f	-0.018139003
66	0xbc8c6469	-0.017137723
67	0x3c408cfe	0.011752365
68	0x3d018561	0.03162134
69	0x3c0003f4	0.0078134425
70	0xbcd8648c	-0.026415132
71	0xbce528bb	-0.027973523
72	0xbcdd9f23	-0.027053421
73	0x3c33484c	0.01094253
74	0xbbd3af7b	-0.006460128
75	0x3ca6c567	0.0203578
76	0x3ca20c4e	0.019781258
77	0x3d29c36a	0.041446127
78	0xbd488a06	-0.048959754
79	0x3cf5d0f9	0.030006872
80	0x3d20286f	0.03910106
81	0xbc567acb	-0.0130908
82	0xbcf034e6	-0.029322099
83	0xbc2f0cf3	-0.01068424
84	0xbc08a1be	-0.008339344
85	0xbb48b08d	-0.003062281
86	0x3c05cc22	0.008166345
87	0xbc5ab189	-0.013347992
88	0x3c2446e3	0.010026666
89	0x3b5a9862	0.0033354987
90	0x3cdb8f48	0.02680172
91	0xbd258143	-0.040406477
92	0xbccd6853	-0.02507416
93	0x3c867fe0	0.016418397
94	0x3c714bc5	0.0147275375
95	0x3ac257e7	0.0014827222
96	0x3cc01a82	0.02345014
97	0x3cd734ba	0.02627026
98	0xbd0039ef	-0.03130525
99	0x3c3f261d	0.011666802
100	0xbccbb429	-0.02486618
101	0xbd4529f8	-0.048135728
102	0xbd4caa81	-0.049967293
103	0x3cff4e31	0.031165214
104	0xbc8b2bb8	-0.01698862
105	0xbd469a66	-0.04848709
106	0x3c66beab	0.014083545
107	0xbd3cdb08	-0.046107322
108	0xbcd62177	-0.026139004
109	0x3cd45714	0.025920428
110	0x3ce43b2e	0.02786025
111	0x3c21de2c	0.00987963
112	0xbcb763f2	-0.022386525
113	0xbc3d3333	-0.011547851
114	0x3c58c819	0.013231301
115	0xbaad3756	-0.0013215344
116	0x3c1a6ae6	0.009424901
117	0x3ccc8edd	0.024970466
118	0xbc2b08dd	-0.010439125
119	0x3d2f492f	0.042794403
120	0x3cd49e17	0.02595429
121	0x3d1a8961	0.03772867
122	0x3cdcb109	0.026939886
123	0x3d0cec2a	0.03440491
124	0x3cf6250d	0.030046964
125	0x3d4b0abd	0.049570788
126	0x3ab078ec	0.0013463772
127	0xbcffe7f6	-0.031238537
128	0xbc7e5b7b	-0.01552474
129	0x3cd7af93	0.026328837
130	0xbd14e868	-0.036354452
131	0xbd03951b	-0.03212462
132	0x3d16b8ed	0.036797453
133	0x3c2ecb9b	0.0106686605
134	0x3d41ec4d	0.047344495
135	0xbd41baee	-0.04729741
136	0xbd0787e5	-0.033088583
137	0x3b495d60	0.0030725822
138	0xbca9feab	-0.020751318
139	0x3bb9d851	0.005671539
140	0xbc917faf	-0.01776108
141	0xbd0f332a	-0.034960903
142	0x3c28fa90	0.010313645
143	0xbd0b0795	-0.033942778
144	0x3ab8b4a6	0.0014091923
145	0x3d4a6b5d	0.049418796
146	0x3cc7b156	0.024376553
147	0xbd135ad2	-0.035975285
148	0xbbb4a8a5	-0.005513268
149	0xbcdd2a4b	-0.026997706
150	0xbbb61da5	-0.005557733
151	0x3d8ef081	0.06979466
152	0x3c4b2452	0.012398796
153	0xbce8555e	-0.028361019
154	0x3cb7eef4	0.022452809
155	0xba9582f8	-0.001140683
156	0xbccd1a61	-0.025036993
157	0x3ad622ff	0.0016337334
158	0x3d02506a	0.03181497
159	0xbcc34057	-0.02383439
160	0xba8eb8a8	-0.0010888772
161	0xbc514778	-0.012773387
162	0xbbba73b2	-0.0056900615
163	0xbbe4f09a	-0.0069866898
164	0x3c9d3133	0.0191885
165	0xbcadd38a	-0.021219034
166	0xbc0bf99d	-0.008543399
167	0x3cb32f22	0.02187306
168	0xbb3c3090	-0.002871547
169	0x3c446d8c	0.011989009
170	0xbc86b8ba	-0.016445506
171	0xbbd17fcd	-0.006393409
172	0xbd0af89b	-0.033928495
173	0xbd3b4425	-0.045719285
174	0xbc861d50	-0.0163714
175	0xbc9216f0	-0.017833203
176	0xbcb4a6ad	-0.022052133
177	0xba2886b3	-0.0006428763
178	0x3d0f5c0b	0.03499989
179	0xbc472de3	-0.012156936
180	0x3d002004	0.031280532
181	0xbd757ea5	-0.05993523
182	0x3bb942a0	0.0056536943
183	0xbb898b59	-0.0041975197
184	0xbd3eb063	-0.046554934
185	0xbc99e8a7	-0.018787695
186	0x3d266d06	0.040631317
187	0xbd2a34dc	-0.041554317
188	0xbb91e2ba	-0.0044520767
189	0x3c145cd7	0.009055338
190	0xbcbf161e	-0.023325976
191	0xbc3f999c	-0.011694338
192	0xbcc880f3	-0.02447555
193	0x3b105671	0.002202418
194	0x3c549e88	0.01297725
195	0xbb555e76	-0.0032557524
196	0x3c838f80	0.016059637
197	0xbb1b2f2c	-0.002367924
198	0xbd7d70a1	-0.06187499
199	0xbd488888	-0.04895833
200	0x3c935b3a	0.017987836
201	0x3c78d604	0.015187744
202	0xbc0dd29c	-0.00865617
203	0x3d1fc9b3	0.039010715
204	0x3bd173b3	0.0063919662
205	0xbc87959f	-0.016550837
206	0x3d143f67	0.036193278
207	0x3c8fa26d	0.017533505
208	0xbd334372	-0.043765493
209	0xbd3227af	-0.043494876
210	0x3c43fc08	0.011961944
211	0x3bcef08f	0.006315298
212	0xbcd3864b	-0.025820872
213	0x3a161145	0.0005724619
214	0x3c1768f7	0.009241334
215	0x3c9eb42d	0.019373024
216	0xbbbff174	-0.005857641
217	0x3d1af9d9	0.03783593
218	0xbc267a4e	-0.010160996
219	0xbc2d170d	-0.010564578
220	0xbd327702	-0.043570526
221	0xbb2bfaeb	-0.0026242088
222	0xbd3212d2	-0.04347498
223	0x3cea47ff	0.028598784
224	0xbb937cb2	-0.004500949
225	0x3c2a819f	0.010406881
226	0xbd01bfa4	-0.031676903
227	0xbc4bd0ad	-0.012439889
228	0x3d1cb6bb	0.038260203
229	0xbd5d9db5	-0.05410548
230	0x3d066895	0.03281458
231	0xba305072	-0.00067258545
232	0xbbb7daed	-0.005610815
233	0x3c1d24c1	0.009591282
234	0xbd39efce	-0.04539471
235	0x3ac95a3c	0.0015361975
236	0xbcad39b6	-0.021145683
237	0xbc9011b6	-0.01758657
238	0x3ba91723	0.005160229
239	0x3c5ab09e	0.013347773
240	0xbb3928a2	-0.0028252979
241	0xbc889ce7	-0.01667638
242	0x3beeb887	0.007285181
243	0x3c9cb132	0.019127462
244	0x3d03ebf3	0.03220744
245	0x3d17fdf2	0.037107415
246	0x3d0beb61	0.03416002
247	0xbd043362	-0.032275565
248	0x3c727613	0.014798659
249	0x3c8cb8ae	0.017177906
250	0xbb852e00	-0.0040643215
251	0xbd139bd7	-0.036037292
252	0xbd330c7c	-0.043713078
253	0xbcb4a251	-0.022050055
254	0xbbf70460	-0.0075383633
255	0x3af02c83	0.0018323812

net.8.bias f4 [128]
0	0xbc3a3eea	-0.011367539
1	0xbc56e46a	-0.013115982
2	0x3c159ef7	0.009132138
3	0x3c9cabde	0.019124921
4	0xbd1324f1	-0.035923902
5	0x3b92110f	0.0044576
6	0xbcea10b5	-0.02857242
7	0xbcb29152	-0.02179781
8	0xbc38fbbf	-0.01129049
9	0xbd1995ae	-0.03749626
10	0x3bd5b00b	0.00652123
11	0xbd1c1031	-0.03810138
12	0xbc80f624	-0.015742369
13	0xbd072148	-0.032990724
14	0x3c60fca1	0.013732106
15	0x3ab4265c	0.0013744342
16	0xbc84d709	-0.016215818
17	0x3ca3b909	0.019985693
18	0x3cf673d1	0.030084522
19	0xbcbd9efc	-0.023147099
20	0xbd13ba75	-0.03606649
21	0x3c1bc719	0.009507918
22	0x3cd28171	0.025696488
23	0x3c47a92d	0.012186331
24	0x3d0a1293	0.03370912
25	0xbd28da68	-0.041223913
26	0x3d0abda3	0.033872258
27	0xbbde9992	-0.0067932094
28	0xbc855c58	-0.016279384
29	0x3c415d69	0.011802056
30	0x3cff6940	0.031178117
31	0xbca9012e	-0.020630445
32	0xbd2a219d	-0.041535962
33	0x3c423617	0.011853716
34	0x3c2ffed7	0.010741911
35	0x3b776209	0.0037747642
36	0x3c570da0	0.013125807
37	0x3c9e676b	0.019336423
38	0x3c1c5113	0.009540814
39	0x3cbeb87d	0.02328133
40	0x3c53c74f	0.012925937
41	0xbb886546	-0.0041624634
42	0xbcbea0dd	-0.023270065
43	0xbd147243	-0.03624178
44	0x3bdd4e4a	0.0067537175
45	0xbd1cbbb9	-0.038264964
46	0x3cd279ba	0.02569281
47	0x3d21dbbf	0.039516207
48	0x3d04d637	0.032430854
49	0x3c7fb79a	0.015607739
50	0x3cf81726	0.030284476
51	0x3d1f4e6f	0.03889316
52	0x3cea93e5	0.028634975
53	0xbc28d438	-0.010304503
54	0x3cab7663	0.020930475
55	0xbc0f3e65	-0.008742903
56	0xbd0a098e	-0.03370052
57	0x3c67bc04	0.0141439475
58	0xbc123652	-0.008924084
59	0xbbbb98c4	-0.005724998
60	0xbbd58d02	-0.0065170536
61	0xbc30eeb8	-0.0107991025
62	0xbc97ddd8	-0.0185384
63	0x3d10cfe0	0.035354495
64	0x3ce23f46	0.027618062
65	0xbbf46d94	-0.007459352
66	0xbd164cbf	-0.036694285
67	0xbce48632	-0.02789602
68	0xbd2507be	-0.040290587
69	0xbc8124b1	-0.015764566
70	0x3c719b0e	0.014746441
71	0xbb880a3d	-0.004151611
72	0x3d02ba71	0.031916086
73	0x3d1e1d80	0.038602352
74	0xbcb1c172	-0.021698687
75	0xbd219029	-0.039444122
76	0x3b51f552	0.0032037091
77	0xbc9554c9	-0.018228905
78	0xbcd00cd4	-0.025396742
79	0xbcd5056b	-0.02600356
80	0x3cc61244	0.024178632
81	0xbc8a6a22	-0.016896311
82	0xbd12629f	-0.035738584
83	0x3c319ffd	0.010841367
84	0x3c93b0c0	0.018028617
85	0x3ca9854e	0.020693447
86	0x3c09b371	0.008404599
87	0xbc104163	-0.008804652
88	0xbc75728d	-0.014980924
89	0x3cdad0dc	0.02671092
90	0xbc8cf867	-0.017208291
91	0xbc1777de	-0.009244887
92	0xbc6ff014	-0.014644641
93	0xbc9118a9	-0.017711954
94	0x3d0537f8	0.03252408
95	0xbd31e4c6	-0.043431066
96	0xbc950a72	-0.018193457
97	0x3d1087ef	0.035285886
98	0x3d1ee553	0.03879292
99	0x3c758865	0.014986132
100	0x3c41603e	0.011802731
101	0xbd10a77b	-0.03531597
102	0xbcb2d646	-0.02183069
103	0xbc91268a	-0.017718572
104	0xbcbb7330	-0.022882074
105	0xbcac9dc8	-0.02107133
106	0xbcf134fa	-0.029444207
107	0xbd20d778	-0.039267987
108	0x3ce75355	0.028237978
109	0xbb25e11e	-0.0025311182
110	0xbc9d6436	-0.019212823
111	0x3cadbc58	0.021207973
112	0x3c32755d	0.010892239
113	0x3d115daf	0.035489734
114	0x3d2a9603	0.04164697
115	0xbc759263	-0.014988515
116	0xbceb1bd8	-0.0286998
117	0xbb95549c	-0.0045572054
118	0xbbd4250d	-0.0064741434
119	0xbc0c053e	-0.008546172
120	0xbbc609f3	-0.0060436665
121	0xba9f4a81	-0.0012152941
122	0xbc965d49	-0.018355029
123	0x3c955635	0.018229583
124	0xbc960bfe	-0.018316265
125	0xbcd3a2aa	-0.0258344
126	0x3d00abbb	0.031413775
127	0xbcfd04aa	-0.030886013

net.9.weight f4 [128]
0	0x3d019ef1	0.03164572
1	0x3ea00eb5	0.3126122
2	0x3f73fbf4	0.95306325
3	0x3eca5cfa	0.3952406
4	0x3eab9ffe	0.33520502
5	0x3f5cae4f	0.86203474
6	0x3f62668d	0.8843773
7	0x3f493aa3	0.786051
8	0x3f43a3fa	0.76422083
9	0x3d8efe9f	0.06982159
10	0x3f517695	0.81821567
11	0x3f3c1198	0.73464346
12	0x3eed72cf	0.46376655
13	0x3eeb4e67	0.45958254
14	0x3ebad495	0.36490312
15	0x3ede2fe0	0.433959
16	0x3efb5293	0.49086437
17	0x3e846ed4	0.25865805
18	0x3f5c62a7	0.8608803
19	0x3ed58cbf	0.41708943
20	0x3f82d154	1.0220132
21	0x3f25621d	0.64602834
22	0x3e38b731	0.18038632
23	0x3ed28d63	0.41123495
24	0x3dc5bae9	0.09654791
25	0x3e0ee0bc	0.13952917
26	0x3f3db9eb	0.74111813
27	0x3eed1c6c	0.46310747
28	0x3e1a45ab	0.15065639
29	0x3e3a6e5c	0.18206161
30	0x3effab13	0.49935207
31	0x3f555f53	0.8334858
32	0x3e9fe8b0	0.31232214
33	0x3eb6ed52	0.35727936
34	0x3d293ba6	0.04131665
35	0x3e4b147e	0.19832036
36	0x3edb1afb	0.42794022
37	0x3f1a6362	0.60307896
38	0x3e7d954c	0.24763983
39	0x3ee52826	0.44757193
40	0x3f6bc730	0.9210081
41	0x3f1bdd7b	0.6088483
42	0x3dc0df6a	0.09417613
43	0x3f50f692	0.81626236
44	0x3eb852d7	0.36000702
45	0x3ec66cc0	0.38754845
46	0x3f34a04c	0.70557094
47	0x3e4d134b	0.20026891
48	0x3e939bec	0.28829896
49	0x3f40cdbb	0.7531392
50	0x3e0ce9b4	0.13761026
51	0x3f63fd25	0.8905814
52	0x3f249d31	0.64302355
53	0x3dba9c3f	0.09111833
54	0x3e23a2e2	0.15980104
55	0x3ebbd06f	0.3668246
56	0x3e1868c1	0.1488371
57	0x3f287312	0.65800583
58	0x3f6b65a6	0.9195198
59	0x3e5a2930	0.21304774
60	0x3d297b2c	0.04137723
61	0x3f265bd3	0.6498386
62	0x3f16b3a7	0.5886788
63	0x3f1bf78f	0.6092462
64	0x3e33aacf	0.17545627
65	0x3f4409b8	0.7657733
66	0x3e130adb	0.1435961
67	0x3ea1e0d5	0.31616846
68	0x3eec452e	0.4614653
69	0x3f226074	0.63428426
70	0x3f73fc41	0.95306784
71	0x3e590df7	0.21196733
72	0x3ee8f8a2	0.45502192
73	0x3f31e1d8	0.69485235
74	0x3ecc737d	0.3993186
75	0x3f3f6a0c	0.7477119
76	0x3e72d088	0.23712361
77	0x3ec3d24e	0.38246387
78	0x3e9a0c44	0.30087483
79	0x3df02950	0.1172663
80	0x3db0cd98	0.08632964
81	0x3f67f085	0.9060138
82	0x3eafeb09	0.34359005
83	0x3e366e13	0.17815427
84	0x3dba6b83	0.091025375
85	0x3efc6338	0.49294448
86	0x3e1b14e1	0.15144683
87	0x3f32dbbd	0.69866544
88	0x3ed521a3	0.41627225
89	0x3e4c788e	0.19967863
90	0x3f7a8da3	0.9787237
91	0x3e94fc6a	0.29098827
92	0x3f0133a8	0.50469446
93	0x3ec2c814	0.38043272
94	0x3f2257e3	0.63415354
95	0x3e8d0236	0.2754075
96	0x3f297ef5	0.66209346
97	0x3f673299	0.9031158
98	0x3f2bff80	0.6718674
99	0x3ebab4ce	0.36466068
100	0x3f2e7a50	0.68155384
101	0x3f81c7cc	1.0139098
102	0x3ee733b1	0.45156625
103	0x3e8dad2b	0.2767118
104	0x3f63952f	0.8889951
105	0x3f1b2174	0.6059792
106	0x3de0d70d	0.10978518
107	0x3eeea482	0.46609885
108	0x3ef130f4	0.4710766
109	0x3d3c3244	0.045946375
110	0x3f61713b	0.880634
111	0x3f32a517	0.6978316
112	0x3f34dab8	0.7064624
113	0x3e9baf8e	0.30407375
114	0x3f8156c8	1.0104609
115	0x3f62f48c	0.886544
116	0x3e9eaa0a	0.30989105
117	0x3e9abab3	0.30220565
118	0x3e5291a5	0.20563371
119	0x3f7f4e13	0.99728507
120	0x3e6a7ab7	0.22898374
121	0x3f2cf723	0.675646
122	0x3f73a123	0.9516775
123	0x3f22b44a	0.6355635
124	0x3ee570ed	0.44812718
125	0x3ec7cc39	0.39022997
126	0x3d33014d	0.043702412
127	0x3ed2fc1e	0.41207975
