D_B.pth (torch_old, 401728 bytes, 21 tensors)

net.0.weight f4 [16, 3, 3, 3]
0	0x3e1ce695	0.15322335
1	0xbe1c054b	-0.15236394
2	0x3c83f7f3	0.016109442
3	0x3d426b97	0.047465887
4	0x3e2cf5de	0.16890666
5	0xbd647eec	-0.055785105
6	0x3da3a922	0.07991244
7	0xbd024126	-0.03180041
8	0x3dbff59b	0.093730174
9	0xbe0e0809	-0.13870253
10	0xbdaa0d7b	-0.083033524
11	0x3e1f67cf	0.15566944
12	0xbde077a3	-0.10960319
13	0xbdb70e00	-0.08938217
14	0xbca8565a	-0.020548988
15	0xbe003d4a	-0.1252338
16	0xbc3e5194	-0.011616129
17	0x3d7bfdb1	0.061521236
18	0x3e2bffea	0.16796842
19	0x3dce33b0	0.10068452
20	0xbe3983ab	-0.18116634
21	0xbd8f5095	-0.06997792
22	0x3e2045d3	0.15651636
23	0x3d6ea73b	0.058264952
24	0xbd1ab41b	-0.03776942
25	0xbde1513d	-0.11001823
26	0x3d6eb9a3	0.058282506
27	0xbd663b96	-0.05620917
28	0x3e38f270	0.18061233
29	0x3cd5f016	0.026115458
30	0xbdf70174	-0.12060824
31	0x3e08c0ef	0.13354848
32	0xbe390df6	-0.18071732
33	0xbe1244f9	-0.14284123
34	0x3de1f132	0.110323325
35	0x3e26c130	0.16284633
36	0x3d46aa7e	0.048502438
37	0x3df270a6	0.11837892
38	0xbdccc85d	-0.09999154
39	0x3d6b95ff	0.057516094
40	0x3e069eec	0.13146561
41	0x3dc45d8b	0.095881544
42	0x3d910ad2	0.07082142
43	0x3e114d04	0.14189535
44	0xbd76e649	-0.06027821
45	0xbcb60f6e	-0.022224154
46	0x3e27bc57	0.1638044
47	0xbe0e5bae	-0.1390216
48	0xbd818d82	-0.063258186
49	0xba294a43	-0.0006457904
50	0x3e42e81e	0.19033858
51	0x3d31bf7a	0.043395497
52	0x3d61699b	0.055032354
53	0xbd06fb56	-0.032954536
54	0x3da94229	0.08264572
55	0xbe16348c	-0.14668483
56	0xbd2f77e0	-0.04283893
57	0xbd8f8134	-0.070070654
58	0x3e1f6c35	0.15568621
59	0x3e198db2	0.14995459
60	0x3ddff121	0.109346636
61	0x3d804caa	0.062646225
62	0x3e2b81f6	0.16748795
63	0xbda1cd9e	-0.079005465
64	0x3dee8ce4	0.116479665
65	0x3e3e471d	0.18581815
66	0xbd1e81ca	-0.038697995
67	0x3dc16f98	0.09445113
68	0x3dd58ddf	0.104274504
69	0x3db69a5d	0.08916161
70	0x3ddf4647	0.10902076
71	0xbc5a309e	-0.013317255
72	0x3d0c94e4	0.03432168
73	0x3e2ecaf5	0.1706961
74	0x3d1ce3b0	0.038303077
75	0xbce12e81	-0.027487995
76	0xbdb2d2d8	-0.087316215
77	0xbde6ffa5	-0.11279229
78	0x3d9d12c3	0.07669594
79	0x3d9018c6	0.07035975
80	0x3cd220b8	0.025650367
81	0xbdd94e75	-0.106106676
82	0x3dd975e3	0.10618188
83	0x3e4794ff	0.19490431
84	0x3e42174e	0.18954203
85	0x3d91798d	0.07103262
86	0xbe35abca	-0.17741314
87	0x3dfc977f	0.12333583
88	0xbe304b56	-0.17216238
89	0xbdc86c70	-0.09786308
90	0x3e0f0b4f	0.13969158
91	0xbc989373	-0.018624997
92	0xbd69f56a	-0.05711881
93	0xbe203e62	-0.15648797
94	0x3e2c2357	0.16810356
95	0x3e1483d8	0.1450342
96	0x3bf322b1	0.007419907
97	0xbd43a9e5	-0.047769446
98	0xbe1b3cea	-0.15159956
99	0xbcfdd726	-0.03098638
100	0x3e07c670	0.13259292
101	0xbe0ea191	-0.1392882
102	0xbd0c0e9a	-0.034193613
103	0xbd8338f2	-0.06407346
104	0x3e1b33d3	0.15156488
105	0xbe1c2d9c	-0.15251774
106	0xbba1ed87	-0.0049416455
107	0x3da1dc7f	0.079033844
108	0xbd1233f7	-0.03569409
109	0xbd2fd860	-0.04293096
110	0x3e107814	0.14108306
111	0xbdd88798	-0.105727375
112	0x3e1904b4	0.149432
113	0x3d6336c3	0.055472147
114	0x3e22c3e9	0.15895046
115	0x3e18c712	0.1491969
116	0x3e092e92	0.13396671
117	0x3cf66d14	0.03008131
118	0xbe3a112f	-0.18170618
119	0xbe27ecc6	-0.16398916
120	0x3d30f3f1	0.04320139
121	0x3df56e31	0.11983908
122	0xbd43723f	-0.047716375
123	0xbb1e1a35	-0.0024124507
124	0xbde8182c	-0.113327354
125	0x3e15c3ec	0.1462552
126	0xbd368e88	-0.044569522
127	0x3e01c469	0.12672581
128	0xbd8dca8d	-0.06923399
129	0x3d778e05	0.060438175
130	0x3e1380ec	0.14404649
131	0x3dd42d92	0.10360254
132	0x3d8ec29f	0.06970715
133	0xbd91d4c8	-0.07120663
134	0x3dca5807	0.09880071
135	0xba3ab88d	-0.0007122837
136	0xbdb6b97b	-0.08922096
137	0xbda40ab1	-0.08009852
138	0x3d146df4	0.036237672
139	0x3e03ce71	0.1287172
140	0xbdad3d1b	-0.084589206
141	0xbdd7ef3c	-0.10543677
142	0x3c88aeb5	0.01668487
143	0xbd34b751	-0.044120137
144	0x3e1bcdf0	0.15215278
145	0x3dc66f01	0.09689141
146	0xbd453386	-0.04814484
147	0x3e2318ed	0.15927477
148	0xbdfafeea	-0.12255652
149	0xbdb8c0ef	-0.09021174
150	0xbd9aadee	-0.07552706
151	0xbce4b463	-0.027918046
152	0x3e383903	0.17990498
153	0x3d1d6e2a	0.03843514
154	0x3d8b887a	0.0681314
155	0xbd965a76	-0.07341473
156	0x3b2070de	0.0024481337
157	0x3bb81168	0.0056173094
158	0x3d0d0e80	0.034437656
159	0xbcd2e966	-0.025746059
160	0x3e1df482	0.15425304
161	0x3da47c22	0.08031489
162	0x3e3c38aa	0.1838099
163	0x3dfac97b	0.122454606
164	0xbd315b53	-0.043299984
165	0x3e4017c5	0.18759067
166	0x3d01cdcf	0.031690415
167	0xbd9149cc	-0.07094154
168	0xbdf652a9	-0.12027485
169	0x3e1082ab	0.14112346
170	0xbd8b9631	-0.06815756
171	0xbd0d8b88	-0.034556895
172	0xbe30b934	-0.1725815
173	0xbdd5b539	-0.10434956
174	0x3d8d2c5a	0.06893225
175	0xbd147b70	-0.03625053
176	0x3d5d5789	0.05403856
177	0x3c76e0cb	0.015068243
178	0xbdcd107a	-0.10012908
179	0xbcc57e33	-0.024108028
180	0x3d629f26	0.055327557
181	0xbd5a5184	-0.053300396
182	0xbe03e89c	-0.12881702
183	0xbdc98146	-0.0983911
184	0x3e465bff	0.19371031
185	0x3dc1553e	0.09440087
186	0xbda87f0e	-0.08227359
187	0xbd4ad1ad	-0.04951637
188	0xbd5d848c	-0.054081485
189	0x3e2d970a	0.16952148
190	0x3d12977e	0.035789005
191	0x3d292085	0.04129078
192	0xbd1d58a1	-0.0384146
193	0xbd084734	-0.03327103
194	0x3db2cbe3	0.087302946
195	0xbab69fdd	-0.0013933141
196	0xbd8fbb07	-0.070180945
197	0x3df09fae	0.117492065
198	0xbd03e54a	-0.03220109
199	0xbe37df5f	-0.17956303
200	0xbd88c795	-0.06678692
201	0x3da9876f	0.08277785
202	0x3deca871	0.11555565
203	0xbdfe8c3b	-0.124290906
204	0x3e21d778	0.15804851
205	0xbd05efbd	-0.032699335
206	0xbdcf2271	-0.10113991
207	0xbdffb49a	-0.12485619
208	0xbe3fe942	-0.18741325
209	0xbdb1f2a8	-0.08688861
210	0x3c6c97cb	0.014440487
211	0xbd731916	-0.059350096
212	0x3b6869a8	0.0035463367
213	0xbca10390	-0.019655019
214	0xbd04ca9c	-0.032419786
215	0xbc94556b	-0.018107137
216	0x3b3725f0	0.0027946196
217	0x3d4c5b4d	0.04989176
218	0xbdbced34	-0.092249304
219	0x3d801660	0.06254268
220	0xbdc38ccb	-0.095483385
221	0xbe3aa975	-0.18228705
222	0xbdf4c02f	-0.119507186
223	0xbe41e032	-0.1893318
224	0x3e2085ad	0.15675993
225	0x3d476099	0.048676107
226	0xbde66da3	-0.1125138
227	0xbd484101	-0.048890118
228	0x3d3e7ed7	0.046507683
229	0x3e42ae51	0.19011809
230	0x3d56769f	0.05235922
231	0xbdb1f90c	-0.0869008
232	0x3d99e0f8	0.075136125
233	0x3e4437a2	0.19161847
234	0xbe100e65	-0.14067991
235	0x3dc20cd4	0.09475103
236	0xbdfa7431	-0.12229193
237	0xbd378aa5	-0.044809956
238	0xbcdec012	-0.027191196
239	0x3e207567	0.15669785
240	0x3d4f3b38	0.050593585
241	0xbe0d1b75	-0.13780005
242	0x3e06b1ac	0.13153714
243	0xbe3f3238	-0.186715
244	0xbd36341a	-0.04448328
245	0xbd1f81ad	-0.038942028
246	0xbe1dd123	-0.1541181
247	0x3deb5630	0.11491048
248	0xbdff1f2f	-0.1245712
249	0xbd2aa622	-0.041662343
250	0xbe2214f5	-0.15828307
251	0xbe096e9d	-0.13421102
252	0xbd0f7fe1	-0.035034064
253	0x3d8c915b	0.06863662
254	0x3d0afcf8	0.033932656
255	0x3db31b1d	0.08745406

net.0.bias f4 [16]
0	0x3e44c789	0.19216742
1	0x3d322f90	0.04350239
2	0x3d7f7256	0.0623649
3	0xbb16ec92	-0.002302919
4	0xbc69e382	-0.0142754335
5	0x3dc66da3	0.0968888
6	0xbca3db0b	-0.020001909
7	0x3d7ff34f	0.062487897
8	0x3e2231fc	0.1583938
9	0x3dc46d01	0.09591103
10	0xbd93208f	-0.071839444
11	0x3e4f6687	0.20253955
12	0xbd54ddfa	-0.051969506
13	0x3d84ae25	0.06478528
14	0x3dc967d8	0.0983426
15	0xbe48dca1	-0.19615413

net.2.weight f4 [32, 16, 3, 3]
0	0x3cace55d	0.021105463
1	0xbd5552da	-0.052080967
2	0x3d9c3ed8	0.07629174
3	0x3c890213	0.016724622
4	0xbd9da5d0	-0.07697642
5	0x3c317f13	0.0108335195
6	0x3d8e1b8a	0.069388464
7	0x3d613e1f	0.054990884
8	0x3da1655e	0.078806624
9	0x3db62267	0.088932805
10	0xbd023554	-0.03178914
11	0x3cd39dfa	0.025832165
12	0xbd8372d2	-0.064183846
13	0xbdb99a4e	-0.090626344
14	0x3d703a49	0.058649335
15	0x3d4fbef8	0.05071923
16	0xbd93925b	-0.072056495
17	0x3d3f4cc9	0.046704087
18	0x3c110b1b	0.008852745
19	0xbb9a153b	-0.004702238
20	0xbd5c123e	-0.053728335
21	0xbd04793b	-0.032342177
22	0xbd426e2b	-0.047468346
23	0xbd3254d4	-0.04353793
24	0xbcaec8f5	-0.021336058
25	0x3d4f2557	0.05057272
26	0x3d97b455	0.074074425
27	0xbd421c08	-0.047390014
28	0x3d0a2775	0.033729035
29	0x3c830768	0.015994743
30	0xbd96e51e	-0.073679194
31	0x3c7327b2	0.014841007
32	0xbce58f56	-0.02802245
33	0xbc9fa1dd	-0.019486362
34	0xbc7e4c81	-0.01552117
35	0x3d82c3bd	0.0638499
36	0xbd702203	-0.058626186
37	0xbd9900d9	-0.07470865
38	0xbce9c8e9	-0.028538184
39	0xbd885734	-0.06657258
40	0xbd041d94	-0.03225477
41	0x3bc6a3ef	0.006062023
42	0xbd57651e	-0.052586667
43	0x3d8701d8	0.065921485
44	0x3d80cf40	0.0628953
45	0x3ccfb69e	0.025355633
46	0xbd97a94d	-0.074053384
47	0x3a14e774	0.0005680241
48	0x3d5dadbf	0.054120775
49	0x3cdd5e89	0.027022617
50	0xbcae9a18	-0.021313712
51	0x3c76310f	0.015026345
52	0xbd55e322	-0.052218564
53	0x3da80e97	0.08205908
54	0x3d04919d	0.03236543
55	0x3d84faaa	0.06493123
56	0xbcd38499	-0.025820063
57	0xbd8c302b	-0.06845125
58	0xbd1fc17b	-0.039002877
59	0xbd1f782e	-0.03893297
60	0x3da412d3	0.08011403
61	0x3d43991f	0.04775345
62	0x398af2b2	0.00026502233
63	0xbc96cba7	-0.018407656
64	0x3d0be4bc	0.034153685
65	0x3d500f17	0.05079564
66	0xbc165de5	-0.00917766
67	0x3db803e2	0.089851156
68	0x3cad40ca	0.021149058
69	0xbd572e5c	-0.052534446
70	0xbd46fe39	-0.04858229
71	0xbd83f328	-0.06442863
72	0x3c350eb9	0.011050873
73	0x3d97fe71	0.07421578
74	0x3dd39a85	0.10332207
75	0xbd5704c3	-0.052494776
76	0x3cf10ea4	0.029425927
77	0x3dc0e027	0.09417754
78	0xbc0e2c16	-0.008677503
79	0xbd65ad51	-0.05607349
80	0xbd84ae32	-0.064785376
81	0xbd6d882b	-0.057991188
82	0x3d3f20d7	0.046662178
83	0xbd3254b5	-0.043537814
84	0xbd6131ab	-0.054979008
85	0x3dab4292	0.08362307
86	0x3d99d271	0.07510842
87	0x3d6fa307	0.058505084
88	0xbc6215bc	-0.013799127
89	0xbd2eb23d	-0.04265045
90	0xbc1b2d15	-0.009471198
91	0x3c853dc5	0.016264806
92	0xbd55d5be	-0.052205794
93	0x3d5349b5	0.051583964
94	0x3d84ebbe	0.06490277
95	0x3d53e4a9	0.05173174
96	0xbd963dad	-0.073359825
97	0xbcb7ba34	-0.022427656
98	0xbd924ce6	-0.071435735
99	0xbd562df1	-0.052289907
100	0xbd9b97fc	-0.07597348
101	0xbd48e4f6	-0.04904648
102	0xbd68e454	-0.056858376
103	0x3bc8240a	0.006107812
104	0x3c0df41b	0.008664156
105	0x3d80be65	0.06286315
106	0xbccf2b92	-0.02528933
107	0xbc163460	-0.009167761
108	0x3d39fac0	0.04540515
109	0xbc8c03ed	-0.017091716
110	0xbd2b8e99	-0.04188404
111	0x3cc65269	0.024209218
112	0xbc4e4008	-0.012588508
113	0xbd742b1b	-0.05961142
114	0xbd030f19	-0.03199682
115	0xbd5c94b2	-0.053852744
116	0xbd97c9df	-0.07411551
117	0x3d2ebc7c	0.04266022
118	0xbdb4151d	-0.087930895
119	0xbc9d26f7	-0.019183619
120	0xbc8ef79d	-0.017452056
121	0xbcc20919	-0.023685979
122	0xbd46e478	-0.04855773
123	0xbcd045df	-0.025423942
124	0x3cbd0728	0.023074701
125	0x3b2efb3f	0.0026700047
126	0x3d2127ed	0.039344717
127	0x3c520027	0.012817419
128	0x3b727941	0.0036998542
129	0x3dbabab9	0.09117646
130	0x3d46c889	0.04853109
131	0xbca2333a	-0.019799817
132	0xbd8c17ba	-0.06840463
133	0x3d87e6a8	0.06635791
134	0x3ba96fb6	0.0051707877
135	0xbd9622c1	-0.073308475
136	0xbda736c5	-0.08164743
137	0x3d71c2ae	0.05902355
138	0x3d426a14	0.047464445
139	0x3d88e048	0.06683403
140	0xbd55a30f	-0.052157458
141	0xbdb27aad	-0.08714805
142	0xbce2c044	-0.02767957
143	0x3cd1ac9a	0.025594998
144	0xbd3d40db	-0.04620443
145	0xbdb27348	-0.087133944
146	0x3bb34ac8	0.005471561
147	0x3cb89b5c	0.022535019
148	0xbd56ec13	-0.05247123
149	0xbda7555a	-0.081705764
150	0x3d2e758d	0.042592574
151	0x3c8983c6	0.016786467
152	0xbd2965c6	-0.041356824
153	0xbd2f6726	-0.04282298
154	0xbda6a6b3	-0.08137264
155	0x3cfe2a5f	0.031026063
156	0x3d2a0afa	0.041514374
157	0xbd930647	-0.07178932
158	0xbdad661d	-0.08466742
159	0x3cc59810	0.02412036
160	0x3cd4562d	0.025919998
161	0x3ce8187a	0.028331984
162	0xbce178cc	-0.02752342
163	0x3d34007c	0.043945774
164	0xbc55b824	-0.013044391
165	0xbce05144	-0.0273825
166	0xbd7d6553	-0.06186421
167	0xbd67018f	-0.05639797
168	0xbc1a052a	-0.009400645
169	0xb9a108d0	-0.0003071488
170	0x3d80b2a8	0.06284076
171	0xbd483f5c	-0.04888855
172	0x3b4a7e30	0.0030897968
173	0xba125914	-0.00055827317
174	0x3aecd825	0.0018069787
175	0xbd9313f6	-0.071815416
176	0xbd909c68	-0.07061082
177	0x3d7dde97	0.061979856
178	0x3cf38662	0.029727165
179	0xbbbb6dc7	-0.0057198736
180	0x3d465fef	0.048431333
181	0xbca3c1ef	-0.019989936
182	0x3d4f452b	0.050603073
183	0x3d6fb2fe	0.05852031
184	0x3da061e4	0.07831171
185	0x3cabed24	0.0209871
186	0xbd12c1e3	-0.035829436
187	0xbd972f83	-0.07382109
188	0x3d9b97b4	0.075972944
189	0xbc2fa450	-0.0107203275
190	0x3cc4e927	0.024036957
191	0x3c635243	0.013874593
192	0x3cfa6203	0.030564314
193	0xbd5d45c3	-0.054021608
194	0x3bf660c2	0.0075188586
195	0xbcd5b789	-0.026088493
196	0x3cb600f3	0.02221725
197	0xbc18fe97	-0.009338043
198	0xbcd2255a	-0.025652576
199	0xbd40dcbd	-0.047085512
200	0x3cad1304	0.021127231
201	0x3b8586ee	0.0040749228
202	0xbd647cd2	-0.0557831
203	0xbcc6bfc1	-0.024261357
204	0x3ce26b75	0.02763913
205	0x3cc93bf0	0.024564713
206	0x3d97716d	0.07394681
207	0x3aa94550	0.0012914333
208	0x3bd286b8	0.006424751
209	0xbd477ad0	-0.048701108
210	0xbcefd8e7	-0.029278232
211	0xbd868574	-0.06568423
212	0x3d27e7d1	0.04099256
213	0xbd064433	-0.032779884
214	0x3d3a285f	0.045448657
215	0xbd9e1f9f	-0.07720875
216	0xbdaf2737	-0.085524015
217	0x3c052523	0.00812653
218	0xbd4bce1c	-0.049757108
219	0x3d83d23e	0.06436585
220	0xbddc2941	-0.10750056
221	0xbbfd6304	-0.007732751
222	0x3d5a8205	0.053346653
223	0x3c879646	0.016551148
224	0x3cd060f9	0.025436865
225	0x3dc495c0	0.09598875
226	0x3d663d10	0.056210577
227	0x3da6bcb3	0.0814146
228	0x3c6c8b4b	0.014437507
229	0x3ce23d14	0.027617015
230	0xbd2d8a0a	-0.042367972
231	0x3ce6dfc6	0.028182875
232	0x3d98784b	0.07444819
233	0x3d5f900c	0.054580733
234	0xbd3d5f52	-0.046233483
235	0x3ce2d19c	0.02768784
236	0x3bdb0945	0.0066844546
237	0x3d4acc57	0.04951128
238	0xbb733ed7	-0.0037116313
239	0x3cd11fcd	0.02552786
240	0xbd608df8	-0.054822892
241	0x3c85f1b0	0.016350597
242	0xbd6ed540	-0.05830884
243	0xbdaee998	-0.08540648
244	0x3d234027	0.039856102
245	0xbbc6de16	-0.006068955
246	0x3a80cc43	0.00098265
247	0xbcfbdcb7	-0.030744893
248	0x3d00048c	0.031254336
249	0x3d9980d6	0.07495277
250	0x3c6e169d	0.014531759
251	0xbd98fc46	-0.07469992
252	0xbc92052e	-0.017824735
253	0xbd24fc88	-0.040279895
254	0x3d992a9d	0.07478831
255	0x3d4e96b5	0.050436694

net.2.bias f4 [32]
0	0x3cc1f57f	0.023676632
1	0xbd659f52	-0.056060143
2	0xbcd45f4e	-0.025924351
3	0x3d21281a	0.039344884
4	0xbd971e2a	-0.073788
5	0xbd036a4f	-0.032083806
6	0x3d7be246	0.061495088
7	0xbd7f033d	-0.062258948
8	0x3cbb5b28	0.022870615
9	0x3d809b59	0.0627963
10	0xbcda5aa0	-0.026654541
11	0xbd972fca	-0.07382162
12	0xbd721467	-0.05910149
13	0x3d964af1	0.07338513
14	0xbd84ab30	-0.06477964
15	0x3d4ceb13	0.05002887
16	0xbcccb51a	-0.0249887
17	0xbd5f88a9	-0.05457369
18	0xbcac63d1	-0.02104369
19	0x3d39b7f0	0.045341432
20	0xbcde0e89	-0.02710654
21	0x3da3a1b8	0.0798983
22	0xbcaf2970	-0.021382064
23	0x3d080d25	0.03321566
24	0x3d82ba68	0.063832104
25	0x3da1758b	0.07883748
26	0x3d84ad17	0.06478327
27	0x3c14d8b4	0.009084869
28	0xbc86eb75	-0.016469697
29	0xbd51d6e2	-0.05123032
30	0x3d33459d	0.04376756
31	0xbd951d5c	-0.072809905

net.3.weight f4 [32]
0	0x3df0f44e	0.117653474
1	0x3dd61b75	0.10454456
2	0x3ee854e4	0.45377266
3	0x3f6ba9ab	0.9205577
4	0x3f0c1a1d	0.54727346
5	0x3f62dc57	0.8861746
6	0x3f5ee915	0.87074405
7	0x3e61b8f2	0.22043207
8	0x3e692d00	0.22771072
9	0x3f7c6037	0.9858431
10	0x3f388160	0.7207241
11	0x3f25f28d	0.6482323
12	0x3f2023e5	0.6255477
13	0x3f642546	0.89119375
14	0x3f6fc67e	0.9366225
15	0x3f4c7bd1	0.7987643
16	0x3eda4ff7	0.42639133
17	0x3f1c8593	0.6114132
18	0x3f33bdde	0.7021159
19	0x3f4f8b2c	0.81071734
20	0x3f6cac07	0.9244999
21	0x3e64f3ea	0.22358671
22	0x3ed3ffa7	0.41405985
23	0x3ef7b22b	0.4837812
24	0x3d2fc464	0.042911902
25	0x3f2ee846	0.6832317
26	0x3f2178e3	0.63075083
27	0x3e9c5576	0.30533952
28	0x3d0d27fa	0.034461953
29	0x3f54db80	0.8314743
30	0x3e519517	0.2046703
31	0x3f1ffe91	0.6249781

net.3.bias f4 [32]
0	0xbbf84cde	-0.0075775227
1	0x3c942548	0.018084183
2	0xbbbfb721	-0.005850688
3	0xbbdec716	-0.0067986352
4	0x3c0f1d11	0.008734957
5	0xbbbeb292	-0.005819627
6	0xbb82e3c4	-0.003994437
7	0x3c23c4f0	0.009995684
8	0x3c13aef1	0.009013877
9	0xbcb1b136	-0.021690946
10	0xbac7071b	-0.0015184613
11	0xbb2053e0	-0.0024464056
12	0x3aced943	0.0015781302
13	0xbc20b729	-0.009809294
14	0xbc49b95b	-0.012312259
15	0xbc26e26b	-0.010185818
16	0x3a87200b	0.0010309232
17	0xbcc872ea	-0.024468858
18	0xbabf294c	-0.0014584451
19	0xbc8979cb	-0.016781708
20	0xbca70c4d	-0.020391608
21	0x3bdef513	0.0068041175
22	0x3b03317e	0.0020018513
23	0x3bc90b61	0.0061353897
24	0x3ba8c2a1	0.0051501547
25	0xbc7a85c2	-0.015290679
26	0xba817b63	-0.0009878691
27	0xbb1d76fb	-0.0024027217
28	0x3be851b8	0.0070898198
29	0x398271f8	0.00024880446
30	0xbbda7495	-0.0066667297
31	0xbc96b9c3	-0.018399125

net.3.running_mean f4 [32]
0	0xbe61667a	-0.22011748
1	0xbe00f810	-0.12594628
2	0xbe8a345f	-0.2699308
3	0xbe00e053	-0.12585573
4	0x3dffa13b	0.12481924
5	0x3e38cf68	0.18047869
6	0x3e3ad5d8	0.18245637
7	0xbc0b9f99	-0.008521938
8	0x3daf1b60	0.08550143
9	0xbedc8f3c	-0.4307803
10	0xbc2d17f3	-0.010564792
11	0xbede8199	-0.4345825
12	0xbd8ccc0a	-0.06874855
13	0x3d1eaf77	0.038741555
14	0x3e6c5006	0.23077402
15	0xbdb0bc54	-0.08629671
16	0x3e16e763	0.14736705
17	0xbe1be73e	-0.1522493
18	0x3dc61fc9	0.09674031
19	0xbeb49ed8	-0.35277438
20	0xbe866325	-0.26247516
21	0x3df916fc	0.12162587
22	0x3e4c32e3	0.19941287
23	0x3ccae4bf	0.024767278
24	0x3c9d4480	0.019197702
25	0xbe3d944a	-0.18513599
26	0x3e221853	0.15829591
27	0xbda0d707	-0.07853513
28	0xbd92bfb9	-0.071654744
29	0x3e69a8f8	0.22818363
30	0xbd9a16a0	-0.075238466
31	0xbde70acf	-0.112813585

net.3.running_var f4 [32]
0	0x3c379921	0.011205942
1	0x39d21f81	0.00040077794
2	0x3bd5bb8b	0.006522601
3	0x3b3927e6	0.002825254
4	0x3b9b453c	0.004738478
5	0x3b7beb9c	0.0038439995
6	0x3ae3bf8e	0.0017375813
7	0x39ea9d8e	0.00044749345
8	0x3a8d9ae1	0.0010803604
9	0x3ca67dce	0.02032366
10	0x3b0ac1d8	0.0021172669
11	0x3c7a300e	0.015270246
12	0x3a7d2f57	0.0009658238
13	0x3abc1837	0.0014350478
14	0x3c02df0d	0.00798775
15	0x3a69ca0b	0.00089183514
16	0x3b8b804a	0.0042572366
17	0x3b1e7b7e	0.0024182494
18	0x3b66e49c	0.0035231477
19	0x3c56911c	0.01309612
20	0x3bb46207	0.00550485
21	0x3a1a16c4	0.0005878026
22	0x3bc20fca	0.0059222924
23	0x3a6972f3	0.00089053734
24	0x3a90a27f	0.0011034756
25	0x3c30cc8f	0.010790958
26	0x3acdf88f	0.0015714335
27	0x3b228c7c	0.0024802973
28	0x3a47bfc6	0.0007619824
29	0x3bee4d81	0.007272423
30	0x3b48ccbc	0.003063961
31	0x3a6c2535	0.000900823

net.5.weight f4 [64, 32, 3, 3]
0	0xbc25de4a	-0.010123799
1	0xbb03d067	-0.002011323
2	0x3c519bfc	0.012793537
3	0xbc309b65	-0.010779236
4	0x3bdb8c78	0.006700095
5	0x3d0bfeeb	0.034178656
6	0xbccc873a	-0.024966825
7	0x3c8e9b94	0.01740817
8	0xbd73b575	-0.059499223
9	0x3cc1813b	0.023621192
10	0x3bebe96b	0.0071994564
11	0x3d00f544	0.031483904
12	0x3d4eff39	0.050536368
13	0xbccdfd42	-0.025145177
14	0x3d2f1c1b	0.042751413
15	0xbd09c5bf	-0.03363585
16	0xbd27ed5b	-0.040997844
17	0xbd7771fc	-0.06041144
18	0xbca38105	-0.019958982
19	0xbc0f7005	-0.008754735
20	0xbc2865da	-0.01027819
21	0x3bf3901d	0.007432951
22	0x3b972ec0	0.0046137273
23	0xbc3cbd32	-0.011519717
24	0x3bfc3077	0.007696207
25	0x3d551311	0.052020136
26	0xbbd51a33	-0.0065033673
27	0x3cad9e17	0.021193547
28	0x3c8c71bd	0.017144078
29	0xbd32bc70	-0.04363674
30	0x3bd6878f	0.0065469216
31	0xbcc1bd79	-0.023649918
32	0x3ce08783	0.027408367
33	0xba69686d	-0.0008903805
34	0xbd38e77d	-0.04514264
35	0x3cd3181a	0.025768328
36	0xbd433161	-0.047654513
37	0x3c0b4157	0.008499465
38	0xbd07ce4a	-0.033155717
39	0xbcb1b648	-0.021693364
40	0x3c2c1446	0.01050288
41	0x3d61c5c2	0.055120237
42	0x3d079302	0.033099182
43	0xbc56213e	-0.013069449
44	0xbd3af45b	-0.04564319
45	0xbd2547cf	-0.040351685
46	0x3b48da3b	0.0030647654
47	0x3d078792	0.033088274
48	0x3d3e8a30	0.046518505
49	0xbc25943b	-0.010106142
50	0x3cc1d631	0.023661705
51	0xbc2a655f	-0.010400145
52	0x3ce607ef	0.028079955
53	0xbc89bec9	-0.016814606
54	0x3ce9ce2c	0.028540693
55	0xbbb021a1	-0.0053751026
56	0x3d48e2fd	0.049044598
57	0x3cddcc9c	0.027075104
58	0x3d2cac1b	0.04215632
59	0x3d3127d7	0.043250885
60	0xbc24c435	-0.010056545
61	0x3c968e5d	0.018378431
62	0xbd2d6766	-0.042334937
63	0x3d23a4a0	0.03995192
64	0xbc1bce17	-0.009509585
65	0xbc8b54bc	-0.017008178
66	0x3d44aa43	0.048013937
67	0x3d457a21	0.048212174
68	0x3cf2054e	0.029543545
69	0x3d4425fc	0.047887787
70	0x3cfac07e	0.030609366
71	0xbd560e5b	-0.052259784
72	0x3cf79784	0.030223615
73	0x3c49cef4	0.012317408
74	0xbbaf5e59	-0.0053518233
75	0x3d606cab	0.054791134
76	0xbb2b2ab7	-0.002611799
77	0xbb94a62e	-0.0045364117
78	0x3d19d715	0.037558634
79	0x3cadb333	0.021203613
80	0x3d388d45	0.0450566
81	0x3d7b122d	0.06129663
82	0x3d4d67d5	0.05014785
83	0xbc306732	-0.010766791
84	0x3c997049	0.0187303
85	0xbcdd531c	-0.027017169
86	0xb9c9531e	-0.00038399635
87	0x3a52a25d	0.0008035058
88	0x3d263d4f	0.040585812
89	0x3ca7a7b6	0.020465713
90	0x3b09284d	0.0020928562
91	0xbccb86ad	-0.024844492
92	0xbd483115	-0.048874933
93	0x3d559fcd	0.05215435
94	0xbd085933	-0.033288192
95	0x3bff27b4	0.0077867154
96	0xbd12f4be	-0.035877936
97	0xbcd8a682	-0.026446585
98	0xbd15f5c0	-0.03661132
99	0x3c0419fc	0.008062836
100	0xbd2985eb	-0.04138748
101	0x3ccac05f	0.024749933
102	0x3d356895	0.04428919
103	0x3d286003	0.04110719
104	0x3b8d4717	0.004311453
105	0x3d4527b0	0.048133552
106	0x3c63249f	0.013863712
107	0xbcdbba64	-0.026822276
108	0x3d0ac170	0.033875883
109	0xbca4331b	-0.0200439
110	0xbd01fe48	-0.031736642
111	0xbd0f78bf	-0.03502726
112	0xbd06cae2	-0.032908328
113	0x3c27bf9b	0.010238553
114	0xbd1c9cdd	-0.038235534
115	0x3c397c17	0.011321089
116	0xbc8f30c1	-0.017479302
117	0xbc4b0e81	-0.012393595
118	0x3c5f0355	0.013611634
119	0x3b9f70b1	0.004865729
120	0xbc11affc	-0.008892056
121	0x3d6ff1d7	0.058580246
122	0xbc844109	-0.016144292
123	0xbb219a81	-0.0024658742
124	0xbc1c6c64	-0.009547327
125	0xbd254948	-0.04035309
126	0xbd852e3a	-0.06502958
127	0xbbdfbfb3	-0.0068282722
128	0xbd53485f	-0.05158269
129	0xbd7be785	-0.06150009
130	0xbc8dbc08	-0.017301574
131	0xbd215e97	-0.03939685
132	0x3d02ee1d	0.031965364
133	0x3ceadf24	0.028670855
134	0xbd318c43	-0.043346655
135	0xbcaac878	-0.020847544
136	0xbbb07d8c	-0.00538606
137	0x3d1d9a95	0.0384775
138	0xbce1d7f5	-0.027568797
139	0xbc9d031a	-0.019166518
140	0xbd0b8859	-0.034065578
141	0xbd1e790b	-0.038689654
142	0xbcf6f06b	-0.030143937
143	0x3c52f021	0.012874634
144	0xbd90d5b8	-0.070720136
145	0xbd840da7	-0.064479165
146	0xbdb037e5	-0.08604411
147	0x3c994f9a	0.018714715
148	0xbd6db066	-0.058029555
149	0xbcad3a4f	-0.021145968
150	0x3d666456	0.05624803
151	0x3d32c5d5	0.0436457
152	0xbb1e2e87	-0.002413662
153	0xbc3cac1e	-0.011515645
154	0x3d767c1d	0.060176957
155	0xbcd39aca	-0.025830645
156	0x3c93bb2c	0.018033586
157	0x3c08ca60	0.008349031
158	0x3d1b7e29	0.037962113
159	0xbd5a0c80	-0.053234577
160	0x3d192d8f	0.037396964
161	0x3d3c24a0	0.045933366
162	0xbd1683c5	-0.03674676
163	0xbc97c67a	-0.018527258
164	0xbd656e8c	-0.05601363
165	0xbd3e9f39	-0.046538565
166	0x3d5fcea9	0.054640446
167	0x3d1ee1ad	0.03878944
168	0x3d04936d	0.03236716
169	0xbcfe66a3	-0.0310548
170	0xbd3f68f8	-0.046730965
171	0xbb73f532	-0.0037225005
172	0x3d8035c3	0.06260254
173	0x3d10613e	0.035248987
174	0x3d309570	0.043111265
175	0x3d3042da	0.043032505
176	0xbd51dcdc	-0.05123602
177	0xbd4e2fd4	-0.05033858
178	0xbb03835b	-0.0020067308
179	0xbba1f308	-0.0049423017
180	0x3d587390	0.052844584
181	0x3d3c4659	0.045965526
182	0x3cbaa74b	0.02278485
183	0xbc9591d8	-0.01825802
184	0x3a773b73	0.0009431161
185	0x3d1ea317	0.038729753
186	0x3c650e0b	0.013980399
187	0x3c96f67a	0.018428076
188	0x3d1f6ec2	0.038923986
189	0x3a24eef9	0.0006291713
190	0xbd73f957	-0.05956396
191	0xbcb77969	-0.02239676
192	0xbc81fbe0	-0.015867174
193	0xbd0f3bbb	-0.034969073
194	0xbd2f2361	-0.04275835
195	0xbccf1997	-0.025280757
196	0xbbbffedd	-0.0058592395
197	0xbc92cc74	-0.017919756
198	0xbc9ffd5f	-0.019529996
199	0xbd433244	-0.04765536
200	0xbcf0d374	-0.029397704
201	0xbc4cce2f	-0.01250033
202	0xbd250b69	-0.040294085
203	0xbd001b74	-0.03127618
204	0xbcac0440	-0.02099812
205	0x3caf0055	0.021362463
206	0x3b96984d	0.0045957924
207	0x3b627759	0.0034556
208	0x3d209936	0.039208613
209	0xbd000920	-0.031258702
210	0x3ca735aa	0.020411331
211	0x3cae0184	0.021240957
212	0xbd6fd1ae	-0.058549576
213	0xbbc1424d	-0.0058977962
214	0xbd0a0c0d	-0.0337029
215	0x3c8848de	0.016636308
216	0xbd5b86b6	-0.053595267
217	0x3d6eb07b	0.058273774
218	0x3d3f520b	0.0467091
219	0xbcf4bd81	-0.029875519
220	0x3d42fb78	0.0476031
221	0xbb3634ee	-0.0027802545
222	0x3d72e7f0	0.059303224
223	0xbcff804b	-0.031189105
224	0xbd2420b5	-0.040070254
225	0x3d2ac23c	0.041689143
226	0xbcf80cd9	-0.030279564
227	0x3cc7d045	0.024391303
228	0xbceae735	-0.028674701
229	0xbc17ce37	-0.009265474
230	0x3cc2a2e9	0.023759322
231	0xbcf296e5	-0.029612968
232	0xbc57e7c2	-0.013177814
233	0x3c7ab71f	0.0153024485
234	0x3cd1d863	0.025615877
235	0xbbd9452f	-0.006630562
236	0x3b12bec3	0.0022391535
237	0xbd796f6c	-0.060897276
238	0xbbf526c0	-0.007481426
239	0x3c3ce3f2	0.011528956
240	0x3b07465b	0.00206413
241	0xbcb6b728	-0.022304133
242	0xbc9ce2d7	-0.019151134
243	0xbc8162cc	-0.01579418
244	0x3d5cac5f	0.053875323
245	0xbd375184	-0.044755474
246	0x3cb64384	0.02224899
247	0xbc84f642	-0.016230706
248	0xbcad68a1	-0.021168055
249	0xbd3f1587	-0.04665139
250	0xbce110f0	-0.027473897
251	0xbd60296b	-0.054727
252	0xbced0ec4	-0.028937705
253	0x3d7ac5e5	0.061223883
254	0xbd0dda56	-0.03463205
255	0x3cde7378	0.02715467

net.5.bias f4 [64]
0	0x3d6a377f	0.05718183
1	0xbc2a8db0	-0.0104097575
2	0x3cf1c4d1	0.029512795
3	0xbcda44c0	-0.02664411
4	0xbceae744	-0.02867473
5	0xba04db4d	-0.0005068079
6	0x3cd196d3	0.025584614
7	0x3d0c0b3a	0.034190394
8	0x3cc2d4ab	0.023783049
9	0x3d3a8abf	0.045542475
10	0xbc54b835	-0.0129833715
11	0x3d4ba651	0.04971916
12	0x3d1208fe	0.035653107
13	0xbcbe52ae	-0.023232784
14	0xbb0e9469	-0.002175594
15	0xbbc7e8be	-0.006100743
16	0x3c67a649	0.014138767
17	0xbd68a5b1	-0.05679864
18	0x3d555788	0.05208543
19	0x3d17626e	0.036959104
20	0xbb3d3d4a	-0.0028875642
21	0x3c47acc7	0.012187189
22	0xbd0108e9	-0.031502638
23	0xbd3de323	-0.046359193
24	0xbd3477fb	-0.044059735
25	0xbcfcc10d	-0.030853773
26	0x3c8d28ff	0.017231463
27	0x3a3fcc59	0.0007316522
28	0x3d496b9b	0.049174886
29	0x3d6c3e48	0.057676584
30	0x3be1b301	0.006887794
31	0x3d6c9c9c	0.05776654
32	0xbd048689	-0.032354865
33	0x3bbe4130	0.005806111
34	0x3cde9e3d	0.027175063
35	0x3ca8083e	0.020511743
36	0x3cee446d	0.029085362
37	0xbcaa511b	-0.020790627
38	0xbbb92332	-0.0056499476
39	0xbd2fc343	-0.042910825
40	0xbc84533b	-0.016152969
41	0x3bf57e07	0.0074918303
42	0xbd15cbd4	-0.03657134
43	0xbd5816e8	-0.05275622
44	0x3d4d1c56	0.05007585
45	0xbd660c50	-0.056164086
46	0xbc0ad81e	-0.008474378
47	0xbcc7f62e	-0.02440938
48	0xbc7a1de3	-0.015265915
49	0xbc60fd90	-0.013732329
50	0xbcbb9127	-0.022896362
51	0xbcf58560	-0.029970825
52	0x3d5bb62a	0.053640522
53	0xbd01babc	-0.031672224
54	0xbd3e02fc	-0.046389565
55	0x3c2f1d4a	0.010688135
56	0x3b7b24e9	0.003832156
57	0xbca7a65a	-0.020465065
58	0xbba32e8e	-0.004979915
59	0x3d0de2b7	0.03464004
60	0xbd055045	-0.032547254
61	0x3a3d19be	0.0007213614
62	0xbba97061	-0.0051708673
63	0xbd42254b	-0.047398847

net.6.weight f4 [64]
0	0x3f62e866	0.8863586
1	0x3e345064	0.17608792
2	0x3eccbc7c	0.39987552
3	0x3f528e14	0.82248044
4	0x3f4a61da	0.7905556
5	0x3f28cb73	0.6593544
6	0x3ea9973a	0.3312319
7	0x3ee72e2e	0.4515242
8	0x3ee0a970	0.4387927
9	0x3f3c4dc6	0.7355617
10	0x3f3923a7	0.72320026
11	0x3d9be7aa	0.07612546
12	0x3ec438a0	0.3832445
13	0x3e5cc5ee	0.21559879
14	0x3de9e351	0.1142031
15	0x3eadceb1	0.33946756
16	0x3e8eabb1	0.27865365
17	0x3f1db33c	0.61601615
18	0x3f269f00	0.65086365
19	0x3f0252ae	0.5090741
20	0x3e37502b	0.17901675
21	0x3f4e6f68	0.8063874
22	0x3ecf050b	0.40433535
23	0x3ebdf3d0	0.37100077
24	0x3f682fde	0.9069804
25	0x3ef85655	0.48503366
26	0x3ec9f252	0.39442688
27	0x3f5beabf	0.8590507
28	0x3f36ef9c	0.71459365
29	0x3ed5c57a	0.41752225
30	0x3f5d44b8	0.8643298
31	0x3e3a4a10	0.18192315
32	0x3f05fafe	0.5233611
33	0x3f4d7f2b	0.8027217
34	0x3f24ca1b	0.6437089
35	0x3f77558f	0.9661493
36	0x3f6725bf	0.9029197
37	0x3f4e38bf	0.8055534
38	0x3f6963d6	0.9116796
39	0x3e14bff9	0.14526357
40	0x3ea39568	0.31949925
41	0x3f2b7f6f	0.66991323
42	0x3ed85b89	0.42257336
43	0x3f3788aa	0.7169291
44	0x3f30e1fa	0.6909481
45	0x3efa8293	0.48927745
46	0x3f71b257	0.9441275
47	0x3f2a2705	0.6646579
48	0x3f116eba	0.5680958
49	0x3ec080f5	0.37598386
50	0x3e40e017	0.18835483
51	0x3f53376d	0.8250645
52	0x3cba0577	0.022707684
53	0x3ecd4d05	0.40097824
54	0x3e82207d	0.25415412
55	0x3f2c2de2	0.6725751
56	0x3ed88d2b	0.42295203
57	0x3da8f8e6	0.082505986
58	0x3ec18944	0.37800038
59	0x3eb82a63	0.35969839
60	0x3e4d3a9d	0.2004189
61	0x3f270b50	0.65251637
62	0x3e267585	0.16255768
63	0x3edca7bd	0.43096724

net.6.bias f4 [64]
0	0xbc4c17f7	-0.012456886
1	0x3bf70d58	0.0075394325
2	0x3af5d46a	0.0018755321
3	0xbc6cb180	-0.014446616
4	0xbc8d19e4	-0.01722426
5	0xbcefa4e9	-0.02925344
6	0xbc2272f9	-0.009915107
7	0x3c195536	0.009358695
8	0xbcb476c6	-0.022029292
9	0xbc6384d9	-0.013886654
10	0xbcf4ca96	-0.029881757
11	0x3ca0400a	0.019561786
12	0x3c09b658	0.008405291
13	0x3b141b38	0.0022599231
14	0x3c035524	0.008015905
15	0xbc4f6793	-0.012658971
16	0x3a8eb791	0.0010888447
17	0xbc313e25	-0.010818039
18	0xbc19688d	-0.009363306
19	0xbc04f75d	-0.008115617
20	0x3a4ef488	0.00078947144
21	0x3b3161fb	0.0027066458
22	0xbc898b86	-0.016790163
23	0x3ad16b48	0.0015977407
24	0xbc047cda	-0.008086408
25	0xbbb6af54	-0.0055751
26	0xbc9e7a32	-0.019345377
27	0xbcb3e044	-0.021957524
28	0xbb5aa6db	-0.0033363614
29	0xbc41cb66	-0.011828279
30	0xbc22f8a2	-0.009946974
31	0xbbd8d9b0	-0.0066177472
32	0xbc5d02aa	-0.013489405
33	0xbc84b633	-0.01620016
34	0xbc8dc4b8	-0.017305717
35	0xbc75a569	-0.01499305
36	0xbcaf0f7f	-0.021369694
37	0xbbf204a1	-0.0073858057
38	0xbcc05849	-0.023479598
39	0xbb49eff0	-0.003081318
40	0x3bd1973f	0.006396204
41	0xbcb79913	-0.022411859
42	0xbd15f1bf	-0.0366075
43	0xbc336619	-0.010949635
44	0x3a8cc588	0.0010740021
45	0xbc01ae1f	-0.007915049
46	0xbcbe129c	-0.023202233
47	0xbc80cecc	-0.015723608
48	0xbb608862	-0.0034260978
49	0xbcb11163	-0.021614736
50	0x3bd21de9	0.006412257
51	0xbc3c3615	-0.011487504
52	0x3c19dda8	0.009391226
53	0xbb093921	-0.0020938592
54	0x3c68bef0	0.014205679
55	0xbc8c8fef	-0.017158477
56	0xbc685f39	-0.014182859
57	0xbb31887a	-0.0027089403
58	0x3c0f083a	0.008729989
59	0xbc37730b	-0.011196862
60	0xbc126da7	-0.008937276
61	0xbbe6485e	-0.00702767
62	0xbbd096c1	-0.0063656275
63	0x3bc221fc	0.0059244614

net.6.running_mean f4 [64]
0	0x3d378ab0	0.044809997
1	0xbe959348	-0.2921393
2	0xbe096715	-0.13418229
3	0xbe320c5c	-0.17387527
4	0xbdda1232	-0.10648002
5	0x3e261c40	0.16221714
6	0x3e1268e6	0.14297828
7	0xbea290a3	-0.31750974
8	0x3ea07a9f	0.31343552
9	0x3e375fec	0.17907685
10	0x3df2b7cf	0.11851465
11	0x3eaea0c4	0.3410703
12	0x3dc296b0	0.095013976
13	0x3e06a237	0.13147818
14	0x3d6e97ec	0.058250353
15	0x3e49ed84	0.19719511
16	0xbd8fae8d	-0.07015715
17	0xbd267997	-0.0406433
18	0xbe86eb00	-0.26351166
19	0xbdd31047	-0.10305839
20	0xbd58c1a4	-0.052919045
21	0xbf00af14	-0.5026715
22	0x3d949156	0.07254283
23	0xbc7763f1	-0.0150995115
24	0xbe40870b	-0.18801515
25	0x3ca2d9a4	0.01987917
26	0x3d95ed21	0.073206194
27	0x3e892ba2	0.26791102
28	0xbecfec89	-0.4061015
29	0x3e8c99fe	0.27461237
30	0xbd00f7c7	-0.0314863
31	0x3e68390c	0.22678012
32	0x3d653706	0.055960678
33	0xbcf5e0ad	-0.03001436
34	0x3e0e1644	0.13875681
35	0x3e46283d	0.19351287
36	0x3a863458	0.0010238988
37	0xbe51d969	-0.20493092
38	0x3dbf689c	0.093461245
39	0x3e1b7cd1	0.15184332
40	0x3d78cf70	0.060744703
41	0x3eb3493d	0.35016814
42	0x3d58a5bc	0.05289243
43	0xbe736644	-0.2376948
44	0xbc305cd0	-0.010764316
45	0xbdaf26b7	-0.08552306
46	0x3da17840	0.07884264
47	0xbdd7c023	-0.10534694
48	0xbe7c88a8	-0.24661505
49	0x3d634966	0.05548992
50	0x3e81f8b9	0.25385073
51	0x3d9ff94d	0.07811222
52	0xbe873cce	-0.26413578
53	0x3e68ee0f	0.22747062
54	0xbe8cb6a2	-0.27483088
55	0x3d9945e9	0.074840374
56	0xbcdd7ae0	-0.02703613
57	0x3dcbb28d	0.09946165
58	0xbe3a1aa4	-0.18174225
59	0x3d67d751	0.056601826
60	0x3dd9bf16	0.1063215
61	0xbeb7d795	-0.35906664
62	0x3e0c107b	0.13678162
63	0xbec85393	-0.39126262

net.6.running_var f4 [64]
0	0x3e4e4051	0.20141722
1	0x3dbc8e7a	0.09206863
2	0x3cfc6d27	0.030813767
3	0x3d93fdf8	0.07226175
4	0x3d2aa54e	0.041661553
5	0x3ce14684	0.027499445
6	0x3c9c74ff	0.019098757
7	0x3d80f66e	0.06297003
8	0x3d2389d0	0.03992635
9	0x3d160d5f	0.036633845
10	0x3d198eb7	0.03748962
11	0x3cd7e59c	0.026354603
12	0x3e23156b	0.15926139
13	0x3cbfcc1a	0.023412753
14	0x3cbb8d3c	0.022894494
15	0x3d51fe6b	0.051268023
16	0x3cad8b21	0.021184506
17	0x3d30c811	0.04315955
18	0x3dac3941	0.08409358
19	0x3d6e60b3	0.05819769
20	0x3d799e86	0.060942195
21	0x3e3fce43	0.18731026
22	0x3caf5866	0.021404456
23	0x3d4952ee	0.049151354
24	0x3d8bbd02	0.0682316
25	0x3cd27853	0.02569214
26	0x3c557170	0.013027534
27	0x3d0279d2	0.03185446
28	0x3e325749	0.17416109
29	0x3d4cfa40	0.050043344
30	0x3d3152bc	0.043291792
31	0x3c497eac	0.012298267
32	0x3d3652e6	0.04451265
33	0x3daf8900	0.085710526
34	0x3dcdc37b	0.100470506
35	0x3d3dcea6	0.046339653
36	0x3dc3e09b	0.095643245
37	0x3dc5e20b	0.09662255
38	0x3dab1584	0.08353713
39	0x3d36d0d9	0.044632766
40	0x3cf28683	0.029605156
41	0x3d450117	0.048096742
42	0x3d07808b	0.033081573
43	0x3d1f2eb3	0.038862895
44	0x3d6d88d1	0.057991806
45	0x3cdcb07c	0.026939623
46	0x3d4d777b	0.050162774
47	0x3cd66029	0.0261689
48	0x3da0b242	0.078465
49	0x3d4b5ed5	0.049650986
50	0x3d36f3a3	0.044665944
51	0x3ce2141f	0.027597485
52	0x3dad320f	0.084568135
53	0x3cc82aa3	0.024434393
54	0x3d99ef21	0.07516313
55	0x3d1e9dbd	0.03872465
56	0x3cb43486	0.021997701
57	0x3c81d221	0.015847268
58	0x3d369134	0.04457207
59	0x3d172ad5	0.036906082
60	0x3ca292d3	0.019845402
61	0x3d8d5d38	0.06902546
62	0x3d1f350d	0.038868953
63	0x3e033e11	0.12816645

net.8.weight f4 [128, 64, 3, 3]
0	0x3ca47f7f	0.020080326
1	0xbce6e7fb	-0.028186789
2	0xbd0be258	-0.034151405
3	0x3cda03c8	0.026613131
4	0x3be6fd74	0.007049257
5	0xbc7b8115	-0.0153506
6	0xbd1e2e27	-0.038618233
7	0xbcb66e48	-0.022269383
8	0x3cb42a66	0.021992873
9	0xbce001be	-0.02734458
10	0x3ba55449	0.005045448
11	0xbc976904	-0.018482693
12	0xbd32b8f9	-0.043633435
13	0xbcc5e65f	-0.024157701
14	0x3c86d4b9	0.016458856
15	0x3d10e5a8	0.035375267
16	0xbd0cc75e	-0.03436982
17	0x3cec06bd	0.028811807
18	0x3ccb712a	0.024834234
19	0x3cd3742d	0.025812233
20	0xbcfa5e5f	-0.030562578
21	0xbc092756	-0.008371195
22	0x3ce53b77	0.027982457
23	0xbd258af7	-0.04041573
24	0x3c6ca63f	0.014443933
25	0x3c26967c	0.010167714
26	0xbd292aa8	-0.041300446
27	0xbd1a221a	-0.037630178
28	0x3b032804	0.0020012865
29	0x3b15bafb	0.0022847045
30	0x3c942eec	0.01808878
31	0x3b3f2eac	0.0029172106
32	0x3cd88ef5	0.026435355
33	0x3c57dc1a	0.013175035
34	0xbd0265fe	-0.03183555
35	0xbd2337eb	-0.03984825
36	0x3c342532	0.010995196
37	0xbcacaa4f	-0.021077303
38	0xbc9687a5	-0.018375227
39	0xbcccb14f	-0.024986891
40	0xbb9aef9e	-0.0047282716
41	0xbc1595ed	-0.009129983
42	0xbc40b7cf	-0.011762573
43	0x3c1a5cb5	0.009421517
44	0x3d191749	0.037375722
45	0xba4c68fc	-0.00077976263
46	0x3bb646bb	0.005562631
47	0xba9ef0c3	-0.0012126196
48	0xbbf5afdb	-0.0074977702
49	0x3cc829e1	0.024434032
50	0x3cb42570	0.021990508
51	0xbd266e85	-0.040632743
52	0xbd621776	-0.055198155
53	0x3b3bcbde	0.002865545
54	0xbd3d6701	-0.04624081
55	0xbc1c934d	-0.009556604
56	0xbd1c5bf7	-0.038173642
57	0xba6e2d01	-0.00090856856
58	0x3d1618e7	0.036644842
59	0x3d12e524	0.035863057
60	0xbcf6283d	-0.030048484
61	0x3d29f606	0.04149439
62	0xbc74f9dd	-0.01495215
63	0xbd17aa11	-0.037027422
64	0xbce8ab90	-0.02840212
65	0xbc74024c	-0.014893126
66	0xbbbd4d67	-0.0057770493
67	0x3ca148cb	0.01968803
68	0x3d11f0c1	0.03562999
69	0x3c839ce2	0.016066018
70	0xbcbc4539	-0.022982227
71	0xbcdcafd9	-0.02693932
72	0xbcc7a8b0	-0.024372429
73	0x3c1e1942	0.009649577
74	0xbc19bffe	-0.009384153
75	0x3cb61118	0.022224948
76	0x3c90af06	0.017661583
77	0x3d18ffe2	0.037353404
78	0xbd4d74e2	-0.050160296
79	0x3cf410a3	0.02979309
80	0x3d221d0f	0.039578494
81	0xbc351913	-0.011053341
82	0xbcfa8a35	-0.03058348
83	0xbba56d84	-0.0050484557
84	0xbc5e4016	-0.013565084
85	0xbc05931a	-0.0081527475
86	0x3c53d2b4	0.0129286535
87	0xbca59cf4	-0.020216443
88	0x3c041e69	0.008063891
89	0x3baac43c	0.0052113812
90	0x3cd9fbed	0.026609385
91	0xbd42d452	-0.047565766
92	0xbccbd45a	-0.02488153
93	0x3c678034	0.014129687
94	0x3c231cf8	0.009955637
95	0x3b9d78ac	0.004805645
96	0x3ca5e344	0.02024997
97	0x3caabcdb	0.020842006
98	0xbd0c4880	-0.03424883
99	0x3c99e8de	0.018787798
100	0xbd18e3da	-0.03732667
101	0xbd29e9a7	-0.041482594
102	0xbd330cca	-0.04371337
103	0x3c767112	0.0150416065
104	0xbc342471	-0.010995016
105	0xbd3a7505	-0.045521755
106	0x3c066689	0.008203157
107	0xbd3d7772	-0.04625649
108	0xbc8f67c0	-0.017505527
109	0x3cdd1c7c	0.026991121
110	0x3cd95a74	0.02653239
111	0x3c70b719	0.014692091
112	0xbcc4a58a	-0.024004716
113	0xbc4aea2c	-0.0123849325
114	0x3c872b02	0.0165
115	0xba03bac7	-0.00050250854
116	0x3c0e5677	0.008687607
117	0x3cd5eb5c	0.026113205
118	0x3bc96abe	0.006146758
119	0x3d1659d0	0.036706746
120	0x3c9eac4f	0.019369273
121	0x3cc0cc53	0.02353493
122	0x3c2cc3b0	0.010544702
123	0x3d12752b	0.03575627
124	0x3c5bc29d	0.013413099
125	0x3d0b88c0	0.03406596
126	0xbc433ed2	-0.011916833
127	0xbc4fe436	-0.012688687
128	0xbc8ad348	-0.01694645
129	0x3cf6927b	0.030099144
130	0x3b919cec	0.0044437554
131	0xbcb43246	-0.021996628
132	0x3ca389fe	0.01996326
133	0x3c8ea88e	0.017414358
134	0x3d17ec79	0.037090752
135	0xbd0ed460	-0.034870505
136	0xbd281e92	-0.04104478
137	0x3c586975	0.013208737
138	0xbb8dc397	-0.0043262946
139	0x3bffe2e9	0.007809032
140	0xbadb9795	-0.0016753549
141	0xbd1b8ef2	-0.03797812
142	0xbbec7495	-0.007216046
143	0xbd1fd739	-0.03902361
144	0x3c5f3e19	0.013625645
145	0x3d149663	0.036276232
146	0x3cf51db2	0.029921386
147	0xbc919729	-0.017772274
148	0xbc9d1daf	-0.019179193
149	0xbcf84645	-0.030306945
150	0xbb972202	-0.0046122083
151	0x3d33c509	0.04388908
152	0xba062a20	-0.00051179715
153	0xbd3347bb	-0.04376958
154	0x3cc0ee13	0.023551023
155	0xbb0c7200	-0.0021430254
156	0xbcf2f454	-0.02965752
157	0x3c00982a	0.007848779
158	0x3d0fccab	0.035107296
159	0xbd21c92c	-0.039498493
160	0x3c245f28	0.010032453
161	0xbcb2eee1	-0.021842422
162	0xbc97883f	-0.018497584
163	0xbc970c35	-0.018438438
164	0x3c319fe3	0.010841343
165	0xbcc922b6	-0.024552684
166	0xbc00bd12	-0.007857578
167	0x3cbf4518	0.023348376
168	0xbbabad87	-0.005239192
169	0x3cc2c056	0.023773354
170	0xbc71be5b	-0.014754857
171	0xbbfc2a82	-0.007695497
172	0xbd1b28e7	-0.037880804
173	0xbd2aa940	-0.041665316
174	0xbc854d93	-0.016272342
175	0xbd2603ce	-0.040530972
176	0xbcc94ff8	-0.024574265
177	0xb9cdee42	-0.00039278163
178	0x3d0b794c	0.034051225
179	0xbc5ff172	-0.013668405
180	0x3d130e2a	0.03590218
181	0xbd5276c0	-0.05138278
182	0x3be8c5bc	0.00710365
183	0x3a525c73	0.000802464
184	0xbd384f82	-0.0449977
185	0xbcad8edb	-0.021186283
186	0x3d3a41cf	0.045472916
187	0xbd194fb0	-0.03742951
188	0xbab19e3f	-0.0013551189
189	0x3c130a7d	0.008974669
190	0xbd004e81	-0.031324867
191	0xbc62c8ab	-0.013841788
192	0xbcbeadfa	-0.023276318
193	0x3bac12c2	0.0052512595
194	0x3cb432c7	0.021996869
195	0x3a988ff8	0.0011639586
196	0x3cb57533	0.022150612
197	0x3c135983	0.008993509
198	0xbd7f07f6	-0.06226345
199	0xbd20567b	-0.039144974
200	0x3cddd7e2	0.02708048
201	0x3c19ef2b	0.009395401
202	0xbc6558ff	-0.013998269
203	0x3d3a1b0a	0.045435943
204	0xbbd5dc52	-0.0065265084
205	0xbc673553	-0.014111835
206	0x3d2269b3	0.039651584
207	0x3c9f68e0	0.019459188
208	0xbd1f2232	-0.03885097
209	0xbd2a94e8	-0.041645914
210	0x3c1eb304	0.009686235
211	0x3bb90d21	0.005647317
212	0xbd010647	-0.031500127
213	0xba3141f9	-0.0006761845
214	0x3c45276f	0.0120333275
215	0x3cae3018	0.021263167
216	0xbc905e6b	-0.017623147
217	0x3cef5b68	0.02921839
218	0xbcb29a83	-0.021802193
219	0xbc3b02c5	-0.0114142345
220	0xbd3c097b	-0.04590748
221	0xbbca964b	-0.006182467
222	0xbd232b1f	-0.039836045
223	0x3cea1005	0.028572092
224	0xbc18e572	-0.009332048
225	0x3ba2ba6d	0.0049660713
226	0xbc090615	-0.0083632665
227	0xbc38c545	-0.0112775015
228	0x3d22a16f	0.039704736
229	0xbd3775a1	-0.044789914
230	0x3d139a5b	0.036035877
231	0x3905fcdb	0.00012778064
232	0xba5f3c12	-0.0008515726
233	0x3c37a9eb	0.011209945
234	0xbc8bf9a4	-0.017086811
235	0x3ca72db9	0.020407544
236	0xbc2ed908	-0.0106718615
237	0x3cd180bf	0.025574086
238	0x3c1fd802	0.00975609
239	0x3bef7368	0.0073074587
240	0x3c61988b	0.013769279
241	0xbc82f0da	-0.015983988
242	0xb8b7356c	-8.7360706e-05
243	0x3c8bb1ae	0.017052498
244	0x3d073033	0.03300495
245	0x3d1c1a58	0.03811106
246	0x3d1594e0	0.03651893
247	0xbd030903	-0.031991016
248	0x3c7d780c	0.015470516
249	0x3c990b45	0.018682132
250	0xbb4d3c7b	-0.0031316567
251	0xbd10f98d	-0.03539424
252	0xbd10840a	-0.035282172
253	0xbcf20cf0	-0.029547185
254	0x3b86db57	0.004115503
255	0x3b8686da	0.004105431

net.8.bias f4 [128]
0	0xbc3954a8	-0.0113116875
1	0xbc4f984d	-0.012670589
2	0x3c0b553e	0.00850421
3	0x3c9b3676	0.018946867
4	0xbd122715	-0.035681803
5	0x3bb30e67	0.0054643634
6	0xbcda7a41	-0.026669623
7	0xbcaf9b64	-0.0214364
8	0xbc38b49f	-0.011273532
9	0xbd191167	-0.03737011
10	0x3c00586f	0.007833584
11	0xbd1b87db	-0.03797136
12	0xbc7c45f3	-0.015397537
13	0xbd07e73b	-0.033179503
14	0x3c86234e	0.016374256
15	0x3acc180b	0.001557113
16	0xbc83d5bf	-0.016093133
17	0x3ca103f5	0.019655207
18	0x3cf95ee0	0.030440748
19	0xbcbf1584	-0.02332569
20	0xbd15bf9e	-0.036559694
21	0x3c15d9bf	0.009146153
22	0x3cd1d432	0.025613878
23	0x3c351117	0.011051438
24	0x3d0a5591	0.03377301
25	0xbd29716a	-0.041367926
26	0x3d0ab46a	0.033863463
27	0xbbb2be34	-0.005454803
28	0xbc7da31a	-0.015480781
29	0x3c43fb1b	0.011961724
30	0x3d01708e	0.03160148
31	0xbca92dfb	-0.020651808
32	0xbd29d970	-0.04146713
33	0x3c448cb8	0.011996441
34	0x3c2f0f11	0.010684744
35	0x3b815f26	0.00394811
36	0x3c546e6b	0.012965779
37	0x3c9e0c37	0.019292934
38	0x3c14f15b	0.009090747
39	0x3cbdd621	0.023173394
40	0x3c5328d9	0.012888157
41	0xbb8a3378	-0.0042175613
42	0xbcbe9415	-0.02326397
43	0xbd154f46	-0.036452554
44	0x3bf51e7e	0.0074804416
45	0xbd199f13	-0.03750522
46	0x3cd29522	0.025705878
47	0x3d273f67	0.04083195
48	0x3d033b56	0.03203901
49	0x3c7f826d	0.015595061
50	0x3cf77e60	0.030211627
51	0x3d21b353	0.039477658
52	0x3cf8fe8a	0.030394811
53	0xbc2f7d35	-0.010711004
54	0x3cb2b782	0.021816019
55	0xbc04fb7b	-0.008116598
56	0xbd0ac92b	-0.033883255
57	0x3c62ed8d	0.013850582
58	0xbc187f8c	-0.009307753
59	0xbbcbb1a5	-0.0062162452
60	0xbbd26ff6	-0.006422038
61	0xbc2e686b	-0.010645012
62	0xbc9983f3	-0.018739676
63	0x3d1307b9	0.035896037
64	0x3ce4d787	0.027934803
65	0xbbfc5392	-0.007700392
66	0xbd1620d9	-0.03665242
67	0xbce45a1b	-0.027874997
68	0xbd251a50	-0.040308297
69	0xbc834e0d	-0.016028428
70	0x3c6e0811	0.01452829
71	0xbb9241c3	-0.004463406
72	0x3d044c33	0.03229923
73	0x3d1e95a5	0.03871693
74	0xbcb1b86f	-0.02169439
75	0xbd2287f1	-0.039680425
76	0x3ba37b5c	0.004989071
77	0xbc925b35	-0.017865757
78	0xbccfa9e7	-0.02534957
79	0xbcd54ad8	-0.026036665
80	0x3cc558bb	0.024090162
81	0xbc8ecb68	-0.017430976
82	0xbd122c33	-0.035686683
83	0x3c31142c	0.010808032
84	0x3c932e6c	0.017966472
85	0x3ca7c59c	0.02047997
86	0x3c1122bc	0.008858379
87	0xbc10154d	-0.008794141
88	0xbc77c2b4	-0.015122104
89	0x3cdc3922	0.026882712
90	0xbc8a8791	-0.016910346
91	0xbc1a1871	-0.009405241
92	0xbc776761	-0.015100331
93	0xbc91c374	-0.017793395
94	0x3d066f54	0.032821015
95	0xbd28b2e3	-0.041186225
96	0xbc98a84d	-0.01863494
97	0x3d104384	0.035220638
98	0x3d25dace	0.04049187
99	0x3c7a58ee	0.015279992
100	0x3c3f3935	0.011671354
101	0xbd0c7c44	-0.034298196
102	0xbcac766b	-0.02105256
103	0xbc9a0d34	-0.018805124
104	0xbcb9881e	-0.022647914
105	0xbcaf56a8	-0.021403626
106	0xbcefcbfc	-0.029272072
107	0xbd1b6e34	-0.037946895
108	0x3ce7a797	0.028278155
109	0xbb26b7d0	-0.002543915
110	0xbc96cef3	-0.018409228
111	0x3cb3244b	0.021867892
112	0x3c2f074c	0.010682892
113	0x3d118cc5	0.03553464
114	0x3d2b1074	0.041763738
115	0xbc750361	-0.014954419
116	0xbceb7c5e	-0.028745826
117	0xbb8f8e47	-0.0043809745
118	0xbbdeae78	-0.0067957006
119	0xbbf094cc	-0.0073419567
120	0xbb9afef1	-0.0047300984
121	0xbab8cf48	-0.001409986
122	0xbc930ae3	-0.017949527
123	0x3c95aa25	0.018269608
124	0xbc8b9162	-0.017037097
125	0xbcd33e26	-0.02578647
126	0x3d00473c	0.031317934
127	0xbcfe35f7	-0.031031592

net.9.weight f4 [128]
0	0x3ca34e80	0.019934893
1	0x3e996056	0.2995631
2	0x3f71f649	0.94516426
3	0x3ebf770c	0.37395513
4	0x3ea643db	0.32473645
5	0x3f59e6f4	0.8511803
6	0x3f5f54af	0.8723859
7	0x3f463162	0.774191
8	0x3f41a3bb	0.7564046
9	0x3d3e381b	0.046440225
10	0x3f4db12b	0.8034846
11	0x3f3a46ad	0.7276409
12	0x3ee8eb56	0.45492047
13	0x3ee7cff3	0.4527584
14	0x3eb3c904	0.351143
15	0x3ed707c9	0.41998127
16	0x3ef572a1	0.47939017
17	0x3e556deb	0.20842712
18	0x3f57ac82	0.842476
19	0x3ed0bcda	0.40769082
20	0x3f808d26	1.0043075
21	0x3f230d44	0.63692117
22	0x3e24e804	0.16104132
23	0x3ec78ac0	0.38973045
24	0x3dac4130	0.08410871
25	0x3e0194b3	0.1265438
26	0x3f3a39cf	0.7274446
27	0x3ee44fc8	0.44592118
28	0x3e0a39ba	0.13498583
29	0x3e2fc848	0.17166245
30	0x3efab868	0.48968816
31	0x3f535a6b	0.8255984
32	0x3e9be828	0.3045056
33	0x3eb23c72	0.3481174
34	0x3cf2fe97	0.029662414
35	0x3e3717a8	0.17880118
36	0x3ed31ad6	0.41231412
37	0x3f174923	0.5909597
38	0x3e6e779d	0.23287816
39	0x3ee17856	0.44037122
40	0x3f67d94e	0.90565956
41	0x3f1a3c41	0.6024819
42	0x3d856e21	0.06515146
43	0x3f4e9865	0.80701286
44	0x3eb2064b	0.34770426
45	0x3ebc365a	0.36760217
46	0x3f31b695	0.69419223
47	0x3e3c97b1	0.1841724
48	0x3e8d29df	0.27571008
49	0x3f3dec01	0.7418824
50	0x3df1c265	0.11804656
51	0x3f61b207	0.88162273
52	0x3f21b7cd	0.6317108
53	0x3d62d295	0.055376608
54	0x3e0eafb5	0.13934214
55	0x3eb61fa1	0.35571006
56	0x3e08d099	0.13360824
57	0x3f270575	0.652427
58	0x3f6735d4	0.9031651
59	0x3e50380c	0.2033388
60	0x3cd50b0e	0.026006248
61	0x3f23112d	0.63698083
62	0x3f14a7ea	0.58068717
63	0x3f1a421c	0.60257125
64	0x3e1be9e9	0.15225948
65	0x3f3a5ace	0.72794807
66	0x3e096865	0.1341873
67	0x3e966531	0.29374078
68	0x3ee80337	0.45314953
69	0x3f1fcf8d	0.6242607
70	0x3f7117f6	0.94177186
71	0x3e4dd237	0.20099722
72	0x3ee31761	0.44353774
73	0x3f2fb2e8	0.68632364
74	0x3ec55df6	0.3854825
75	0x3f3ce771	0.7379065
76	0x3e644664	0.22292477
77	0x3ebc7b39	0.3681276
78	0x3e949e40	0.29026985
79	0x3dd6de7b	0.104916535
80	0x3d46631d	0.048434366
81	0x3f677ed6	0.9042791
82	0x3ea929dd	0.33039752
83	0x3e241a11	0.16025569
84	0x3d890e23	0.066921495
85	0x3ef6196e	0.48066276
86	0x3e037a8a	0.12839714
87	0x3f31d23b	0.6946141
88	0x3ecd9ab8	0.40157104
89	0x3e3fb7de	0.18722484
90	0x3f788b6a	0.9708773
91	0x3e8d6662	0.27617174
92	0x3f0017b3	0.5003616
93	0x3ebd8323	0.37014112
94	0x3f1fbf10	0.62400913
95	0x3e84ff64	0.25976098
96	0x3f2452a9	0.6418863
97	0x3f64f912	0.8944255
98	0x3f28cfb2	0.6594192
99	0x3eb36547	0.35038206
100	0x3f27915e	0.6545619
101	0x3f80777d	1.0036465
102	0x3edf42a6	0.43605536
103	0x3e863274	0.26210368
104	0x3f5f2e1c	0.8717973
105	0x3f153805	0.58288604
106	0x3db15c1d	0.08660147
107	0x3ee5045f	0.44729897
108	0x3ee3abca	0.44467002
109	0x3cea4b2b	0.028600296
110	0x3f5efb99	0.8710266
111	0x3f2e96e0	0.68198967
112	0x3f325e73	0.6967537
113	0x3e95a8d4	0.29230368
114	0x3f80da9e	1.0066717
115	0x3f614373	0.87993544
116	0x3e9974ab	0.29971823
117	0x3e958d45	0.29209343
118	0x3e3819bc	0.17978567
119	0x3f7ce802	0.98791516
120	0x3e562d8b	0.20915811
121	0x3f2afcdd	0.6679209
122	0x3f6f9a70	0.9359503
123	0x3f1ee03b	0.620609
124	0x3edeaf1f	0.43492982
125	0x3ec2bba7	0.38033792
126	0x3cbb3d70	0.022856444
127	0x3ecdc693	0.40190563
