D_B.pth (torch_old, 401728 bytes, 21 tensors)

net.0.weight f4 [16, 3, 3, 3]
0.15227018 -0.15270893 0.015130849 0.04635199 0.16871235 -0.056227844 0.078785114 -0.032871
0.09242494 -0.1394218 -0.08350376 0.15430656 -0.110118516 -0.08946421 -0.02136408 -0.12605652
-0.013091292 0.06021239 0.16825785 0.10059252 -0.18036412 -0.06964626 0.15654515 0.059151523
-0.03702174 -0.109994054 0.0594158 -0.05567462 0.1813498 0.025415123 -0.12033079 0.1353535
-0.17986944 -0.14247607 0.11096446 0.16163194 0.046861883 0.117560335 -0.099900275 0.055097062
0.12987377 0.095584765 0.0698067 0.13979268 -0.06053083 -0.02409358 0.1620579 -0.13835882
-0.06411887 -0.0002534407 0.1925277 0.042584762 0.055023983 -0.031358317 0.083827294 -0.14575018
-0.04228249 -0.06930033 0.1561587 0.14985316 0.10984277 0.062525846 0.16719532 -0.07880444
0.11482759 0.18478258 -0.038357727 0.09342468 0.10369979 0.08891816 0.107804954 -0.013488308
0.032995902 0.16906731 0.037846833 -0.027849104 -0.087241136 -0.11188991 0.07675775 0.07009407
0.02579743 -0.105144165 0.107961655 0.19547474 0.18969624 0.07321147 -0.17638788 0.12543066
-0.16971792 -0.09711863 0.13437214 -0.016834894 -0.05439681 -0.16184877 0.16786486 0.1448596
0.004404864 -0.047553074 -0.15023786 -0.03495851 0.13161895 -0.13472928 -0.038218975 -0.06526183
0.15492472 -0.15566036 -0.008612361 0.07895855 -0.035152286 -0.043226663 0.14096813 -0.10536913
0.14907788 0.05552408 0.15872997 0.14775132 0.13275962 0.030922893 -0.18017182 -0.1620979
0.043793783 0.121101476 -0.046244755 -0.0018977199 -0.11292899 0.14670447 -0.044580646 0.12576374
-0.07025634 0.060123324 0.143096 0.10273276 0.06940032 -0.07215717 0.0980673 -0.00054310367
-0.090870395 -0.08247485 0.034275733 0.12570065 -0.087876245 -0.10734717 0.015491822 -0.045322593
0.15029053 0.093703814 -0.05078623 0.15824512 -0.1243362 -0.09158871 -0.07771778 -0.028989216
0.17953585 0.041624263 0.06879128 -0.07256183 0.0051460266 0.006049948 0.03534081 -0.025201216
0.15519264 0.082731195 0.18534665 0.1225757 -0.044451423 0.19049169 0.033597298 -0.06966752
-0.11819448 0.14226092 -0.06760317 -0.030973205 -0.16978136 -0.10540503 0.07083504 -0.034656093
0.051512983 0.017115895 -0.09785428 -0.024449214 0.05639984 -0.05349652 -0.13299558 -0.09579124
0.19460143 0.091934755 -0.081959516 -0.049464185 -0.05672325 0.16979754 0.034755304 0.040862422
-0.036434278 -0.032983985 0.087708324 0.0007150314 -0.06971135 0.11809106 -0.029589599 -0.17798448
-0.065034784 0.08384593 0.11532404 -0.12424367 0.15975565 -0.031821106 -0.09990036 -0.12344437
-0.18661255 -0.08782352 0.017334366 -0.05765469 0.0029882796 -0.017663008 -0.031928424 -0.019474294
0.0024092796 0.05001001 -0.091938324 0.060909588 -0.096225716 -0.18201506 -0.11988531 -0.18897603
0.15792997 0.04955285 -0.112141885 -0.049617838 0.046381593 0.18927245 0.05138947 -0.087107606
0.07431148 0.1915755 -0.13833393 0.095826864 -0.122574866 -0.0442805 -0.027279733 0.15544775
0.05011335 -0.13709724 0.13264878 -0.1868566 -0.044740397 -0.03916756 -0.1541099 0.114787884
-0.12468881 -0.041710835 -0.15852623 -0.1344825 -0.034995407 0.06858325 0.03417288 0.08766869
00000000: b7ec 1b3e bb5f 1cbe 61e7 773c 96db 3d3d
00000010: eec2 2c3e 2b4f 66bd 175a a13d bea3 06bd
00000020: 4949 bd3d 97c4 0ebe 0504 abbd 8a02 1e3e
00000030: d185 e1bd 0339 b7bd b903 afbc f614 01be
00000040: dc7c 56bc 44a1 763d c94b 2c3e 7303 ce3d
00000050: 5fb1 38be b3a2 8ebd 5f4d 203e de48 723d
00000060: 1ca4 17bd 9044 e1bd fb5d 733d 120b 64bd
00000070: c3b3 393e 6033 d03c fd6f f6bd 1c9a 0a3e
00000080: b22f 38be 3fe5 11be 5641 e33d d882 253e
00000090: 3ff2 3f3d 79c3 f03d 8498 ccbd 75ad 613d
000000a0: a1fd 043e f2c1 c33d d1f6 8e3d d025 0f3e
000000b0: 2def 77bd e65f c5bc 82f2 253e efad 0dbe
000000c0: c150 83bd 3ce0 84b9 fb25 453e 5c6d 2e3d
000000d0: d460 613d 9471 00bd a5ad ab3d 893f 15be
000000e0: 6730 2dbd 55ed 8dbd 11e8 1f3e 1b73 193e
000000f0: 3ff5 e03d 8d0d 803d 4035 2b3e 3964 a1bd
00000100: ba2a eb3d a537 3d3e fe1c 1dbd 7055 bf3d
00000110: 8e60 d43d b91a b63d d8c8 dc3d 10fe 5cbc
00000120: b626 073d fb1f 2d3e 4805 1b3d ce23 e4bc
00000130: 7bab b2bd 8a26 e5bd 2b33 9d3d 7b8d 8f3d
00000140: 2255 d33c d355 d7bd 001b dd3d 882a 483e
00000150: bb3f 423e e5ef 953d 069f 34be e570 003e
00000160: 89ca 2dbe 22e6 c6bd da98 093e 55e9 89bc
00000170: 30cf 5ebd afbb 25be c4e4 2b3e 1356 143e
00000180: ad56 903b 03c7 42bd f4d7 19be a830 0fbd
00000190: 1ec7 063e 79f6 09be 808b 1cbd ffa7 85bd
000001a0: 96a4 1e3e 6e65 1fbe dc1a 0dbc 05b5 a13d
000001b0: d8fb 0fbd 710e 31bd f359 103e c5cb d7bd
000001c0: dfa7 183e 386d 633d 1c8a 223e 1f4c 173e
000001d0: 23f2 073e 0252 fd3c f67e 38be fefc 25be
000001e0: 1c61 333d 0d04 f83d 246b 3dbd eabc f8ba
000001f0: 5047 e7bd b239 163e 329a 36bd 36c8 003e
00000200: 8ee2 8fbd e043 763d c287 123e 8e65 d23d
00000210: c121 8e3d 23c7 93bd 82d7 c83d 125f 0eba
00000220: 421a babd 93e8 a8bd b664 0c3d acb7 003e
00000230: 76f8 b3bd d5d8 dbbd 69d1 7d3c 2fa4 39bd
00000240: c3e5 193e c9e7 bf3d 3905 50bd 020b 223e
00000250: faa3 febd dd92 bbbd 802a 9fbd cb7a edbc
00000260: 3fd8 373e 347e 2a3d 71e2 8c3d 4c9b 94bd
00000270: 00a0 a83b a43e c63b 86c1 103d c872 cebc
00000280: d2ea 1e3e f96e a93d 83cb 3d3e f808 fb3d
00000290: b212 36bd 4110 433e 529d 093d d8ad 8ebd
000002a0: f30f f2bd d9ac 113e 8873 8abd 85bb fdbc
000002b0: 2adb 2dbe 98de d7bd f611 913d 8cf3 0dbd
000002c0: 47ff 523d a236 8c3c d367 c8bd b849 c8bc
000002d0: 8503 673d 2b1f 5bbd fe2f 08be 332e c4bd
000002e0: 9945 473e 4a48 bc3d 64da a7bd f59a 4abd
000002f0: a356 68bd 68df 2d3e 945b 0e3d 5b5f 273d
00000300: 1c3c 15bd 371a 07bd 6ca0 b33d f270 3b3a
00000310: d3c4 8ebd bad9 f13d e365 f2bc 9041 36be
00000320: f530 85bd 6ab7 ab3d 032f ec3d 7773 febd
00000330: fc96 233e d956 02bd 8f98 ccbd 67d0 fcbd
00000340: 5c17 3fbe d1dc b3bd cd00 8e3c 5327 6cbd
00000350: 03d7 433b 03b2 90bc 61c7 02bd 8e88 9fbc
00000360: 01e5 1d3b 4cd7 4c3d 294a bcbd 557c 793d
00000370: fd11 c5bd 2862 3abe 6e86 f5bd ef82 41be
00000380: 65b8 213e eef7 4a3d a5aa e5bd 133c 4bbd
00000390: a0fa 3d3d a3d0 413e c47d 523d 7965 b2bd
000003a0: 9e30 983d 5e2c 443e 69a7 0dbe e040 c43d
000003b0: 8808 fbbd 785f 35bd bf79 dfbc b22d 1f3e
000003c0: a843 4d3d 3863 0cbe 15d5 073e 5657 3fbe
000003d0: b541 37bd 2a6e 20bd fcce 1dbe e915 eb3d
000003e0: d95c ffbd fbd8 2abd b354 22be c8b5 09be
000003f0: 5857 0fbd 6075 8c3d ddf8 0b3d a48b b33d

net.0.bias f4 [16]
0.19342554 0.044469208 0.064662375 0.001813878 -0.015602533 0.097758785 -0.02103603 0.064303115
0.1619627 0.096586585 -0.07353229 0.20426121 -0.05067695 0.06697873 0.10011935 -0.19731615
00000000: 5811 463e 5825 363d b56d 843d a5bf ed3a
00000010: c4a1 7fbc c235 c83d c153 acbc 5ab1 833d
00000020: 8dd9 253e 30cf c53d 1998 96bd da29 513e
00000030: a292 4fbd 252c 893d 600b cd3d 3f0d 4abe

net.2.weight f4 [32, 16, 3, 3]
0.019852113 -0.053661883 0.08153721 0.015116596 -0.07738006 0.015478733 0.06717 0.052740145
0.0821923 0.09513424 -0.028925532 0.02718619 -0.060465474 -0.087885104 0.06011666 0.051564153
-0.07243475 0.047681723 0.011723371 -0.002296613 -0.05165066 -0.031190231 -0.047419574 -0.041393857
-0.022926366 0.049546722 0.07465281 -0.044688765 0.029916061 0.017273923 -0.06991104 0.009051152
-0.025881354 -0.011940336 -0.01635083 0.06936805 -0.05342522 -0.07090986 -0.024973499 -0.06592158
-0.030675314 0.00974099 -0.05469322 0.06427642 0.06362295 0.028041443 -0.075906426 0.0036539587
0.054124992 0.027738675 -0.019382752 0.018127237 -0.053553514 0.08484702 0.03125386 0.05966554
-0.030112058 -0.06836048 -0.040698178 -0.041705593 0.084962115 0.047453925 0.004094674 -0.015554219
0.036828164 0.052739654 -0.0052038026 0.0937225 0.025012372 -0.05074848 -0.04629271 -0.063154384
0.012652567 0.07247869 0.10551106 -0.052956592 0.029972924 0.09306198 -0.007493174 -0.05836067
-0.064060465 -0.054847833 0.049924396 -0.04143453 -0.0518931 0.084953904 0.076928936 0.06044197
-0.011636827 -0.04240182 -0.0063969227 0.018673068 -0.05081005 0.054630868 0.06517002 0.053953096
-0.07371283 -0.022065941 -0.07085448 -0.051394965 -0.075120464 -0.04615976 -0.055270527 0.007980412
0.011835696 0.06332358 -0.023304474 -0.006495721 0.0469997 -0.012220061 -0.04324476 0.021614255
-0.014700468 -0.07046663 -0.038177103 -0.0567722 -0.07883466 0.045101404 -0.08836903 -0.0142371785
-0.014560298 -0.022221867 -0.042625573 -0.024286885 0.021612713 0.006627314 0.03548486 0.013009707
0.004210758 0.089868166 0.04721487 -0.01774662 -0.071252085 0.07207094 0.008337178 -0.073571004
-0.081967175 0.059317704 0.048331175 0.0670164 -0.051855616 -0.0856166 -0.02621007 0.027726365
-0.048490673 -0.088414215 0.003135973 0.021096552 -0.055369474 -0.08338584 0.043063123 0.019676082
-0.022627445 -0.0417879 -0.08109119 0.031002194 0.041862253 -0.07243659 -0.08502458 0.021512466
0.023850903 0.0285648 -0.027844548 0.04336551 -0.013360453 -0.026326945 -0.061526503 -0.05675482
-0.010577487 -0.0021942412 0.0628568 -0.049216382 0.0013613603 -0.001573063 0.0022838877 -0.0639022
-0.06644066 0.06416212 0.030338358 -0.008732456 0.04859611 -0.019968934 0.0498486 0.05760949
0.07644949 0.019321317 -0.03839677 -0.07383536 0.08122937 -0.011080012 0.022998529 0.014139037
0.030485518 -0.055159442 0.00999388 -0.028571576 0.024249079 -0.0068084043 -0.02246178 -0.041939147
0.02676826 0.0015973974 -0.062137783 -0.02286331 0.035594523 0.0348092 0.07979488 0.0047016437
0.010730125 -0.042312484 -0.02854496 -0.06177918 0.04084101 -0.032410204 0.046436343 -0.07821229
-0.08044488 0.010266049 -0.043274414 0.06259958 -0.11050682 -0.0020542338 0.042917926 0.01334021
0.027260069 0.10181833 0.061520267 0.088510945 0.016122455 0.030014243 -0.03911187 0.029199189
0.07500765 0.05615186 -0.044359483 0.028125916 0.006873743 0.049484815 -0.004382013 0.0246797
-0.05837759 0.015488055 -0.055166088 -0.08476638 0.040467903 -0.005646019 0.0007971933 -0.03184136
0.03113103 0.0738786 0.012814859 -0.07080991 -0.015879296 -0.051623084 0.0650187 0.050730698
00000000: e6a0 a23c 90cc 5bbd fbfc a63d 99ab 773c
00000010: 7079 9ebd 839a 7d3c 6d90 893d 0d06 583d
00000020: 7054 a83d bed5 c23d 3df5 ecbc 93b5 de3c
00000030: a5aa 77bd 1bfd b3bd e33c 763d ef34 533d
00000040: ac58 94bd e94d 433d 6213 403c c682 16bb
00000050: a48f 53bd a882 ffbc 073b 42bd 9b8c 29bd
00000060: 13d0 bbbc 81f1 4a3d 93e3 983d 910b 37bd
00000070: 8712 f53c 0b82 8d3c 852d 8fbd 484b 143c
00000080: 2205 d4bc 66a1 43bc 2df2 85bc d610 8e3d
00000090: 67d4 5abd 3039 91bd 3995 ccbc e501 87bd
000000a0: cc4a fbbc ac98 1f3c ff05 60bd 5ba3 833d
000000b0: c04c 823d 2bb7 e53c d474 9bbd 4177 6f3b
000000c0: 2bb2 5d3d 383c e33c 94c8 9ebc 927f 943c
000000d0: ee5a 5bbd 46c4 ad3d 0c04 003d da63 743d
000000e0: 90ad f6bc 9400 8cbd 22b3 26bd 7cd3 2abd
000000f0: 9e00 ae3d 0c5f 423d 9d2c 863b 1fd7 7ebc
00000100: 21d9 163d 8905 583d a984 aabb 95f1 bf3d
00000110: bfe6 cc3c a3dd 4fbd 6d9d 3dbd 1657 81bd
00000120: b64c 4f3c b56f 943d 2f16 d83d 03e9 58bd
00000130: c789 f53c 4897 be3d 4d89 f5bb 990b 6fbd
00000140: 2232 83bd 1fa8 60bd 867d 4c3d 41b7 29bd
00000150: dc8d 54bd 50fc ad3d eb8c 9d3d 0092 773d
00000160: 64a8 3ebc 88ad 2dbd 479d d1bb 43f8 983c
00000170: 331e 50bd 9ec4 5f3d dc77 853d ecfd 5c3d
00000180: c1f6 96bd a2c3 b4bc 271c 91bd 8783 52bd
00000190: c2d8 99bd 0412 3dbd 5963 62bd 46c0 023c
000001a0: 82ea 413c cbaf 813d 06e9 bebc 0fda d4bb
000001b0: c282 403d a736 48bc 6b21 31bd 6110 b13c
000001c0: 3bda 70bc cf50 90bd 985f 1cbd f789 68bd
000001d0: 1174 a1bd 40bc 383d d2fa b4bd 0e43 69bc
000001e0: 518e 6ebc a20a b6bc 2798 2ebd 4af5 c6bc
000001f0: 250d b13c f029 d93b 9358 113d ab26 553c
00000200: 66fa 893b cd0c b83d 6164 413d 5c61 91bc
00000210: 9dec 91bd ee99 933d a998 083c 65ac 96bd
00000220: 68de a7bd 1ff7 723d e9f6 453d e53f 893d
00000230: 8e66 54bd c257 afbd 80b6 d6bc 6722 e33c
00000240: 289e 46bd 8312 b5bd e584 4d3b add2 ac3c
00000250: 1acb 62bd 32c6 aabd f562 303d bc2f a13c
00000260: 315d b9bc ca29 2bbd 2313 a6bd 50f8 fd3c
00000270: c177 2b3d a359 94bd 5e21 aebd e93a b03c
00000280: f862 c33c ba00 ea3c 401a e4bc 08a0 313d
00000290: cde5 5abc 9bab d7bc 3703 7cbd be77 68bd
000002a0: 324d 2dbc 42cd 0fbb 11bb 803d 1e97 49bd
000002b0: ac6f b23a 3c2f ceba 47ad 153b 28df 82bd
000002c0: 0a12 88bd 6e67 833d 2688 f83c 9312 0fbc
000002d0: b70c 473d e495 a3bc 0c2e 4c3d eef7 6b3d
000002e0: 8d91 9c3d bd47 9e3c ee45 1dbd fe36 97bd
000002f0: 955b a63d f088 35bc 6967 bc3c 6ba7 673c
00000300: c4bc f93c deee 61bd 5fbd 233c f00e eabc
00000310: 01a6 c63c 0919 dfbb c401 b8bc 62c8 2bbd
00000320: 1c49 db3c c35f d13a 3084 7ebd d64b bbbc
00000330: 90cb 113d 1794 0e3d 7f6b a33d 3f10 9a3b
00000340: 68cd 2f3c db4f 2dbd 1fd7 e9bc 2a0c 7dbd
00000350: e748 273d 90c0 04bd 0934 3e3d c42d a0bd
00000360: 49c0 a4bd ee32 283c 8340 31bd 3534 803d
00000370: 6651 e2bd 53a0 06bb b5ca 2f3d e590 5a3c
00000380: 8250 df3c 2186 d03d adfc 7b3d 3a45 b53d
00000390: 3d13 843c 6ee0 f53c c533 20bd 2333 ef3c
000003a0: 9c9d 993d 7eff 653d 4ab2 35bd 5268 e63c
000003b0: 233d e13b 97b0 4a3d fd96 8fbb 152d ca3c
000003c0: 571d 6fbd 9cc1 7d3c d6f5 61bd ff99 adbd
000003d0: acc1 253d 3d02 b9bb bdfa 503a 166c 02bd
000003e0: 8006 ff3c aa4d 973d 6af5 513c c904 91bd
000003f0: 4c15 82bc ba72 53bd 8628 853d feca 4f3d

net.2.bias f4 [32]
0.023527863 -0.056396432 -0.026221732 0.039480675 -0.07398632 -0.032164462 0.061096873 -0.06259326
0.02298153 0.062635 -0.027661456 -0.07412506 -0.05938367 0.07340883 -0.0649492 0.049997922
-0.024906874 -0.05451498 -0.02140427 0.04533468 -0.027151635 0.079997435 -0.021588719 0.033359315
0.063961536 0.07868682 0.0646822 0.008952482 -0.016588047 -0.05127094 0.04368522 -0.072464265
00000000: 81bd c03c f2ff 66bd f5ce d6bc 7db6 213d
00000010: 2486 97bd e2be 03bd b740 7a3d e530 80bd
00000020: c343 bc3c c746 803d 479a e2bc e1ce 97bd
00000030: 4b3c 73bd 5e57 963d 1604 85bd 9fca 4c3d
00000040: 8009 ccbc 1a4b 5fbd 0258 afbc dbb0 393d
00000050: 1b6d debc b2d5 a33d d3da b0bc c7a3 083d
00000060: 44fe 823d 8e26 a13d 1a78 843d 6ead 123c
00000070: a8e3 87bc 7a01 52bd 46ef 323d 2568 94bd

net.3.weight f4 [32]
0.1182952 0.10875114 0.45454347 0.92029005 0.5478254 0.88563466 0.869537 0.22087656
0.22936249 0.9856385 0.72338426 0.64801157 0.62451595 0.89277935 0.93655586 0.79837006
0.42728996 0.6100003 0.6981499 0.8112917 0.92382056 0.2255801 0.41368383 0.48383626
0.045508612 0.6828483 0.6295529 0.30611914 0.04108869 0.83026594 0.20696704 0.62423795
00000000: c144 f23d ebb8 de3d ecb9 e83e 2198 6b3f
00000010: 493e 0c3f f4b8 623f fa99 5e3f 772d 623e
00000020: 00de 6a3e ce52 7c3f b62f 393f 16e4 253f
00000030: 47e0 1f3f 308d 643f 20c2 6f3f fb61 4c3f
00000040: c0c5 da3e fb28 1c3f f4b9 323f d0b0 4f3f
00000050: 817f 6c3f 78fe 663e 5ece d33e 63b9 f73e
00000060: 3d67 3a3d 25cf 2e3f 612a 213f a6bb 9c3e
00000070: 9d4c 283d 4f8c 543f 2bef 533e 0fce 1f3f

net.3.bias f4 [32]
-0.008277876 0.019237012 -0.004650238 -0.006869419 0.009158856 -0.0043230285 -0.003174932 0.009314438
0.009448746 -0.022796756 -0.000660855 -0.0036339818 0.0029544348 -0.012882478 -0.011245741 -0.010876874
0.0010042492 -0.030765403 -0.0011661501 -0.016907731 -0.024031747 0.008182538 0.003256706 0.005918583
0.0057740575 -0.018358555 0.0007111204 -0.0046798536 0.009206764 0.0015684328 -0.008344306 -0.024501381
00000000: ee9f 07bc f096 9d3c 0661 98bb dd18 e1bb
00000010: 070f 163c 31a8 8dbb 8512 50bb 969b 183c
00000020: eace 1a3c 43c0 babc 3a3d 2dba 1928 6ebb
00000030: 319f 413b 0711 53bc 0e40 38bc eb34 32bc
00000040: 03a1 833a ba07 fcbc 81d9 98ba 1582 8abc
00000050: 3ade c4bc 0d10 063c 766e 553b acf0 c13b
00000060: 4e34 bd3b ae64 96bc 7b6a 3a3a 7559 99bb
00000070: f8d7 163c df93 cd3a 8eb6 08bc 1fb7 c8bc

net.3.running_mean f4 [32]
-0.15973265 -0.12448075 -0.27464357 -0.13934071 0.119729504 0.18325663 0.17720978 -0.013199058
0.07857244 -0.41944546 -0.01148493 -0.43012753 -0.07651375 0.030214703 0.22439755 -0.08727621
0.12635513 -0.16076736 0.082009375 -0.32399756 -0.29573014 0.119357094 0.19294754 0.021448769
0.026874397 -0.17678955 0.15974955 -0.07417915 -0.058599863 0.27813992 -0.0646997 -0.11964937
00000000: f590 23be c3ef febd 159e 8cbe 55af 0ebe
00000010: be34 f53d a0a7 3b3e 7b76 353e dd40 58bc
00000020: 96ea a03d 8ec1 d6be 4a2b 3cbc ad39 dcbe
00000030: 3eb3 9cbd d384 f73c 79c8 653e dfbd b2bd
00000040: 3d63 013e 33a0 24be 88f4 a73d 02e3 a5be
00000050: f169 97be 7e71 f43d 0a94 453e 54b5 af3c
00000060: b227 dc3c 5208 35be 6395 233e 3deb 97bd
00000070: 6906 70bd 5b68 8e3e 4781 84bd bb0a f5bd

net.3.running_var f4 [32]
0.009522873 0.00047696088 0.008027658 0.0037499522 0.005384963 0.0047045765 0.0018128221 0.00054850086
0.0010794835 0.023384688 0.001770636 0.019041706 0.00090493454 0.0014135853 0.008482753 0.0007772806
0.0043270285 0.0035374763 0.003883125 0.013566672 0.008387158 0.0006968427 0.0058385753 0.0011646285
0.0011675432 0.013456563 0.0019788307 0.0029411549 0.00073402317 0.011123312 0.0032968798 0.0010533016
00000000: d305 1c3c 9b10 fa39 7086 033c c2c1 753b
00000010: 5874 b03b d928 9a3b 379c ed3a 45c9 0f3a
00000020: 757d 8d3a 3f91 bf3c af14 e83a 5afd 9b3c
00000030: 2139 6d3a 0d48 b93a 3ffb 0a3c 6bc2 4b3a
00000040: bfc9 8d3b 01d5 673b 077c 7e3b bf46 5e3c
00000050: 4a6a 093c 52ac 363a 8551 bf3b 73a6 983a
00000060: 4008 993a eb78 5c3c 45af 013b 64c0 403b
00000070: 766b 403a 8d3e 363c 7710 583b f00e 8a3a

net.5.weight f4 [64, 32, 3, 3]
-0.010280465 -0.002553414 0.013563101 -0.011986554 0.007419096 0.035172068 -0.026040794 0.017927887
-0.05888294 0.025426295 0.00654784 0.024697475 0.054781694 -0.024146667 0.037233442 -0.029616311
-0.038011476 -0.06467215 -0.020271396 -0.009585042 -0.009944333 0.0075455667 0.005076528 -0.010692711
0.009209678 0.053945772 -0.00536103 0.019949019 0.014623778 -0.043560047 0.005505385 -0.023015121
0.02740466 -0.00047425297 -0.045700043 0.02581855 -0.049850494 0.0066512665 -0.035187118 -0.022200126
0.010321908 0.054943617 0.032467004 -0.012195581 -0.0452662 -0.041118197 0.0016723048 0.032571975
0.044046067 -0.012849411 0.021700773 -0.010777712 0.027205944 -0.01733904 0.027598219 -0.0064579877
0.04781778 0.027220462 0.04253854 0.04375465 -0.010371977 0.018762378 -0.04144916 0.04130895
-0.008489513 -0.017992308 0.050632093 0.044990316 0.027460907 0.04919748 0.02883045 -0.0537542
0.03150676 0.01389409 -0.0052563827 0.05608227 -0.002358681 -0.0053260247 0.03908024 0.023305297
0.043567386 0.0605033 0.04938599 -0.010519889 0.018255204 -0.027130164 -0.00010488358 0.0018863612
0.041785244 0.021465436 0.002063461 -0.024970204 -0.046883762 0.051985 -0.03348812 0.010204751
-0.03630477 -0.026651025 -0.03496428 0.007436949 -0.04248608 0.025253072 0.043359283 0.040513165
0.005140534 0.04817357 0.013058976 -0.026089253 0.033462822 -0.022168618 -0.031390015 -0.035555787
-0.035393536 0.010216157 -0.038568612 0.009060631 -0.017458344 -0.01191204 0.012992654 0.0032323455
-0.007889072 0.058870673 -0.016759118 -0.0026167515 -0.009890373 -0.04147301 -0.069149196 -0.012581883
-0.05700077 -0.064000644 -0.021611104 -0.043080278 0.030750828 0.026225498 -0.04522001 -0.019638103
-0.0038775546 0.03851911 -0.025829263 -0.014105283 -0.03365413 -0.035860326 -0.02321207 0.013618624
-0.07629488 -0.072282284 -0.09350577 0.014898887 -0.063257605 -0.025685813 0.053074613 0.038678285
-0.006260736 -0.011337035 0.05944674 -0.025978621 0.018297443 0.0111193275 0.03727228 -0.051759414
0.037450172 0.045452096 -0.034744374 -0.017622838 -0.054767977 -0.044440158 0.055586442 0.03979476
0.033017226 -0.030109381 -0.04563929 -0.0040826527 0.06143697 0.03601959 0.042355828 0.042387947
-0.05025585 -0.048889294 -0.0004501904 -0.0036487805 0.05110973 0.04475597 0.02331794 -0.019746326
0.00092967506 0.03895954 0.012464867 0.017422453 0.039337628 0.0003074421 -0.061677452 -0.021941835
-0.017928222 -0.037641585 -0.045016836 -0.027158894 -0.010243598 -0.020267412 -0.021452677 -0.051753882
-0.032879155 -0.012876175 -0.04196152 -0.033094183 -0.021453677 0.01841299 0.0021583322 0.005936947
0.040227182 -0.030271076 0.029349275 0.0220851 -0.054934274 -0.0016158945 -0.033131003 0.018095387
-0.05817499 0.059423823 0.047547266 -0.032761514 0.048530456 -0.0032164494 0.056691527 -0.029663624
-0.04032286 0.040518176 -0.032156043 0.02298555 -0.028624224 -0.009851169 0.022941303 -0.027765362
-0.011639042 0.015690092 0.023862999 -0.0070905564 0.0001731131 -0.062272478 -0.012879351 0.010549864
0.0015745496 -0.021762578 -0.019607538 -0.015765581 0.05508077 -0.043533646 0.020467537 -0.015267497
-0.01981709 -0.042975143 -0.021639053 -0.053165216 -0.03050211 0.060876794 -0.036703113 0.023963632
00000000: 656f 28bc 2e57 27bb c537 5e3c 4063 44bc
00000010: e31b f33b 9610 103d 8153 d5bc 81dd 923c
00000020: 3d2f 71bd ce4a d03c 438f d63b 5c52 ca3c
00000030: c562 603d 3bcf c5bc 1882 183d e89d f2bc
00000040: ecb1 1bbd d572 84bd 3310 a6bc 940a 1dbc
00000050: 8eed 22bc cd40 f73b 0159 a63b 7b30 2fbc
00000060: 30e4 163c 3ef6 5c3d 94ab afbb 206c a33c
00000070: 9298 6f3c 056c 32bd 8466 b43b 358a bcbc
00000080: bd7f e03c 28a5 f8b9 f82f 3bbd 6c81 d33c
00000090: 0830 4cbd def2 d93b 5e20 10bd 0add b5bc
000000a0: 381d 293c 8f0c 613d 1ffc 043d f9cf 47bc
000000b0: 0d69 39bd 8e6b 28bd 3d31 db3a 316a 053d
000000c0: a669 343d 5686 52bc d2c5 b13c 0095 30bc
000000d0: 00df de3c 9a0a 8ebc a915 e23c 879d d3bb
000000e0: 94dc 433d 72fd de3c e43c 2e3d 1338 333d
000000f0: 3aef 29bc 8fb3 993c 98c6 29bd 9333 293d
00000100: 9917 0bbc 9b64 93bc 9963 4f3d c447 383d
00000110: b2f5 e03c 4c83 493d d62d ec3c 5d2d 5cbd
00000120: 3b0d 013d 0aa4 633c bc3d acbb 86b6 653d
00000130: 1a94 1abb ef85 aebb 9a12 203d c0ea be3c
00000140: b773 323d 4fd2 773d f748 4a3d 9d5b 2cbc
00000150: f08b 953c 1440 debc f1f4 dbb8 c73f f73a
00000160: 0127 2b3d 48d8 af3c 223b 073b 508e ccbc
00000170: 3009 40bd 39ee 543d d72a 09bd d431 273c
00000180: 4fb4 14bd 4053 dabc b436 0fbd a6b1 f33b
00000190: e205 2ebd 88df ce3c 8199 313d 22f1 253d
000001a0: ed71 a83b a651 453d 51f5 553c 21b9 d5bc
000001b0: 5010 093d f69a b5bc d192 00bd f2a2 11bd
000001c0: d0f8 10bd ab61 273c 1ffa 1dbd 0a73 143c
000001d0: cd04 8fbc b82a 43bc 24df 543c c2d5 533b
000001e0: 2b41 01bc 6022 713d 6b4a 89bc ce7d 2bbb
000001f0: 3b0b 22bc 9adf 29bd 189e 8dbd 3e24 4ebc
00000200: a479 69bd c512 83bd c509 b1bc f274 30bd
00000210: 29e9 fb3c dbd6 d63c 9e38 39bd 16e0 a0bc
00000220: 921e 7ebb 37c6 1d3d e497 d3bc d819 67bc
00000230: ead8 09bd 47e2 12bd 3d27 bebc a620 5f3c
00000240: 7d40 9cbd bc08 94bd f47f bfbd 761a 743c
00000250: 348d 81bd 0e6b d2bc c464 593d 1f6d 1e3d
00000260: dc26 cdbb f9be 39bc 6d7e 733d 1ed1 d4bc
00000270: 85e4 953c d72d 363c d1aa 183d ae01 54bd
00000280: 5a65 193d fa2b 3a3d 1e50 0ebd c55d 90bc
00000290: 6354 60bd e206 36bd 9cae 633d d5ff 223d
000002a0: 123d 073d f3a7 f6bc 44f0 3abd c6c7 85bb
000002b0: 55a5 7b3d 4789 133d 4e7d 2d3d fc9e 2d3d
000002c0: 14d9 4dbd 2440 48bd 8807 ecb9 6120 6fbb
000002d0: 7058 513d 0952 373d 4405 bf3c 0cc3 a1bc
000002e0: 70b5 733a 0a94 1f3d 7139 4c3c 88b9 8e3c
000002f0: 7e20 213d 2e30 a139 7fa1 7cbd 5dbf b3bc
00000300: 35de 92bc 102e 1abd 9363 38bd 547c debc
00000310: c4d4 27bc d807 a6bc 86bd afbc e1fb 53bd
00000320: 4bac 06bd 98f6 52bc d8df 2bbd c48d 07bd
00000330: 9fbf afbc d7d6 963c ce72 0d3b b98a c23b
00000340: 42c5 243d 0cfb f7bc e46d f03c d0eb b43c
00000350: c302 61bd 6ccc d3ba 60b4 07bd c73c 943c
00000360: e648 6ebd 6566 733d ecc0 423d f030 06bd
00000370: dfc7 463d 11cb 52bb 6035 683d 2101 f3bc
00000380: 9529 25bd 63f6 253d 0eb6 03bd 314c bc3c
00000390: 597d eabc cc66 21bc 66ef bb3c 2f74 e3bc
000003a0: aeb1 3ebc 8288 803c 567c c33c e657 e8bb
000003b0: b285 3539 6d11 7fbd ea03 53bc 56d9 2c3c
000003c0: 1e61 ce3a 6f47 b2bc fd9f a0bc d226 81bc
000003d0: 609c 613d 5650 32bd 89ab a73c 8624 7abc
000003e0: 7357 a2bc b406 30bd 6244 b1bc c5c3 59bd
000003f0: 90df f9bc f259 793d 0156 16bd 614f c43c

net.5.bias f4 [64]
0.057167873 -0.010768444 0.029276669 -0.026577575 -0.028376851 -0.00035985498 0.025796985 0.034010768
0.023796532 0.045511305 -0.012864655 0.049758777 0.03564122 -0.023075242 -0.0021093767 -0.0059643043
0.014160986 -0.05680593 0.052029934 0.03699598 -0.0029473025 0.012284367 -0.031363893 -0.046415076
-0.04410998 -0.03070522 0.01803981 0.00056302646 0.047972683 0.05783538 0.007058243 0.05843076
-0.032317936 0.0057048486 0.027213974 0.02042694 0.029226126 -0.020864371 -0.0056141145 -0.04291719
-0.016241826 0.0077485894 -0.036539383 -0.052705508 0.050119724 -0.056257192 -0.008382741 -0.024462847
-0.015351354 -0.013723742 -0.022814902 -0.029849214 0.05362239 -0.031594574 -0.046507142 0.010849132
0.0040188027 -0.02029804 -0.005196827 0.034712233 -0.032394424 0.00042159497 -0.005152324 -0.047492515
00000000: dc28 6a3d 216e 30bc a0d5 ef3c 37b9 d9bc
00000010: 9276 e8bc ebaa bcb9 3354 d33c e04e 0b3d
00000020: f2f0 c23c 106a 3a3d 46c6 52bc dccf 4b3d
00000030: 87fc 113d 4a08 bdbc 783d 0abb 3670 c3bb
00000040: 7b03 683c 56ad 68bd 571d 553d 1989 173d
00000050: 8827 41bb 5f44 493c 6d77 00bd bc1d 3ebd
00000060: abac 34bd 8389 fbbc 39c8 933c 1198 133a
00000070: 017f 443d cbe4 6c3d d548 e73b 1855 6f3d
00000080: d05f 04bd bdef ba3b d7ef de3c 6656 a73c
00000090: a16b ef3c c2eb aabc 9bf6 b7bb efc9 2fbd
000000a0: 940d 85bc e1e7 fd3b 52aa 15bd bbe1 57bd
000000b0: 574a 4d3d f16d 66bd c457 09bc 4f66 c8bc
000000c0: 3f84 7bbc 8cd9 60bc 51e6 babc 5786 f4bc
000000d0: 27a3 5b3d 5069 01bd 467e 3ebd 8fc0 313c
000000e0: 29b0 833b 1348 a6bc 254a aabb 6a2e 0e3d
000000f0: 04b0 04bd 8509 dd39 d4d4 a8bb 8387 42bd

net.6.weight f4 [64]
0.8850128 0.1789827 0.40117705 0.8217293 0.789938 0.65835184 0.3327718 0.4526072
0.43773416 0.73192334 0.72241837 0.07946591 0.3827993 0.21718276 0.11845174 0.3398073
0.2787515 0.61702514 0.649901 0.50979066 0.18199433 0.8053558 0.40249643 0.3730092
0.90667135 0.48429906 0.39629424 0.8558432 0.71612537 0.41902235 0.860604 0.18426867
0.5227659 0.80320233 0.64338446 0.9643807 0.8999803 0.80511904 0.9098251 0.14606223
0.3224293 0.6698773 0.42126593 0.7174958 0.6909316 0.4890999 0.9432249 0.6684398
0.5676734 0.37595692 0.1903155 0.8241222 0.026381254 0.40300995 0.2559789 0.67277706
0.42271778 0.0838293 0.38314068 0.35903955 0.2048014 0.65256566 0.1626579 0.43241262
00000000: 3390 623f 3e47 373e 1467 cd3e da5c 523f
00000010: 6039 4a3f bf89 283f 1161 aa3e 22bc e73e
00000020: b11e e03e 545f 3b3f 69f0 383f 06bf a23d
00000030: 45fe c33e 2865 5e3e d396 f23d 39fb ad3e
00000040: 84b8 8e3e 5cf5 1d3f e95f 263f a481 023f
00000050: b95c 3a3e cc2b 4e3f 0314 ce3e 10fb be3e
00000060: 9d1b 683f 0cf6 f73e 14e7 ca3e 8a18 5b3f
00000070: fe53 373f 198a d63e 8b50 5c3f edb0 3c3e
00000080: fcd3 053f ab9e 4d3f d8b4 243f a7e1 763f
00000090: 1c65 663f 481c 4e3f 4cea 683f 5691 153e
000000a0: 7415 a53e 147d 2b3f 2bb0 d73e cead 373f
000000b0: e5e0 303f 4d6b fa3e 3077 713f df1e 2b3f
000000c0: 0b53 113f 6d7d c03e 11e2 423e acf9 523f
000000d0: 801d d83c 5257 ce3e ab0f 833e 1e3b 2c3f
000000e0: 776e d83e b2ae ab3d 042b c43e 08d4 b73e
000000f0: 75b7 513e 8b0e 273f cb8f 263e 3065 dd3e

net.6.bias f4 [64]
-0.012356744 0.008410837 0.0024208527 -0.016282476 -0.023798011 -0.034800895 -0.012185577 0.011121243
-0.024987007 -0.017451111 -0.03220041 0.022961708 0.008838505 -0.0010963888 0.007715607 -0.016882721
0.0012796113 -0.010920633 -0.011010035 -0.0098693995 0.0025054074 0.0023460726 -0.022417897 0.0027219295
-0.008964249 -0.009283402 -0.025508853 -0.027805312 -0.0036769887 -0.011988763 -0.010689338 -0.00827501
-0.015429038 -0.014603739 -0.019399263 -0.015261576 -0.02329182 -0.008534411 -0.025620583 -0.002426549
0.009622042 -0.026472053 -0.03898002 -0.014022662 0.001358159 -0.009458636 -0.025965627 -0.018966407
-0.004039576 -0.022645487 0.0053719673 -0.013561494 0.010649247 -0.0007383932 0.015328248 -0.019605702
-0.020272717 -0.0041862316 0.011576925 -0.0136545105 -0.012520044 -0.008492147 -0.0069068926 0.007127631
00000000: f173 4abc 9bcd 093c 2ba7 1e3b d462 85bc
00000010: 0cf4 c2bc 628b 0ebd 04a6 47bc e035 363c
00000020: 8db1 ccbc a2f5 8ebc 94e4 03bd 311a bc3c
00000030: 60cf 103c b4b4 8fba 34d3 fc3b a24d 8abc
00000040: a1b8 a73a 74ec 32bc 6f63 34bc 43b3 21bc
00000050: c331 243b 91c0 193b bda5 b7bc 6662 323b
00000060: c9de 12bc 6919 18bc f1f7 d0bc f7c7 e3bc
00000070: a2f9 70bb 846c 44bc 5522 2fbc e893 07bc
00000080: 13ca 7cbc 8544 6fbc 34eb 9ebc b00b 7abc
00000090: 7dce bebc ead3 0bbc 42e2 d1bc bd06 1fbb
000000a0: c5a5 1d3c ebdb d8bc 83a9 1fbd 4fbf 65bc
000000b0: 4104 b23a 65f8 1abc deb5 d4bc 705f 9bbc
000000c0: 6b5e 84bb 0783 b9bc 5407 b03b 0731 5ebc
000000d0: 2e7a 2e3c bb90 41ba 5523 7b3c 239c a0bc
000000e0: f812 a6bc a82c 89bb 25ad 3d3c 2bb7 5fbc
000000f0: df20 4dbc a522 0bbc 3753 e2bb e78e e93b

net.6.running_mean f4 [64]
0.021148283 -0.26763225 -0.15730838 -0.18017733 -0.14150727 0.17699833 0.1579448 -0.32361227
0.3409361 0.17861713 0.11398731 0.34384617 0.09361077 0.15308559 0.04530159 0.19332503
-0.06386917 -0.03827524 -0.2875 -0.103791624 -0.044480473 -0.4954358 0.08311986 0.013240889
-0.18921247 -0.022784173 0.06369129 0.28714678 -0.39846307 0.27990773 -0.050114907 0.22471713
0.055941135 -0.032408882 0.13800696 0.18553819 0.0004516562 -0.21114983 0.117698684 0.14077109
0.055944003 0.3527237 0.052205358 -0.229326 -0.029477205 -0.091240115 0.0876864 -0.117595814
-0.25476846 0.04355428 0.24412923 0.06804072 -0.25382805 0.22434708 -0.26616272 0.0782059
-0.036690503 0.10716747 -0.16042645 0.05728483 0.11348905 -0.37148613 0.15685964 -0.39334318
00000000: 2a3f ad3c 1807 89be 7315 21be 6880 38be
00000010: 48e7 10be 0d3f 353e 48bc 213e 82b0 a5be
00000020: 2d8f ae3e 69e7 363e 2e72 e93d 9b0c b03e
00000030: 01b7 bf3d 78c2 1c3e 298e 393d fff6 453e
00000040: d7cd 82bd 80c6 1cbd 3333 93be b490 d4bd
00000050: 2831 36bd c3a9 fdbe bf3a aa3d 50f0 583c
00000060: eac0 41be e0a5 babc 9470 823d e704 933e
00000070: 5a03 ccbe 1150 8f3e 4a45 4dbd 3f1c 663e
00000080: 8822 653d 2dbf 04bd b251 0d3e b9fd 3d3e
00000090: 45cc ec39 a937 58be 020c f13d 4c26 103e
000000a0: 8a25 653d 3398 b43e 49d5 553d 6fd4 6abe
000000b0: 2e7a f1bc 19dc babd ed94 b33d 13d6 f0bd
000000c0: 0371 82be f965 323d 03fd 793e ef58 8b3d
000000d0: c0f5 81be 3ebb 653e 7b46 88be 6a2a a03d
000000e0: c848 16bd 9e7a db3d d546 24be 7fa3 6a3d
000000f0: f26c e83d 6e33 bebe d09f 203e 4764 c9be

net.6.running_var f4 [64]
0.22346169 0.11300255 0.027891718 0.075421356 0.04556284 0.02664604 0.018164469 0.07020351
0.04652245 0.0414108 0.048139255 0.02836347 0.16671456 0.022461936 0.019055355 0.054558102
0.021600658 0.040547304 0.11706615 0.070529476 0.05460605 0.22397767 0.021890845 0.035432614
0.070664264 0.027589878 0.013045443 0.045259245 0.23043679 0.034436457 0.0456205 0.0116644045
0.04775533 0.091098286 0.11400767 0.050443478 0.10882438 0.097745076 0.0757769 0.055378933
0.027383141 0.038606852 0.030824253 0.04188558 0.05380721 0.029080983 0.050551556 0.027191166
0.077821374 0.05181988 0.04358975 0.026441198 0.079082094 0.026095698 0.08052524 0.035769735
0.022875885 0.01531768 0.04147334 0.037050195 0.020134645 0.0964311 0.04086725 0.12126862
00000000: 24d3 643e e26d e73d 2c7d e43c 8376 9a3d
00000010: 1aa0 3a3d cc48 da3c a7cd 943c dcc6 8f3d
00000020: 538e 3e3d 5f9e 293d ab2d 453d 825a e83c
00000030: 39b7 2a3e 1802 b83c fa19 9c3c 5178 5f3d
00000040: ddf3 b03c ee14 263d 61c0 ef3d c271 903d
00000050: 98aa 5f3d 675a 653e 6e54 b33c ca21 113d
00000060: 6db8 903d 2b04 e23c 8ebc 553c c261 393d
00000070: 9ff7 6b3e 3e0d 0d3d 90dc 3a3d 0f1c 3f3c
00000080: 189b 433d bd91 ba3d da7c e93d d29d 4e3d
00000090: 51df de3d 922e c83d eb30 9b3d 05d5 623d
000000a0: 9c52 e03c 3822 1e3d 2583 fc3c 3790 2b3d
000000b0: f364 5c3d 3e3b ee3c 260f 4f3d 02c0 de3c
000000c0: d060 9f3d 1541 543d 2a8b 323d 369b d83c
000000d0: cbf5 a13d a5c6 d53c 6bea a43d 4983 123d
000000e0: 3566 bb3c 02f7 7a3c f3df 293d f2c1 173d
000000f0: 69f1 a43c ab7d c53d 6b64 273d af5b f83d

net.8.weight f4 [128, 64, 3, 3]
0.020611266 -0.026785895 -0.032923933 0.026116563 0.005957973 -0.015579814 -0.038874462 -0.02206795
0.021335239 -0.025253955 0.005868577 -0.01970586 -0.042092815 -0.025572862 0.0142892515 0.036202244
-0.036039904 0.026428182 0.022155283 0.021611921 -0.033122525 -0.0087217735 0.023633698 -0.0418988
0.01173326 0.008061932 -0.043018658 -0.036384027 0.0026442823 0.00241217 0.017771566 0.0014053754
0.025946926 0.013771982 -0.034365837 -0.039565504 0.01009215 -0.022420468 -0.019759573 -0.024722802
-0.0052257054 -0.010153122 -0.013696569 0.007760691 0.034854922 -0.00028947217 0.002972594 -0.00032248828
-0.008429248 0.022609303 0.022457507 -0.03972904 -0.05764395 0.002908284 -0.04875221 -0.0073449216
-0.036862362 -0.0037364666 0.03798677 0.038020145 -0.03187496 0.04407314 -0.012523151 -0.03858651
-0.02991043 -0.0143759055 -0.008403446 0.017781109 0.03660303 0.0129747465 -0.024523495 -0.027208406
-0.024207395 0.010851111 -0.008363138 0.022594577 0.018082064 0.037734404 -0.0502554 0.029564958
0.03926365 -0.012448806 -0.030585524 -0.005783753 -0.014570736 -0.007828899 0.012356749 -0.01988284
0.008381801 0.005231335 0.026776025 -0.04843582 -0.024711447 0.014661658 0.0076219207 0.0034600862
0.021566788 0.01921826 -0.033419836 0.019123191 -0.037263963 -0.041807227 -0.042189125 0.016157817
-0.012016106 -0.0445648 0.008146031 -0.046000868 -0.018124068 0.027501892 0.027635645 0.014626793
-0.0229149 -0.011649519 0.017319605 0.0009856035 0.009836512 0.0269862 0.002277163 0.035794463
0.021088067 0.021503532 0.0112000005 0.036985904 0.013247927 0.03437907 -0.008638476 -0.012360572
-0.015371748 0.030430162 0.0035360232 -0.02061642 0.025120053 0.019708633 0.041719843 -0.034707256
-0.040279668 0.012276939 -0.004791631 0.0071927053 -0.0031494566 -0.037407167 -0.005234777 -0.03913598
0.0122990515 0.037299816 0.030235825 -0.020863272 -0.019771531 -0.029999107 -0.00455576 0.046334054
0.0012329936 -0.04028259 0.022043707 -0.0014400189 -0.027748363 0.00845156 0.035682634 -0.03440545
0.009166779 -0.017414268 -0.016869057 -0.01617576 0.010422054 -0.02468863 -0.007132854 0.021578457
-0.0049481 0.024377458 -0.015634384 -0.008201434 -0.037090536 -0.042472515 -0.01922785 -0.03938259
-0.026566252 -0.0011694686 0.034163922 -0.014261746 0.033099633 -0.05420177 0.005257996 -0.00083692087
-0.045776177 -0.021383336 0.044429205 -0.038703844 -0.0017142984 0.009809295 -0.03075703 -0.012934533
-0.02276058 0.0050536105 0.021470964 -0.00023581577 0.021036506 0.007997328 -0.06487676 -0.040884722
0.0253157 0.01058479 -0.0126258135 0.045245305 -0.005091948 -0.014564978 0.03942001 0.017960697
-0.041146472 -0.04293769 0.008648272 0.0043184063 -0.03209171 -0.0004589282 0.011132819 0.020663956
-0.019758295 0.029984115 -0.022567617 -0.013473686 -0.045379657 -0.005264668 -0.041382674 0.029513936
-0.0066812444 0.0055692364 -0.013500153 -0.01330551 0.04002444 -0.045248024 0.035377655 0.00065436366
-0.002780201 0.009834182 -0.018247923 0.018057954 -0.011201034 0.02142471 0.0055134934 0.008722846
0.012300279 -0.017108435 0.00010939103 0.01779438 0.033494703 0.037708897 0.0370761 -0.030671839
0.014204343 0.019052828 -0.0024240708 -0.035828616 -0.034435906 -0.02651969 0.003566968 0.0043034367
00000000: f5d8 a83c 186e dbbc 3fdb 06bd 67f2 d53c
00000010: 1a3b c33b 7a42 7fbc d43a 1fbd d8c7 b4bc
00000020: 3dc7 ae3c 62e1 cebc 314d c03b 2f6e a1bc
00000030: 8469 2cbd 2e7e d1bc 771d 6a3c ce48 143d
00000040: 949e 13bd ea7f d83c ff7e b53c 7c0b b13c
00000050: 7cab 07bd c5e5 0ebc 759b c13c 139e 2bbd
00000060: dc3c 403c 3216 043c 5534 30bd 6b07 15bd
00000070: b24b 2d3b 7f15 1e3b ad95 913c 9334 b83a
00000080: a68e d43c e1a3 613c 31c3 0cbd 700f 22bd
00000090: 8c59 253c 21ab b7bc d4de a1bc 7987 cabc
000000a0: 653c abbb 4859 26bc 9367 60bc 654d fe3b
000000b0: 09c4 0e3d 4cc4 97b9 dacf 423b a513 a9b9
000000c0: d41a 0abc 2537 b93c cef8 b73c ebba 22bd
000000d0: 101c 6cbd e998 3e3b 66b0 47bd abad f0bb
000000e0: fdfc 16bd 82df 74bb 0498 1b3d 03bb 1b3d
000000f0: 518f 02bd 0986 343d e72d 4dbc e30c 1ebd
00000100: b806 f5bc eb88 6bbc 9bae 09bc b0a9 913c
00000110: 0fed 153d 0894 543c 7fe5 c8bc 2ae4 debc
00000120: 964e c6bc dcc8 313c 8b05 09bc 4318 b93c
00000130: d620 943c 648f 1a3d 9bd8 4dbd 3632 f23c
00000140: ecd2 203d 14f6 4bbc 7e8e fabc a385 bdbb
00000150: 19ba 6ebc c844 00bc f673 4a3c 56e1 a2bc
00000160: d253 093c 9e6b ab3b 6559 db3c a364 46bd
00000170: a96f cabc 7337 703c 4ec1 f93b 9dc2 623b
00000180: d5ac b03c 9d6f 9d3c 3de3 08bd 3da8 9c3c
00000190: 19a2 18bd 0e3e 2bbd 81ce 2cbd 665d 843c
000001a0: 34df 44bc 9489 36bd ee76 053c 686b 3cbd
000001b0: ed78 94bc a64b e13c 2664 e23c 37a5 6f3c
000001c0: 07b8 bbbc a0dd 3ebc d8e1 8d3c 5e2f 813a
000001d0: 5229 213c 2a12 dd3c 753c 153b 379d 123d
000001e0: e2c0 ac3c 2d28 b03c 3580 373c 887e 173d
000001f0: d50d 593c 11d1 0c3d 6588 0dbc ff83 4abc
00000200: c9d9 7bbc ad48 f93c a0bc 673b c4e3 a8bc
00000210: 92c8 cd3c 0074 a13c 6de2 2a3d 3229 0ebd
00000220: 4bfc 24bd 3725 493c 1d03 9dbb c9b0 eb3b
00000230: 1d67 4ebb 4238 19bd 7e88 abbb 0d4d 20bd
00000240: f681 493c b1c7 183d 1fb1 f73c 74e9 aabc
00000250: e8f7 a1bc b0c0 f5bc 7c48 95bb c7c8 3d3d
00000260: 669c a13a 5bff 24bd 0195 b43c 04bf bcba
00000270: 8950 e3bc 6978 0a3c f427 123d bbec 0cbd
00000280: 4230 163c 5ea8 8ebc fa30 8abc 0783 84bc
00000290: 43c1 2a3c cf3f cabc b7ba e9bb 4ec5 b03c
000002a0: ac23 a2bb 3cb3 c73c ae13 80bc 4f5f 06bc
000002b0: 3fec 17bd a9f7 2dbd b983 9dbc a44f 21bd
000002c0: 78a1 d9bc db48 99ba 78ef 0b3d 19aa 69bc
000002d0: 7b93 073d ad02 5ebd 444b ac3b cf64 5bba
000002e0: cd7f 3bbd 1b2c afbc 66fb 353d ec87 1ebd
000002f0: 4fb2 e0ba 2ab7 203c 2bf6 fbbc 5deb 53bc
00000300: 6574 babc c298 a53b e0e3 af3c 5045 77b9
00000310: c054 ac3c 3a07 033c 1bde 84bd bd76 27bd
00000320: df62 cf3c d46b 2d3c 80dc 4ebc 2453 393d
00000330: 5bda a6bb f2a1 6ebc e076 213d 5022 933c
00000340: 3489 28bd 6edf 2fbd 7bb1 0d3c 6b81 8d3b
00000350: 9972 03bd 4d9c f0b9 6d66 363c 7547 a93c
00000360: 26dc a1bc 3fa1 f53c b9df b8bc bcc0 5cbc
00000370: 05e0 39bd 3c83 acbb e180 29bd 36c7 f13c
00000380: 57ee dabb 247e b63b bf2f 5dbc 5bff 59bc
00000390: abf0 233d fe55 39bd 29e8 103d 9a89 2b3a
000003a0: 0834 36bb 8d1f 213c ab7c 95bc 46ee 933c
000003b0: 8b84 37bc e082 af3c 89aa b43b 45ea 0e3c
000003c0: 1c87 493c fd26 8cbc dd68 e538 85c5 913c
000003d0: be31 093d a574 1a3d 1cdd 173d 8243 fbbc
000003e0: 55b9 683c ad14 9c3c 29dd 1ebb 07c1 12bd
000003f0: aa0c 0dbd d23f d9bc cbc3 693b d803 8d3b

net.8.bias f4 [128]
-0.011317661 -0.012693888 0.008709264 0.019076256 -0.03566221 0.0052557616 -0.026937816 -0.021373775
-0.01134583 -0.03737833 0.007709043 -0.0380133 -0.015389207 -0.033147924 0.016328465 0.0015708777
-0.016178299 0.019699806 0.030519288 -0.023362724 -0.03649726 0.009197631 0.025617791 0.011075416
0.033731785 -0.04134802 0.033827 -0.0054412535 -0.015535971 0.011944131 0.03153128 -0.02060102
-0.041481465 0.012010829 0.0106855715 0.003954714 0.0129480995 0.019226475 0.009100122 0.023107292
0.012867777 -0.0042403 -0.023266518 -0.036601596 0.007348878 -0.03751673 0.025789963 0.04071657
0.03207307 0.015680484 0.030221729 0.039327096 0.030461028 -0.01068803 0.021741278 -0.008137247
-0.033891402 0.013972219 -0.009209118 -0.0062231277 -0.0064309645 -0.010589533 -0.018720277 0.035799447
0.027911032 -0.007690272 -0.036660112 -0.027890718 -0.040317975 -0.015827242 0.0145111615 -0.004468186
0.032164536 0.038619854 -0.021697132 -0.039634537 0.0049182503 -0.017972615 -0.025341202 -0.02603757
0.024092466 -0.017359713 -0.03570171 0.010764791 0.017939238 0.020511013 0.008831362 -0.008786578
-0.015096789 0.026725957 -0.01681897 -0.009384855 -0.014988085 -0.017841835 0.032763492 -0.041247822
-0.018555298 0.035226192 0.040437892 0.015124051 0.011720693 -0.034346532 -0.021113437 -0.018838158
-0.022612246 -0.021376727 -0.029279612 -0.03794951 0.02827487 -0.002545814 -0.018575149 0.021864899
0.010604614 0.035596162 0.04181238 -0.01494204 -0.028721666 -0.0043941448 -0.0067826523 -0.0073444704
-0.00478009 -0.0013743878 -0.017945098 0.018280376 -0.01710925 -0.025735216 0.031326387 -0.031085728
00000000: b66d 39bc 06fa 4fbc 4db1 0e3c cf45 9c3c
00000010: 8a12 12bd 8638 ac3b b2ac dcbc 0e18 afbc
00000020: dce3 39bc 051a 19bd 249c fc3b d6b3 1bbd
00000030: 0323 7cbc 1ec6 07bd 46c3 853c e9e5 cd3a
00000040: 5a88 84bc 7d61 a13c 9603 fa3c 2f63 bfbc
00000050: 277e 15bd a9b1 163c 67dc d13c a975 353c
00000060: 572a 0a3d 8b5c 29bd 2e8e 0a3d 8b4c b2bb
00000070: 968a 7ebc 51b1 433c f226 013d 78c3 a8bc
00000080: 78e8 29bd 11c9 443c 8912 2f3c 8c96 813b
00000090: 4424 543c d780 9d3c ae18 153c 814b bd3c
000000a0: 5ed3 523c 37f2 8abb 6d99 bebc 8eeb 15bd
000000b0: dbce f03b 25ab 19bd 7945 d33c 6bc6 263d
000000c0: 0d5f 033d 5c74 803c 8f93 f73c 7315 213d
000000d0: 6889 f93c d91c 2fbc c41a b23c 1652 05bc
000000e0: b6d1 0abd bceb 643c d7e1 16bc 61eb cbbb
000000f0: d7ba d2bb b87f 2dbc 445b 99bc 71a2 123d
00000100: ada5 e43c adfe fbbb ea28 16bd 137b e4bc
00000110: 7624 25bd 22a8 81bc 39c0 6d3c dc69 92bb
00000120: f6be 033d da2f 1e3d 2fbe b1bc d357 22bd
00000130: 4629 a13b 4e3b 93bc 5a98 cfbc be4c d5bc
00000140: 905d c53c f535 8ebc f53b 12bd ce5e 303c
00000150: 4ff5 923c b606 a83c 6bb1 103c 94f5 0fbc
00000160: 8658 77bc 65f0 da3c f0c7 89bc efc2 19bc
00000170: 9690 75bc 0a29 92bc 0333 063d 7af3 28bd
00000180: 4801 98bc 5749 103d 34a2 253d deca 773c
00000190: 2608 403c f3ae 0cbd 16f6 acbc 7b52 9abc
000001a0: 513d b9bc 3f1e afbc ccdb efbc f270 1bbd
000001b0: b3a0 e73c acd7 26bb e92a 98bc 041e b33c
000001c0: fabe 2d3c 48cd 113d 7543 2b3d 75cf 74bc
000001d0: b349 ebbc c2fc 8fbb 0341 debb e2a9 f0bb
000001e0: 4da2 9cbb cd24 b4ba 9901 93bc bac0 953c
000001f0: b328 8cbc a9d2 d2bc 1950 003d 7fa7 febc

net.9.weight f4 [128]
0.021139385 0.30035767 0.9447057 0.37583172 0.32561296 0.8522184 0.8733251 0.77527934
0.7567591 0.048343487 0.80451035 0.7281654 0.4558414 0.4537312 0.35230014 0.42211905
0.480407 0.2148596 0.8443295 0.40850073 1.0068613 0.6373768 0.16297534 0.3914265
0.08528893 0.12761365 0.72868013 0.44736424 0.13669379 0.17260467 0.49032477 0.82663846
0.3055484 0.34904006 0.030678282 0.18061078 0.4147145 0.5920785 0.23490398 0.44067505
0.90582824 0.60264194 0.06923331 0.80729294 0.34942523 0.36966005 0.69498974 0.18574847
0.27679825 0.7424075 0.11986617 0.8823727 0.63238764 0.06019304 0.14115617 0.35715964
0.13478608 0.6531335 0.904972 0.2038794 0.027658697 0.6382161 0.5812925 0.6030193
0.15655603 0.7306111 0.13522086 0.29474655 0.45435295 0.6258321 0.9427226 0.20203811
0.44478965 0.686818 0.38673604 0.7377048 0.22434066 0.36965072 0.29123873 0.10602549
0.053738676 0.90431374 0.33176807 0.16161335 0.069287404 0.48181063 0.13318051 0.69461316
0.4036309 0.18884228 0.9717674 0.27815855 0.5009 0.37051916 0.6246192 0.26079962
0.6439124 0.8961926 0.66079605 0.35164127 0.6564904 1.0043647 0.43688157 0.26378217
0.8733671 0.5857245 0.088395186 0.44827998 0.44505632 0.029698683 0.87177336 0.6829583
0.69772416 0.29334703 1.0068575 0.88026065 0.30059412 0.29317763 0.18278798 0.98892117
0.2107662 0.6683836 0.9365633 0.6215861 0.43584624 0.38058352 0.025556386 0.40281707
00000000: 812c ad3c 7bc8 993e 3cd8 713f 046d c03e
00000010: beb6 a63e fc2a 5a3f 3c92 5f3f b578 463f
00000020: f7ba 413f d203 463d 64f4 4d3f 0c69 3a3f
00000030: 0b64 e93e 754f e83e af60 b43e fd1f d83e
00000040: e8f7 f53e 2804 5c3e fa25 583f 0227 d13e
00000050: d5e0 803f 202b 233f 02e3 263e 0e69 c83e
00000060: f6ab ae3d 27ad 023e c88a 3a3f ed0c e53e
00000070: 75f9 0b3e 47bf 303e d90b fb3e 949e 533f
00000080: d770 9c3e 61b5 b23e 0551 fb3c 08f2 383e
00000090: 7555 d43e 7592 173f ab8a 703e 29a0 e13e
000000a0: 5ce4 673f be46 1a3f 32ca 8d3d c0aa 4e3f
000000b0: dde7 b23e 1544 bd3e d9ea 313f d934 3e3e
000000c0: 80b8 8d3e 6b0e 3e3f 657c f53d 2de3 613f
000000d0: 28e4 213f fa8c 763d 3e8b 103e a1dd b63e
000000e0: 5d05 0a3e c233 273f 3fac 673f c3c5 503e
000000f0: 7e94 e23c 2162 233f 96cf 143f 795f 1a3f
00000100: 3950 203e 5409 3b3f 5677 0a3e 05e9 963e
00000110: f3a0 e83e 8836 203f 4556 713f 14e3 4e3e
00000120: 78bb e33e 4ed3 2f3f 4402 c63e 39da 3c3f
00000130: 8fb9 653e dc42 bd3e 3e1d 953e e423 d93d
00000140: 161d 5c3d 1b81 673f 81dd a93e f87d 253e
00000150: 8ee6 8d3d e2af f63e 7960 083e 2bd2 313f
00000160: b6a8 ce3e df5f 413e c0c5 783f cc6a 8e3e
00000170: fb3a 003f b0b4 bd3e 0be7 1f3f 8787 853e
00000180: 71d7 243f e16c 653f ee29 293f 530a b43e
00000190: c10f 283f 068f 803f f1ae df3e 750e 873e
000001a0: fc94 5f3f 0af2 153f 8908 b53d f484 e53e
000001b0: 6cde e33e a74a f33c 8a2c 5f3f 5bd6 2e3f
000001c0: 0d9e 323f 9531 963e b5e0 803f c358 613f
000001d0: 79e7 993e 611b 963e c62c 3b3e f029 7d3f
000001e0: 18d3 573e 301b 2b3f 9dc2 6f3f 4420 1f3f
000001f0: 3d27 df3e d8db c23e a05b d13c 0a3e ce3e

net.9.bias f4 [128]
-0.0007985148 -0.00543985 0.0033350163 -0.0042113913 -0.011105187 0.000115212075 -0.00710557 -0.0011528648
-0.001122955 -0.0017594108 -0.0072304816 -0.0058709555 -0.009113732 -0.010016255 0.0037497669 5.695709e-05
0.01133795 0.010041103 0.0051838197 0.0014597578 0.0032703602 0.005868328 -0.0069115516 0.00050857244
-0.006447172 0.0077987644 0.005384148 0.003936567 0.0034755801 -0.0046371208 -0.0032113316 0.00015236453
-0.0010226284 -0.004386461 0.00077997445 0.0021963003 0.006235893 -0.012373395 0.0022869692 0.006071807
-0.0107624885 0.002718834 -0.0026055067 0.002993843 -0.0012056114 0.012824263 0.006266325 0.0049361126
-0.0033660259 -0.0034269397 0.0009049278 -0.007278637 0.0037751726 0.016790885 0.0010482275 -0.007780666
0.003038673 -0.0044506085 0.007511875 -0.008771053 -0.0033776609 -0.0026351165 -0.00012409965 -0.0031458754
0.016598785 -0.011176494 0.0007260825 -0.012122711 -0.0065384004 -0.002968444 0.0006087525 -0.0050766096
0.0015494865 -0.0110605685 0.0024626015 -0.029079322 0.009109481 -0.0037092606 -0.0005579198 0.005847565
0.02222028 -0.000507836 0.0044177184 -0.008413366 0.008974868 0.0059091556 0.0023135405 0.008195951
0.0020249567 0.002760374 -0.0034630073 0.0062382896 -0.0056560757 0.00094053196 -0.010728452 0.009748877
-0.0043636095 -0.015753664 -0.0011877347 0.0051345313 -0.02703113 0.0066822036 0.0025362507 0.0023562557
0.0023111908 -0.0001911981 0.005858046 0.0029773095 -0.008319715 0.0055852225 -0.008629136 0.0027482207
-0.009924968 0.006198055 0.0019141901 0.010332117 0.005355158 -0.009689149 0.00094202626 -0.0025293685
0.004104161 0.0075845146 -0.030274777 0.007152993 -0.005979917 -0.0009604988 0.0024310641 0.0043932702
00000000: 6c53 51ba c540 b2bb 4a90 5a3b b6ff 89bb
00000010: 88f2 35bc 039e f138 d7d5 e8bb b91b 97ba
00000020: 1e30 93ba 089c e6ba aded ecbb 2561 c0bb
00000030: c351 15bc 381b 24bc a6be 753b 36e5 6e38
00000040: cfc2 393c 7083 243c 08dd a93b 5855 bf3a
00000050: 8a53 563b 1a4b c03b 4c7a e2bb b851 053a
00000060: cc42 d3bb c78c ff3b 826d b03b 51fe 803b
00000070: 8fc6 633b fdf2 97bb 3475 52bb 0bc4 1f39
00000080: b709 86ba 4dbc 8fbb 3377 4c3a ceef 0f3b
00000090: 7656 cc3b c8b9 4abc fae0 153b 02f6 c63b
000000a0: 2655 30bc 772e 323b 26c1 2abb 5a34 443b
000000b0: 9b05 9eba dc1c 523c be55 cd3b 1dbf a13b
000000c0: 8b98 5cbb 8296 60bb ad38 6d3a a281 eebb
000000d0: e368 773b 0a8d 893c ae64 893a f5f4 febb
000000e0: 7924 473b 69d6 91bb 2d26 f63b 76b4 0fbc
000000f0: bf5b 5dbb ebb1 2cbb bf20 02b9 082b 4ebb
00000100: 2dfa 873c 9d1d 37bc 9256 3e3a 569e 46bc
00000110: 1440 d6bb 3a8a 42bb b094 1f3a b059 a6bb
00000120: 2418 cb3a 6337 35bc 9963 213b c237 eebc
00000130: ef3f 153c 1117 73bb 5d41 12ba ee9c bf3b
00000140: 4e07 b63c 4c20 05ba 82c2 903b 37d8 09bc
00000150: 530b 133c 97a1 c13b c59e 173b 4f48 063c
00000160: 23b5 043b 64e7 343b 9ff3 62bb 916a cc3b
00000170: 9a56 b9bb 088e 763a 64c6 2fbc c1b9 1f3c
00000180: 9cfc 8ebb d40d 81bc c3ad 9bba 923f a83b
00000190: 6370 ddbc 63f6 da3b 3a37 263b 696b 1a3b
000001a0: 5977 173b 597c 48b9 daf4 bf3b f71e 433b
000001b0: 6a4f 08bc 3e04 b73b 3861 0dbc 7e1b 343b
000001c0: 559c 22bc 0e19 cb3b 90e5 fa3a 0a48 293c
000001d0: 527a af3b 3dbf 1ebc 50f2 763a c3c3 25bb
000001e0: 337c 863b 8587 f83b cf02 f8bc a863 ea3b
000001f0: 2ef3 c3bb fcc9 7bba 7d52 1f3b 6cf5 8f3b

net.9.running_mean f4 [128]
-0.25382861 -0.1168605 0.2054808 0.19881888 -0.045992374 -0.22450233 -0.115802184 -0.18176721
0.076513864 -0.030472709 0.007019567 0.21057893 -0.13828267 0.01368561 -0.33158147 -0.04488211
0.09429795 0.44807607 -0.17133045 -0.0403933 0.03377773 -0.09910911 -0.019794496 0.14697325
-0.19379799 0.14376135 0.08200303 -0.09466968 -0.15195012 -0.13316864 -0.03580087 -0.18197048
0.15133272 -0.10516617 0.16860099 -0.2890645 0.09801293 -0.10740844 0.15882736 0.19035326
0.0026469815 0.07372122 -0.0046679373 0.14151724 -0.18955301 -0.009864325 0.05396661 -0.090534925
0.06757752 0.13551123 0.14657985 -0.16975039 -0.05475742 0.21831983 -0.046538815 -0.36226234
0.0846358 -0.057675146 -0.20513338 -0.07323792 -0.2816502 -0.025904922 0.038048234 -0.13735919
-0.16063125 -0.18438898 -0.22652093 0.12632892 -0.06705549 -0.012254568 -0.011703302 -0.10617655
-0.032770663 -0.15323566 0.12131129 0.033829395 -0.2833868 -0.092147715 0.14070487 -0.087193735
0.069912076 0.16178297 -0.11791393 -0.030053731 -0.00590578 0.045885496 -0.18451594 0.11118076
-0.026897827 0.039180197 0.0111844335 0.20763053 -0.20240842 -0.17913076 -0.030010922 -0.634719
0.07626051 -0.1204693 -0.033067208 -0.13762836 -0.07471907 -0.25753415 -0.23972414 0.2652365
-0.1994957 -0.16546871 -0.023038957 -0.30195725 -0.28552032 -0.026836848 -0.2039173 -0.25502825
-0.17855509 0.18147694 0.3087941 -0.15818538 0.043541066 -0.1448291 0.16474184 -0.1699258
-0.14307083 0.10377035 -0.07794698 -0.04120154 0.01942516 0.09596259 0.19628415 -0.09371044
00000000: d3f5 81be 8f54 efbd 8f69 523e 2d97 4b3e
00000010: 8062 3cbd f0e3 65be b229 edbd 2f21 3abe
00000020: 4db3 9c3d e7a1 f9bc 6504 e63b 01a2 573e
00000030: f999 0dbe 9c39 603c 0cc5 a9be 4ed6 37bd
00000040: 491f c13d 3a6a e53e 4071 2fbe 7273 25bd
00000050: 845a 0a3d b8f9 cabd 1128 a2bc 2880 163e
00000060: fb72 46be 2d36 133e 34f1 a73d 2de2 c1bd
00000070: d098 1bbe 5c5d 08be efa3 12bd 7856 3abe
00000080: f7f6 1a3e 5c61 d7bd bda5 2c3e 4300 94be
00000090: 01bb c83d f5f8 dbbd a4a3 223e f7eb 423e
000000a0: fb78 2d3b 27fb 963d 7ff5 98bb e5e9 103e
000000b0: 2f1a 42be fa9d 21bc 180c 5d3d 606a b9bd
000000c0: 1566 8a3d 75c3 0a3e 0719 163e 0cd3 2dbe
000000d0: 5149 60bd 3c8f 5f3e 7c9f 3ebd 737a b9be
000000e0: 8955 ad3d c63c 6cbd 7c0e 52be c3fd 95bd
000000f0: 7434 90be 8f36 d4bc 77d8 1b3d e3a7 0cbe
00000100: 857c 24be 77d0 3cbe 1af5 67be 5e5c 013e
00000110: 6454 89bd 62c7 48bc 35bf 3fbc 1773 d9bd
00000120: 883a 06bd cfe9 1cbe 0e72 f83d b190 0a3d
00000130: 1318 91be f1b7 bcbd f014 103e a192 b2bd
00000140: 102e 8f3d 6faa 253e dc7c f1bd 3e33 f6bc
00000150: 4685 c1bb 6ef2 3b3d bff1 3cbe bdb2 e33d
00000160: d558 dcbc 6a7b 203d ea3e 373c 199d 543e
00000170: 2744 4fbe 0e6e 37be 77d9 f5bc f27c 22bf
00000180: 782e 9c3d 9cb8 f6bd 7b71 07bd 73ee 0cbe
00000190: 5006 99bd 84db 83be 3f7a 75be 14cd 873e
000001a0: 9a48 4cbe a170 29be 32bc bcbc 249a 9abe
000001b0: b82f 92be f3d8 dbbc b2cf 50be 1093 82be
000001c0: 25d7 36be 17d5 393e 431a 9e3e 59fb 21be
000001d0: 1e58 323d 144e 14be 16b2 283e 0701 2ebe
000001e0: 2981 12be 8d85 d43d aba2 9fbd f2c2 28bd
000001f0: 8321 9f3c 0988 c43d b6fe 483e 42eb bfbd
