D_B.pth (torch_old, 401728 bytes, 21 tensors)

net.0.weight f4 [16, 3, 3, 3]
0	0x3dea31cf	0.114352815
1	0xbb0bcc95	-0.0021331657
2	0xbc279c00	-0.010230064
3	0xbe15452c	-0.14577168
4	0xbc980db8	-0.01856123
5	0x3dd3bc5d	0.10338662
6	0xbd91468c	-0.07093534
7	0x3e354573	0.17702274
8	0x3e27eeb6	0.16399655
9	0x3e012d5b	0.12614958
10	0xbe384f35	-0.17998965
11	0x3e171a19	0.14756049
12	0x3d76dc67	0.060268786
13	0xbe343c6e	-0.17601177
14	0x3d6de7d2	0.05808241
15	0xbdb51f54	-0.08843866
16	0xbdc239a8	-0.09483653
17	0xbc3ed37f	-0.011647104
18	0x3dbd9fb6	0.09258978
19	0xbdcde104	-0.10052684
20	0xbe07539a	-0.13215485
21	0xbde625e5	-0.112376966
22	0x3dd07bad	0.10179839
23	0xbc66bee4	-0.014083598
24	0xbd3fce73	-0.046827745
25	0xbdb4fa90	-0.088368535
26	0x3bca33a5	0.0061707073
27	0x3d0bd90b	0.034142535
28	0xbd94250c	-0.07233629
29	0x3d389664	0.0450653
30	0xbde073bc	-0.109595746
31	0xbdb29ef5	-0.08721725
32	0x3e2107d4	0.15725642
33	0x3e31c066	0.1735855
34	0xbde02d84	-0.109461814
35	0xbe25a02a	-0.16174379
36	0xbd2ac473	-0.041691255
37	0xbe2541bb	-0.16138355
38	0x3cc9f4f3	0.024652934
39	0x3dde8438	0.108650625
40	0xbdc0815f	-0.093996756
41	0x3c408284	0.011749867
42	0x3e2efc14	0.17088348
43	0x3e2bcbb4	0.16776925
44	0x3de48e66	0.11159973
45	0xbdf99d0b	-0.12188157
46	0x3d3e6832	0.046486087
47	0xbcb4870b	-0.02203705
48	0x3dc3b0a1	0.09555174
49	0xbe12e2f4	-0.14344388
50	0x3da9ca7f	0.08290576
51	0x3e435dda	0.1907877
52	0xbe1d65d4	-0.15370876
53	0x3da9ad55	0.082850136
54	0xbe0a30f3	-0.13495235
55	0xbd87727d	-0.06613634
56	0x3e22ed03	0.15910725
57	0x3e20e0ec	0.15710801
58	0xbd07bf07	-0.033141162
59	0xbd541d2d	-0.051785637
60	0x3e1c8bdd	0.15287729
61	0x3ca966c6	0.020678889
62	0x3d39c2a5	0.045351643
63	0x3dfdf1a7	0.12399607
64	0x3e261689	0.16219534
65	0x3d54dc76	0.05196806
66	0x3d22ae62	0.039717086
67	0xbd6a7e46	-0.05724933
68	0xbd981da8	-0.074275315
69	0x3e09f47d	0.13472171
70	0xbd67bc83	-0.056576263
71	0x3dcac7b8	0.099013746
72	0xbe4cddae	-0.20006439
73	0xbdc3a53d	-0.09553001
74	0xbe0893fa	-0.13337699
75	0xbe141a81	-0.14463235
76	0x3e50ea29	0.20401825
77	0xbd9f8d8f	-0.07790672
78	0xbd20e822	-0.03928388
79	0x3e19e05c	0.15026993
80	0xbe2732f0	-0.16328025
81	0x3d82d49b	0.063882075
82	0xbd569219	-0.052385423
83	0xbc15e357	-0.00914844
84	0xbdec687c	-0.11543366
85	0xbd873403	-0.06601717
86	0xbd879028	-0.066192925
87	0xbdc6d5a3	-0.09708717
88	0xbe3c44dd	-0.18385644
89	0x3c225c51	0.009909705
90	0x3ddc34ef	0.10752284
91	0x3d84f842	0.06492664
92	0xbc8b932e	-0.017037954
93	0x3ddaeab2	0.10689296
94	0xbe34e18b	-0.17664163
95	0x3d01b0cd	0.03166275
96	0x3c0c122f	0.008549257
97	0x3d3b06b3	0.045660686
98	0x3da63dea	0.08117278
99	0x3cf914c1	0.030405404
100	0x3e48af2a	0.1959807
101	0x3b2ba4b4	0.00261907
102	0x3e28a95f	0.1647086
103	0xbd967bed	-0.07347856
104	0xbc9efd48	-0.019407883
105	0xbd3f2b44	-0.04667212
106	0x3e2467c7	0.16055213
107	0x3d0a835d	0.033816684
108	0xbe227c62	-0.15867761
109	0xbe10867e	-0.14113805
110	0xbda9993a	-0.08281179
111	0x3d88dea4	0.0668309
112	0xbcd37e0f	-0.025816945
113	0x3db68cb3	0.08913555
114	0xbdf1795e	-0.11790727
115	0xbe22dfa9	-0.15905632
116	0xbd8a32af	-0.067479484
117	0x3d904a13	0.070453785
118	0x3dea4a1f	0.11439919
119	0x3d1d5467	0.03841057
120	0x3e45b8f5	0.19308837
121	0xbe260b21	-0.16215183
122	0x3e00e583	0.12587552
123	0x3dff15b2	0.1245531
124	0xbd87f61c	-0.066387385
125	0x3ded6f44	0.11593488
126	0xbd6d89e6	-0.05799284
127	0x3d9b3a8a	0.07579525
128	0xbe4117d8	-0.18856752
129	0x3df00949	0.11720521
130	0xbae12378	-0.0017176708
131	0x3ddb1277	0.10696881
132	0xbb8ddd79	-0.00432938
133	0xbd9d3d27	-0.076776795
134	0x3c6572e2	0.014004441
135	0xbe19f689	-0.15035452
136	0x3e0c86a4	0.13723236
137	0x3e12a103	0.14319234
138	0x3dc977e9	0.09837324
139	0x3d8041cb	0.06262549
140	0x3d4f68e8	0.050637156
141	0xbd2eac43	-0.04264475
142	0x3c5826b9	0.013192826
143	0x3dcbbcfd	0.09948156
144	0x3d0f8bdd	0.035045493
145	0xbe1960b2	-0.14978293
146	0x3d1c722e	0.038194828
147	0x3dfdd767	0.123946
148	0x3d909e12	0.070613995
149	0xbca38df5	-0.019965151
150	0xbe52a68f	-0.2057135
151	0xbd19570c	-0.03743653
152	0x3e18e6cc	0.14931792
153	0xbceceb2d	-0.028920734
154	0x3e1a953d	0.15095992
155	0x3d14cfb3	0.03633089
156	0xbdb0cd33	-0.08632889
157	0x3d980c6a	0.07424243
158	0x3e3217b2	0.17391852
159	0x3c1ac43f	0.009446203
160	0x3a954f92	0.0011391512
161	0xbd10a8e2	-0.03531731
162	0xbdef0999	-0.116717525
163	0x3d54d248	0.051958352
164	0xbe12c071	-0.14331223
165	0xbd0a1b35	-0.033717353
166	0x3e0cc655	0.13747533
167	0x3d9ad564	0.07560232
168	0xbe18b3a9	-0.14912285
169	0xbe2355a6	-0.15950641
170	0x3d5d9dd0	0.05410558
171	0xbda79ddc	-0.08184406
172	0x3dd78ed8	0.10525292
173	0xbd9003d4	-0.0703198
174	0xbd2b6081	-0.04184008
175	0xbe276785	-0.16348083
176	0x3d14bebe	0.03631472
177	0x3bd27faf	0.0064239125
178	0x3dfef4d3	0.1244904
179	0xbc71ccd5	-0.014758308
180	0x3cda2b23	0.026631897
181	0x3e1877ba	0.14889422
182	0xbe2aa4a8	-0.16664374
183	0xbd44b857	-0.048027363
184	0x3d587d4d	0.05285387
185	0xbe354354	-0.17701465
186	0xbd68f200	-0.056871414
187	0xbd8f7f4f	-0.07006704
188	0xbdc7e5bc	-0.09760615
189	0xbe3073ba	-0.17231646
190	0x3e15010c	0.1455118
191	0xbe554f30	-0.20830989
192	0xbb8428ca	-0.0040331827
193	0x3d1a46cd	0.037665177
194	0x3e1d07f1	0.1533506
195	0xbdbb1053	-0.09133973
196	0x3d1845cd	0.037175942
197	0x3dcc701b	0.0998232
198	0xbdbb5612	-0.09147276
199	0xbe036f17	-0.12835346
200	0x3dd7f8a8	0.10545474
201	0x3d74b0e9	0.059739027
202	0x3d401085	0.046890754
203	0xbdba01be	-0.090823635
204	0x3dc236b1	0.09483088
205	0xbe0d17b2	-0.1377857
206	0xbd42871c	-0.04749213
207	0x3dd33969	0.103136845
208	0xbd619f59	-0.055083606
209	0xbd0fa2bf	-0.035067316
210	0x3dd0a90e	0.101884946
211	0x3e35ceb6	0.17754635
212	0x3d1ac2c7	0.03778341
213	0xbc79b9da	-0.015242064
214	0xbd96a2c6	-0.07355265
215	0x3d9399c8	0.07207066
216	0xbde283b0	-0.11060274
217	0x3d2d26af	0.04227322
218	0x3e38f936	0.18063816
219	0xbe1ca76c	-0.15298241
220	0x3e13c966	0.14432296
221	0x3bca76ac	0.0061786976
222	0x3e1295be	0.14314935
223	0xbc4ccd5b	-0.012500132
224	0x3c8c3174	0.017113425
225	0x3df88582	0.121348396
226	0xbe215a27	-0.15757047
227	0xbdaf1bcd	-0.085502245
228	0x3e08214b	0.1329395
229	0xbcdfd0e9	-0.027321296
230	0x3e2568c2	0.16153243
231	0xbe1dce21	-0.15410663
232	0x3c9d4311	0.019197019
233	0xbde640c2	-0.1124282
234	0x3b49fccc	0.0030820845
235	0xbe0b055e	-0.13576266
236	0xbd8af0e7	-0.0678423
237	0xbdfe96b0	-0.12431085
238	0x3e583d14	0.2111705
239	0x3e0af551	0.13570143
240	0x3dc37861	0.09544445
241	0xbcb27d54	-0.021788277
242	0x3e09d6ea	0.1346089
243	0xbdb8a2ae	-0.09015404
244	0x3d7573a9	0.059924755
245	0xbdd4e6e2	-0.103956
246	0x3dd0d6b6	0.10197203
247	0x3d160bee	0.03663247
248	0x3cc7852d	0.024355495
249	0xbe2432c5	-0.16034992
250	0x3e215540	0.15755177
251	0x3d46fc5a	0.048580505
252	0xbd0fabdb	-0.035076004
253	0x3e03d0a5	0.1287256
254	0xbd84cad3	-0.06483998
255	0xbdd0e233	-0.10199394

net.0.bias f4 [16]
0	0x3dfb7be4	0.1227949
1	0xbdc27130	-0.09494245
2	0xbc0bc878	-0.008531682
3	0xbe2908a7	-0.16507207
4	0x3e37f1a6	0.17963275
5	0x3d2eb9a9	0.042657528
6	0x3e6dd507	0.23225795
7	0xbd28a057	-0.041168537
8	0xbe818136	-0.25293893
9	0xbddd6ed4	-0.108121544
10	0x3e1accc2	0.15117171
11	0xbdabbced	-0.08385644
12	0x3e5e2be7	0.21696435
13	0xbe6101ed	-0.21973391
14	0xbce5f353	-0.028070128
15	0xbe20cd05	-0.15703209

net.2.weight f4 [32, 16, 3, 3]
0	0x3d72672b	0.05918042
1	0xbd7883a6	-0.060672425
2	0xbcada772	-0.021198008
3	0x3c06b139	0.008220964
4	0xbd9e2d84	-0.07723525
5	0xbd4994f1	-0.049214307
6	0xbca7bced	-0.020475829
7	0x3b9f53f8	0.004862305
8	0x3c6d55e5	0.014485811
9	0x3d018da8	0.031629235
10	0x3d837766	0.06419258
11	0x3df615f0	0.12015903
12	0x3d2bcfac	0.0419461
13	0xbb199dd0	-0.002344001
14	0x3c8088db	0.015690258
15	0xbda1a144	-0.07892087
16	0xbd4aa28b	-0.04947142
17	0xbd42658d	-0.047460128
18	0xb911df99	-0.00013911574
19	0xbd2d8317	-0.042361345
20	0x3db7b3f7	0.089698724
21	0xbcf1f9b1	-0.029538007
22	0xbd26cb0b	-0.04072098
23	0xbd8a4a3a	-0.06752439
24	0x3cb4a853	0.02205292
25	0x3dad44e2	0.08460404
26	0x3d8c5295	0.06851689
27	0x3d14b28b	0.036303084
28	0xbd5ba753	-0.05362637
29	0x3db09dd6	0.08623855
30	0xbd4791f1	-0.048723165
31	0xbca7ed99	-0.020499038
32	0xbd8904cf	-0.0669037
33	0xbd29f5bc	-0.041494116
34	0x3ced30c2	0.028953914
35	0xbd1cdd3f	-0.038296934
36	0x3c3b12ae	0.011418028
37	0xbd82687e	-0.063675866
38	0xbd474553	-0.048650097
39	0xbc1e30a9	-0.009655156
40	0x3c2209a1	0.009889991
41	0xbdbdf53e	-0.09275292
42	0xbd5d7038	-0.0540621
43	0x3d280526	0.041020535
44	0x3d8561a8	0.06512767
45	0xbd82308b	-0.06356915
46	0x3d3f604c	0.046722695
47	0xbd8bbbaf	-0.06822907
48	0xbd239c42	-0.03994394
49	0x3cdc4a54	0.026890911
50	0xbbe20b07	-0.006898287
51	0x3d4757ed	0.048667837
52	0xbd55dde9	-0.052213583
53	0x3b9a42e2	0.00470768
54	0xbde503b8	-0.1118235
55	0xb73eac5d	-1.1365014e-05
56	0xbdaf3561	-0.08555103
57	0x3c8910f7	0.016731722
58	0xbdbcbebb	-0.092160664
59	0xbdb40120	-0.08789277
60	0x3d49d392	0.049274035
61	0xbd46525f	-0.0484184
62	0xbd1a28a2	-0.037636407
63	0x3d0c33d8	0.03422913
64	0xbd723fb2	-0.059142776
65	0xbd841dc3	-0.06450989
66	0xbcd23959	-0.025662111
67	0x3c0765dd	0.008264032
68	0xbc610b77	-0.013735644
69	0x3cf15b7d	0.02946257
70	0xbc4f1ed3	-0.012641626
71	0xbd60605b	-0.05477939
72	0xbc11556e	-0.008870466
73	0xbd0eae0d	-0.034833957
74	0xbd15a751	-0.03653652
75	0xbe1e4409	-0.15455641
76	0xbe3db5c1	-0.18526365
77	0xbe35df80	-0.1776104
78	0xbce68d60	-0.028143585
79	0xbdd0e7ef	-0.10200488
80	0xbcb37ee4	-0.021911092
81	0xbd864fd3	-0.06558194
82	0xbd1c8211	-0.03820998
83	0xbd8162e6	-0.063176915
84	0xbd5aeaf6	-0.053446732
85	0xbd00bce9	-0.03143016
86	0xbc3aa481	-0.01139176
87	0xbc81f0ad	-0.015861833
88	0x3d077337	0.03306886
89	0x3d768a90	0.060190737
90	0x3d40e3c3	0.04709221
91	0xbd94dd7c	-0.07268807
92	0xbd75009a	-0.059815027
93	0xbd17c623	-0.037054192
94	0x3d8735c1	0.066020496
95	0xbe0500bb	-0.1298856
96	0xbd928b62	-0.071554914
97	0xbd098e5c	-0.03358303
98	0xbd06a6b9	-0.032873843
99	0x3d642143	0.055695783
100	0x3df1c5ab	0.1180528
101	0x3e1d6512	0.15370587
102	0xbd72606b	-0.059173983
103	0x3dcf3607	0.10117727
104	0x3c822327	0.015885903
105	0x3d914cc3	0.07094719
106	0xbcd6685b	-0.026172807
107	0xbce8c916	-0.028416198
108	0xbd6459be	-0.055749647
109	0x3d008beb	0.031383436
110	0xbd98feaa	-0.07470448
111	0xbd1fd22a	-0.039018787
112	0x3d2ca075	0.04214521
113	0x3d78c52e	0.06073492
114	0xbd5641c8	-0.052308828
115	0x3ce8e7c7	0.028430833
116	0xbc05eeab	-0.008174579
117	0xbd0eade0	-0.03483379
118	0xbb31c7c6	-0.002712713
119	0x3e01ccad	0.12675734
120	0x3cdb5e3a	0.02677833
121	0x3d5615bb	0.052266818
122	0x3d03aa2d	0.032144714
123	0x3d8c32af	0.06845605
124	0x3d5b27d3	0.053504776
125	0xbcda95a1	-0.026682677
126	0xbd8b5bc4	-0.06804612
127	0xbca775f3	-0.020441985
128	0x3d57bc6a	0.05266992
129	0x3d6d48bb	0.05793069
130	0xbda1b8bd	-0.07896564
131	0x3b227cd5	0.0024793644
132	0xbd0e9ff6	-0.03482052
133	0x3d9112a3	0.07083633
134	0x3d59cbcd	0.053172875
135	0xbd71c682	-0.059027202
136	0xbce76bb1	-0.028249593
137	0x3cbdd51f	0.023172913
138	0xbd8ad105	-0.067781486
139	0x3cdfe9c6	0.027333152
140	0xbd60a94e	-0.05484896
141	0xbdb6366e	-0.088971004
142	0xbdc1a417	-0.09455126
143	0xbcfd929b	-0.030953696
144	0x3d9bca3e	0.07606934
145	0x3b2963bc	0.00258468
146	0x3bc26aa7	0.005933124
147	0x3d241102	0.040055282
148	0xbde2a0b4	-0.11065808
149	0x3d129bbb	0.035793047
150	0x3d8be552	0.06830849
151	0x3dfac393	0.12244334
152	0xbc8a4316	-0.016877692
153	0x3d71e6c8	0.05905798
154	0xbd256b41	-0.04038549
155	0xbce4110e	-0.027840164
156	0x3d2dbc01	0.042415623
157	0x3ce24705	0.027621755
158	0xb9d28d2f	-0.0004015951
159	0xbd105855	-0.03524049
160	0x3cb7634c	0.022386216
161	0xbd62f7ac	-0.05541198
162	0x3d01757a	0.031606175
163	0xbd00831e	-0.031375043
164	0x3d3446c2	0.044012792
165	0x3d73faf4	0.0595655
166	0xbd1debb5	-0.038554866
167	0x3db2bb60	0.08727145
168	0xbd322bcd	-0.043498803
169	0xbcd65f0f	-0.026168374
170	0x3ccde6f4	0.025134541
171	0xbd4932a4	-0.04912056
172	0xbd41771d	-0.047232736
173	0xbdece901	-0.115678795
174	0x3de5c0f5	0.11218444
175	0x3db1b0e3	0.086763166
176	0xbbe238af	-0.00690373
177	0xbd73ae4b	-0.05949239
178	0x3bc9e745	0.0061616027
179	0xbd522b03	-0.05131055
180	0x3b903eaf	0.0044020037
181	0x3cff18d3	0.031139767
182	0x3c3ea45b	0.011635865
183	0xbcfc9593	-0.030833041
184	0x3d852be9	0.06502516
185	0xbc58f5c5	-0.01324219
186	0xbd0c7710	-0.034293234
187	0xbce16356	-0.027513187
188	0xbe10631d	-0.14100309
189	0x3d1e1aab	0.03859965
190	0x3dc0f27c	0.0942125
191	0xbba6ed31	-0.0050941934
192	0x3d7f7358	0.06236586
193	0x3d954424	0.072883874
194	0xbd563169	-0.052293215
195	0xbd5145a6	-0.051091813
196	0x3d4ce84b	0.05002622
197	0xbdac6052	-0.08416809
198	0xbd09cc68	-0.033642203
199	0xbca1a8da	-0.019733835
200	0xbd8a3ef0	-0.067502856
201	0xbd99a065	-0.07501296
202	0xbd9b9cd1	-0.0759827
203	0xbde62f7e	-0.11239527
204	0xbb6a4e9c	-0.0035752421
205	0xbdf26af0	-0.11836803
206	0xbe069ed1	-0.13146521
207	0xbda3dab1	-0.080006965
208	0x3b722bbc	0.0036952337
209	0x3dc80621	0.09766794
210	0xbc0a9db3	-0.00846045
211	0xbc91790c	-0.017757915
212	0x3dda0fb4	0.106475264
213	0xbd266831	-0.04062671
214	0xbde66ea8	-0.11251575
215	0x3c472c3b	0.012156541
216	0xbcf56a9a	-0.029958058
217	0x3cde1d49	0.027113574
218	0x3d9ac6bb	0.07557436
219	0xbcf78aba	-0.030217517
220	0xba2f8ceb	-0.00066967186
221	0xbb0bcd0c	-0.0021331934
222	0xba8800f3	-0.001037626
223	0xbda756e6	-0.081708714
224	0x3db99c83	0.09063055
225	0x3b8f4908	0.0043727197
226	0x3dc00030	0.09375036
227	0x3d061e26	0.032743596
228	0x3d0b86db	0.034064155
229	0xbdb142e6	-0.08655338
230	0x3da36321	0.07977892
231	0xbca8338c	-0.020532392
232	0xbdcb3c00	-0.099235535
233	0x3ddaad81	0.106776245
234	0xbcd1006f	-0.025512902
235	0x3d802f19	0.06258983
236	0xbd10a14e	-0.035310082
237	0x3d010c19	0.031505678
238	0x3d536c0d	0.051616717
239	0x3bc0ca63	0.0058835014
240	0x3b3bc7b8	0.0028652977
241	0x3d8303b2	0.06397189
242	0xbcae024e	-0.021241333
243	0xbd8c6d61	-0.068568
244	0xbdf43955	-0.11924998
245	0xbddae5d9	-0.10688371
246	0x3ce59207	0.028023733
247	0x3d89bee3	0.06725862
248	0x3c23bd78	0.009993903
249	0xbc3d8058	-0.011566244
250	0xba9f0499	-0.0012132108
251	0x3cac5b6a	0.021039683
252	0xbcb621e5	-0.022232959
253	0xbd484a82	-0.04889918
254	0xbd80f22b	-0.0629619
255	0x3db74244	0.08948186

net.2.bias f4 [32]
0	0x3da5cfd6	0.08096282
1	0x3c8759ec	0.01652237
2	0x3c7b28a4	0.015329514
3	0xbca08d37	-0.019598586
4	0xbd8b7569	-0.068095036
5	0xbd877512	-0.06614126
6	0x3a27b8e5	0.0006398096
7	0x3bbce993	0.005765149
8	0xbdbf47a0	-0.09339833
9	0xbdf5138f	-0.11966621
10	0x3c96e993	0.018421924
11	0xbd049c30	-0.032375515
12	0x3dc05a95	0.09392277
13	0xbdb156ce	-0.08659135
14	0xbc0bdf0e	-0.008537067
15	0xbd4c7719	-0.049918268
16	0x3b14b1a6	0.0022688895
17	0xba63571a	-0.0008672342
18	0xbc15afdc	-0.009136166
19	0x3d60933e	0.05482792
20	0xbc843657	-0.016139193
21	0xbca11cd3	-0.019667065
22	0xbcd4b12f	-0.025963394
23	0x3cfec511	0.031099828
24	0x3d4c817c	0.049928173
25	0xbddcdda7	-0.10784464
26	0x3b97eba4	0.004636245
27	0x3cfddb3d	0.03098833
28	0x3d11fea0	0.03564322
29	0xbd361a32	-0.044458576
30	0x3d87da3c	0.06633422
31	0x3d9bcad3	0.07607045

net.3.weight f4 [32]
0	0x3edffb4a	0.43746406
1	0x3f7ef192	0.9958736
2	0x3f76debf	0.96433634
3	0x3e55f872	0.20895556
4	0x3e3c2527	0.18373547
5	0x3ec05a2a	0.3756879
6	0x3f3d3269	0.73905045
7	0x3f2a9612	0.6663524
8	0x3f79cac9	0.9757505
9	0x3e76f294	0.24115974
10	0x3f5cf542	0.86311734
11	0x3f6e1e41	0.93014914
12	0x3f3525cc	0.707608
13	0x3f3d7c7a	0.7401806
14	0x3f57c0be	0.84278476
15	0x3f1c9e9e	0.6117953
16	0x3ef6497b	0.48102936
17	0x3ee76fa2	0.45202357
18	0x3f2b07b1	0.6680861
19	0xbd9a1192	-0.075228825
20	0x3e7aa7c9	0.24478067
21	0x3f2e772a	0.6815058
22	0x3f6e951b	0.93196267
23	0x3f47ae37	0.78000206
24	0x3e44d039	0.19220056
25	0x3ec8132f	0.39077136
26	0x3f7bae3c	0.98312736
27	0x3f7b1441	0.9807778
28	0x3ea382e5	0.31935802
29	0x3e80854e	0.25101703
30	0x3ef5644a	0.47928077
31	0x3f5e0ccd	0.8673828

net.3.bias f4 [32]
0	0x3c8a37e1	0.016872348
1	0xbcdb45bd	-0.026766652
2	0xbc781453	-0.015141564
3	0x3cad1eb4	0.021132804
4	0x3b34b761	0.0027575123
5	0x3c4b0b27	0.012392796
6	0x3cbbeefe	0.022941109
7	0x3c257bc9	0.010100313
8	0xbd84ba3d	-0.06480835
9	0x3c6bf4d4	0.014401633
10	0xbce4522c	-0.027871214
11	0xbc838b5a	-0.016057659
12	0xbcecffdf	-0.028930603
13	0xbdab2b5b	-0.08357879
14	0xbdfc9efa	-0.1233501
15	0xbcffc2f4	-0.03122089
16	0xbc1c7cca	-0.009551236
17	0x3cf7b1f4	0.030236222
18	0xbcaeecbd	-0.02135312
19	0xbcdc3acb	-0.026883503
20	0xbd920b7c	-0.07131097
21	0x3c0890e4	0.008335326
22	0xb8c4689d	-9.365494e-05
23	0x3c27107e	0.010196803
24	0x3cab95ab	0.02094539
25	0x3ce18ded	0.027533496
26	0xbbc62c61	-0.006047771
27	0x3c0fe94c	0.00878365
28	0xbd01c417	-0.031681146
29	0x3c3e71d5	0.011623819
30	0xbdce7dcf	-0.1008259
31	0xbc36bf0c	-0.011153948

net.3.running_mean f4 [32]
0	0xbd7c83dd	-0.061649192
1	0x3da86996	0.08223264
2	0xbe27a7c4	-0.16372591
3	0xbd84f0b5	-0.06491224
4	0xbe2a947a	-0.16658202
5	0xbdbf2533	-0.09333267
6	0x3e3b5716	0.1829494
7	0x3ee5611c	0.4480065
8	0xbf204a56	-0.6261343
9	0xbe359d72	-0.17735842
10	0xbe393ea2	-0.18090299
11	0x3d82bf88	0.06384188
12	0x3e4985f5	0.19680007
13	0xbed3870c	-0.4131397
14	0xbd5e064a	-0.054205216
15	0x3dcf0c4a	0.10109766
16	0x3e078a11	0.13236262
17	0x3e0376d5	0.128383
18	0xbe51aec6	-0.20476827
19	0x3e00982b	0.12558047
20	0xbd968c79	-0.07351012
21	0x3e6683ad	0.22511168
22	0xbdd91fd4	-0.10601774
23	0x3e0167f7	0.12637316
24	0xbcead552	-0.028666172
25	0xbdd21108	-0.10257155
26	0x3e00454a	0.12526432
27	0x3dfd8cf1	0.12380398
28	0x3cd9d3db	0.026590278
29	0xbe2aaae8	-0.16666758
30	0xbe2d5d38	-0.16930091
31	0x3ebbc730	0.36675406

net.3.running_var f4 [32]
0	0x3a82881c	0.0009958777
1	0x3b7258e9	0.0036979264
2	0x3b19e4d5	0.0023482342
3	0x3a842438	0.0010081595
4	0x3a9fe796	0.0012199755
5	0x3a24434a	0.00062661304
6	0x3ba74ebb	0.005105821
7	0x3c210b1c	0.009829309
8	0x3c680469	0.014161208
9	0x3ad522dd	0.0016261
10	0x3bc2803d	0.0059356974
11	0x3b721e5b	0.0036944363
12	0x3b657969	0.0035014993
13	0x3c231b81	0.009955288
14	0x3acfda84	0.0015857969
15	0x3ae830e4	0.0017714766
16	0x3b6256b8	0.0034536552
17	0x3b3af7b4	0.002852899
18	0x3b12a59a	0.0022376538
19	0x3ae9bc86	0.0017832674
20	0x3b7e04c4	0.0038760165
21	0x3c215192	0.009846108
22	0x3bb22e1c	0.0054376256
23	0x3b28ca55	0.0025755365
24	0x3b05e1fc	0.0020428887
25	0x3ac64fe0	0.0015130006
26	0x3b862e22	0.004094855
27	0x3c02066e	0.007936103
28	0x3a65a5d9	0.000876037
29	0x3aa39857	0.0012481314
30	0x3b989277	0.004656132
31	0x3bdaa786	0.0066728024

net.5.weight f4 [64, 32, 3, 3]
0	0xbd2afd85	-0.04174568
1	0x3d9c334e	0.07626973
2	0xbc83c093	-0.016083037
3	0x3c8ed94b	0.017437598
4	0x3ae2268d	0.0017253921
5	0xbc975798	-0.018474385
6	0xbd29a23e	-0.04141449
7	0xbcd868d1	-0.026417168
8	0xbd8fa2ce	-0.070134744
9	0x3caf7f5d	0.021423036
10	0xbd0e1e6e	-0.03469699
11	0xbcfdcb11	-0.030980619
12	0x3da39bb1	0.0798868
13	0x3c77ffcf	0.015136673
14	0xbccc79b0	-0.024960369
15	0x3d760f86	0.060073398
16	0xbd202914	-0.039101675
17	0xbd9908ba	-0.074723676
18	0x3c91e665	0.017810056
19	0xbc4ae907	-0.01238466
20	0x3d1ec0bd	0.03875803
21	0xbc901174	-0.017586447
22	0xbdcbd860	-0.0995338
23	0xbb789aa9	-0.0037933982
24	0x3cf4e0d7	0.029892368
25	0xbde27592	-0.11057581
26	0xbc9b1b29	-0.01893385
27	0x3d1fa300	0.03897381
28	0x3cce8f20	0.025214732
29	0x3c85ffc2	0.016357306
30	0x3d80e10a	0.06292923
31	0x3d02f6b7	0.031973567
32	0x3c4e621e	0.012596635
33	0x3dae5217	0.08511751
34	0x3b148f6c	0.0022668494
35	0x3d0eded0	0.03488046
36	0x3ccd34be	0.025049563
37	0xbcd168ba	-0.025562633
38	0xbc9effb1	-0.019409033
39	0xbb2231cf	-0.0024748927
40	0x3cda0fd6	0.02661888
41	0x3d81240b	0.06305703
42	0x3ca7cd9c	0.020483784
43	0x3d52d7cd	0.051475335
44	0x3cb9ad0f	0.022665529
45	0xbc213367	-0.009838915
46	0x3dc56207	0.09637838
47	0x3cdc2947	0.026875151
48	0x3d8d699a	0.069049075
49	0x3daa35ea	0.083110645
50	0xbd3019b2	-0.042993255
51	0xbd351d20	-0.04421723
52	0x3d17f04e	0.037094407
53	0xbc92bc6d	-0.017912114
54	0x3d77a848	0.06046322
55	0x3d15bd0e	0.03655725
56	0x3d2458d0	0.04012376
57	0x3caf6952	0.021412525
58	0x3dc3f807	0.09568792
59	0x3d93ae9c	0.072110385
60	0x3d836120	0.064150095
61	0x3d30bf4d	0.04315119
62	0xbcb77eb1	-0.022399278
63	0x3ba0952e	0.004900596
64	0x3cbbfd6a	0.022947986
65	0x3da375bf	0.07981443
66	0x3d8e4cbc	0.0694823
67	0xbc921116	-0.017830413
68	0x3b8aa77f	0.004231393
69	0xbcbf6ed0	-0.02336827
70	0x3d3ec11c	0.046570882
71	0x3da9b7e7	0.0828703
72	0x3d8923e4	0.06696299
73	0xbdb255fa	-0.08707805
74	0xbcaa4906	-0.020786773
75	0x3d33cbcb	0.043895524
76	0xbda8e422	-0.08246638
77	0xbd9615ca	-0.07328375
78	0x3c8752eb	0.01651903
79	0xbd2e86e6	-0.042609118
80	0x3c6b78ac	0.014372032
81	0xbbb63ae5	-0.00556122
82	0xbd4b4991	-0.049630705
83	0xbd750d36	-0.059827052
84	0x3c9634c2	0.018335704
85	0x3db5819f	0.08862614
86	0x3d52a8e7	0.05143061
87	0x3d70be37	0.058775153
88	0x3d4de534	0.050267413
89	0x3d4c34d8	0.049855083
90	0x3bab553b	0.005228666
91	0x3b9a71a6	0.004713255
92	0x3cb45c16	0.022016566
93	0xbce18f50	-0.027534157
94	0x3d51925c	0.05116497
95	0x3c4c4799	0.012468242
96	0xbc93a2fc	-0.018022053
97	0xbd29d552	-0.041463204
98	0x3d14aa16	0.03629502
99	0x3be08fc8	0.0068530776
100	0x3de44d34	0.11147538
101	0xbc4ef129	-0.012630739
102	0x3bdbf691	0.0067127426
103	0x3e014ec2	0.126277
104	0x3d3a67b3	0.04550905
105	0xbcde1ca6	-0.02711327
106	0x3d2bfbe0	0.041988254
107	0xbca9f291	-0.020745547
108	0x3d9c0999	0.07619018
109	0x3bff3993	0.007788846
110	0x3d624818	0.055244535
111	0x3b5a38a5	0.0033297923
112	0xbcfd9641	-0.030955436
113	0x3bec3ecb	0.007209634
114	0xbd5af6d7	-0.05345806
115	0xbc42463d	-0.011857566
116	0xbd8cd141	-0.068758495
117	0x3d1b11f9	0.037858937
118	0xbd34f320	-0.044177175
119	0xbd0ebea0	-0.034849763
120	0x3c8a2f07	0.016868128
121	0xbc30a4a1	-0.010781438
122	0xbd1a4a3b	-0.037668448
123	0x3d434c4c	0.047680184
124	0xbd368bb9	-0.044566844
125	0x3cfd5c52	0.03092781
126	0x3d3f5eee	0.04672139
127	0x3cf8f118	0.0303884
128	0x3cdf9069	0.02729054
129	0x3d5d53ca	0.054034986
130	0xbc1db1ae	-0.009624882
131	0x3cba7a20	0.022763312
132	0xbd7b28d4	-0.061318234
133	0xbd3d9ff8	-0.046295136
134	0xbd15c454	-0.036564186
135	0x3bf1706b	0.0073681376
136	0xbc4c825d	-0.012482253
137	0x3ccc707c	0.02495598
138	0x3cd620e3	0.026138728
139	0x3d07a4ee	0.033116274
140	0x3c5e8c99	0.013583326
141	0xbcb05482	-0.021524671
142	0x3cac6c96	0.021047872
143	0xbcaf66c5	-0.021411309
144	0xbc6857b8	-0.01418107
145	0xbd4dd6a3	-0.05025352
146	0xbda55681	-0.0807314
147	0x3d92ac88	0.07161814
148	0x3b134954	0.0022474127
149	0x3d757b61	0.059932116
150	0x3da3225d	0.07965539
151	0xbd3d8c42	-0.04627634
152	0xbc5fe9aa	-0.01366655
153	0xbcbb7376	-0.022882205
154	0x3d8cc749	0.06873948
155	0x3c930cd4	0.017950453
156	0x3c3e108a	0.011600623
157	0x3d14b064	0.03630103
158	0x3d1f34d3	0.038868736
159	0xbd24c671	-0.04022831
160	0xbc912046	-0.017715584
161	0x3c971617	0.01844315
162	0x3c31db22	0.010855468
163	0xbd2a1872	-0.04152722
164	0xbd75cbd9	-0.060008857
165	0x3d99132b	0.07474359
166	0xbd8a93c6	-0.06766467
167	0xbda93f0e	-0.0826398
168	0xbb92d735	-0.004481221
169	0xbd6de599	-0.05808029
170	0xbd90d083	-0.070710205
171	0xbc30ae0d	-0.010783684
172	0x3c50e101	0.012748958
173	0x3d8fdf61	0.07025028
174	0x3d2bc58a	0.041936435
175	0x3c960a02	0.018315319
176	0xbc398d15	-0.0113251405
177	0x3d649c40	0.055813074
178	0x3cffdb22	0.03123242
179	0x3dc4f171	0.09616364
180	0x3dcfd444	0.10147908
181	0x3d20c9a6	0.039254807
182	0x3d6dfc08	0.058101684
183	0x3da0e883	0.07856848
184	0xbdb71034	-0.089386374
185	0x3d5ab701	0.053397182
186	0x3cfff377	0.031244023
187	0xbd55b9e8	-0.052179247
188	0x3aee813d	0.0018196475
189	0xbd389c0e	-0.0450707
190	0xbc2fba21	-0.010725529
191	0x3c47a946	0.012186354
192	0x3c833e54	0.016020931
193	0x3ceee3d5	0.029161373
194	0x3cce47f7	0.0251808
195	0xbd3233cb	-0.043506425
196	0x3d3191cb	0.04335193
197	0x3d9607f5	0.073257364
198	0x3d40a57d	0.047032822
199	0x3ced0168	0.028931335
200	0xbd140eec	-0.036147043
201	0xbd0053fc	-0.031330094
202	0xbc041f43	-0.008064094
203	0x3c9bd483	0.019022232
204	0xbb7d022e	-0.0038606036
205	0x3bca93bb	0.0061821616
206	0xbc347a22	-0.011015447
207	0xbd2c6478	-0.042088002
208	0xbd2b5cef	-0.041836675
209	0xbc4d8b58	-0.012545429
210	0xbccf8d25	-0.025335858
211	0xbadcc551	-0.0016843473
212	0x3d65fccb	0.056149285
213	0x3b8021b0	0.003910266
214	0x3d21462b	0.039373558
215	0xbce072fe	-0.027398583
216	0x3d2b233d	0.041781653
217	0xbda95a6e	-0.08269201
218	0xbc369bf8	-0.011145584
219	0xbc1c0431	-0.009522484
220	0xbdb23f98	-0.08703536
221	0x3c7b52e5	0.015339588
222	0xbb411d5a	-0.0029466958
223	0xbc78ec8b	-0.015193115
224	0x3d4f2034	0.05056782
225	0xbd121715	-0.035666544
226	0xbc972cc8	-0.01845397
227	0x3c5ad508	0.013356455
228	0x3d09639e	0.033542268
229	0xbce29bd9	-0.027662205
230	0xbd479d15	-0.04873379
231	0x3c5827c7	0.013193077
232	0xb84cfe16	-4.8874026e-05
233	0xbda1454a	-0.07874544
234	0xba762117	-0.0009389086
235	0x3d345a2b	0.044031303
236	0x3d4326de	0.04764449
237	0xbd14d974	-0.036340192
238	0x3db8dc2d	0.0902637
239	0x3cbbc213	0.02291969
240	0xbd957be5	-0.07299022
241	0xbd25fdcd	-0.040525246
242	0xbda01821	-0.07817102
243	0x3d8e685f	0.06953501
244	0xbbbc3b6f	-0.0057443897
245	0xbd0e6a13	-0.03476913
246	0x3de93e5b	0.113888465
247	0x3ad71aa4	0.0016411138
248	0xbdb6df0e	-0.08929263
249	0x3d4a4bf8	0.049388856
250	0x3c50bc0d	0.012740147
251	0xbcf7ab72	-0.030233119
252	0x3d507e5d	0.05090176
253	0x3d8ec749	0.069716044
254	0xbd19317c	-0.037400708
255	0xbd3b4cb6	-0.045727454

net.5.bias f4 [64]
0	0x3cd5b79e	0.026088532
1	0x3d401a10	0.046899855
2	0xbb9b807c	-0.004745541
3	0xbb06cd47	-0.0020569132
4	0x3d3db2e1	0.04631317
5	0x3d55f671	0.052236978
6	0x3d114b31	0.0354721
7	0x3b88eac3	0.0041783764
8	0xbc8a0b26	-0.01685102
9	0xbc9ed88d	-0.019390369
10	0x3cbf7c41	0.023374679
11	0xbc4917da	-0.012273753
12	0x3d142642	0.036169298
13	0xbd78373e	-0.060599558
14	0x3cc79815	0.02436451
15	0xbb513a31	-0.0031925554
16	0x3c173b08	0.009230383
17	0xbd113995	-0.035455305
18	0xba12ec11	-0.00056046346
19	0x3c878ba9	0.016546087
20	0xbbad6f01	-0.0052927737
21	0x3da1e8ac	0.07905707
22	0x39439b6a	0.00018654545
23	0xbd8bc420	-0.06824517
24	0xbd959666	-0.07304077
25	0x3d3efe10	0.04662901
26	0xbbaa1575	-0.005190546
27	0x3c85d48a	0.016336698
28	0xbd6331a6	-0.05546727
29	0xbc8e4755	-0.017367998
30	0x3ce2d912	0.027691398
31	0x3c9e83f5	0.019350031
32	0x3d2b71c8	0.041856557
33	0x3c526995	0.0128425555
34	0x390c8d50	0.00013404083
35	0x3ae1856b	0.0017205899
36	0xbbaeba23	-0.005332248
37	0xbd24db16	-0.040248
38	0xbc78bb64	-0.015181396
39	0xbbb1a23a	-0.0054209502
40	0xbd02ef5f	-0.031966563
41	0x3c9ba1ca	0.018998045
42	0x3d126e99	0.035750005
43	0x3c33d92c	0.010977071
44	0xbcb64b03	-0.022252565
45	0x3d7fe1bb	0.062471133
46	0x3da6e9f9	0.081500955
47	0x3cce235f	0.02516335
48	0x3d3c17da	0.045921184
49	0x3bc96f49	0.0061472994
50	0x3c048c38	0.008090071
51	0xbcb0c336	-0.021577459
52	0xbd2ee21e	-0.04269611
53	0x3d0de051	0.034637753
54	0x3c894a51	0.01675907
55	0xbd48a129	-0.04898182
56	0xbd5415eb	-0.051778715
57	0x3ca4af15	0.020103017
58	0x3bd27ec6	0.006423804
59	0xbbb2bd63	-0.0054547056
60	0xbcee742d	-0.029108131
61	0x3d6a0363	0.057132136
62	0x3c4f7b92	0.012663739
63	0x3c99386a	0.018703658

net.6.weight f4 [64]
0	0x3f2e4a34	0.68081975
1	0x3e990924	0.29889786
2	0x3f361c85	0.7113727
3	0x3f0a862c	0.5411098
4	0x3f1aa217	0.6040358
5	0x3f551926	0.832415
6	0x3eea4342	0.4575444
7	0x3e388c7a	0.18022338
8	0x3e6346f8	0.22195041
9	0x3e8488c2	0.25885588
10	0x3ea2a638	0.3176744
11	0x3f04c618	0.5186477
12	0x3f0e266a	0.55527365
13	0x3f6b4dea	0.9191576
14	0x3ed0704c	0.40710676
15	0x3f1ae4a0	0.60505104
16	0x3f53cf1b	0.8273789
17	0x3e5b7502	0.21431354
18	0x3f50c65b	0.81552666
19	0x3de94dcb	0.11391791
20	0x3f488eb5	0.78342754
21	0x3f22c573	0.63582534
22	0x3e9345c7	0.28764173
23	0x3ef8aefb	0.48571
24	0x3f07183a	0.5277134
25	0x3e5475d9	0.2074808
26	0x3f61920b	0.8811347
27	0x3f255fc4	0.6459925
28	0x3f713cfe	0.9423369
29	0x3f26eb3d	0.65202695
30	0x3e8b4c46	0.2720663
31	0x3f0e000f	0.5546884
32	0x3eced0df	0.4039373
33	0x3dc831fd	0.097751595
34	0x3ea77eab	0.32713827
35	0x3e786191	0.24255969
36	0x3ed7c00d	0.4213871
37	0x3f440d90	0.76583195
38	0x3ded274e	0.115797624
39	0x3f2b95a3	0.670252
40	0x3eb2d5eb	0.3492883
41	0x3f649747	0.8929333
42	0x3e336916	0.17520556
43	0x3f1e7348	0.61894655
44	0x3e8f846d	0.2803072
45	0x3f60af43	0.8776743
46	0x3f01c3e4	0.5068953
47	0x3f2cdb4e	0.6752213
48	0x3e844430	0.25833273
49	0x3e362a38	0.17789543
50	0x3ed4d208	0.4156649
51	0x3ea80fc6	0.32824534
52	0x3e8cb6cd	0.27483216
53	0x3ed66449	0.41873387
54	0x3f27ad72	0.6549903
55	0x3f61e45a	0.8823906
56	0x3f1d4721	0.6143666
57	0x3e783464	0.24238735
58	0x3ee6f992	0.45112282
59	0x3f5c6fe6	0.86108243
60	0x3e30979e	0.17245337
61	0x3dcd179d	0.100142695
62	0x3f22b556	0.63557947
63	0x3f3f0287	0.7461323

net.6.bias f4 [64]
0	0xbe594584	-0.21217924
1	0xbda5d282	-0.08096792
2	0xbe97fac7	-0.29683515
3	0xbe382d5b	-0.17986052
4	0xbe6407bc	-0.22268575
5	0xbd3f62fc	-0.04672526
6	0xbe122d88	-0.14275181
7	0xbe03274c	-0.1280796
8	0xbdeea41f	-0.11652397
9	0xbdbc6595	-0.09199063
10	0xbdbaaeba	-0.09115358
11	0xbd2e18e5	-0.04250421
12	0xbe0e9ab4	-0.13926202
13	0xbd614cf9	-0.055005047
14	0xbe8ad4d4	-0.271155
15	0xbde83f02	-0.11340143
16	0xbe72692f	-0.23672937
17	0xbcaa8e82	-0.020819906
18	0xbd40673a	-0.046973445
19	0x3c3e3e57	0.011611543
20	0xbd5f7410	-0.054554045
21	0xbe8ca763	-0.27471456
22	0xbd33ff5f	-0.043944713
23	0xbd996c33	-0.074913405
24	0xbe380cdc	-0.17973655
25	0xbcb3a2ab	-0.021928152
26	0xbcb7776e	-0.022395816
27	0xbd1d0db8	-0.03834316
28	0xbec4660e	-0.38359112
29	0xbe1521eb	-0.1456372
30	0x3c139135	0.009006788
31	0xbdf1673c	-0.117872685
32	0xbe62249d	-0.2208428
33	0x3ccccccd	0.025
34	0xbe81b79b	-0.25335392
35	0xbdd4790a	-0.10374649
36	0xbda0953e	-0.07840966
37	0xbd9e6599	-0.07734222
38	0xbcbf77c7	-0.023372544
39	0xbddeb155	-0.10873667
40	0xbdb28cf8	-0.08718294
41	0xbd0dae57	-0.03459009
42	0xbe07336e	-0.13203213
43	0xbda617ca	-0.08110006
44	0xbdaf7672	-0.085675135
45	0xbe958742	-0.29204756
46	0xbe6e86af	-0.23293565
47	0xbcb00b66	-0.02148981
48	0xbdf57c5c	-0.1198661
49	0xbe18da42	-0.14927009
50	0xbe2906b8	-0.16506469
51	0xbd5b3a3a	-0.053522326
52	0xbcd87f71	-0.026427956
53	0xbdcbf273	-0.09958353
54	0xbd15f6fb	-0.036612492
55	0xbe2f656e	-0.17128536
56	0xbdc8b6e5	-0.09800509
57	0xbe3b4833	-0.1828926
58	0xbd018ed6	-0.03163036
59	0xbd4dd5a4	-0.05025257
60	0xbe0b3e1f	-0.13597916
61	0xbdd95d7e	-0.10613535
62	0xbe308961	-0.17239906
63	0xbda38bc1	-0.0798564

net.6.running_mean f4 [64]
0	0x3ea7b915	0.32758394
1	0x3e3be8b7	0.18350492
2	0x3eecbcdf	0.46237847
3	0x3e4b7a9a	0.19870988
4	0x3f1799c3	0.59218997
5	0xbe86fee2	-0.26366335
6	0x3e924a6c	0.28572404
7	0x3f20cb69	0.6281038
8	0x3f5e316b	0.86794156
9	0x3e34d81e	0.17660567
10	0x3ebbb490	0.36661196
11	0xbef1dad7	-0.47237274
12	0x3f0325b2	0.51229393
13	0xbf80e293	-1.0069145
14	0x3f0805b4	0.531337
15	0x3d29f874	0.04149671
16	0x3defd2b5	0.11710111
17	0x3e658daf	0.22417329
18	0xbf3cad76	-0.7370218
19	0x3d8670b5	0.06564466
20	0xbf65575a	-0.8958641
21	0x3f341548	0.7034497
22	0x3e317f6e	0.17333767
23	0xbf8aaf76	-1.0834796
24	0xbe8bd39e	-0.2730989
25	0x3e2286a4	0.15871674
26	0xbe9b2691	-0.3030286
27	0xbf52397c	-0.82118964
28	0xbdc2dfb6	-0.09515326
29	0x3e3e2474	0.18568593
30	0xbed77526	-0.42081565
31	0xbf13b130	-0.5769224
32	0x3f4a3a71	0.78995425
33	0xbe4a8d53	-0.19780473
34	0x3f2e716c	0.6814182
35	0x3f3a3013	0.72729605
36	0xbe4203d5	-0.18946774
37	0xbf872ac1	-1.0559922
38	0xbfb5d74d	-1.420633
39	0xbf05915f	-0.52174944
40	0xbf1b815f	-0.6074428
41	0xbf296d2f	-0.66182226
42	0x3f188a43	0.5958597
43	0x3c5e29e1	0.013559789
44	0xbe3e1e70	-0.18566298
45	0xbe490171	-0.19629456
46	0x3f35b4ed	0.70979196
47	0xbf61c9a3	-0.881983
48	0xbe12bc2a	-0.14329591
49	0x3effcef2	0.49962574
50	0x3ee9a43a	0.45633107
51	0xbf762f62	-0.9616605
52	0x3dd99a35	0.10625116
53	0xbf1bff52	-0.6093646
54	0xbef46a65	-0.47737423
55	0x3de64221	0.11243082
56	0xbf2f5bd2	-0.6849948
57	0x3ebf4490	0.37356997
58	0xbf2d8390	-0.67778873
59	0xbf2493d7	-0.64288086
60	0x3efc6b94	0.49300826
61	0x3f0bbb85	0.5458301
62	0x3ca7ae12	0.020468745
63	0xbf60501d	-0.87622243

net.6.running_var f4 [64]
0	0x3ecfe18b	0.40601763
1	0x3da79513	0.081827305
2	0x3d876920	0.06611848
3	0x3e4bac22	0.19889882
4	0x3dad1e06	0.08452992
5	0x3e50c278	0.20386684
6	0x3e4567bb	0.19277851
7	0x3dfe9911	0.12431539
8	0x3e2cbf94	0.16869956
9	0x3d7db3fe	0.061939232
10	0x3ddb8fff	0.107208245
11	0x3e5d913d	0.21637435
12	0x3e72791e	0.23679015
13	0x3f1f4f48	0.6223035
14	0x3dcd4625	0.10023145
15	0x3ece3394	0.40273726
16	0x3eecd2c2	0.46254545
17	0x3eb5fa8b	0.35542712
18	0x3f0e61c3	0.5561792
19	0x3e229f23	0.15881018
20	0x3f305aff	0.6888885
21	0x3e1f6ed3	0.1556962
22	0x3e589621	0.2115102
23	0x3ea5bf2c	0.32372415
24	0x3dc2df3e	0.09515236
25	0x3daa3f17	0.08312815
26	0x3e71ac6d	0.23600931
27	0x3ef71420	0.48257542
28	0x3dd56a42	0.10420658
29	0x3ecda0bb	0.4016169
30	0x3e1a4b60	0.15067816
31	0x3dbdffab	0.092772804
32	0x3e15c9ed	0.1462781
33	0x3e509311	0.20368601
34	0x3dfcdba2	0.12346579
35	0x3e093c58	0.13401926
36	0x3dc9d927	0.09855872
37	0x3eda8823	0.4268199
38	0x3f21388b	0.629769
39	0x3ed2b06c	0.41150224
40	0x3e814a9a	0.2525223
41	0x3efded46	0.49595088
42	0x3db72e07	0.08944326
43	0x3e1bf0b1	0.15228535
44	0x3dc6e6af	0.09711968
45	0x3ecdabc9	0.40170124
46	0x3ddcc276	0.10779278
47	0x3ec9687c	0.39337528
48	0x3dc4ea03	0.09614947
49	0x3dcd3236	0.100193426
50	0x3dbcd3cf	0.09220087
51	0x3e7df4cf	0.24800418
52	0x3d768908	0.060189277
53	0x3e748f1a	0.23882714
54	0x3ec0e8b4	0.37677538
55	0x3e39e1d5	0.18152554
56	0x3f24e1ce	0.6440705
57	0x3d8d70ef	0.06906306
58	0x3ecace79	0.3961065
59	0x3eca7687	0.39543554
60	0x3dcd02bb	0.100102864
61	0x3dd95bc0	0.10613203
62	0x3e67f11c	0.2265057
63	0x3e8bbf97	0.2729461

net.8.weight f4 [128, 64, 3, 3]
0	0x3d5d3ba3	0.054011952
1	0xbcabcd51	-0.020971926
2	0xbc055086	-0.008136874
3	0xbd031cdb	-0.03200994
4	0xbcf4835f	-0.029847799
5	0x3cc5498b	0.02408292
6	0x3d1b1563	0.037862193
7	0xbb8a0454	-0.0042119417
8	0x3c740bdb	0.014895405
9	0x3cc12099	0.023575114
10	0x3d38b633	0.045095634
11	0x3d948d08	0.07253462
12	0xbc777950	-0.015104607
13	0x3c0d250d	0.008614791
14	0x3c7a8854	0.015291292
15	0xbd2bf1f8	-0.041978806
16	0xbcafe68b	-0.021472236
17	0xbd9f4821	-0.07777429
18	0xbd4fc242	-0.050722368
19	0xbc2400c2	-0.010009946
20	0x3d3330c9	0.043747697
21	0x3c0320a4	0.008003388
22	0x3cd74b0b	0.0262809
23	0x3d347a63	0.04406203
24	0x3c79b5ae	0.01524107
25	0xbc336959	-0.01095041
26	0xbcf4ea5b	-0.029896906
27	0x3b2b1fa3	0.0026111386
28	0xbcb00d37	-0.021490676
29	0xbcf5628b	-0.029954216
30	0x3c9801ae	0.018555488
31	0xbca67b18	-0.020322368
32	0x3d42d690	0.047567904
33	0xbbe50a9b	-0.0069897897
34	0x3c9ee952	0.019398365
35	0x3d34e7f9	0.04416654
36	0x3b934059	0.004493755
37	0x3c3a9a72	0.011389362
38	0x3cc71540	0.024302125
39	0x3d2c121a	0.04200945
40	0x3d2a6df9	0.041608784
41	0x3d973d0c	0.07384691
42	0xbd292e4b	-0.041303914
43	0xbdad9e1e	-0.08477424
44	0xbd58a86b	-0.05289499
45	0x3d29723f	0.04136872
46	0x3d1dad38	0.038495272
47	0x3bf95921	0.007609502
48	0x3d9f6007	0.07781988
49	0x3c8d929a	0.01728182
50	0xbc1d6526	-0.009606635
51	0xbc216de4	-0.00985286
52	0xbc91a579	-0.017779099
53	0x3bd7129f	0.006563499
54	0xbd9069c5	-0.07051424
55	0xbcb7c2f3	-0.022431826
56	0xbc9b0991	-0.01892546
57	0xbd5c5dbf	-0.05380034
58	0xbc08dc3f	-0.008353292
59	0x3c8a4730	0.016879648
60	0xbca831a4	-0.020531483
61	0xba27c71e	-0.0006400215
62	0xbd1ff62a	-0.03905312
63	0xbb0e0c34	-0.0021674754
64	0xbde2649c	-0.11054346
65	0xbd517aaf	-0.05114239
66	0xbd228fc1	-0.039687876
67	0xbdb42ea7	-0.08797961
68	0xbd2ba3eb	-0.04190437
69	0x3bb02fdc	0.005376799
70	0xbc47dd32	-0.012198733
71	0x3d547d0c	0.051877066
72	0x3c4bc57d	0.012437222
73	0x3d0f6635	0.03500958
74	0xbcfa65cc	-0.030566119
75	0xbca84902	-0.020542625
76	0xb981785a	-0.00024694466
77	0xbd198148	-0.037476808
78	0xbd55d0e3	-0.052201163
79	0xbc9a22a2	-0.018815342
80	0xbdd49713	-0.103803776
81	0xbcc5c06a	-0.024139602
82	0xbd48e54d	-0.049046803
83	0xbd461fe7	-0.04837027
84	0x3c15073f	0.009095966
85	0x3b91d338	0.004450228
86	0x3d6bffa9	0.057616863
87	0x3d6d53ba	0.057941176
88	0x3bdc97fd	0.0067319856
89	0x3ca8d826	0.02061088
90	0x3db1e64f	0.08686506
91	0x3d9eaac8	0.07747418
92	0x3da2aa1c	0.07942602
93	0xbcf4efac	-0.02989944
94	0xbcf2aef0	-0.029624432
95	0xbd354a88	-0.04426053
96	0xbc826c6d	-0.015920842
97	0xb9dd92b6	-0.00042261713
98	0x3d8c12f5	0.06839553
99	0x3c288f33	0.010288048
100	0x3b2c3b1b	0.0026280347
101	0xbca912d3	-0.020638859
102	0xbcf91a4c	-0.030408047
103	0x3c281327	0.0102584725
104	0xbbe07abe	-0.0068505695
105	0xba8856ef	-0.0010401885
106	0xbd1a643a	-0.03769324
107	0x3a09568e	0.0005239033
108	0x3d47bcf5	0.048764188
109	0x3cf04627	0.029330326
110	0x3bc1480b	0.005898481
111	0x3b8540d8	0.004066568
112	0xbceb287b	-0.028705826
113	0x3c8dfaa3	0.017331427
114	0xbcbfc1ef	-0.023407904
115	0xbd7a7fc8	-0.061157018
116	0x3d108eb8	0.035292357
117	0x3cc299c7	0.023754967
118	0x3d94b9ed	0.07262025
119	0x3cb666cd	0.022265816
120	0xbcad9a33	-0.021191692
121	0x3d65e2d2	0.056124516
122	0xbd63e0d8	-0.05563435
123	0xbcc2667e	-0.023730513
124	0x3d65b59f	0.05608141
125	0x3d0b9c97	0.034084883
126	0xbce23ba9	-0.027616339
127	0xbc0aa175	-0.008461346
128	0xbccef64b	-0.025263926
129	0xbd02ed00	-0.031964302
130	0xbdbb310d	-0.09140215
131	0xbdd9faa5	-0.1064351
132	0xbd17f049	-0.03709439
133	0xbcd1ad09	-0.025595205
134	0xbd4e587a	-0.050377347
135	0xbd179d9b	-0.03701554
136	0x3c86e828	0.016468123
137	0xbd37008b	-0.044678252
138	0x3d0637bf	0.032768007
139	0x3cd67025	0.026176522
140	0xbd99d95c	-0.07512161
141	0x3c30daec	0.010794383
142	0x3cbe8a3a	0.023259271
143	0x3c0c8275	0.008576025
144	0x3d80f991	0.06297601
145	0xbd3b51ef	-0.045732435
146	0xbca335d1	-0.019923123
147	0x3d16edb5	0.03684779
148	0xbb97f505	-0.004637363
149	0x3cdb907c	0.026802294
150	0x3c02256f	0.007943495
151	0xbd19e161	-0.037568454
152	0xbd1b0217	-0.03784379
153	0x3d0ee53e	0.03488659
154	0x3d38e6bf	0.04514193
155	0xbcbe714a	-0.02324738
156	0xbd3f80a9	-0.04675356
157	0xbcf8dad0	-0.030377775
158	0xba089ba0	-0.0005211178
159	0xbad10c1d	-0.0015949045
160	0xbbea5227	-0.0071509066
161	0xbcf64d32	-0.030066106
162	0xbd304762	-0.043036826
163	0x3ccf7bf8	0.025327668
164	0xbcfa772d	-0.030574406
165	0x3d3eaa17	0.04654893
166	0x3d32fed8	0.04370007
167	0xbd17aeb4	-0.037031844
168	0x3d480bab	0.048839252
169	0x3b280835	0.0025639657
170	0x3ccca962	0.024983112
171	0xbd66d9fb	-0.056360226
172	0xbd021c05	-0.031765003
173	0xbdb48525	-0.08814458
174	0xbd2d9989	-0.04238275
175	0xbce2207c	-0.02760338
176	0xbdc7d53b	-0.09757467
177	0x3c61081b	0.013734843
178	0x3d50d94a	0.050988473
179	0x3c7e39fe	0.015516756
180	0xbc6d1ff4	-0.01447295
181	0x3d259946	0.040429376
182	0xbc871854	-0.016491093
183	0xbd819159	-0.06326551
184	0xbba70fd5	-0.005098323
185	0xbc3b825a	-0.011444652
186	0xbd4a458c	-0.04938273
187	0x3cc89f99	0.024490165
188	0xbc21e0e1	-0.009880275
189	0x3cdf0a20	0.027226508
190	0xbc6549eb	-0.013994674
191	0x3d85cfc4	0.06533769
192	0xbd665d3d	-0.056241263
193	0xbe0758bb	-0.13217442
194	0xbdd5266c	-0.10407719
195	0x3cf4962a	0.02985676
196	0xbd90c004	-0.07067874
197	0xbc7c11f0	-0.015385136
198	0x3d850532	0.064951316
199	0xbc72ef37	-0.014827541
200	0xbca8678c	-0.020557187
201	0x3d085322	0.033282407
202	0xbceaa2af	-0.028642027
203	0x3b1f35b7	0.002429349
204	0x3d59d1b8	0.05317852
205	0x3d230f87	0.03980973
206	0x3d1176a1	0.035513524
207	0x3c18d998	0.009329222
208	0x3d1fbb3b	0.038996916
209	0xbdc6328d	-0.096776105
210	0x3cfcefa6	0.030875992
211	0x3db8a5d3	0.090160035
212	0x3d00d2c4	0.031451
213	0x3d318889	0.0433431
214	0x3c5dbda2	0.0135339815
215	0xbd91cb65	-0.071188726
216	0xbce877b1	-0.028377386
217	0xbcc3a832	-0.023883913
218	0x3b2dab24	0.0026499713
219	0xbcb174f1	-0.021662207
220	0x3d4c1b8e	0.049830966
221	0x3c58040a	0.013184557
222	0x3cc67cdd	0.024229461
223	0x3c20ca0b	0.009813796
224	0x3b7f9d3d	0.0039003633
225	0xbd63f87c	-0.055656895
226	0xbdd35d58	-0.10320538
227	0x3bc432ec	0.0059875157
228	0xbd2b7b54	-0.04186566
229	0xbc917fa7	-0.017761065
230	0xbda50dbd	-0.08059261
231	0xbd7f9a2a	-0.06240288
232	0xbcab81c7	-0.020935906
233	0x3d317d79	0.04333255
234	0xbc886cc2	-0.016653422
235	0xbd4b41fc	-0.049623474
236	0xbc9afea3	-0.018920248
237	0x3d127a9e	0.035761468
238	0x3db9ebcb	0.09078177
239	0x3d328b48	0.04358986
240	0x3ce263c2	0.027635459
241	0xbccf8e9f	-0.025336562
242	0xbd10f138	-0.035386294
243	0xbbef95a1	-0.0073115383
244	0x3c3aeebc	0.011409458
245	0x3d1002e5	0.03515901
246	0x3c35c686	0.011094695
247	0x3c3b4491	0.011429922
248	0x3da7249f	0.08161282
249	0x3d8399db	0.0642583
250	0x3c915831	0.017742248
251	0xbc4599ec	-0.012060624
252	0x3bd737e3	0.0065679415
253	0xbcb131dd	-0.021630222
254	0x3c66f9b6	0.014097622
255	0xbca73ee1	-0.020415725

net.8.bias f4 [128]
0	0x3c716b93	0.01473512
1	0x3d210856	0.03931459
2	0xbad52761	-0.0016262346
3	0xbcc37690	-0.023860246
4	0xbd3eaf27	-0.046553757
5	0xbb9c81e2	-0.0047762254
6	0xbd1f1f25	-0.03884806
7	0xbcb88ad3	-0.022527134
8	0x3cbde20a	0.023179073
9	0xbc745647	-0.014913148
10	0x3c309ef8	0.010780089
11	0x3d2ebe06	0.04266169
12	0x3d15ad52	0.036542244
13	0xbcc12947	-0.023579253
14	0x3c8cddaa	0.017195541
15	0xbbc5f257	-0.006040852
16	0xbcd5e519	-0.026110219
17	0x3c523f73	0.01283251
18	0x3caa249e	0.020769414
19	0xbc00de34	-0.007865477
20	0x3c45ad1f	0.012065201
21	0x3ca0d660	0.019633472
22	0x3c9d9cff	0.0192399
23	0xbc38bb8a	-0.011275182
24	0xbcdf26ee	-0.027240243
25	0xbcb707ba	-0.022342551
26	0xbc51d001	-0.01280594
27	0x3d0848c2	0.033272512
28	0x3c97addd	0.018515522
29	0x39054ba6	0.0001271205
30	0x3b8b68f2	0.004254454
31	0x3d05e9c9	0.032693658
32	0xbb7bc5de	-0.0038417499
33	0xbc3c5b65	-0.0114963995
34	0xbc23ef9a	-0.010005856
35	0xbd079e16	-0.033109747
36	0xbd284c2f	-0.04108828
37	0x3d239dfc	0.039945588
38	0xbd26510b	-0.040604632
39	0x3b4e2029	0.0031452274
40	0xbd324b73	-0.043528985
41	0xbd2608fd	-0.040535916
42	0xbbe9aa09	-0.0071308655
43	0x3d0531e3	0.03251828
44	0x3bc497ff	0.0059995647
45	0xbd0755bc	-0.033040747
46	0xbd102444	-0.035190836
47	0xbbaedb09	-0.0053361696
48	0x3cfb3cd6	0.030668657
49	0xbc68bf8c	-0.014205825
50	0x3bb13466	0.0054078577
51	0xbca59607	-0.02021314
52	0x3b22bfb8	0.0024833512
53	0x3d056abe	0.0325725
54	0xbc9bcf4f	-0.01901975
55	0xbbf55899	-0.0074873683
56	0xbcf97e02	-0.030455593
57	0xbcfd02e6	-0.030885171
58	0x3a0b9540	0.0005324669
59	0x3c035215	0.008015175
60	0xbbdaf206	-0.0066816835
61	0x3be4c3fd	0.0069813714
62	0x3b44f1d5	0.003005137
63	0x3d05ba10	0.032648146
64	0x3cbaad4b	0.02278771
65	0x3be61e94	0.007022688
66	0xbd0781b7	-0.03308269
67	0x3b70ea07	0.0036760585
68	0xbc24f7ae	-0.010068817
69	0xbcccfe8e	-0.025023725
70	0x3c84a524	0.016192026
71	0x3c65c6ae	0.01402442
72	0x3b0e964c	0.0021757064
73	0x3d0f3bfa	0.034969307
74	0xbc892258	-0.01674001
75	0x3d1a1bd6	0.037624203
76	0xbd122893	-0.035683226
77	0x3d171c8e	0.036892466
78	0xbcec4c34	-0.02884493
79	0x3c9c4824	0.019077368
80	0x3ce55be8	0.027997926
81	0xbcca67a3	-0.024707621
82	0xbc03e3f7	-0.0080499565
83	0x3b90eabf	0.004422515
84	0xbd13773a	-0.036002375
85	0x3cf90611	0.0303984
86	0xbcdcf239	-0.02697097
87	0xbce987ba	-0.028507102
88	0xbd0ad0f1	-0.03389067
89	0xbd1d2c5e	-0.03837239
90	0xb973c5fb	-0.0002324804
91	0x3c8af2b9	0.016961442
92	0x3b407c31	0.00293709
93	0x3bb70423	0.00558521
94	0xbce8a1cc	-0.028397463
95	0xbcf981e0	-0.030457437
96	0x3c443b96	0.011977097
97	0x3c9215de	0.017832693
98	0xbd34f3bd	-0.04417776
99	0x3cc1bdca	0.023650069
100	0x3d07764d	0.033071805
101	0xbcadab40	-0.021199822
102	0xbc3ce077	-0.011528126
103	0x3cf7c60e	0.030245807
104	0xbc998f1e	-0.018745001
105	0x3cff05a2	0.031130616
106	0x3cb182ac	0.021668755
107	0xbd14a4ad	-0.03628986
108	0x3cc669e0	0.024220407
109	0x3d0d928b	0.034563582
110	0x3bff1746	0.007784757
111	0x3c5a3877	0.013319126
112	0x3c933e2b	0.01797398
113	0x3cfa428c	0.03054931
114	0xba3dbc7e	-0.00072378654
115	0x3ccfc71b	0.025363496
116	0x3d002a28	0.031290203
117	0xbc10bc95	-0.008834024
118	0xbcfe73f9	-0.03106116
119	0x3c4ba40d	0.0124292495
120	0xbcba4e38	-0.022742376
121	0x3d27274e	0.04080897
122	0x3d1c0b8a	0.038096942
123	0xbd225a19	-0.039636705
124	0xbd24747f	-0.04015016
125	0x3cf227a3	0.029559916
126	0xbc68ed48	-0.0142167285
127	0xbc1d75ae	-0.009610577

net.9.weight f4 [128]
0	0x3f698533	0.9121887
1	0x3e0541c3	0.13013367
2	0x3f64eeb0	0.8942671
3	0x3f16b310	0.5886698
4	0x3e7a1859	0.2442335
5	0x3ea085c6	0.3135206
6	0x3e546f27	0.20745526
7	0x3e405227	0.18781339
8	0x3f482d93	0.7819454
9	0x3dcc1eaa	0.09966786
10	0x3f06e72e	0.526965
11	0x3f4f3f9b	0.8095643
12	0x3efc3dd3	0.49265918
13	0x3f67627d	0.90384656
14	0x3f3dacd2	0.7409183
15	0x3ef84b3a	0.48494893
16	0x3f315b01	0.69279486
17	0x3f0fa4d4	0.5611088
18	0x3f0aa96a	0.54164755
19	0x3eafd78a	0.3434413
20	0x3e34198e	0.17587873
21	0x3f1ede1b	0.62057656
22	0x3f3fb628	0.74887323
23	0x3f2aa011	0.6665049
24	0x3e1d6d9b	0.15373842
25	0x3df1f0af	0.11813485
26	0x3ed55f96	0.4167449
27	0x3e3986f8	0.18117893
28	0x3f0644c5	0.52448684
29	0x3e837fbb	0.25683388
30	0x3f69c8d1	0.91322047
31	0x3f6012ff	0.87528986
32	0x3d58f61e	0.05296909
33	0x3f27b4b4	0.65510106
34	0x3deb6c72	0.11495294
35	0x3efa1ea1	0.48851493
36	0x3de20340	0.11035776
37	0x3ea0ac0b	0.31381258
38	0x3f0e60b0	0.55616283
39	0x3f566f93	0.83764
40	0x3e8833ed	0.26602116
41	0x3efc4598	0.49271846
42	0x3dd48ae8	0.10378057
43	0x3ddfac3a	0.109215215
44	0x3f049a1b	0.51797646
45	0x3f5da349	0.8657728
46	0x3f16e387	0.5894093
47	0x3f7fb097	0.9987883
48	0x3f3f2b17	0.74675125
49	0x3f3a67d2	0.7281467
50	0x3ea6543a	0.32486135
51	0x3e4fc9d7	0.2029184
52	0x3f10681e	0.5640887
53	0x3edfd4f8	0.4371717
54	0x3f29fc10	0.6640024
55	0x3f77ae9e	0.9675082
56	0x3f4816b5	0.7815965
57	0x3f61240c	0.8794563
58	0x3f28c95d	0.65932256
59	0x3e3587a6	0.17727527
60	0x3eaff061	0.34363082
61	0x3f4d7c0a	0.80267394
62	0x3f3cec6e	0.73798263
63	0x3dd3a8df	0.10334944
64	0x3ec8cdaa	0.3921941
65	0x3f4cf82f	0.800662
66	0x3f763ffb	0.96191376
67	0x3ecfe7e3	0.40606603
68	0x3f4d6b20	0.80241585
69	0x3f3bd543	0.73372287
70	0x3eadc00d	0.33935586
71	0x3f63b3b8	0.88946104
72	0x3f1cbeba	0.61228526
73	0x3e75bcfd	0.23997875
74	0x3e309dff	0.1724777
75	0x3ec3dcb7	0.3825433
76	0x3f3f51b5	0.7473405
77	0x3ed58d0f	0.41709182
78	0x3e077374	0.13227636
79	0x3f1cb1b3	0.6120865
80	0x3e006733	0.12539367
81	0x3f6ca996	0.9244627
82	0x3f0da429	0.55328614
83	0x3df7cbdf	0.12099432
84	0x3f14f044	0.58179116
85	0x3dd55c3b	0.10417982
86	0x3df0b477	0.11753171
87	0x3eb06c43	0.34457597
88	0x3e9b36e7	0.30315325
89	0x3f4c37b0	0.7977247
90	0x3ee73860	0.45160198
91	0x3f2117ba	0.6292683
92	0x3f774a18	0.96597433
93	0x3e594f32	0.21221617
94	0x3f415e32	0.75534356
95	0x3e618438	0.22023094
96	0x3f1ba03c	0.60791373
97	0x3e98c114	0.29834807
98	0x3f251a17	0.64492935
99	0x3e61f65e	0.22066638
100	0x3f214361	0.6299344
101	0x3f2c6570	0.6734228
102	0x3f63a1ad	0.8891857
103	0x3d87f031	0.0663761
104	0x3f4e9bde	0.80706584
105	0x3ebe23bb	0.37136635
106	0x3f66143c	0.89874625
107	0x3ed1ebbd	0.41000167
108	0x3f473ac9	0.77824074
109	0x3ea2d8ba	0.31805974
110	0x3dade599	0.08491058
111	0x3f56d50e	0.83918846
112	0x3f6153d5	0.8801854
113	0x3e977908	0.29584527
114	0x3dda583a	0.10661359
115	0x3f0a222b	0.53958386
116	0x3daf155b	0.08548995
117	0x3ef1e17c	0.47242343
118	0x3efa0fb0	0.48840094
119	0x3f0e259f	0.55526155
120	0x3f51041a	0.81646883
121	0x3f647dd0	0.89254475
122	0x3f48456d	0.78230935
123	0x3e5eb490	0.21748567
124	0x3f74069c	0.95322585
125	0x3f1d85d0	0.61532307
126	0x3e412b6f	0.18864225
127	0x3ed45666	0.41472167

net.9.bias f4 [128]
0	0xbcd45333	-0.025918579
1	0x3ce0763b	0.027400127
2	0x3ca7edb6	0.020499092
3	0xbce9ff95	-0.028564254
4	0xbd440def	-0.04786485
5	0xbc959a27	-0.018261982
6	0xbc17a952	-0.009256678
7	0x3ba2b415	0.004965315
8	0x3cea492b	0.028599342
9	0xbce14976	-0.02750085
10	0xbbb26c24	-0.0054450203
11	0xbcf9777e	-0.030452486
12	0x3cc5e40a	0.024156589
13	0xbd472e02	-0.04862786
14	0xbd6b4123	-0.057435166
15	0xbce31dea	-0.027724225
16	0xbd208700	-0.039191246
17	0xbb5aeb4f	-0.0033404415
18	0x3d18bdef	0.03729051
19	0xbd462243	-0.04837252
20	0xbcf74b84	-0.030187376
21	0xbd1a8ac6	-0.03773
22	0xbcd48c14	-0.0259457
23	0xbb11651f	-0.0022185517
24	0xbb4c76c1	-0.0031198713
25	0xbc9392f1	-0.018014403
26	0xbd4b6b6e	-0.049663
27	0xbccd4c28	-0.025060728
28	0x3c826936	0.01591931
29	0xbd06f868	-0.032951742
30	0xbd778494	-0.06042917
31	0xbd8d7525	-0.06907109
32	0xbcbf3315	-0.023339787
33	0xbc2090fb	-0.009800191
34	0xbcf0dd5c	-0.029402427
35	0xbd12b4cf	-0.035816964
36	0xbd342f68	-0.043990523
37	0x3ca2ff72	0.019897196
38	0xbcc713e7	-0.024301482
39	0xbed866eb	-0.4226602
40	0xbcce9765	-0.025218675
41	0xbc32671b	-0.01088884
42	0xbcd3014b	-0.025757452
43	0xbd38733a	-0.045031764
44	0xbc2cc81b	-0.010545756
45	0xbe36ac77	-0.17839228
46	0xbd2fe924	-0.04294695
47	0xbd2ac844	-0.041694894
48	0x3b2a084d	0.002594489
49	0xbd27b635	-0.04094525
50	0x3bf111bb	0.00735685
51	0xbca9a8d4	-0.020710386
52	0xbd0bfc95	-0.034176428
53	0xbb820902	-0.003968359
54	0xbccf82cc	-0.025330923
55	0xbd1f02ec	-0.038821146
56	0x3ae49fd3	0.0017442651
57	0xbd1fc644	-0.03900744
58	0xbd3c3ecb	-0.04595832
59	0xbce7ff91	-0.028320106
60	0xbd8a2bca	-0.06746633
61	0x3cadec33	0.021230793
62	0xbd3379f3	-0.04381747
63	0x3cf5aa2e	0.029988375
64	0xbe1e9ad8	-0.15488756
65	0xbd5f9916	-0.054589354
66	0xbd0f2cd6	-0.03495487
67	0xbd52e4e2	-0.05148781
68	0xbd238223	-0.03991903
69	0xbc5de545	-0.013543432
70	0xbd5275d8	-0.051381916
71	0xbe92ec72	-0.28696018
72	0xbcf4b292	-0.029870305
73	0xbcc59332	-0.02411804
74	0xbcf81096	-0.030281346
75	0xbbb7a319	-0.0056041596
76	0xbd233301	-0.039843563
77	0xbcc3cb70	-0.023900717
78	0xbd622f50	-0.055220902
79	0xbcb9a3a9	-0.022661047
80	0xbd259c86	-0.040432476
81	0xbd1c6a2a	-0.038187183
82	0x3b474830	0.0030408017
83	0xbcc73c0b	-0.024320623
84	0xbcc0e3f0	-0.02354619
85	0xbcaed589	-0.021342056
86	0xbcb223c6	-0.021745574
87	0xbcc94548	-0.024569169
88	0xbcad9672	-0.021189902
89	0xbc44785d	-0.0119915875
90	0x3ca8c392	0.020601068
91	0xbd1a6864	-0.03769721
92	0xbd0c0479	-0.034183953
93	0xbd384638	-0.04498884
94	0xbd0d7991	-0.034539763
95	0xbcf9de55	-0.030501524
96	0x3ac23228	0.0014815973
97	0xbd24a774	-0.04019876
98	0xbd185cbc	-0.037197813
99	0xbcd57ba6	-0.026059937
100	0xbd24aa66	-0.040201567
101	0xbcd42833	-0.025898075
102	0x3c73a708	0.014871366
103	0x3cb37f09	0.021911161
104	0x3c599a70	0.01328145
105	0xbd05539e	-0.032550447
106	0xbc96dd5b	-0.018416097
107	0xbca74c94	-0.020422257
108	0xbe724c0a	-0.23661819
109	0xbd0cde9d	-0.034391988
110	0xbd120401	-0.03564835
111	0xbd708ccc	-0.058728024
112	0xbd01d42f	-0.031696495
113	0xbd5cb983	-0.053887855
114	0xbd87d732	-0.06632842
115	0xbd1e1b7d	-0.038600434
116	0xbd3ad796	-0.045615755
117	0xbbcfbbdd	-0.0063395337
118	0xbd31e346	-0.043429635
119	0xbcd3e3f2	-0.025865529
120	0xbd35d7a6	-0.04439511
121	0xbca33e3f	-0.019927142
122	0xbd373cb0	-0.04473561
123	0xbd5ce44a	-0.05392865
124	0xbcb592fd	-0.022164816
125	0xbd1410c5	-0.036148805
126	0xbceb284c	-0.028705738
127	0xbd06b2e2	-0.03288544
